policy_net6200.pth (torch, 15822 bytes, 6 tensors)

fc1.weight f4 [64, 16]
00000000: fbbe bf3e 33ae 8b3e 7f74 803e 0680 9d3e
00000010: d568 adbe 5cea dc3d e27a 89bd 3018 163e
00000020: f6f6 82bd 64cc 203f 82cf fbbd ee53 54be
00000030: 8440 19be 12a9 1c3f 30fc 253c cc7d 8ebd
00000040: c3d5 3c3d 7310 bd3b 1274 833e d732 00be
00000050: 69d8 153f b0fb d2bc 372a de3d 1033 cabc
00000060: 4c6a a6be 15a8 023f 8627 583f 2eab 463e
00000070: ccb9 26be 44f2 5bbc 715d f63e c889 a0bd
00000080: 5140 4c3e 3e47 ef3c 42e5 733e a476 b63c
00000090: 1714 a93e 6a38 5e3e fb73 b03e 00a5 973c
000000a0: b97b af3d dbf7 e53e f0e1 d33e 1afe 0bbe
000000b0: 60c5 a3bc f3d8 d73e 6a8e 153f 0246 4f3e
000000c0: 9bf3 7f3e b690 973e ff1c 1b3f 6f2d 753e
000000d0: 27b0 95be ce73 253e c9bd 86be 14a7 eabd
000000e0: 01d1 e33e 05d5 4c3e 2db2 0a3d 3450 12be
000000f0: a4fa 503e 9593 243f 91a3 b33e c4bb bfbd
00000100: 39b1 573e 28f4 493e 8845 373e 2209 1dbe
00000110: 30ce c8bd 48f9 b5bd a83d fd3d 8414 e9bd
00000120: a032 7fbc 105f 5c3d a4ed bcbd c4a2 19be
00000130: 9613 1d3e 208d eb3c e0f5 28be d095 393d
00000140: 6467 003e bd69 f9bd 31cf 0d3f 4373 10be
00000150: f4f4 00be 4023 c13c 75e3 b73f c446 7fbe
00000160: 89b0 8abe 3167 7abe c5c3 22bd a4e7 d63d
00000170: 448f f3bd c3af b43f 0158 693d 9828 15bd
00000180: b2a4 a23e f307 b4bd 9e03 d73e 8b14 c03c
00000190: 4536 87bc 66bb 18be e7d7 813d b04f eb3c
000001a0: 33d7 a63e 0d7c c93e 402a 733c e097 5ebd
000001b0: f434 1f3e 0890 2b3f 4390 b93d 0057 253e
000001c0: 73de febc 7a4f 533f 5e9d 2c3e d053 523f
000001d0: 2b23 4cbe 54da cfbd 769b 04bf 7efe 3b3e
000001e0: bedc eb3e 7ba1 98be ae37 04bf 4ac8 283e
000001f0: 107a d73c 3f13 fb3e a74b d8be 5cfd fe3d
00000200: 8598 883e 701a 37be b6a1 b53e ac8a c1be
00000210: abcb f93e 3025 093e 7eb3 d53e a00e 4b3e
00000220: 418a c2be 511f cb3e a47e 8d3e ae13 19be
00000230: 14be 53be 2857 ec3e f406 fd3b 001b 013e
00000240: ee84 663e c7c1 69bd 3a44 d23e e00f 883e
00000250: 4d9a 4a3e f0c4 7bbe fbe5 873e 5297 5f3e
00000260: 1531 823e 6ebc b93e 8efa 27be c025 50be
00000270: 4001 c43b c80c 193f 4ebe f73c c8ac 93bd
00000280: 2b5d 993e 320b 08be 5cb6 d03e 9f94 efbe
00000290: f561 0b3f 10cc b0bd 64be 533f c228 1ebe
000002a0: 091d a5be 14c8 edbe 6a94 6e3f b87d 0b3d
000002b0: 4813 25be 344b 4b3f 6e8d af3e f279 13be
000002c0: 1e5d d93d 6227 023e a6de 353e 80e0 7c3e
000002d0: 526b 8a3e aeff 173e 1698 323e e882 71bd
000002e0: 09e7 f23d b698 87be 675d b83e e8dc 34be
000002f0: daf6 61be e7d9 2c3f 23a8 6d3e 78e4 fdbd
00000300: b6b5 f23e de47 5dbe 0c70 153e 6ad0 abbc
00000310: ec13 083f f290 00be e17c c43e 1071 553d
00000320: 3cf7 6dbe cdc9 1a3f 869e 723f a05b ecbc
00000330: 3873 2bbd 2c01 213e 6742 333f 74dc dabd
00000340: 5972 a73e 332f c7bd 88fc cc3d 85e6 553e
00000350: b3bc a0be 3651 0e3e 6a6f 8e3e 5078 1bbe
00000360: da62 08bd b389 c43e 3f25 aabe 0802 853d
00000370: f0d2 4cbe 41e0 6a3f a812 3e3e b81a 8a3d
00000380: 703c 88be 77b0 633f 231f bc3e 0c3d e63e
00000390: ed64 c1be fa57 14be 0e7b 29bf 50ba 58bd
000003a0: 5005 413f bc3f f03d 33a7 bb3d 587d 28be
000003b0: 743e 2e3e 2253 d33d fdc8 3b3d e2b9 3a3e
000003c0: 0119 223e ea3e 793e 56f7 cc3e c8fb c43e
000003d0: c6df c23e f272 4d3e ad6f bb3a 44e6 dfbd
000003e0: a332 e13e 3b67 4a3e bf95 fb3e 50ef 363d
000003f0: 74a7 e9bd 4874 e2bd a85e 6a3e f62d 29be
0.37450394 0.2728134 0.2508888 0.30761737 -0.33869043 0.10786888 -0.06712891 0.14657664
-0.0639476 0.62811875 -0.12295438 -0.20735142 -0.14966017 0.6119548 0.010130927 -0.069575876
0.046102297 0.005769783 0.25674492 -0.12519394 0.5853334 -0.02575478 0.108478956 -0.024682552
-0.32502973 0.5103772 0.8443531 0.19401237 -0.16281813 -0.01342446 0.48118165 -0.0783878
0.1994641 0.029208776 0.23817924 0.02227337 0.3302314 0.21701208 0.34463486 0.018511295
0.0856852 0.4491566 0.41383314 -0.13671151 -0.019991577 0.42157707 0.5842043 0.2024155
0.24995272 0.29602593 0.6059112 0.23943113 -0.29235956 0.16157457 -0.2631667 -0.11457649
0.44495395 0.20003136 0.033861328 -0.14288408 0.20408112 0.6428769 0.3508573 -0.09361985
0.21063699 0.19722044 0.17897618 -0.15335515 -0.09804952 -0.08885437 0.123652756 -0.11380866
-0.015576035 0.053801596 -0.09225014 -0.15003496 0.15339503 0.028753817 -0.16500044 0.045308888
0.1253944 -0.12178371 0.55394274 -0.14106469 -0.12593442 0.023576379 1.4366289 -0.24929339
-0.2708781 -0.24453427 -0.03973748 0.10493401 -0.1189256 1.4116138 0.056968693 -0.036415666
0.31766278 -0.08790579 0.41994947 0.023447296 -0.01650537 -0.14915237 0.06340008 0.028724521
0.3258606 0.39352456 0.014841616 -0.054344058 0.15547544 0.6701665 0.09060719 0.16146469
-0.031111931 0.82543147 0.16856906 0.8215914 -0.1993529 -0.10149065 -0.51799715 0.183588
0.4606685 -0.298107 -0.5164746 0.16482654 0.026303321 0.4903812 -0.42245218 0.12450668
0.26678863 -0.17881179 0.35474938 -0.3780111 0.487882 0.13393092 0.41738504 0.19829798
-0.37996104 0.3967233 0.27635682 -0.14948913 -0.20677978 0.46160245 0.007721776 0.12607956
0.22511646 -0.057069566 0.41067678 0.26574612 0.19785424 -0.24586844 0.2654265 0.21835068
0.25428072 0.36276573 -0.16404173 -0.203269 0.0059815943 0.5978513 0.030242112 -0.0721069
0.29953894 -0.1328552 0.4076413 -0.46793076 0.54446346 -0.08632672 0.8271239 -0.15445235
-0.32248715 -0.4644171 0.9319521 0.03405544 -0.16120636 0.79411626 0.3428759 -0.14401987
0.10613464 0.12710336 0.17760715 0.24695015 0.27035004 0.14843628 0.17440829 -0.058962733
0.11860473 -0.26483697 0.3600876 -0.17662394 -0.22066823 0.6751999 0.2320867 -0.123970926
0.4740426 -0.21609446 0.14593524 -0.020973403 0.531554 -0.12555292 0.38376525 0.052109778
-0.23238844 0.60464174 0.9477314 -0.028852284 -0.041857928 0.15723103 0.70023197 -0.10686579
0.32704428 -0.097257994 0.10009104 0.20888717 -0.31393966 0.13898167 0.27819377 -0.15182614
-0.033297397 0.38386306 -0.33231542 0.06494528 -0.20002341 0.91748434 0.18561804 0.067433774
-0.2660861 0.8894114 0.36742505 0.4496845 -0.37772313 -0.14486685 -0.6620339 -0.052912056
0.7539873 0.11730906 0.0916275 -0.16454065 0.17016011 0.10318591 0.045845974 0.18234971
0.1582985 0.24340406 0.40032452 0.38473344 0.3806135 0.2006338 0.001430025 -0.109325916
0.43983945 0.19765942 0.49137685 0.04466182 -0.11408892 -0.11057335 0.22887671 -0.16521439

fc1.bias f4 [64]
00000000: dfd6 923e 6779 893e f546 c63e fd3f 843e
00000010: bf52 89be a5c0 753e 7b06 e13e 56da ee3e
00000020: 1e41 b33e 9651 b03e f887 e83e 1ad9 853e
00000030: 3bac 2f3e cb92 8d3e dd36 293f 1151 733e
00000040: f011 4fbe f80f 533e abfc ad3e 3917 873e
00000050: 7566 4e3e d68b b63e fa8f 66be fa70 d53e
00000060: c1d8 cd3e fa19 ad3e dce3 22be 8a5f b23e
00000070: 623a b73e 5fae d73e ac31 e53e 6090 823e
00000080: daef b23e 5d96 473e 12c0 c43e ad53 ae3e
00000090: 1f41 db3e 16f5 ae3d e11c c63e 2b47 ff3e
000000a0: 7015 6cbe 9f25 30be bf34 b03e c585 8b3e
000000b0: 1e21 803e adb0 8b3e c715 403e 94b0 cd3e
000000c0: 7002 59bd f914 013f c130 673e a80a 8c3e
000000d0: cfb6 cf3e 740f b23e 0444 e43e 3dcd 86be
000000e0: 3eba bd3e 0c5e ea3e 5feb 093e 9724 b83e
000000f0: 3cab c03e 897c a13e ddff 933e 82df a83e
0.2867956 0.26850435 0.3872601 0.2583007 -0.26820943 0.2399927 0.43950257 0.46650952
0.35010618 0.34437245 0.45416236 0.26142198 0.17155544 0.27651057 0.6609934 0.23761393
-0.20221686 0.2061156 0.33981833 0.26384905 0.20156272 0.3565356 -0.2251586 0.41687757
0.40204433 0.3380888 -0.15907234 0.34838516 0.3578673 0.42125222 0.4476446 0.25500774
0.34948617 0.19490953 0.38427788 0.34048215 0.4282312 0.0854284 0.38693908 0.49858984
-0.23055053 -0.17201851 0.34415242 0.27250496 0.25025266 0.2728323 0.18758307 0.4017378
-0.05298084 0.50422627 0.22577192 0.2735188 0.4056916 0.34777415 0.44583142 -0.2632846
0.37056154 0.45774877 0.13468693 0.35965416 0.3763064 0.31540325 0.28906146 0.32983023

fc2.weight f4 [32, 64]
00000000: 529c 933d a0fe e0bd e0d8 73bd e02f 4cbd
00000010: ea4e 8f3a 91c3 cdbd 364c 45bc 972c e3bd
00000020: 0d83 f4bc 5c46 1dbe 45ca df3b 52ac 19be
00000030: 0a52 aabd b4c5 1fbe 5d1d 5abd c97c 16be
00000040: 00af 75bd 490d be3d e922 9bbd b25d b7bd
00000050: cfe0 1bbe 129c 8cbc 1c83 fe3d b1e5 573d
00000060: 291e 903d 8230 c4bd 4037 c0bc 70d8 45bd
00000070: c119 9e3c 3e72 d2bd eada d6bd ff71 07bd
00000080: 4ad2 f039 34fd 1e3d b217 13be 67d4 e4bd
00000090: 7430 9a3c 4275 843c 1aca 31be aa4d c9bc
000000a0: cc27 23bd 0181 c83c 9216 103d a373 233b
000000b0: 81ab b2bd 7950 16be c1d0 a53c c719 d7bc
000000c0: 528a cfbd bbf8 ecbb e8cd 84bd bf14 eb3c
000000d0: b39f 0abe 7ab5 2c3d c3c2 ecbd f858 19be
000000e0: 89f0 38be 20f9 16bd f113 92bd 7f58 443d
000000f0: 3ba1 0abe 5fe2 003b 7c51 6dbd c44c dbbd
00000100: 81db 1fbd 92a8 d1b9 ae4a 49bd f186 c73d
00000110: e055 17be 656f dabd 3012 893d d4e1 54bd
00000120: a3b9 1abe 501a 6d3d 1f31 0abe 1805 c7bd
00000130: 79a7 75bd 9168 aabd c151 e0bb d0ed 803d
00000140: 3055 1a3c 6569 17be 8ace ab3d 6fff febc
00000150: db24 093d f83f e2bd 4047 9b3c 2c28 103d
00000160: 8153 d43c 3d8d 413d c2c0 a3bd 2a77 81bd
00000170: dcda c93c 2dfb 7e3d ee2e 01be 6fc4 7c3c
00000180: 50e3 4bbd 3c85 4cbd 3d97 95bd 23c4 ebbb
00000190: 8e3d 903d 91fd 71bd 37bc 7bbd dbf8 443d
000001a0: f71a 363d 0000 ce3c 0da1 90bd eaf9 93bd
000001b0: df30 1b3c b5eb 9b3d c863 c0bb 8ac7 e6bd
000001c0: 80ea 0ebc 0253 8ebd a334 5bbd 3647 9dbd
000001d0: 38d0 5fbd ba32 a5bd 4ad9 f2bd 6ce6 1a3d
000001e0: 18c2 6abd df7c 95bc b2b6 debd 1cca d7bd
000001f0: 1183 48bc d786 bdbd d0c7 83bd bc54 9e3c
00000200: 1c7b 97bd 00dc 203f 7871 803e 774f 51be
00000210: 10a1 4e3d 05e9 69bf b257 5d3d 842d 5dbf
00000220: 9fde ae3e 91fb a3bd d1c3 1f3e 6815 26be
00000230: de78 4c3f 6015 b3be 8385 b9be 265a cc3e
00000240: 4034 e1bd b33c b73f 03e8 f93d 4be2 14be
00000250: 1db1 1c3f 7aa7 883f 202a 42bc fd8a cd3e
00000260: bb68 793f 24a2 e13d 58b6 d5bd 3f83 2a3e
00000270: dc7f d43e 58f0 483e 98bc c6be ba8d 1bbe
00000280: 0af4 60bd 4e2d 91bd f4d5 dd3d 1313 273f
00000290: 20c8 063e ccb1 fe3e 3a9e 11be 0f9b a3be
000002a0: 32e8 d9bd c284 dcbd 3954 9e3e 0ddf 253f
000002b0: 9c59 b93b 0cb8 433f b7bb 143f 0b8a 0c3e
000002c0: 18dd df3c bcd8 a63e b4b7 8d3f b515 4d3f
000002d0: e253 b23e dbdd 41be ef6b b33e 88c3 9c3c
000002e0: 383c 973d a94c 15be d196 703d 83b7 c93e
000002f0: 1942 c33e 58c6 e8be 77de 11bf b135 903e
00000300: dc87 933e 75ea 6f3e b1b1 b13e c2eb 4d3e
00000310: ba0c bf3d f76e 7e3f 4fb7 6f3e 9695 49be
00000320: fd63 b23e 1b1a 833e c279 743f 5907 853e
00000330: 8314 1d3f 8622 fa3e 3842 98be a8ef acbc
00000340: 9cd0 6bbd 6999 6fbe 2d07 9d3e f1c0 9c3e
00000350: 1289 d5bd 7168 303e a076 cfbd 6148 b73d
00000360: e5a4 10be 021b 293f a491 ab3d 6486 393f
00000370: 9d01 643e e1f1 ac3e 535e 40be ad58 883d
00000380: 39f5 903e 8522 bb3e 7033 2f3e 7670 193f
00000390: 9eb5 c73e aa24 eb3e 87cc 9a3d 46d9 4b3c
000003a0: 9a70 a2bd be45 013e 08db e43e 87a9 083e
000003b0: 0627 f43d fc57 973e 93f4 b33e 25be 093e
000003c0: 1052 573d ae4b ae3e 1e2f 053e 36ed bd3e
000003d0: 9362 9f3c 2b55 fbbd 55a6 6d3f 595e 963d
000003e0: e4ad c53e b051 b53e d69c 5f3f a87f 833e
000003f0: 679f 853e e06e 25bd 776a f93e c615 a73d
0.0720755 -0.10986066 -0.059533 -0.049850345 0.0010933552 -0.10047067 -0.012042096 -0.11092489
-0.029847646 -0.15358871 0.0068295323 -0.15007141 -0.08316429 -0.15602762 -0.05325066 -0.1469604
-0.059981346 0.09279878 -0.07575018 -0.08953418 -0.15222476 -0.017164264 0.12427351 0.052709285
0.070370026 -0.09579565 -0.023463845 -0.048302114 0.01929939 -0.10275696 -0.10490973 -0.0330677
0.00045933045 0.038815692 -0.14364508 -0.11173325 0.018821932 0.016169194 -0.17362252 -0.024573166
-0.039832875 0.024475576 0.035177775 0.002494075 -0.08724118 -0.14679135 0.020241143 -0.026257409
-0.101338044 -0.0072317994 -0.06484586 0.028696416 -0.13537483 0.042165257 -0.11560585 -0.14975345
-0.18060507 -0.036858678 -0.0713271 0.04793596 -0.13538067 0.0019666178 -0.057939038 -0.10708001
-0.039027695 -0.0003998918 -0.049143486 0.09742535 -0.14778852 -0.10665778 0.06692922 -0.05197318
-0.15109877 0.05788642 -0.134953 -0.097177684 -0.059974167 -0.08320726 -0.0068456833 0.06295359
0.009419724 -0.14786299 0.083890036 -0.03112766 0.033482414 -0.11047357 0.018954873 0.03519456
0.025918724 0.047253836 -0.0799575 -0.06321557 0.024640493 0.06225126 -0.12615559 0.015427693
-0.04977733 -0.04993175 -0.07304237 -0.007195012 0.070429906 -0.05907971 -0.061458793 0.04808889
0.04445931 0.025146484 -0.07061968 -0.07225402 0.009472101 0.07613317 -0.00587127 -0.11268528
-0.008722901 -0.06949426 -0.053516995 -0.07679598 -0.054641932 -0.08066316 -0.11857851 0.037817404
-0.05731401 -0.01824802 -0.1087469 -0.10536596 -0.01223828 -0.09254234 -0.064345956 0.019327514
-0.07396528 0.62835693 0.2508657 -0.2044047 0.05044657 -0.91371185 0.05403871 -0.86397576
0.3415422 -0.08006967 0.15602042 -0.16219103 0.7987193 -0.34977245 -0.36234674 0.39912528
-0.10996294 1.4315399 0.12202456 -0.14539449 0.61207753 1.067611 -0.011850864 0.40145102
0.9742543 0.11017254 -0.1043517 0.16651629 0.415038 0.19622934 -0.3881576 -0.15190783
-0.054920234 -0.07088719 0.10831824 0.6526348 0.13162279 0.49745023 -0.14220515 -0.31954238
-0.10639991 -0.10767509 0.30923632 0.64793473 0.005656434 0.7645271 0.5809893 0.13724534
0.027327105 0.3258723 1.1071687 0.8011125 0.34829623 -0.18932287 0.35043284 0.019136205
0.07384533 -0.14580025 0.05873758 0.3939782 0.38136366 -0.45463824 -0.5698008 0.28165963
0.2881459 0.23429282 0.3470588 0.20109466 0.09328599 0.9938807 0.2340977 -0.19685969
0.3484191 0.25605854 0.9549829 0.25982168 0.61359423 0.48854464 -0.2973802 -0.02111037
-0.057571992 -0.23398365 0.30669537 0.30615953 -0.10426535 0.17227341 -0.10130048 0.08949352
-0.14125402 0.66056836 0.08377388 0.7247069 0.2226624 0.3377829 -0.18785982 0.066575386
0.2831209 0.36549774 0.17109466 0.59937227 0.3900575 0.4592641 0.07558542 0.012441939
-0.07931633 0.12624261 0.44698358 0.1334592 0.11921506 0.29559314 0.35147533 0.1345144
0.052568495 0.34042114 0.13006255 0.3709504 0.019456184 -0.12272104 0.9283193 0.07342214
0.3860923 0.35413885 0.8734869 0.2568333 0.26098177 -0.04038894 0.4871404 0.0815845

fc2.bias f4 [32]
00000000: 7fb4 513d 35da bdbd dc7a 553d 2201 983e
00000010: 9fce a83e b01a 473e 1a9e 91bc 2129 3c3e
00000020: b40d 90bd 1624 22bd aced 9b3e 7191 91bd
00000030: 25d7 0f3b f342 c13e 32ad 4d3d 882c 2f3e
00000040: b3da d43e 9ff0 e2bb e785 283d 90fe 80bd
00000050: 7dca 20bd faec 23be ce17 c2bd 1817 a23e
00000060: e356 a03e 0eee b13e cc96 903e 348e dabd
00000070: 9fd0 453e eba0 413d d823 973e 6715 89bd
0.051197525 -0.09270135 0.05211912 0.29688364 0.3297014 0.19443774 -0.017775584 0.18375064
-0.07033864 -0.039585195 0.30454767 -0.07107819 0.0021948304 0.3774639 0.050214 0.17106831
0.41573104 -0.006925657 0.041143324 -0.06298554 -0.039255608 -0.16008368 -0.09477197 0.31658244
0.3131629 0.34751934 0.2824005 -0.10671654 0.19317864 0.047272604 0.29519534 -0.06693535

fc3.weight f4 [4, 32]
00000000: f4e2 0ebd 9af3 ae3d f777 273f 42d9 14bd
00000010: 1b9b ba3e 2433 cf3e 17af 2f3e 098f 13bd
00000020: a3bd 0abe b1e2 b23c 8a11 833d 3cee bf3d
00000030: b619 fdbb cb98 61be 6573 223e 8b07 81be
00000040: 9a5b ee3e b809 d2bd d278 cd3d 77e1 2b3e
00000050: bfc1 153e 91d4 4b3d eb64 8bbd 9fac 0a3f
00000060: 9656 033f 2d53 ce3e 18e3 9b3e 174b 7f3c
00000070: 4dee 283f 8266 11bd 125d ff3d 1496 f83d
00000080: c01b 2cbc 8e61 263d e338 cb3e 48ad 1b3f
00000090: bded 69be 17f5 0f3f 750d 48bd 5096 6c3e
000000a0: 2a61 bb3d c986 dcbd 8c03 103f 4948 b0bc
000000b0: 6936 babd 75a9 063f 22ef 35bd 2a35 2f3f
000000c0: 4bdf 40bc ce57 1abd d969 dabc 1443 8f3d
000000d0: 4d54 a6bd 6369 f5bd fcd9 d1bd 2c28 f63e
000000e0: 2103 ff3d 4b54 b13e 35f1 b13e da34 e2bd
000000f0: a61d a4be 47d1 f0bc 56d1 88be b6a4 5dbd
00000100: 17ea a3ba 0c99 fb3d d8a3 59be a133 683e
00000110: 15d5 8fbf 1602 8dbe 2877 9ebc e4c9 143f
00000120: c034 edbb 92a3 533e cea4 c33d a3f6 03be
00000130: c358 89bc d328 ef3e 582a 31bd 60ce 46bb
00000140: 07f0 0b3f 5f4b cdbd 91c4 1c3d 6f98 903b
00000150: 1c51 37bd a929 33bc e530 0cbe 5006 b63e
00000160: b221 073f 4095 b33e 9870 d23e 334d 81bd
00000170: 6fb4 503e fedd 50bd a6ef 013f 032a 413d
00000180: 1aa5 f0bd 8bba dcbd cc52 d2be b23b 3c3e
00000190: 71b7 cf3f d639 df3d 52d5 c43d 8fa4 af3e
000001a0: cf99 083e 8f00 5bbd 7a58 0b3e 22c4 323d
000001b0: e8f2 d33d d200 f63d 27ca bdbb fe71 b03e
000001c0: c617 a93e f57b 423e 2197 d83c df64 06bd
000001d0: 7e10 c03c 8aad 503e 1048 4fbc 1391 34be
000001e0: dd0c d1bd 79fe 0bbd f518 b63e d815 0b3d
000001f0: c0f9 b83e 59ed 4fbd b32e 393f 9c48 92bd
-0.034884408 0.08542557 0.65417427 -0.036340006 0.3644646 0.40468705 0.17156635 -0.03602508
-0.13548903 0.02183661 0.0639983 0.093716115 -0.0077240122 -0.22030942 0.15864332 -0.25201067
0.4655426 -0.1025576 0.1003281 0.16785227 0.1462469 0.049763266 -0.06806358 0.5416965
0.51303995 0.40297833 0.30446696 0.015581868 0.6598862 -0.03549815 0.12468924 0.12138
-0.010504663 0.04062038 0.3969184 0.6081128 -0.22844596 0.5623335 -0.04884096 0.23104215
0.09149392 -0.10767896 0.5625541 -0.021518843 -0.09092409 0.5260232 -0.044417508 0.68440497
-0.011771987 -0.037681393 -0.0266618 0.06995216 -0.08121548 -0.119829915 -0.10246655 0.48077524
0.12451769 0.34634623 0.3475434 -0.11045237 -0.3205387 -0.029396666 -0.2672221 -0.05411216
-0.0012505677 0.12285051 -0.21253908 0.22675945 -1.1236902 -0.27540654 -0.019343928 0.5812056
-0.0072389543 0.20667866 0.095529184 -0.12887053 -0.016765958 0.46710834 -0.043253273 -0.0030335411
0.5466313 -0.100241415 0.038273398 0.0044127028 -0.044755086 -0.0109352255 -0.13690527 0.3555169
0.5278579 0.35074806 0.41101527 -0.06313553 0.2038133 -0.05099296 0.507563 0.047159206
-0.117502406 -0.10777768 -0.41078794 0.18382147 1.6227857 0.10899703 0.09611 0.34305236
0.13339923 -0.05346733 0.1360797 0.043644078 0.10349065 0.12011875 -0.0057919207 0.3446197
0.3302595 0.18992598 0.026439251 -0.032811042 0.023445364 0.203787 -0.012651458 -0.17633466
-0.102075316 -0.03417823 0.35565916 0.03395638 0.36128044 -0.05076346 0.7233688 -0.071427554

fc3.bias f4 [4]
00000000: 6ada 193e 0c08 643e e7b3 d13e df2b 653e
0.15024725 0.22268695 0.40957567 0.22380017
