policy_net1400.pth (torch, 15822 bytes, 6 tensors)

fc1.weight f4 [64, 16]
000000 ea d6 df bd f1 d4 06 3f 34 00 56 3e a0 9c 17 3f
       -0.109296635 0.5266867 0.20898515 0.59223366
000010 8c 6c b5 be 40 80 e8 bb 7d 5b af be b4 76 c0 3d
       -0.35434377 -0.0070953667 -0.34249488 0.09397641
000020 86 f8 21 3f 48 44 37 3f eb 29 6b 3d b8 10 1c be
       0.6326984 0.71588564 0.057413023 -0.15240753
000030 74 43 24 3e 55 6b 9c be 47 e1 e0 3d d8 6c 71 be
       0.16041356 -0.30550638 0.10980468 -0.23576677
000040 9c ef 28 be 96 80 33 3e 00 8b 8e 3c 58 75 d4 3d
       -0.16497654 0.1752952 0.017400265 0.10373944
000050 c0 3e ad 3c 40 40 0c be a4 e7 7c be 30 e4 14 be
       0.021148086 -0.13696384 -0.24697739 -0.14540172
000060 fc 2b d5 bd 20 08 50 3c 74 3b 72 be 4c 5c 0c 3e
       -0.1040878 0.01269725 -0.23655492 0.13707083
000070 ac 2f 72 3e b8 31 8c 3d 8c dc b2 3d 40 85 4e bc
       0.23650998 0.068454206 0.08733472 -0.012605011
000080 02 43 aa 3e a1 55 62 be 35 8b b7 bd a4 38 34 bd
       0.33254248 -0.22102977 -0.089620985 -0.04399933
000090 30 f6 b8 bc 38 11 4d 3e bf 22 ef 3d 90 89 0e 3e
       -0.022578329 0.200261 0.11676549 0.13919663
0000a0 dd e1 b5 3e 50 0f 43 3f b4 04 d9 bc 00 21 42 be
       0.35523883 0.7619524 -0.0264915 -0.18957901
0000b0 50 8b ac 3d 52 b0 28 3e 2f 84 ad 3e 14 35 07 be
       0.08425009 0.16473511 0.3388991 -0.13203841
0000c0 d0 77 da 3e 12 32 0f bd 73 4d 30 3e 98 f9 4b bb
       0.42669535 -0.03495986 0.17217045 -0.0031124111
0000d0 03 36 fc 3e 6c 9e 77 be 84 d0 0a be 58 4e 18 be
       0.49259958 -0.24181527 -0.13556105 -0.14873636
0000e0 b9 49 e0 3e 7b 0a 6a be b9 5c b6 3e 20 e4 0e 3c
       0.43806246 -0.2285556 0.35617617 0.008721381
0000f0 9c 49 c0 bd a7 24 ef 3e c3 8b db 3e 90 b7 78 3d
       -0.0938904 0.4670765 0.42880067 0.060721934
000100 e0 aa 74 bd 54 38 0d be 18 b6 50 3e 8a fb 3c be
       -0.05973327 -0.13791019 0.20381963 -0.1845533
000110 b4 38 96 bd 00 5a 79 bc d0 a4 6b bd 10 36 2d 3d
       -0.07335034 -0.015219212 -0.057530224 0.042287886
000120 92 82 75 be 10 f4 db bd 94 9e fc 3d 10 dc 1c bd
       -0.2397559 -0.107399106 0.12334934 -0.038295805
000130 92 06 34 3e 76 e1 6c be 28 5f e4 bd 68 ce 15 3e
       0.17580631 -0.23132882 -0.11150962 0.14629519
000140 93 fe b1 3e ad 74 c6 be 17 23 74 bd 45 9f cb be
       0.34764537 -0.38760892 -0.059603777 -0.3976995
000150 0d 12 06 3f 94 fe 2c be 46 96 56 3e 18 36 31 3e
       0.52371293 -0.16893989 0.20955762 0.17305791
000160 7d 0e cd be ee a6 b8 3d c7 d3 09 3f d0 e2 85 bd
       -0.40050116 0.09016214 0.5383877 -0.06537402
000170 00 8b c1 bc dd f7 6f 3d b3 10 06 3f ba a4 39 be
       -0.02362585 0.05858599 0.5236923 -0.18129244
000180 22 a8 2d 3e 51 64 ac 3e fb 9b 86 3e 55 25 40 3e
       0.16958669 0.33670285 0.2629088 0.18764241
000190 24 9d 5d 3e e4 a8 65 be 14 7c 2b be f8 85 e1 3d
       0.21641976 -0.22427708 -0.16746551 0.11011881
0001a0 41 2a a6 3e 46 66 2a 3f cc 8c c3 3e bc 68 3c be
       0.32454112 0.66562307 0.38193357 -0.18399328
0001b0 32 00 08 be fb 28 9a be e8 b7 43 3d d8 af b3 bd
       -0.13281325 -0.3010939 0.04778281 -0.08773774
0001c0 bc aa d1 3d 74 d2 47 be 50 e0 bb bc 77 66 30 3e
       0.10237643 -0.19513875 -0.022934109 0.17226587
0001d0 b3 0a 22 3e 4c 03 66 3e e8 67 c6 bd b8 b6 55 bd
       0.15824394 0.22462195 -0.09687787 -0.052176207
0001e0 d8 54 d1 3d 46 7f 1e be fc b2 95 bd 3a 16 55 be
       0.10221261 -0.15478238 -0.07309529 -0.2080926
0001f0 b0 db 68 3d 80 cd ad 3c e4 b9 00 3e 3e ff 7e be
       0.056850135 0.021216154 0.12570912 -0.24902055
000200 1b c4 a9 3d 2e ee 45 3e 29 c9 22 3e 52 df 57 3d
       0.08289357 0.1932914 0.15897049 0.05270321
000210 54 93 ff bd 20 db 21 bd af bc 72 bd 38 60 75 bd
       -0.124792725 -0.039515615 -0.059261974 -0.059906214
000220 99 95 74 3d e6 91 85 3e 58 72 06 be b0 3b 06 3e
       0.05971298 0.26087874 -0.13129556 0.13108706
000230 18 6d 3b bd 6d 5d e9 3e 55 d9 da 3e f0 a8 ab bc
       -0.045758337 0.4557909 0.42743936 -0.02095458
000240 b6 ec 00 3f fa 3a d3 bd a0 42 dc 3e 14 a4 62 3e
       0.5036119 -0.10313983 0.4301958 0.22132903
000250 e4 08 e1 3e 58 b9 3c bd 7c a7 9b be 4e 96 7c be
       0.43952096 -0.046075195 -0.30401218 -0.24666712
000260 2a 9c 88 3e 37 b7 28 3f d9 b8 dc 3e 68 6b 82 3d
       0.26681644 0.65904564 0.43109778 0.06368142
000270 e2 27 47 3e c5 fb a4 be 38 36 17 3f 26 a1 12 3e
       0.19448808 -0.32223335 0.59067106 0.14319286
000280 df f6 ed 3e 24 42 bc bc f2 ea 80 3c 69 2a 5f bd
       0.4647741 -0.022980757 0.01573703 -0.054483805
000290 35 2f a5 3e 6e 8a 77 3e e1 33 87 3e 92 12 24 be
       0.3226258 0.241739 0.26406768 -0.16022709
0002a0 c9 9c 57 bd 51 c4 a3 3e c7 31 df 3e 4c b4 e0 3d
       -0.052639756 0.31985715 0.43592665 0.10971889
0002b0 20 2b 03 bd 1c 24 b4 3e 38 37 10 3f 80 d0 92 bd
       -0.03202355 0.351838 0.5633426 -0.071686745
0002c0 10 a8 93 3c 3a a1 0e be 18 46 57 3d 04 0d 3c be
       0.018024474 -0.1392869 0.05255708 -0.1836434
0002d0 18 f2 48 be 22 ca 50 be c6 3a 61 be b8 ac 74 be
       -0.19623601 -0.20389608 -0.21995077 -0.23894012
0002e0 00 62 21 bd 04 85 a4 bd f4 7a 4d be 72 e9 42 be
       -0.0394001 -0.08033183 -0.20066434 -0.19034365
0002f0 00 b4 d1 b9 b8 a4 13 be 30 74 30 3d 9c 45 c9 bd
       -0.00039997697 -0.14418304 0.043079555 -0.0982773
000300 64 67 b6 bd 40 86 65 bd 98 de b3 bd 80 0a 5a bc
       -0.08906439 -0.056036234 -0.08782691 -0.013308167
000310 58 89 d1 bd e8 3d 57 3e 26 ef 1c be dc 69 d8 3d
       -0.10231274 0.21019709 -0.15325603 0.10567066
000320 72 1f 4f be 76 ad 16 be c0 a1 b1 bd 22 2d 46 be
       -0.20226839 -0.14714608 -0.086734295 -0.19353154
000330 78 fa 6e 3e ec c0 22 3e 18 25 84 3d b4 a1 36 3e
       0.23337734 0.15893906 0.064523876 0.17835122
000340 17 1d d0 3e 30 d4 37 be f3 5e 08 3f 3d b9 d0 bc
       0.40647194 -0.17952037 0.5326988 -0.025478953
000350 18 9d 0a 3d 3c 51 02 be 76 26 5e 3b d0 7a a0 bc
       0.033841223 -0.12726301 0.0033897436 -0.019589812
000360 0f ee da 3d f7 27 94 bd 6d ee 60 3e 20 18 79 bd
       0.10689937 -0.07234185 0.21965952 -0.060814023
000370 b2 1c 79 be c9 85 28 3f 5f 27 1f 3e 52 e4 79 3e
       -0.24327353 0.6582914 0.15542363 0.24403504
000380 d7 e6 ec 3e 04 a7 cc bd 3c 35 eb 3e 8f 17 88 3d
       0.46269867 -0.09992793 0.45939052 0.066451184
000390 d5 57 a2 3e 74 9b 9c bd 8c 47 4a 3e a0 8a 68 3c
       0.31707636 -0.07646838 0.19753855 0.014193207
0003a0 d5 49 2a 3e 9b 96 9b 3e 0b 38 bc 3e 30 05 d2 bc
       0.16629727 0.3038834 0.36761507 -0.02563724
0003b0 98 4e 8b bd cc fe e6 3c 87 74 11 3f 8e de 76 3e
       -0.068021 0.028197668 0.5681843 0.24108335
0003c0 76 cf 17 bd f2 b6 c6 3d ca 5a 8e 3e 99 39 94 3a
       -0.037063085 0.09702863 0.27803642 0.0011308669
0003d0 85 f4 bd 3e 10 4b 24 bd fc 05 19 3e d0 df 0c be
       0.37100616 -0.040110648 0.14943689 -0.13757253
0003e0 27 58 82 3e 87 cc f8 3e 9d 87 59 3e a4 7e f2 bd
       0.2545788 0.48593542 0.21243139 -0.11840561
0003f0 88 c1 c6 3d d3 0e 0a 3e 87 0d 81 3e 30 19 ee 3d
       0.09704882 0.13482217 0.25205633 0.11625898

fc1.bias f4 [64]
000000 5a 9e ac 3e 18 80 48 be 72 f5 8e 3e 6f 05 65 3e
       0.33714563 -0.19580114 0.27921635 0.22365354
000010 d6 31 71 be b1 3c bd 3e 77 d7 e0 3e c1 55 62 be
       -0.23554167 0.36960366 0.43914387 -0.22103025
000020 ab 86 ef 3e ae 98 a3 3e 99 69 c5 3e 5c ae 85 bd
       0.4678243 0.31952423 0.38557127 -0.06527397
000030 2e 53 37 be e6 c6 fd 3e d8 c3 bb 3e c4 81 e6 3e
       -0.17902824 0.4956581 0.36672854 0.45020878
000040 af 1e 96 3e 4f 67 c7 3e 86 22 ce 3e 68 e6 fd 3e
       0.29320285 0.38946006 0.40260714 0.4958985
000050 6a 56 f2 3e c5 81 3a 3e 17 3e ed 3e 8f 54 c8 3e
       0.47331554 0.18213566 0.46336433 0.39127013
000060 ea 33 cd 3e 77 2b c4 3e 62 ea d3 3e 3e 8b eb 3e
       0.4007867 0.3831441 0.41389757 0.4600467
000070 e8 68 ff bd 1c 0d bb 3e 0b 28 82 be 71 c5 e3 3e
       -0.12471181 0.3653344 -0.25421175 0.44486573
000080 95 d4 aa 3e f0 99 02 3f bc ca bd 3e 37 d3 8d 3e
       0.33365312 0.5101614 0.37068737 0.27700207
000090 e9 81 a7 3e 5a f2 97 3e bd 9b ef 3e a5 f9 ad 3e
       0.327163 0.29677087 0.46798506 0.33979526
0000a0 d4 ae c6 3e 71 b9 93 3e 43 11 b2 3e 14 fb c9 3e
       0.38805258 0.28852418 0.34778795 0.3944937
0000b0 a2 92 01 3f 1f 24 1c 3e 0c a1 ce 3e 29 88 0b 3f
       0.5061437 0.15248154 0.40357244 0.5450464
0000c0 9f fd de 3e 86 cc 9b 3e 5e 94 81 3e 12 eb c9 3e
       0.43552873 0.30429476 0.25308508 0.39437157
0000d0 a4 9d dd 3e 5f b7 e1 3e 93 26 cc 3e bf 37 90 3e
       0.43284333 0.44085214 0.3987318 0.2816753
0000e0 c5 f3 a7 3e de ca 52 3e 4f e6 89 3e 53 e4 d3 3e
       0.3280317 0.205852 0.26933524 0.41385135
0000f0 2c 53 b5 3e 64 43 af 3e b7 53 81 3e 95 be a6 3e
       0.35415018 0.34231102 0.25259182 0.32567278

fc2.weight f4 [32, 64]
000000 c7 60 14 bc e0 d9 92 3d 07 35 b8 bd 94 82 30 bd
       -0.009056277 0.071704626 -0.08994489 -0.04309328
000010 cc a2 ba bd 44 9c 9b bc 16 e4 15 be 50 16 d7 bd
       -0.09113082 -0.018995412 -0.14637789 -0.10502303
000020 59 57 b3 3d 52 69 bd bd ef f6 e3 bd 80 1e ff bb
       0.087568946 -0.09248604 -0.11131083 -0.0077856183
000030 47 32 c1 3d 88 1e 1e bd be ce 86 3d dd 0b d9 bd
       0.09433418 -0.038603336 0.06582402 -0.10597966
000040 b2 c4 d0 3a e5 e2 bf bd ec c6 e8 bd 4a 35 5c 3d
       0.001592776 -0.093694486 -0.11366066 0.053761758
000050 00 54 66 bd 36 15 91 3c 56 15 06 be da 36 a2 3d
       -0.056232452 0.01771031 -0.13094077 0.07920618
000060 62 01 95 bd 63 55 39 bd b4 95 ad bd de 40 6a bd
       -0.072756544 -0.045247447 -0.08475819 -0.05719077
000070 7c 76 8f 3d ea 9c 07 3e f9 a6 df bd 2b 73 bc bd
       0.07005021 0.13243452 -0.109205194 -0.09201654
000080 9c 5f 82 bd ec b0 17 be 9a ba b4 bd 2a f1 37 bd
       -0.06365892 -0.14813584 -0.08824654 -0.044907726
000090 2b ed 83 bd b9 36 44 3d 6b 38 80 bd 6b 04 c7 3d
       -0.064417206 0.04790375 -0.06260761 0.097176395
0000a0 ab 68 55 bd 09 c6 d8 bd df 44 b0 bd 55 7a 08 bd
       -0.052101772 -0.10584647 -0.08606886 -0.03331979
0000b0 f9 75 8d 3d a5 f7 ad 3d 3c 06 1f be f6 4d ea 3d
       0.06907267 0.084945 -0.15529722 0.11440651
0000c0 d6 f3 6c bd c0 ea b7 3d 4f 34 8c bd cf 19 81 3d
       -0.057849728 0.08980322 -0.068459146 0.06303751
0000d0 dc f7 80 3d 9b 81 27 bd f1 0a 20 3d 04 3c 9f 3d
       0.062972754 -0.040895086 0.039072935 0.07775119
0000e0 3c 36 e6 3b f3 d5 c7 3b 5c a9 8b 3d 31 13 c9 bd
       0.007025508 0.006098503 0.06819412 -0.098181136
0000f0 04 5d 09 be f9 24 a3 bd 70 8d 85 bd 1b 5a fa bc
       -0.13414389 -0.07966036 -0.06521118 -0.030560544
000100 11 43 82 be 00 7e a3 bb 67 0d 49 be 63 80 09 3f
       -0.25441793 -0.0049893856 -0.19634019 0.5371153
000110 16 44 b9 bd 36 4f 3b 3e e7 79 4f be ac 81 6a bc
       -0.090461895 0.18291935 -0.20261346 -0.014313143
000120 7e 8d a3 3e d4 7f 02 be 3d e3 7e 3e fc fc 5f 3d
       0.31943887 -0.12744075 0.24891372 0.054684624
000130 11 05 c1 3d 08 01 f1 3e 7a 5b 11 3e 07 aa c9 3d
       0.094247945 0.470711 0.14195052 0.09846883
000140 5d 9a 09 bd 60 11 96 bc 15 05 04 3f e4 36 cd 3e
       -0.033594478 -0.018318832 0.51570255 0.4008094
000150 01 0a 3b 3c 62 6a c8 3e 17 cb 3f 3f b0 e0 8c 3e
       0.011415959 0.39143664 0.74919266 0.27515173
000160 4e 80 22 3f f4 25 b8 3e 80 a0 28 be 70 76 bc be
       0.6347703 0.35966456 -0.16467476 -0.3680911
000170 f8 3c 67 bd eb 83 05 bd 80 4e 51 bb f4 f7 2e 3f
       -0.05645463 -0.03259651 -0.0031937659 0.68347096
000180 cb 4e 1a 3f c0 6e 3e 3f db fb 41 bf 3e ad c9 3e
       0.6027648 0.7438774 -0.75774926 0.39389986
000190 4e 43 07 be 63 a0 3b 3d 7f 1f ab 3e 4e 73 7b 3e
       -0.13209268 0.045807254 0.33422467 0.24555704
0001a0 29 84 17 3e 9b 5f 55 3e 7c 60 11 be 96 55 08 3f
       0.14796509 0.20837252 -0.14196962 0.53255594
0001b0 74 c7 b3 3e 1a 2f 24 bd ae 82 86 3e 51 8e 64 3f
       0.35113108 -0.040083982 0.26271576 0.8927966
0001c0 e1 20 75 3e e9 9d 67 3e b4 f9 ed 3d 66 32 72 3e
       0.23938324 0.22618832 0.11619893 0.23652038
0001d0 3a f2 19 3e 6c d8 35 3e e4 7d 8c 3e 91 19 d5 3e
       0.15033808 0.1775834 0.27439797 0.41621068
0001e0 6c e7 60 3e 74 18 45 3d 7c 4b 7f be 38 db 9c 3e
       0.2196328 0.048119023 -0.24931139 0.30636
0001f0 33 b9 2e 3f 48 11 7b 3e 68 d9 de 3c 02 41 bc 3c
       0.6825134 0.24518311 0.027203277 0.022980217
000200 40 d0 a1 3c fc 0f ea bd 30 b2 dd 3d a4 72 22 bd
       0.019752622 -0.1142883 0.10825002 -0.03966011
000210 18 8e 91 3c 8a 8f b2 bd 20 33 76 3c 7e 06 c2 bd
       0.01776795 -0.08718784 0.015026838 -0.094738945
000220 90 5c e5 bc fc 98 64 bd 58 59 f4 bc 44 4f aa bd
       -0.027998239 -0.05580996 -0.029827759 -0.083159
000230 b0 b6 1d bc e2 33 8d 3d 60 e0 7c 3d c4 1c 27 3d
       -0.009626076 0.068946615 0.06173742 0.040798917
000240 88 74 e8 bc 9c 0c f7 bd 4a ee d8 bd e8 fc f2 bd
       -0.028375879 -0.12062952 -0.10592325 -0.11864644
000250 78 ba 31 bd a8 36 ff 3d dc 04 a7 3d 04 0f ec 3d
       -0.04339072 0.12461597 0.08155224 0.115263015
000260 38 87 e0 3d 60 53 0d 3d 32 4e 84 bd 38 40 80 bc
       0.10963291 0.03450334 -0.06460227 -0.015655622
000270 c4 13 84 3d 5c d2 cf 3d f6 2f b3 bd ca 12 e6 3d
       0.064490825 0.10147545 -0.08749382 0.112340525
000280 c0 0a cf 3c 94 1f 86 3d 78 de 36 bd 30 f6 20 3d
       0.02527368 0.06548992 -0.044645756 0.039297283
000290 2a 2e b0 3d 2e 40 fd bd 3c bc a7 3d 28 57 9d 3c
       0.08602555 -0.12365757 0.081902 0.019206598
0002a0 7a 02 b4 bd 7e f7 b6 3d 70 c0 ff bd 70 41 36 3d
       -0.08789535 0.08933924 -0.124878764 0.044496
0002b0 10 ba 70 bd b8 19 b6 3d 5e 72 fe 3d ac 2d fc bd
       -0.058771193 0.08891624 0.124241576 -0.12313399
0002c0 f0 c5 1b 3c f8 1d 5c bd f0 9c 71 bc e4 81 c7 bd
       0.009507641 -0.053739518 -0.0147468895 -0.097415715
0002d0 e2 ae fe bd 4c 2e 65 3d 18 c1 71 bd 64 07 92 bd
       -0.124357 0.055952355 -0.05902204 -0.07130316
0002e0 d8 6b b7 bd 6a aa b8 bd 40 e9 64 bd b0 76 61 bd
       -0.089561164 -0.09016879 -0.055886507 -0.05504483
0002f0 d8 90 c2 3c 50 f7 77 3c 38 9c 52 bd e0 90 8c bd
       0.023750708 0.0151346475 -0.051418513 -0.0686357
000300 34 26 7b be 90 91 32 bc 09 82 47 3e e7 eb 8f bd
       -0.24526292 -0.010898963 0.19483198 -0.07027417
000310 98 4f bb 3d 43 b2 24 3f 7d 8f d7 bc 0e 7b 02 be
       0.09146041 0.64334506 -0.026313538 -0.12742254
000320 97 94 a9 3e bb fb 88 3e b4 ce 1c 3f 40 ba f0 3b
       0.33121178 0.26754555 0.61252904 0.0073464215
000330 2a 23 38 bd 66 a3 91 3e 2a 4f 81 3e 38 16 95 3e
       -0.04495541 0.28444976 0.2525571 0.29118514
000340 a2 67 31 3f 48 fd d3 3d f6 91 ea bd e9 5f 1e 3e
       0.69298756 0.10351044 -0.11453621 0.15466274
000350 ac f3 56 3e 8c 68 e1 bd 0f d5 c2 be 32 ec 1b 3f
       0.20991391 -0.11006269 -0.38053176 0.6090728
000360 58 ca 18 bf 99 72 77 3f 60 0a d5 bd c2 d0 8f 3f
       -0.5968375 0.9665924 -0.104023695 1.1235583
000370 08 0e cd bc 71 5a 3f 3e 8e 9c ee 3d 89 c4 05 3f
       -0.025031105 0.18686844 0.11650954 0.52253014
000380 25 78 b3 3e 9e 30 de 3e 63 91 3f 3f 1f 53 eb bd
       0.350526 0.43396467 0.7483122 -0.114904635
000390 9c ea 41 be f2 f8 be 3e 3c 40 27 3e d6 ce 83 3f
       -0.18937153 0.37299305 0.16333097 1.0297496
0003a0 16 6b 9a 3b ed c5 92 3e a4 80 22 3f 05 9d d1 be
       0.0047124727 0.2866663 0.6347754 -0.4094011
0003b0 87 ca 34 bf 48 6c 71 bd 6f 94 ee 3e 15 fb 46 3f
       -0.7062153 -0.058941156 0.4659762 0.7772687
0003c0 a8 be 39 bf 0b db b2 3e ca 95 20 3f 24 b2 06 bf
       -0.72556543 0.34932742 0.6272856 -0.5261557
0003d0 36 4b ad 3e 7d 64 99 bd d7 5c cb 3e 6e b0 50 3f
       0.33846444 -0.0748987 0.3971927 0.8151921
0003e0 8c 16 51 3f 77 bb ef 3e 30 88 b4 3e 91 66 90 3f
       0.8167503 0.46822712 0.35260153 1.1281301
0003f0 26 5f a8 be 8a eb 81 be 59 8c eb 3e 7e 13 ff 3d
       -0.32885092 -0.25375015 0.46005514 0.1245489

fc2.bias f4 [32]
000000 ec 71 a2 bc cb f6 56 3e c6 03 ea bd 76 56 55 3e
       -0.019829713 0.20992582 -0.11426501 0.20833763
000010 c3 95 82 3e f8 69 29 3d d7 fb 82 3e 47 f4 bd 3e
       0.25504884 0.041360825 0.25582764 0.3710043
000020 e7 15 e5 3c 0f ba a8 bd 28 d1 36 3e 6b 01 f7 bd
       0.027964545 -0.08238613 0.17853224 -0.12060817
000030 aa 34 b3 3e 2a 53 c6 3d f2 ab c8 3e 8e 47 48 3e
       0.35001117 0.09683831 0.39193684 0.19558546
000040 a6 75 ff 3c f7 61 71 3d 13 79 73 3e 92 0c bd bd
       0.031184029 0.058931317 0.23776655 -0.09230913
000050 de b1 82 3e 87 3a 0c bd 95 7e f8 3d 4f 5c a3 3e
       0.25526327 -0.034235504 0.121335186 0.31906363
000060 82 de 8f 3d a3 13 99 3c d8 ae 06 bd 24 cb 67 3e
       0.07024862 0.018686121 -0.032881588 0.22636086
000070 02 bd 98 3e 62 61 ab 3e 29 90 79 3e c6 8c 93 bd
       0.29831702 0.33472735 0.24371399 -0.07204585

fc3.weight f4 [4, 32]
000000 59 80 4c 3e 5d b0 a8 3d b3 a3 00 3e ec 41 7b bd
       0.19970836 0.082367636 0.12562446 -0.061342165
000010 ea 9c 79 bc da 0a 1d 3d 60 ca f9 3e d6 25 b7 3e
       -0.015235165 0.038340427 0.48787212 0.35771054
000020 ca ea 7b bd b5 6c 05 3e 23 d5 bc 3e c7 6a f3 bd
       -0.06150321 0.1302975 0.3688136 -0.118856005
000030 5b 19 3e be b1 be 15 3f ec bf 69 3f 06 b8 d8 be
       -0.1856436 0.58494097 0.91308475 -0.423279
000040 e2 54 c4 3c 5c 53 b4 3d 23 c1 ef 3e af 11 d1 bd
       0.023966257 0.08804962 0.4682704 -0.10208451
000050 3e 8d 11 3e 9a a5 42 bb e2 68 79 bc ce 12 70 3e
       0.14214036 -0.0029700757 -0.01522276 0.23444673
000060 4e 2b b2 bd 9d 1e ef bd ab 19 fe bd b5 fe 82 3e
       -0.08699666 -0.11675761 -0.124072395 0.2558495
000070 08 7d c7 3e 27 54 41 3e 62 01 52 3f 8c 9c 29 be
       0.3896258 0.18879758 0.8203336 -0.16563624
000080 bd b6 26 3c 93 00 2a 3e a0 cb e3 3b f1 cd 4a 3f
       0.010175404 0.16601782 0.006951764 0.7922049
000090 56 bd c9 3e be 69 dd bc 2d da ac 3e 94 69 7a bd
       0.39402264 -0.02702796 0.33760205 -0.061135843
0000a0 e6 0c 9d bd f0 4d 67 3b bc 74 06 be bf be 6d bd
       -0.07668476 0.0035294257 -0.13130468 -0.058043238
0000b0 6a 69 7a 3f d0 7e f3 3e 1f 56 3a 3e 15 04 fc 3e
       0.978171 0.47557688 0.18196915 0.49221864
0000c0 2c f6 98 39 95 d3 40 3d c8 05 dd 3d 8a 4e c3 3d
       0.00029175112 0.04707678 0.10792118 0.095364645
0000d0 70 36 87 bd 84 e0 7b 3c ce 2f 11 3f 8b 0a 10 ba
       -0.0660218 0.015373353 0.5671357 -0.0005494735
0000e0 dd 09 67 bd 40 f2 dd bd 60 b8 ce bc 2a b3 9c 3e
       -0.05640589 -0.10837221 -0.025234401 0.3060544
0000f0 c2 78 e7 bd 47 fd 49 3e e1 b3 6a 3e d2 04 31 be
       -0.113023296 0.19725524 0.22920181 -0.17286995
000100 ec aa 6c bd d5 e6 92 3d df ab 0a be 2b 8c 83 3c
       -0.05778019 0.07172934 -0.13542126 0.016058048
000110 80 d0 2a 3f 32 4b cf 3d b2 7c dc 3d c9 b0 1a 3f
       0.66724396 0.10121764 0.10765971 0.60426
000120 ff b4 a5 ba c4 a7 f4 bd 9c 8a 09 3f 21 b2 00 3d
       -0.0012642442 -0.11946061 0.53727126 0.031419877
000130 45 7c a4 be b4 74 e9 be 81 76 8f 3c 8f 81 94 bd
       -0.3212606 -0.4559685 0.017512562 -0.07251274
000140 b2 d6 88 bb 88 54 a7 bd da 81 23 be ef e1 2f 3e
       -0.0041759843 -0.0817042 -0.15967503 0.1717603
000150 cc 78 23 3f b8 2d 87 bd 4b 2a 37 3f 83 f5 b8 3e
       0.63856196 -0.06600517 0.7154891 0.3612481
000160 8e 3a c8 3d c0 74 d9 bd eb 70 2e 3c 57 9c 2a 3f
       0.097767934 -0.106179714 0.010647039 0.66644806
000170 7b e6 31 3f 42 9f 2d 3e 07 77 11 be 42 ab f6 3d
       0.6949231 0.16955283 -0.14205562 0.120443836
000180 36 41 ff 39 1f 97 29 3f a4 bf 7f 3d 2a 82 9d bd
       0.00048685976 0.6624622 0.062438622 -0.076908424
000190 93 c8 cf 3d fb 8c 9e 3b c0 15 92 3c d8 ad 71 3e
       0.10145678 0.0048385835 0.017832637 0.23601472
0001a0 78 38 4c 3d 4d a4 42 bd bf 6a 06 3f 24 d4 be bd
       0.04985854 -0.04751997 0.5250663 -0.09317806
0001b0 4a 06 1b be fe e6 74 3e 64 e9 18 be fb 9e 65 3f
       -0.15139118 0.23916242 -0.14932781 0.8969571
0001c0 11 df 3a 3e 36 79 f4 3d fc 48 25 3f 40 73 3f bc
       0.18249156 0.11937182 0.6456449 -0.011685193
0001d0 0d 5f 72 3e ee 93 a5 3d 6e 03 88 be ad ab ab 3e
       0.23669071 0.08084856 -0.26565117 0.33529416
0001e0 7f b0 40 3d 23 2f 85 bc bb 90 0e 3e 2f ca 8a 3d
       0.04704332 -0.016257828 0.13922398 0.06776845
0001f0 80 9e bf 3e e5 e4 1c 3f 47 e0 78 3e 98 99 20 bd
       0.37425613 0.61286765 0.24304305 -0.03920898

fc3.bias f4 [4]
000000 c3 de 9a 3e 84 6e 68 3e fa 7a a5 3e 02 3b e4 3e
       0.3024808 0.22698408 0.32320386 0.4457627
