policy_net9000.pth (torch, 15822 bytes, 6 tensors)

fc1.weight f4 [64, 16]
0	0x3ec0dad4	0.37666953
1	0x3e88b446	0.26700038
2	0x3e7beb68	0.24601519
3	0x3e9ffa5b	0.31245694
4	0xbead68d5	-0.33869043
5	0x3ddcea5c	0.10786888
6	0xbe00026c	-0.12500924
7	0x3e161830	0.14657664
8	0xbd6047da	-0.054756023
9	0x3f2293c4	0.6350672
10	0xbdfdca94	-0.12392154
11	0xbe5453ee	-0.20735142
12	0xbe194084	-0.14966017
13	0x3f209d85	0.62740356
14	0x3bbb4187	0.0057145986
15	0xbd8e7dcc	-0.069575876
16	0x3d546948	0.051858217
17	0x3c0492dc	0.008091655
18	0x3e831894	0.2560469
19	0xbdfa91ac	-0.12234816
20	0x3f1522ec	0.5825641
21	0xbcd2fbb0	-0.02575478
22	0x3deab45a	0.114601806
23	0xbcca3310	-0.024682552
24	0xbea66a4c	-0.32502973
25	0x3f052f41	0.5202523
26	0x3f578dcc	0.8420074
27	0x3e46ab2e	0.19401237
28	0xbe26b9cc	-0.16281813
29	0xbc4455a9	-0.011983314
30	0x3ef54436	0.47903603
31	0xbda089c8	-0.0783878
32	0x3e526563	0.20546488
33	0x3d07879e	0.03308832
34	0x3e74a8b6	0.23892483
35	0x3ce156d3	0.027507221
36	0x3ea7ad92	0.3274961
37	0x3e5e386a	0.21701208
38	0x3eb0f078	0.34558463
39	0x3c97a500	0.018511295
40	0x3dc0d129	0.09414894
41	0x3eeac009	0.45849636
42	0x3ed37150	0.41297388
43	0xbe0bfe1a	-0.13671151
44	0xbca3c560	-0.019991577
45	0x3ede8eb4	0.4346825
46	0x3f152435	0.5825837
47	0x3e4f4602	0.2024155
48	0x3e83ca7c	0.2574042
49	0x3e98a61a	0.29814225
50	0x3f1ac231	0.6045256
51	0x3e819574	0.25309336
52	0xbe95b027	-0.29235956
53	0x3e2573ce	0.16157457
54	0xbe8a3440	-0.2699299
55	0xbdeaa714	-0.11457649
56	0x3ee8e2d3	0.45485553
57	0x3e573e7d	0.21019931
58	0x3d0d64f7	0.034520116
59	0xbe125034	-0.14288408
60	0x3e50faa4	0.20408112
61	0x3f297d56	0.6620687
62	0x3eb411bd	0.35169783
63	0xbdbfbbc4	-0.09361985
64	0x3e57b139	0.21063699
65	0x3e49f428	0.19722044
66	0x3e374588	0.17897618
67	0xbe1d0922	-0.15335515
68	0xbdc8ce30	-0.09804952
69	0xbdb5f948	-0.08885437
70	0x3dfd3da8	0.123652756
71	0xbde91484	-0.11380866
72	0xbc7f32a0	-0.015576035
73	0x3d5c5f10	0.053801596
74	0xbdbceda4	-0.09225014
75	0xbe19a2c4	-0.15003496
76	0x3e1d1396	0.15339503
77	0x3ceb8d20	0.028753817
78	0xbe28f5e0	-0.16500044
79	0x3d3995d0	0.045308888
80	0x3e040033	0.12890701
81	0xbddc0ac3	-0.1074424
82	0x3f0e27b7	0.5552935
83	0xbe218660	-0.15773916
84	0xbe04a719	-0.12954368
85	0x3cc12340	0.023576379
86	0x3fbad526	1.4596298
87	0xbe7f46c4	-0.24929339
88	0xbe8ab089	-0.2708781
89	0xbe7a6731	-0.24453427
90	0xbd279cb3	-0.040920924
91	0x3dd6e7a4	0.10493401
92	0xbdf38f44	-0.1189256
93	0x3fb76174	1.4326615
94	0x3d5cf614	0.053945616
95	0xbd152898	-0.036415666
96	0x3ea58a2b	0.32331976
97	0xbdaf83b4	-0.08570042
98	0x3ed63771	0.41839173
99	0x3cf66aba	0.030080188
100	0xbc9dde1f	-0.019270955
101	0xbe18bb66	-0.14915237
102	0x3d6f0acd	0.05835991
103	0x3ceb4fb0	0.028724521
104	0x3eaa9af6	0.3332135
105	0x3ecdc6f1	0.40190843
106	0x3c785752	0.015157538
107	0xbd5e97e0	-0.054344058
108	0x3e1f34f4	0.15547544
109	0x3f2fe619	0.68710476
110	0x3db980a1	0.09057737
111	0x3e255700	0.16146469
112	0xbd2e0881	-0.04248858
113	0x3f49d90d	0.7884682
114	0x3e0f9daf	0.14024995
115	0x3f559ccb	0.8344237
116	0xbe5bba1f	-0.21457718
117	0xbdcfda54	-0.10149065
118	0xbf049b76	-0.51799715
119	0x3e3bfe7e	0.183588
120	0x3eec8c9f	0.46201035
121	0xbe9d975b	-0.30779538
122	0xbf0437ae	-0.5164746
123	0x3e28c84a	0.16482654
124	0x3cd77a10	0.026303321
125	0x3f004469	0.50104386
126	0xbed9dba7	-0.42550394
127	0x3dfefd5c	0.12450668
128	0x3e88ab6a	0.2669328
129	0xbe325776	-0.17416176
130	0x3eb3f000	0.35144043
131	0xbec18aac	-0.3780111
132	0x3ef57420	0.4794016
133	0x3e092530	0.13393092
134	0x3edb356e	0.428142
135	0x3e4b0ea0	0.19829798
136	0xbec28a41	-0.37996104
137	0x3ecdc1e9	0.40187004
138	0x3e8b726d	0.27235737
139	0xbe1913ae	-0.14948913
140	0xbe53be14	-0.20677978
141	0x3eeea864	0.46612847
142	0x3acd1793	0.0015647284
143	0x3e011b00	0.12607956
144	0x3e6b7077	0.2299212
145	0xbd4ee177	-0.05050799
146	0x3ed10b52	0.4082895
147	0x3e8ab498	0.27090907
148	0x3e4583d1	0.19288565
149	0xbe7bc4f0	-0.24586844
150	0x3e888f05	0.26671615
151	0x3e5f9752	0.21835068
152	0x3e851a07	0.2599642
153	0x3ebcedb8	0.36900115
154	0xbe274309	-0.16334166
155	0xbe5025c0	-0.203269
156	0x3bc40140	0.0059815943
157	0x3f1cbb6c	0.61223483
158	0x3cef13bc	0.029184215
159	0xbd93acc8	-0.0721069
160	0x3e9a52db	0.3014134
161	0xbdf48328	-0.119390786
162	0x3ed16628	0.40898252
163	0xbeef949f	-0.46793076
164	0x3f0a9a7d	0.5414198
165	0xbdb0cc10	-0.08632672
166	0x3f58ab0e	0.8463601
167	0xbe1e28c2	-0.15445235
168	0xbea6382a	-0.32464725
169	0xbeedc814	-0.4644171
170	0x3f6ded33	0.9294006
171	0x3d0b7db8	0.03405544
172	0xbe251348	-0.16120636
173	0x3f4e154d	0.8050125
174	0x3eae9343	0.34096727
175	0xbe1379f2	-0.14401987
176	0x3ddf709b	0.1091015
177	0x3e09920c	0.13434619
178	0x3e38c7d9	0.18044986
179	0x3e824213	0.25441036
180	0x3e87975f	0.26482674
181	0x3e17ffae	0.14843628
182	0x3e3df355	0.18549855
183	0xbd7182e8	-0.058962733
184	0x3dff5091	0.12466539
185	0xbe8798b6	-0.26483697
186	0x3eb5ca3b	0.35505852
187	0xbe34dce8	-0.17662394
188	0xbe61f6da	-0.22066823
189	0x3f3091a7	0.6897225
190	0x3e6b2b18	0.22965658
191	0xbdfde478	-0.123970926
192	0x3ef52a03	0.47883615
193	0xbe5d47de	-0.21609446
194	0x3e1595e9	0.14607967
195	0xbcda72cf	-0.026666073
196	0x3f07c69f	0.53037447
197	0xbe0090f2	-0.12555292
198	0x3ec8b4e1	0.392005
199	0x3d557110	0.052109778
200	0xbe6df73c	-0.23238844
201	0x3f1d9f7d	0.61571485
202	0x3f72786f	0.9471502
203	0xbcec5ba0	-0.028852284
204	0xbd2b7338	-0.041857928
205	0x3e22bf75	0.15893348
206	0x3f33006e	0.6992253
207	0xbddadc74	-0.10686579
208	0x3eaacab9	0.3335779
209	0xbdbba800	-0.09162903
210	0x3dcd29a1	0.10017706
211	0x3e51bc71	0.20482041
212	0xbea0bcb3	-0.31393966
213	0x3e0e5136	0.13898167
214	0x3e8d7892	0.2763105
215	0xbe1b7850	-0.15182614
216	0xbccc47f3	-0.024936652
217	0x3ec8b2ed	0.3919901
218	0xbeaa253f	-0.33231542
219	0x3d850208	0.06494528
220	0xbe4cd2f0	-0.20002341
221	0x3f701266	0.93778074
222	0x3e3d530c	0.18488711
223	0x3d8a1ab8	0.067433774
224	0xbe8433c1	-0.25820735
225	0x3f63dec8	0.8901181
226	0x3ebb4ef0	0.36583662
227	0x3ef63eca	0.4809478
228	0xbec310d5	-0.3809878
229	0xbe1457fa	-0.14486685
230	0xbf2b6f39	-0.6696659
231	0xbd58ba50	-0.052912056
232	0x3f43d9fc	0.7650449
233	0x3e001f5c	0.12511963
234	0x3db34273	0.087529086
235	0xbe287d58	-0.16454065
236	0x3e2e3e74	0.17016011
237	0x3df5eaa5	0.120076455
238	0x3d414d9d	0.04719316
239	0x3e3ab9e2	0.18234971
240	0x3e25f568	0.16206896
241	0x3e793307	0.24335872
242	0x3ecc2b8f	0.39876983
243	0x3ed2823c	0.41114986
244	0x3ec0a37f	0.37624738
245	0x3e4d72f2	0.2006338
246	0xbb093990	-0.002093885
247	0xbddfe644	-0.109325916
248	0x3ee5326b	0.44765028
249	0x3e5324ef	0.20619558
250	0x3ef91fe3	0.4865714
251	0x3d36ef50	0.04466182
252	0xbde9a774	-0.11408892
253	0xbdd0ff3d	-0.10204933
254	0x3e68c68c	0.2273199
255	0xbe292df6	-0.16521439

fc1.bias f4 [64]
0	0x3e91f281	0.28505328
1	0x3e894cd1	0.2681642
2	0x3ec74263	0.38917837
3	0x3e8701c5	0.26368538
4	0xbe8952bf	-0.26820943
5	0x3e77ac2a	0.24186769
6	0x3ee2ae61	0.44273666
7	0x3eec5e82	0.46165854
8	0x3eb10b44	0.34578907
9	0x3eb1714a	0.34656745
10	0x3ee964c2	0.45584685
11	0x3e86abb2	0.26302868
12	0x3e306e99	0.1722969
13	0x3e8f927f	0.28041455
14	0x3f2add91	0.66744334
15	0x3e73fb15	0.23826249
16	0xbe4f11f0	-0.20221686
17	0x3e50d6fb	0.20394509
18	0x3eaf808c	0.3427776
19	0x3e85e716	0.26152867
20	0x3e51f5ce	0.20503923
21	0x3eb87a5a	0.36030847
22	0xbe668ffa	-0.2251586
23	0x3ed6f6f4	0.41985285
24	0x3ed06d85	0.40708557
25	0x3eadaa6d	0.33919087
26	0xbe22e3dc	-0.15907234
27	0x3eb2ba58	0.34907794
28	0x3eb7f94f	0.35932395
29	0x3ed914b7	0.42398617
30	0x3ee5f708	0.44915032
31	0x3e84deaf	0.25951144
32	0x3eb50c9a	0.35361177
33	0x3e49968c	0.19686335
34	0x3ec70524	0.3887111
35	0x3eadde30	0.33958578
36	0x3edcd9aa	0.43134815
37	0x3db43f6f	0.088011615
38	0x3ec80c26	0.3907177
39	0x3f00cb86	0.5031055
40	0xbe6c1570	-0.23055053
41	0xbe30259f	-0.17201851
42	0x3eb134c1	0.3461056
43	0x3e8d69ac	0.27619684
44	0x3e7fd67d	0.24984165
45	0x3e8bd0fb	0.27307877
46	0x3e40c478	0.18824947
47	0x3ecfd4f8	0.4059217
48	0xbd590270	-0.05298084
49	0x3f0203bd	0.50786954
50	0x3e67c6ac	0.22634381
51	0x3e8baa24	0.27278244
52	0x3ed23f32	0.4106384
53	0x3eb4a8bb	0.3528498
54	0x3ee3aa7d	0.4446601
55	0xbe86cd3d	-0.2632846
56	0x3ebf1124	0.37317765
57	0x3eec3aa9	0.46138504
58	0x3e0ceeab	0.1376292
59	0x3ebaaca1	0.3645983
60	0x3ec198b7	0.37811825
61	0x3ea3c03a	0.31982595
62	0x3e94c76a	0.2905839
63	0x3eab5292	0.33461434

fc2.weight f4 [32, 64]
0	0x3d939c52	0.0720755
1	0xbde0fea0	-0.10986066
2	0xbd73d8e0	-0.059533
3	0xbd4c2fe0	-0.049850345
4	0x3a8f4eea	0.0010933552
5	0xbdcdc391	-0.10047067
6	0xbc454c36	-0.012042096
7	0xbde32c97	-0.11092489
8	0xbcf4830d	-0.029847646
9	0xbe1d465c	-0.15358871
10	0x3bdfca45	0.0068295323
11	0xbe19ac52	-0.15007141
12	0xbdaa520a	-0.08316429
13	0xbe1fc5b4	-0.15602762
14	0xbd5a1d5d	-0.05325066
15	0xbe167cc9	-0.1469604
16	0xbd75af00	-0.059981346
17	0x3dbe0d49	0.09279878
18	0xbd9b22e9	-0.07575018
19	0xbdb75db2	-0.08953418
20	0xbe1be0cf	-0.15222476
21	0xbc8c9c12	-0.017164264
22	0x3dfe831c	0.12427351
23	0x3d57e5b1	0.052709285
24	0x3d901e29	0.070370026
25	0xbdc43082	-0.09579565
26	0xbcc03740	-0.023463845
27	0xbd45d870	-0.048302114
28	0x3c9e19c1	0.01929939
29	0xbdd2723e	-0.10275696
30	0xbdd6daea	-0.10490973
31	0xbd0771ff	-0.0330677
32	0x39f0d24a	0.00045933045
33	0x3d1efd34	0.038815692
34	0xbe1317b2	-0.14364508
35	0xbde4d467	-0.11173325
36	0x3c9a3074	0.018821932
37	0x3c847542	0.016169194
38	0xbe31ca1a	-0.17362252
39	0xbcc94daa	-0.024573166
40	0xbd2327cc	-0.039832875
41	0x3cc88101	0.024475576
42	0x3d101692	0.035177775
43	0x3b2373a3	0.002494075
44	0xbdb2ab81	-0.08724118
45	0xbe165079	-0.14679135
46	0x3ca5d0c1	0.020241143
47	0xbcd719c7	-0.026257409
48	0xbdcf8a52	-0.101338044
49	0xbbecf8bb	-0.0072317994
50	0xbd84cde8	-0.06484586
51	0x3ceb14bf	0.028696416
52	0xbe0a9fb3	-0.13537483
53	0x3d2cb57a	0.042165257
54	0xbdecc2c3	-0.11560585
55	0xbe1958f8	-0.14975345
56	0xbe38f089	-0.18060507
57	0xbd16f920	-0.036858678
58	0xbd9213f1	-0.0713271
59	0x3d44587f	0.04793596
60	0xbe0aa13b	-0.13538067
61	0x3b00e25f	0.0019666178
62	0xbd6d517c	-0.057939038
63	0xbddb4cc4	-0.10708001
64	0xbd1fdb81	-0.039027695
65	0xb9d1a892	-0.0003998918
66	0xbd494aae	-0.049143486
67	0x3dc786f1	0.09742535
68	0xbe1755e0	-0.14778852
69	0xbdda6f65	-0.10665778
70	0x3d891230	0.06692922
71	0xbd54e1d4	-0.05197318
72	0xbe1ab9a3	-0.15109877
73	0x3d6d1a50	0.05788642
74	0xbe0a311f	-0.134953
75	0xbdc70518	-0.097177684
76	0xbd75a779	-0.059974167
77	0xbdaa6891	-0.08320726
78	0xbbe051c1	-0.0068456833
79	0x3d80edd0	0.06295359
80	0x3c1a5530	0.009419724
81	0xbe176965	-0.14786299
82	0x3dabce8a	0.083890036
83	0xbcfeff6f	-0.03112766
84	0x3d0924db	0.033482414
85	0xbde23ff8	-0.11047357
86	0x3c9b4740	0.018954873
87	0x3d10282c	0.03519456
88	0x3cd45381	0.025918724
89	0x3d418d3d	0.047253836
90	0xbda3c0c2	-0.0799575
91	0xbd81772a	-0.06321557
92	0x3cc9dadc	0.024640493
93	0x3d7efb2d	0.06225126
94	0xbe012eee	-0.12615559
95	0x3c7cc46f	0.015427693
96	0xbd4be350	-0.04977733
97	0xbd4c853c	-0.04993175
98	0xbd95973d	-0.07304237
99	0xbbebc423	-0.007195012
100	0x3d903d8e	0.070429906
101	0xbd71fd91	-0.05907971
102	0xbd7bbc37	-0.061458793
103	0x3d44f8db	0.04808889
104	0x3d361af7	0.04445931
105	0x3cce0000	0.025146484
106	0xbd90a10d	-0.07061968
107	0xbd93f9ea	-0.07225402
108	0x3c1b30df	0.009472101
109	0x3d9bebb5	0.07613317
110	0xbbc063c8	-0.00587127
111	0xbde6c78a	-0.11268528
112	0xbc0eea80	-0.008722901
113	0xbd8e5302	-0.06949426
114	0xbd5b34a3	-0.053516995
115	0xbd9d4736	-0.07679598
116	0xbd5fd038	-0.054641932
117	0xbda532ba	-0.08066316
118	0xbdf2d94a	-0.11857851
119	0x3d1ae66c	0.037817404
120	0xbd6ac218	-0.05731401
121	0xbc957cdf	-0.01824802
122	0xbddeb6b2	-0.1087469
123	0xbdd7ca1c	-0.10536596
124	0xbc488311	-0.01223828
125	0xbdbd86d7	-0.09254234
126	0xbd83c7d0	-0.064345956
127	0x3c9e54bc	0.019327514
128	0xbdbb7bd9	-0.091544814
129	0x3f1f72aa	0.6228434
130	0x3e7dac2a	0.24772707
131	0xbe59e5a3	-0.21279006
132	0x3d4ea110	0.05044657
133	0xbf69e171	-0.9135962
134	0x3d3d05e5	0.0461482
135	0xbf6f5282	-0.9348527
136	0x3eaa73e5	0.33291546
137	0xbdbb9a39	-0.09160275
138	0x3e1e4c73	0.1545885
139	0xbe2ef7e2	-0.17086747
140	0x3f4c3bc6	0.7977871
141	0xbeb53b5a	-0.35396844
142	0xbec0ec21	-0.37680152
143	0x3ec47c6c	0.38376176
144	0xbde13440	-0.10996294
145	0x3fb47203	1.4097294
146	0x3de0476d	0.109511234
147	0xbe351641	-0.1768427
148	0x3f1b139a	0.60576785
149	0x3f883a6d	1.064283
150	0xbc422a20	-0.011850864
151	0x3ec933fa	0.39297467
152	0x3f77f9ed	0.9686573
153	0x3de04ca5	0.10952119
154	0xbdd5b658	-0.1043517
155	0x3e25af77	0.16180216
156	0x3ed07608	0.4071505
157	0x3e441b4e	0.19151041
158	0xbece037f	-0.40237042
159	0xbe285cb9	-0.16441621
160	0xbd823ef2	-0.06359662
161	0xbd9e3384	-0.077246696
162	0x3dce9736	0.10087435
163	0x3f25fbcf	0.64837354
164	0x3e03b576	0.1286219
165	0x3efe8ee1	0.49718383
166	0xbe1ed0c6	-0.15509328
167	0xbeadc77a	-0.3394125
168	0xbdd9e832	-0.10639991
169	0xbddc84c2	-0.10767509
170	0x3e9e533e	0.30922884
171	0x3f250cfe	0.6447295
172	0xbca705ee	-0.02038857
173	0x3f43314d	0.762471
174	0x3f12d444	0.5735514
175	0x3e093434	0.1339882
176	0x3cdfdd18	0.027327105
177	0x3ea478a4	0.32123291
178	0x3f8d82f1	1.1055585
179	0x3f4bc427	0.7959618
180	0x3eaefd51	0.3417764
181	0xbe543763	-0.20724253
182	0x3eb447d4	0.3521105
183	0x3c9cc388	0.019136205
184	0x3d86f09f	0.065888636
185	0xbe1e03a8	-0.15431082
186	0x3d565489	0.052326713
187	0x3ec6cc9f	0.38827989
188	0x3ebebf59	0.37255362
189	0xbeee673b	-0.46563134
190	0xbf1323a3	-0.5747625
191	0x3e8e9b86	0.2785303
192	0x3e8f268d	0.279591
193	0x3e6d8ad5	0.23197491
194	0x3eb21283	0.34779748
195	0x3e4c485a	0.19949475
196	0x3dbf0cba	0.09328599
197	0x3f7cec44	0.9879801
198	0x3e6c4e05	0.23076637
199	0xbe4aba31	-0.19797589
200	0x3eae3197	0.3402221
201	0x3e7db6c1	0.24776746
202	0x3f74b7f7	0.9559321
203	0x3e823b96	0.25436085
204	0x3f1d3e01	0.61422735
205	0x3ef826ae	0.4846701
206	0xbe96afae	-0.29430908
207	0xbcec8ed2	-0.028876696
208	0xbd6bd09c	-0.057571992
209	0xbe762139	-0.24036111
210	0x3e973848	0.29535127
211	0x3e92db1b	0.2868279
212	0xbdd660f9	-0.10467715
213	0x3e301c3c	0.1719827
214	0xbdcf76a0	-0.10130048
215	0x3db44388	0.08801943
216	0xbe0e442e	-0.13893196
217	0x3f28ff56	0.6601461
218	0x3dab91a4	0.08377388
219	0x3f37f6f9	0.71861225
220	0x3e5f3f41	0.21801473
221	0x3eac83f8	0.33694434
222	0xbe422b0d	-0.18961735
223	0x3d7b8e94	0.06141527
224	0x3e8f7d60	0.2802534
225	0x3eb755c9	0.35807636
226	0x3e2ea7e0	0.17056227
227	0x3f18709d	0.59546834
228	0x3ec73b68	0.3891251
229	0x3eebb048	0.4603293
230	0x3d9526b6	0.07282774
231	0x3c20296f	0.009775504
232	0xbda2709a	-0.07931633
233	0x3e0145be	0.12624261
234	0x3ee5a02e	0.4484877
235	0x3e08209e	0.13293692
236	0x3dd5e003	0.104431175
237	0x3e973548	0.29532838
238	0x3eb162ad	0.34645596
239	0x3e0acb70	0.13554168
240	0x3d575210	0.052568495
241	0x3eae6a54	0.34065497
242	0x3e07382c	0.13205022
243	0x3ebc9fcc	0.36840665
244	0x3ca904c1	0.02063215
245	0xbe035889	-0.12826742
246	0x3f6e33ec	0.93047976
247	0x3d965e59	0.07342214
248	0x3ec33181	0.38123706
249	0x3eb4d89d	0.35321513
250	0x3f5d483f	0.86438364
251	0x3e82a8f7	0.25519535
252	0x3e84035b	0.2578381
253	0xbd31842a	-0.043338932
254	0x3ef2bc62	0.4740935
255	0x3dadaf36	0.084806845

fc2.bias f4 [32]
0	0x3d51b47f	0.051197525
1	0xbdbdda35	-0.09270135
2	0x3d5aafdc	0.05339037
3	0x3e9e5203	0.30921945
4	0x3eac1da9	0.3361638
5	0x3e528c4e	0.20561334
6	0xbc919e1a	-0.017775584
7	0x3e484b40	0.19559956
8	0xbd900db4	-0.07033864
9	0xbd222416	-0.039585195
10	0x3ea1ffca	0.31640464
11	0xbd919171	-0.07107819
12	0x3b0fd725	0.0021948304
13	0x3ec660da	0.38745767
14	0x3d4dad32	0.050214
15	0x3e387e22	0.18016866
16	0x3edc0072	0.4296909
17	0xbbe2f09f	-0.006925657
18	0x3d2885e7	0.041143324
19	0xbd80fe90	-0.06298554
20	0xbd20ca7d	-0.039255608
21	0xbe23ecfa	-0.16008368
22	0xbdc217ce	-0.09477197
23	0x3ea979d7	0.3310077
24	0x3ea51e71	0.32249787
25	0x3eb8c747	0.36089537
26	0x3e983ac8	0.29732347
27	0xbdda8e34	-0.10671654
28	0x3e50f099	0.2040428
29	0x3d41a0eb	0.047272604
30	0x3e9ccb0d	0.30623665
31	0xbd891567	-0.06693535

fc3.weight f4 [4, 32]
0	0xbd0ee2f4	-0.034884408
1	0x3daef39a	0.08542557
2	0x3f27da5e	0.65567577
3	0xbd0c2414	-0.034214094
4	0x3ebeb8d6	0.37250394
5	0x3ed04f75	0.4068562
6	0x3e2faf17	0.17156635
7	0xbd19d4df	-0.037556525
8	0xbe0abda3	-0.13548903
9	0x3cb2e2b1	0.02183661
10	0x3d86db17	0.06584757
11	0x3dbfee3c	0.093716115
12	0xbbfd19b6	-0.0077240122
13	0xbe61cc83	-0.22050671
14	0x3e227365	0.15864332
15	0xbe7cee5f	-0.24700306
16	0x3eedeb4f	0.4646859
17	0xbdd209b8	-0.1025576
18	0x3dcd78d2	0.1003281
19	0x3e2be177	0.16785227
20	0x3e15c1bf	0.1462469
21	0x3d4bd491	0.049763266
22	0xbd8b64eb	-0.06806358
23	0x3f0ac259	0.542028
24	0x3f02f0a1	0.5114842
25	0x3ece8d39	0.4034212
26	0x3e9be2b5	0.304464
27	0x3c7f4b17	0.015581868
28	0x3f28ca0a	0.6593329
29	0xbd116682	-0.03549815
30	0x3de6d44d	0.11270962
31	0x3df89614	0.12138
32	0xbc2c1bc0	-0.010504663
33	0x3d26618e	0.04062038
34	0x3ecdd273	0.40199623
35	0x3f1b80ce	0.60743415
36	0xbe60895d	-0.219274
37	0x3f108679	0.5645519
38	0xbd480d75	-0.04884096
39	0x3e687e86	0.22704515
40	0x3dbb612a	0.09149392
41	0xbddc86c9	-0.10767896
42	0x3f0fea5d	0.56216985
43	0xbcb04849	-0.021518843
44	0xbdba3669	-0.09092409
45	0x3f0560eb	0.5210101
46	0xbd35ef22	-0.044417508
47	0x3f2ed3b0	0.6829176
48	0xbc3bf9d6	-0.01147314
49	0xbd1a57ce	-0.037681393
50	0xbcda69d9	-0.0266618
51	0x3d8f4314	0.06995216
52	0xbda6544d	-0.08121548
53	0xbdf56963	-0.119829915
54	0xbdd1d9fc	-0.10246655
55	0x3ef69e84	0.48167813
56	0x3dff864e	0.124767885
57	0x3eb1b144	0.34705555
58	0x3eb19fdb	0.34692273
59	0xbde234da	-0.11045237
60	0xbea1b47e	-0.31583017
61	0xbcf0d147	-0.029396666
62	0xbe8f5af9	-0.27999094
63	0xbd5da4b6	-0.05411216
64	0xbaa3ea17	-0.0012505677
65	0x3dfb990c	0.12285051
66	0xbe56387a	-0.20919982
67	0x3e67af1c	0.22625393
68	0xbf8eec66	-1.1165893
69	0xbe8c2ad4	-0.27376425
70	0xbc9e7728	-0.019343928
71	0x3f13ae5d	0.5768793
72	0xbbed34c0	-0.0072389543
73	0x3e53a392	0.20667866
74	0x3dc26ccb	0.09493407
75	0xbe03f6a3	-0.12887053
76	0xbc8958c3	-0.016765958
77	0x3eed551d	0.46354
78	0xbd312a58	-0.043253273
79	0xbae605e6	-0.0017549365
80	0x3f0b30e0	0.5437145
81	0xbdcd4b5f	-0.100241415
82	0x3d1cc491	0.038273398
83	0x3b90986f	0.0044127028
84	0xbd37511c	-0.044755086
85	0xbc3329a9	-0.0109352255
86	0xbe0c30e5	-0.13690527
87	0x3eb56b61	0.35433486
88	0x3f0646f7	0.52452034
89	0x3eb2e54c	0.34940565
90	0x3ed14ed1	0.40880445
91	0xbd814d33	-0.06313553
92	0x3e4f26b7	0.20229612
93	0xbd50ddfe	-0.05099296
94	0x3efc0ca8	0.49228406
95	0x3d412a03	0.047159206
96	0xbdf0a51a	-0.117502406
97	0xbddcba8b	-0.10777768
98	0xbecfde8c	-0.40599477
99	0x3e3baab4	0.18326837
100	0x3fd00804	1.6252446
101	0x3de1c6e2	0.11024262
102	0x3dc4d552	0.09611
103	0x3eada04b	0.33911356
104	0x3e0899cf	0.13339923
105	0xbd5b008f	-0.05346733
106	0x3e0a96d1	0.13534094
107	0x3d32c422	0.043644078
108	0x3dd3f2e8	0.10349065
109	0x3defe8d6	0.11714332
110	0xbbbdca27	-0.0057919207
111	0x3eb0756a	0.3446458
112	0x3ea811cb	0.32826075
113	0x3e427bf5	0.18992598
114	0x3cd89721	0.026439251
115	0xbd0664df	-0.032811042
116	0x3cc0107e	0.023445364
117	0x3e50ad8a	0.203787
118	0xbc4f4810	-0.012651458
119	0xbe344a0b	-0.1760637
120	0xbdd2f5f9	-0.10300822
121	0xbd0c7e36	-0.03430005
122	0x3eb51618	0.3536842
123	0x3d0b15d8	0.03395638
124	0x3eb86e55	0.36021677
125	0xbd4fed59	-0.05076346
126	0x3f345e6c	0.70456576
127	0xbd92489c	-0.071427554

fc3.bias f4 [4]
0	0x3e2e3bf4	0.17015058
1	0x3e78f4f2	0.24312189
2	0x3edab5f8	0.42716956
3	0x3e77d08d	0.2420065
