policy_net9200.pth (torch, 15822 bytes, 6 tensors)

fc1.weight f4 [64, 16]
0.37596774 0.2691923 0.24893339 0.31245694 -0.33869043 0.10786888 -0.10242862 0.14657664
-0.05348241 0.6378688 -0.12247521 -0.20735142 -0.14966017 0.6249791 0.0048355367 -0.069575876
0.05310966 0.011786931 0.25456592 -0.12234816 0.5838408 -0.02575478 0.10823816 -0.024682552
-0.32502973 0.5190879 0.8437598 0.19401237 -0.16281813 -0.013681745 0.47860727 -0.0783878
0.2068364 0.034964625 0.23663001 0.027507221 0.32851002 0.21701208 0.3419529 0.018511295
0.09554132 0.45776016 0.41551682 -0.13671151 -0.019991577 0.43324634 0.582229 0.2024155
0.2583837 0.2998698 0.60429966 0.25309336 -0.29235956 0.16157457 -0.2699299 -0.11457649
0.4560376 0.21161614 0.03609896 -0.14288408 0.20408112 0.6604123 0.35139903 -0.09361985
0.21063699 0.19722044 0.17897618 -0.15335515 -0.09804952 -0.08885437 0.123652756 -0.11380866
-0.015576035 0.053801596 -0.09225014 -0.15003496 0.15339503 0.028753817 -0.16500044 0.045308888
0.13032629 -0.111637674 0.5450417 -0.15773916 -0.1291655 0.023576379 1.458903 -0.24929339
-0.2708781 -0.24453427 -0.03405709 0.10493401 -0.1189256 1.4318191 0.053905584 -0.036415666
0.32408276 -0.08382007 0.41777658 0.030080188 -0.019004103 -0.14915237 0.061315 0.028724521
0.33447435 0.402825 0.017552432 -0.054344058 0.15547544 0.68538016 0.09023803 0.16146469
-0.04330511 0.78916633 0.1418929 0.8344237 -0.21736644 -0.10149065 -0.51799715 0.183588
0.46218812 -0.30491298 -0.5164746 0.16482654 0.026303321 0.4973483 -0.426317 0.12450668
0.2673179 -0.17211315 0.34865198 -0.3780111 0.47999263 0.13393092 0.4251726 0.19829798
-0.37996104 0.4010498 0.27590024 -0.14948913 -0.20677978 0.46429253 0.00089111546 0.12607956
0.23058288 -0.048748005 0.40737563 0.27090907 0.19300775 -0.24586844 0.26978165 0.21835068
0.26117602 0.36985093 -0.16064416 -0.203269 0.0059815943 0.61032784 0.02876129 -0.0721069
0.3038313 -0.12340756 0.39973322 -0.46793076 0.54318017 -0.08632672 0.83804685 -0.15445235
-0.32175317 -0.4644171 0.9344831 0.03405544 -0.16120636 0.8049138 0.3410469 -0.14401987
0.1113587 0.13436776 0.17332871 0.25441036 0.26643446 0.14843628 0.17829378 -0.058962733
0.12643476 -0.26483697 0.35891384 -0.17662394 -0.22066823 0.68856686 0.22946729 -0.123970926
0.48018104 -0.21609446 0.14358553 -0.026666073 0.53179264 -0.12555292 0.38516778 0.052109778
-0.23238844 0.6142651 0.9496895 -0.028852284 -0.041857928 0.15769827 0.69898087 -0.10686579
0.33410028 -0.09047649 0.09914162 0.20482041 -0.31393966 0.13898167 0.2843565 -0.15182614
-0.02313732 0.39378828 -0.33231542 0.06494528 -0.20002341 0.9362845 0.18455908 0.067433774
-0.25729576 0.8921938 0.36840597 0.4809478 -0.38132927 -0.14486685 -0.6696659 -0.052912056
0.7656813 0.12708084 0.084937006 -0.16454065 0.17016011 0.118151635 0.046794184 0.18234971
0.16347466 0.24577582 0.39751732 0.41114986 0.377445 0.2006338 -0.008733676 -0.109325916
0.44816345 0.20487005 0.4868695 0.04466182 -0.11408892 -0.10379499 0.2268491 -0.16521439
00000000: d87e c03e 93d3 893e 65e8 7e3e 5bfa 9f3e
00000010: d568 adbe 5cea dc3d 19c6 d1bd 3018 163e
00000020: 5f10 5bbd 5f4b 233f 48d4 fabd ee53 54be
00000030: 8440 19be a1fe 1f3f 6c73 9e3b cc7d 8ebd
00000040: 8489 593d f91d 413c 7756 823e ac91 fabd
00000050: 9776 153f b0fb d2bc f8ab dd3d 1033 cabc
00000060: 4c6a a6be f2e2 043f a400 583f 2eab 463e
00000070: ccb9 26be 6629 60bc 030c f53e c889 a0bd
00000080: eccc 533e 1137 0f3d 234f 723e d356 e13c
00000090: 7732 a83e 6a38 5e3e 7314 af3e 00a5 973c
000000a0: 2bab c33d 8a5f ea3e 9fbe d43e 1afe 0bbe
000000b0: 60c5 a3bc 77d2 dd3e f60c 153f 0246 4f3e
000000c0: de4a 843e 8988 993e 62b3 1a3f 7495 813e
000000d0: 27b0 95be ce73 253e 4034 8abe 14a7 eabd
000000e0: c37d e93e e7b1 583e 81dc 133d 3450 12be
000000f0: a4fa 503e c810 293f 93ea b33e c4bb bfbd
00000100: 39b1 573e 28f4 493e 8845 373e 2209 1dbe
00000110: 30ce c8bd 48f9 b5bd a83d fd3d 8414 e9bd
00000120: a032 7fbc 105f 5c3d a4ed bcbd c4a2 19be
00000130: 9613 1d3e 208d eb3c e0f5 28be d095 393d
00000140: 4174 053e 4ba2 e4bd da87 0b3f 6086 21be
00000150: f643 04be 4023 c13c 55bd ba3f c446 7fbe
00000160: 89b0 8abe 3167 7abe 727f 0bbd a4e7 d63d
00000170: 448f f3bd d945 b73f 1acc 5c3d 9828 15bd
00000180: 2dee a53e dba9 abbd d0e6 d53e ba6a f63c
00000190: 7eae 9bbc 66bb 18be 7025 7b3d b04f eb3c
000001a0: 3940 ab3e 143f ce3e 1eca 8f3c e097 5ebd
000001b0: f434 1f3e 1375 2f3f b7ce b83d 0057 253e
000001c0: b360 31bd ce06 4a3f 5f4c 113e cb9c 553f
000001d0: 4f95 5ebe 54da cfbd 769b 04bf 7efe 3b3e
000001e0: eca3 ec3e 8e1d 9cbe ae37 04bf 4ac8 283e
000001f0: 107a d73c 70a4 fe3e 3946 dabe 5cfd fe3d
00000200: e4dd 883e 6e3e 30be 8382 b23e ac8a c1be
00000210: 98c1 f53e 3025 093e 39b0 d93e a00e 4b3e
00000220: 418a c2be 6656 cd3e cc42 8d3e ae13 19be
00000230: 14be 53be c0b7 ed3e bf99 693a 001b 013e
00000240: eb1d 6c3e fdab 47bd 8a93 d03e 98b4 8a3e
00000250: d3a3 453e f0c4 7bbe d220 8a3e 5297 5f3e
00000260: ddb8 853e 1a5d bd3e e77f 24be c025 50be
00000270: 4001 c43b 723e 1c3f cc9c eb3c c8ac 93bd
00000280: c78f 9b3e 1abd fcbd d5a9 cc3e 9f94 efbe
00000290: db0d 0b3f 10cc b0bd 3d8a 563f c228 1ebe
000002a0: d5bc a4be 14c8 edbe 493a 6f3f b87d 0b3d
000002b0: 4813 25be d50e 4e3f b39d ae3e f279 13be
000002c0: 0810 e43d b497 093e 157d 313e 1342 823e
000002d0: 196a 883e aeff 173e a592 363e e882 71bd
000002e0: 1d78 013e b698 87be 8ec3 b73e e8dc 34be
000002f0: daf6 61be eb45 303f 79f9 6a3e 78e4 fdbd
00000300: 4ada f53e de47 5dbe 1608 133e cf72 dabc
00000310: 9023 083f f290 00be b634 c53e 1071 553d
00000320: 3cf7 6dbe 7a40 1d3f da1e 733f a05b ecbc
00000330: 3873 2bbd a87b 213e 69f0 323f 74dc dabd
00000340: 310f ab3e bd4b b9bd c30a cb3d 71bc 513e
00000350: b3bc a0be 3651 0e3e 2d97 913e 5078 1bbe
00000360: 7a8a bdbc 9e9e c93e 3f25 aabe 0802 853d
00000370: f0d2 4cbe 57b0 6f3f 0efd 3c3e b81a 8a3d
00000380: 45bc 83be d066 643f b59f bc3e ca3e f63e
00000390: 973d c3be fa57 14be 396f 2bbf 50ba 58bd
000003a0: b103 443f 7b21 023e 74f3 ad3d 587d 28be
000003b0: 743e 2e3e 7cf9 f13d 42ab 3f3d e2b9 3a3e
000003c0: e765 273e a8ac 7b3e 6487 cb3e 3c82 d23e
000003d0: 7940 c13e f272 4d3e b117 0fbc 44e6 dfbd
000003e0: ae75 e53e 74c9 513e f646 f93e 50ef 363d
000003f0: 74a7 e9bd 7892 d4bd 214b 683e f62d 29be

fc1.bias f4 [64]
0.2848436 0.2677238 0.38893306 0.2636298 -0.26820943 0.24161078 0.4427068 0.46052858
0.3450847 0.34642226 0.45561904 0.26268512 0.17185618 0.2803811 0.66729844 0.2378268
-0.20221686 0.20365824 0.34256166 0.26397008 0.20498398 0.36034137 -0.2251586 0.41966644
0.4072033 0.33903614 -0.15907234 0.3487832 0.3592387 0.42381832 0.4487146 0.25944233
0.3533658 0.19684866 0.3885375 0.3392086 0.43130544 0.08746023 0.39062375 0.50284797
-0.23055053 -0.17201851 0.3459311 0.27605122 0.24928409 0.27274874 0.18787998 0.40573326
-0.05298084 0.5076558 0.22602016 0.27226183 0.41058335 0.35271335 0.44463837 -0.2632846
0.37308776 0.46125475 0.13766862 0.3645814 0.37778237 0.31961647 0.29020855 0.33450094
00000000: 05d7 913e 1813 893e 3c22 c73e 7cfa 863e
00000010: bf52 89be d168 773e 77aa e23e 67ca eb3e
00000020: f1ae b03e 425e b13e e646 e93e aa7e 863e
00000030: 11fb 2f3e 1d8e 8f3e 12d4 2a3f de88 733e
00000040: f011 4fbe c98b 503e 3e64 af3e 1627 873e
00000050: 52e7 513e aa7e b83e fa8f 66be 85de d63e
00000060: f37c d03e 2596 ad3e dce3 22be b693 b23e
00000070: 23ee b73e b7fe d83e ecbd e53e a0d5 843e
00000080: 5dec b43e b292 493e 63ee c63e c0ac ad3e
00000090: 11d4 dc3e 591e b33d d6ff c73e a5ba 003f
000000a0: 7015 6cbe 9f25 30be e21d b13e 9656 8d3e
000000b0: 5444 7f3e b9a5 8b3e 9c63 403e 45bc cf3e
000000c0: 7002 59bd bbf5 013f d471 673e e765 8b3e
000000d0: fb37 d23e d896 b43e a4a7 e33e 3dcd 86be
000000e0: 5c05 bf3e 9529 ec3e 01f9 0c3e 6aaa ba3e
000000f0: b16c c13e c5a4 a33e 3796 943e b543 ab3e

fc2.weight f4 [32, 64]
0.0720755 -0.10986066 -0.059533 -0.049850345 0.0010933552 -0.10047067 -0.012042096 -0.11092489
-0.029847646 -0.15358871 0.0068295323 -0.15007141 -0.08316429 -0.15602762 -0.05325066 -0.1469604
-0.059981346 0.09279878 -0.07575018 -0.08953418 -0.15222476 -0.017164264 0.12427351 0.052709285
0.070370026 -0.09579565 -0.023463845 -0.048302114 0.01929939 -0.10275696 -0.10490973 -0.0330677
0.00045933045 0.038815692 -0.14364508 -0.11173325 0.018821932 0.016169194 -0.17362252 -0.024573166
-0.039832875 0.024475576 0.035177775 0.002494075 -0.08724118 -0.14679135 0.020241143 -0.026257409
-0.101338044 -0.0072317994 -0.06484586 0.028696416 -0.13537483 0.042165257 -0.11560585 -0.14975345
-0.18060507 -0.036858678 -0.0713271 0.04793596 -0.13538067 0.0019666178 -0.057939038 -0.10708001
-0.039027695 -0.0003998918 -0.049143486 0.09742535 -0.14778852 -0.10665778 0.06692922 -0.05197318
-0.15109877 0.05788642 -0.134953 -0.097177684 -0.059974167 -0.08320726 -0.0068456833 0.06295359
0.009419724 -0.14786299 0.083890036 -0.03112766 0.033482414 -0.11047357 0.018954873 0.03519456
0.025918724 0.047253836 -0.0799575 -0.06321557 0.024640493 0.06225126 -0.12615559 0.015427693
-0.04977733 -0.04993175 -0.07304237 -0.007195012 0.070429906 -0.05907971 -0.061458793 0.04808889
0.04445931 0.025146484 -0.07061968 -0.07225402 0.009472101 0.07613317 -0.00587127 -0.11268528
-0.008722901 -0.06949426 -0.053516995 -0.07679598 -0.054641932 -0.08066316 -0.11857851 0.037817404
-0.05731401 -0.01824802 -0.1087469 -0.10536596 -0.01223828 -0.09254234 -0.064345956 0.019327514
-0.091472045 0.6223432 0.24737461 -0.21278319 0.05044657 -0.9138955 0.04585743 -0.9285766
0.3323948 -0.09197489 0.15429424 -0.17113201 0.79714394 -0.35435152 -0.37640288 0.38325858
-0.10996294 1.4087242 0.108603664 -0.17605695 0.6051104 1.0636429 -0.011850864 0.3927111
0.96841395 0.10892649 -0.1043517 0.16098033 0.4067086 0.19113697 -0.4022212 -0.16452649
-0.06377088 -0.078146264 0.10068406 0.64769 0.12835911 0.49689686 -0.1551198 -0.33938614
-0.10639991 -0.10767509 0.3088036 0.6441491 -0.020084562 0.7618138 0.57307714 0.1336613
0.027327105 0.32093847 1.1052155 0.79501915 0.34154773 -0.20728044 0.35165793 0.019136205
0.06554468 -0.1544143 0.051447053 0.38785863 0.3720155 -0.46567973 -0.5751786 0.2783369
0.27869594 0.23208387 0.34787783 0.19926049 0.09328599 0.9867457 0.23045953 -0.19878139
0.33958346 0.24704212 0.9560306 0.25411892 0.61439914 0.48404136 -0.29407102 -0.028925372
-0.057571992 -0.24052037 0.29444993 0.28522435 -0.104317755 0.1722365 -0.10130048 0.08819024
-0.13841885 0.65979385 0.08377388 0.7180662 0.2179083 0.33698127 -0.1894571 0.061105095
0.28019154 0.35730216 0.17072904 0.5953765 0.38900906 0.46041334 0.07272122 0.009584122
-0.07931633 0.12624261 0.44862697 0.13319276 0.102751136 0.295457 0.34628767 0.13577746
0.052568495 0.34081188 0.13222452 0.3686279 0.020859482 -0.12854248 0.93062556 0.07342214
0.38095093 0.35307327 0.86339223 0.25531378 0.25801808 -0.043677453 0.47291288 0.08517776
00000000: 529c 933d a0fe e0bd e0d8 73bd e02f 4cbd
00000010: ea4e 8f3a 91c3 cdbd 364c 45bc 972c e3bd
00000020: 0d83 f4bc 5c46 1dbe 45ca df3b 52ac 19be
00000030: 0a52 aabd b4c5 1fbe 5d1d 5abd c97c 16be
00000040: 00af 75bd 490d be3d e922 9bbd b25d b7bd
00000050: cfe0 1bbe 129c 8cbc 1c83 fe3d b1e5 573d
00000060: 291e 903d 8230 c4bd 4037 c0bc 70d8 45bd
00000070: c119 9e3c 3e72 d2bd eada d6bd ff71 07bd
00000080: 4ad2 f039 34fd 1e3d b217 13be 67d4 e4bd
00000090: 7430 9a3c 4275 843c 1aca 31be aa4d c9bc
000000a0: cc27 23bd 0181 c83c 9216 103d a373 233b
000000b0: 81ab b2bd 7950 16be c1d0 a53c c719 d7bc
000000c0: 528a cfbd bbf8 ecbb e8cd 84bd bf14 eb3c
000000d0: b39f 0abe 7ab5 2c3d c3c2 ecbd f858 19be
000000e0: 89f0 38be 20f9 16bd f113 92bd 7f58 443d
000000f0: 3ba1 0abe 5fe2 003b 7c51 6dbd c44c dbbd
00000100: 81db 1fbd 92a8 d1b9 ae4a 49bd f186 c73d
00000110: e055 17be 656f dabd 3012 893d d4e1 54bd
00000120: a3b9 1abe 501a 6d3d 1f31 0abe 1805 c7bd
00000130: 79a7 75bd 9168 aabd c151 e0bb d0ed 803d
00000140: 3055 1a3c 6569 17be 8ace ab3d 6fff febc
00000150: db24 093d f83f e2bd 4047 9b3c 2c28 103d
00000160: 8153 d43c 3d8d 413d c2c0 a3bd 2a77 81bd
00000170: dcda c93c 2dfb 7e3d ee2e 01be 6fc4 7c3c
00000180: 50e3 4bbd 3c85 4cbd 3d97 95bd 23c4 ebbb
00000190: 8e3d 903d 91fd 71bd 37bc 7bbd dbf8 443d
000001a0: f71a 363d 0000 ce3c 0da1 90bd eaf9 93bd
000001b0: df30 1b3c b5eb 9b3d c863 c0bb 8ac7 e6bd
000001c0: 80ea 0ebc 0253 8ebd a334 5bbd 3647 9dbd
000001d0: 38d0 5fbd ba32 a5bd 4ad9 f2bd 6ce6 1a3d
000001e0: 18c2 6abd df7c 95bc b2b6 debd 1cca d7bd
000001f0: 1183 48bc d786 bdbd d0c7 83bd bc54 9e3c
00000200: b255 bbbd e251 1f3f c54f 7d3e d6e3 59be
00000210: 10a1 4e3d 0ef5 69bf 00d5 3b3d 32b7 6dbf
00000220: a72f aa3e 555d bcbd 4fff 1d3e 3b3d 2fbe
00000230: a011 4c3f 906d b5be e1b7 c0be 783a c43e
00000240: 4034 e1bd 1351 b43f 996b de3d 4648 34be
00000250: 84e8 1a3f 7325 883f 202a 42bc 6e11 c93e
00000260: fae9 773f da14 df3d 58b6 d5bd 07d8 243e
00000270: 1c3c d03e 69b9 433e f0ef cdbe a279 28be
00000280: 4f9a 82bd 260b a0bd 7233 ce3d 03cf 253f
00000290: 9270 033e 4469 fe3e bad7 1ebe 05c4 adbe
000002a0: 32e8 d9bd c284 dcbd 811b 9e3e f5e6 243f
000002b0: 6188 a4bc 3b06 433f 2fb5 123f 82de 083e
000002c0: 18dd df3c 0c52 a43e b477 8d3f 6086 4b3f
000002d0: 58df ae3e 5341 54be 820c b43e 88c3 9c3c
000002e0: 4a3c 863d c81e 1ebe 25ba 523d 6895 c63e
000002f0: d178 be3e 936d eebe e83e 13bf 2d82 8e3e
00000300: 3cb1 8e3e 65a7 6d3e 0b1d b23e f10a 4c3e
00000310: ba0c bf3d 5e9b 7c3f 95fd 6b3e 598d 4bbe
00000320: e2dd ad3e 9cf8 7c3e 6cbe 743f e01b 823e
00000330: 4349 1d3f 45d4 f73e 7a90 96be e7f4 ecbc
00000340: 9cd0 6bbd f94a 76be 24c2 963e ed08 923e
00000350: 8ca4 d5bd c45e 303e a076 cfbd 169d b43d
00000360: acbd 0dbe 40e8 283f a491 ab3d 30d3 373f
00000370: 5a23 5f3e cf88 ac3e 0b01 42be 5649 7a3d
00000380: 4475 8f3e 4ff0 b63e 98d3 2e3e 986a 183f
00000390: 322c c73e 4cbb eb3e ddee 943d b906 1d3c
000003a0: 9a70 a2bd be45 013e 6fb2 e53e af63 083e
000003b0: 306f d23d 2446 973e 9e4c b13e 3f09 0b3e
000003c0: 1052 573d e57e ae3e dd65 073e ccbc bc3e
000003d0: 81e1 aa3c a4a0 03be 7a3d 6e3f 595e 963d
000003e0: 000c c33e 05c6 b43e 4607 5d3f 7db8 823e
000003f0: f21a 843e 21e7 32bd a321 f23e ad71 ae3d

fc2.bias f4 [32]
0.051197525 -0.09270135 0.053635243 0.30990085 0.33576962 0.20600386 -0.017775584 0.19633363
-0.07033864 -0.039585195 0.3169808 -0.07107819 0.0021948304 0.38808674 0.050214 0.18060724
0.43046418 -0.006925657 0.041143324 -0.06298554 -0.039255608 -0.16008368 -0.09477197 0.33177078
0.32303804 0.3615931 0.2981685 -0.10671654 0.20446458 0.047272604 0.3066131 -0.06693535
00000000: 7fb4 513d 35da bdbd a1b0 5b3d 53ab 9e3e
00000010: ffe9 ab3e adf2 523e 1a9e 91bc af0b 493e
00000020: b40d 90bd 1624 22bd 4f4b a23e 7191 91bd
00000030: 25d7 0f3b 4eb3 c63e 32ad 4d3d 1bf1 383e
00000040: cd65 dc3e 9ff0 e2bb e785 283d 90fe 80bd
00000050: 7dca 20bd faec 23be ce17 c2bd dcdd a93e
00000060: 3e65 a53e bb22 b93e 8ba9 983e 348e dabd
00000070: 2a5f 513e eba0 413d 64fc 9c3e 6715 89bd

fc3.weight f4 [4, 32]
-0.034884408 0.08542557 0.655603 -0.034397237 0.37292787 0.40669063 0.17156635 -0.03792877
-0.13548903 0.02183661 0.0656733 0.093716115 -0.0077240122 -0.22092833 0.15864332 -0.24721442
0.46451244 -0.1025576 0.1003281 0.16785227 0.1462469 0.049763266 -0.06806358 0.54185647
0.51122737 0.4032588 0.30425048 0.015581868 0.6592775 -0.03549815 0.11193149 0.12138
-0.010504663 0.04062038 0.40258697 0.6072693 -0.21841869 0.5648353 -0.04884096 0.22656828
0.09149392 -0.10767896 0.56208307 -0.021518843 -0.09092409 0.5203805 -0.044417508 0.6824662
-0.0113831675 -0.037681393 -0.0266618 0.06995216 -0.08121548 -0.119829915 -0.10246655 0.48186707
0.12489882 0.34719267 0.34685794 -0.11045237 -0.31527147 -0.029396666 -0.28118613 -0.05411216
-0.0012505677 0.12285051 -0.20899355 0.22627558 -1.1158754 -0.27373317 -0.019343928 0.5765134
-0.0072389543 0.20667866 0.09496733 -0.12887053 -0.016765958 0.46328253 -0.043253273 -0.0015951436
0.5433616 -0.100241415 0.038273398 0.0044127028 -0.044755086 -0.0109352255 -0.13690527 0.35419083
0.52413917 0.34923926 0.40862304 -0.06313553 0.20215029 -0.05099296 0.49065554 0.047159206
-0.117502406 -0.10777768 -0.40510938 0.18326735 1.6258916 0.11079687 0.09611 0.33870363
0.13339923 -0.05346733 0.1354299 0.043644078 0.10349065 0.116756655 -0.0057919207 0.3443536
0.32834938 0.18992598 0.026439251 -0.032811042 0.023445364 0.203787 -0.012651458 -0.1756567
-0.1027355 -0.03398851 0.35368085 0.03395638 0.36060107 -0.05076346 0.7028782 -0.071427554
00000000: f4e2 0ebd 9af3 ae3d 99d5 273f 1ee4 0cbd
00000010: 67f0 be3e c139 d03e 17af 2f3e 335b 1bbd
00000020: a3bd 0abe b1e2 b23c b97f 863d 3cee bf3d
00000030: b619 fdbb 093b 62be 6573 223e c725 7dbe
00000040: 93d4 ed3e b809 d2bd d278 cd3d 77e1 2b3e
00000050: bfc1 153e 91d4 4b3d eb64 8bbd 1bb7 0a3f
00000060: ccdf 023f f077 ce3e b8c6 9b3e 174b 7f3c
00000070: 69c6 283f 8266 11bd 563c e53d 1496 f83d
00000080: c01b 2cbc 8e61 263d e11f ce3e 0076 1b3f
00000090: 26a9 5fbe 0c99 103f 750d 48bd 8401 683e
000000a0: 2a61 bb3d c986 dcbd ade4 0f3f 4948 b0bc
000000b0: 6936 babd a837 053f 22ef 35bd 1bb6 2e3f
000000c0: 7780 3abc ce57 1abd d969 dabc 1443 8f3d
000000d0: 4d54 a6bd 6369 f5bd fcd9 d1bd 48b7 f63e
000000e0: f4ca ff3d 3dc3 b13e 5d97 b13e da34 e2bd
000000f0: 436b a1be 47d1 f0bc a1f7 8fbe b6a4 5dbd
00000100: 17ea a3ba 0c99 fb3d 6802 56be c9b4 673e
00000110: 01d5 8ebf c126 8cbe 2877 9ebc 6296 133f
00000120: c034 edbb 92a3 533e 3b7e c23d a3f6 03be
00000130: c358 89bc 5e33 ed3e 582a 31bd 2314 d1ba
00000140: bf19 0b3f 5f4b cdbd 91c4 1c3d 6f98 903b
00000150: 1c51 37bd a929 33bc e530 0cbe 8058 b53e
00000160: fc2d 063f 7dcf b23e 0a37 d13e 334d 81bd
00000170: 7c00 4f3e fedd 50bd 3437 fb3e 032a 413d
00000180: 1aa5 f0bd 8bba dcbd 7f6a cfbe 70aa 3b3e
00000190: 371d d03f 78e9 e23d 52d5 c43d 906a ad3e
000001a0: cf99 083e 8f00 5bbd 23ae 0a3e 22c4 323d
000001b0: e8f2 d33d 1d1e ef3d 27ca bdbb 1d4f b03e
000001c0: 691d a83e f57b 423e 2197 d83c df64 06bd
000001d0: 7e10 c03c 8aad 503e 1048 4fbc 5adf 33be
000001e0: fd66 d2bd 8937 0bbd a815 b53e d815 0b3d
000001f0: b4a0 b83e 59ed 4fbd d3ef 333f 9c48 92bd

fc3.bias f4 [4]
0.1711715 0.24440023 0.42854428 0.24312238
00000000: 9547 2f3e 0e44 7a3e 286a db3e 13f5 783e
