policy_net1800.pth (torch, 15822 bytes, 6 tensors)

fc1.weight f4 [64, 16]
00000000: 3779 643e bc3a 0f3f ea15 fd3e bf79 123f
00000010: 43a1 0b3f 00d9 8f3d e3ea efbe 0082 183e
00000020: f031 193f 93d6 ba3e 9851 133f c0dc 493e
00000030: 7cc8 aa3d 74d1 febe 894e 163f d4c6 063e
00000040: e79b bb3e 8fff c33d 4fa9 7f3e 67a3 29be
00000050: 27d1 a23e 0682 4f3e 488d 9a3d ca3c 483e
00000060: 0c35 0f3e c727 5ebe b95e 65be ea9e 623e
00000070: 0ee3 303e 10d4 d43e 4b8a e83e 62fd 10be
00000080: 5947 7b3d 205f a5be 6170 b6bd c9fe 85bd
00000090: 4ad8 353e 280f fabd ca3c d83e 705e 46be
000000a0: bc5c bebe 0062 493f a613 e43e 5687 1dbe
000000b0: e0b9 6bbc 87ed 3f3e fb08 9c3e d0e9 05bd
000000c0: a6a2 cb3e cc39 3dbe e9f2 1a3e 6639 cabe
000000d0: 6a14 efbe 7252 153e 4a4b 22bd 40c4 b93b
000000e0: 5ba2 b1be da0e 853f 908c f0be b6aa 01be
000000f0: 30bd 023e 157e c73e f807 c0be d2c1 1e3e
00000100: 70b0 c73e 0cc1 26be 32c5 50be 8d48 27be
00000110: 4b92 093f 3c36 643e e3a3 a63e 4e6b 42be
00000120: 902f 24be fa81 f53e c768 b73b 281b ae3d
00000130: 50b6 1fbe 6f96 0b3f 30a9 353f 56e8 513e
00000140: eb9b 873e 73f8 c53e 94cc b73e ee6d a33e
00000150: 6dec ed3e eec0 7fbe b91b a8be d448 64be
00000160: dc99 853e 8dcc 493e 0956 f83e 4081 003e
00000170: 60b4 b13d 599b 9cbe 6829 233f 2c3a 4abe
00000180: 6d84 48bd cc3a 80be 462a af3e 7697 353e
00000190: 6145 7fbe c2d8 713e 2f47 82be 1cfa 99bd
000001a0: 4641 6a3e ded5 133f acd1 123e 7433 5bbe
000001b0: f4bb 4cbe 3f2b e53e a460 8dbd a07b 48bc
000001c0: e64e b63e 7edd 753d f5cd af3e 9f05 b43e
000001d0: a623 8b3e 78a2 54be 03e4 b5be ea62 123e
000001e0: 119b a73e 154c 543e abe7 073f 4eaa 2fbe
000001f0: 90d4 a73d 4bff 55be ed7a 973d c0c7 cbbc
00000200: c67c f83e d7d8 9f3e 02b5 7d3e 3428 d73e
00000210: 3ec4 a5be 3816 303e c24b d9bc 1486 cdbd
00000220: 054a 7c3e 580a 183d 3dec 4fbd 884e debd
00000230: 18cb 3e3e 7b59 af3e 8824 28be 9052 75bd
00000240: a845 63be f89d 9a3d 6049 73bd 9498 be3d
00000250: bea6 1e3e 44c7 be3d bc02 10be 2cb9 003e
00000260: 10af 75be 0ce2 29be 44bd b2bd 5442 16be
00000270: 0022 4fbe d0c6 af3c e2d3 48be 28c3 13be
00000280: d5d0 8b3e 26cd fc3e 47d9 483e 22cf 333e
00000290: 7512 1f3d 043e f33d 0932 b7be 1426 713e
000002a0: 412b ca3e fd29 21be d2bc 99be e8cf 553d
000002b0: ae1a 64be 48ff 133f 952f f8bc 36c9 023e
000002c0: d317 613e 2ce0 c33e 98d5 a43e a9e0 9b3e
000002d0: 50f4 8e3e 3478 9b3d 1809 993e 103d c83d
000002e0: 03f2 173e d1d9 c7be 8df5 3bbd 0831 383e
000002f0: e236 0fbe a970 293f a5a0 af3e c064 d43d
00000300: 33f2 833e 2092 d43e 25a1 b53e f980 843e
00000310: 29be ad3d c0c1 b23b e276 023e b0d3 fa3d
00000320: 2726 cd3e b60d ad3d bab2 fa3e 0aa0 71be
00000330: c0f7 563d 4c99 53bd e2c5 023f 2c09 f33d
00000340: d159 6a3e c0a4 7c3d b53d 013f 7ca6 b23d
00000350: 49dc 293e 1e04 693e 43f5 0ebe f0a2 9c3d
00000360: 6507 e23d 802d 043f 5268 b83e 68ec 4abe
00000370: 6420 fc3d fc9d d33e c0f4 b83e 3ec6 71be
00000380: ac30 3f3e b4a6 d63d 68f6 ff3d 7c20 c6bd
00000390: 94fe 3bbe 4031 15be a401 69be 8c73 a23d
000003a0: 00f1 85bb 3a04 1c3e 28d9 8b3d a0d3 c3bc
000003b0: acf2 963d 505c 0c3e 9055 333d 10af 4e3d
000003c0: a4b5 813e f6e9 8a3e 74a9 683e 54a5 fdbd
000003d0: dbb4 6f3e 404c b33b f9f7 b7bc 1007 523e
000003e0: 9e04 e7bb 2049 35be aa59 9f3e b0ac 813c
000003f0: 7e5d 74be 7b87 ca3d e012 173e 34bb 00be
0.22311865 0.55948997 0.49430782 0.5721702 0.5454294 0.07023811 -0.46858892 0.14893341
0.59841824 0.36491832 0.5754638 0.19713116 0.083390206 -0.49769175 0.58713585 0.13161784
0.36642382 0.09570228 0.2496693 -0.1656624 0.31800196 0.20264444 0.075464785 0.19554439
0.1398508 -0.21694861 -0.22399415 0.22130933 0.17274114 0.4156804 0.4541801 -0.14159158
0.06134734 -0.32299137 -0.08908153 -0.06542737 0.17758289 -0.12209922 0.42233878 -0.19371963
-0.37180126 0.7866516 0.4454624 -0.15383658 -0.014387578 0.18742953 0.30475602 -0.032693684
0.39772528 -0.18479079 0.15131725 -0.39496917 -0.46695262 0.14582232 -0.039622582 0.005669147
-0.3469418 1.0395157 -0.4698224 -0.12662777 0.12767482 0.3896338 -0.3750608 0.15503624
0.390018 -0.16284579 -0.20387724 -0.1633627 0.5373885 0.22286314 0.3254691 -0.18986246
-0.16033769 0.47950727 0.005597207 0.085012734 -0.1559689 0.5452642 0.70961285 0.20498785
0.26486143 0.38666114 0.35898268 0.31919807 0.4646944 -0.2497594 -0.3283365 -0.22293407
0.26093948 0.19706936 0.4850314 0.12549305 0.08676982 -0.3058727 0.63735056 -0.19748753
-0.048954416 -0.25044858 0.3421194 0.17733559 -0.2492881 0.23617843 -0.25444934 -0.07518408
0.22876462 0.5774821 0.14337796 -0.21406347 -0.19993573 0.44759557 -0.06903198 -0.012236506
0.3560707 0.060025685 0.3433682 0.3516054 0.27175635 -0.20765102 -0.35525522 0.14295545
0.32735494 0.20732148 0.5308787 -0.1715481 0.0819484 -0.20898168 0.07396493 -0.024875522
0.48532695 0.31220123 0.2477608 0.4202286 -0.32376283 0.17195976 -0.026525382 -0.10035339
0.24637611 0.03711924 -0.050762404 -0.108548224 0.18632162 0.34247956 -0.16420186 -0.05989319
-0.2219454 0.075496614 -0.059396148 0.09306446 0.15493295 0.09315351 -0.14063543 0.12570637
-0.23992562 -0.16590136 -0.08727506 -0.1467374 -0.20227814 0.021457106 -0.19612077 -0.14429915
0.27307764 0.49375266 0.19614135 0.17559484 0.03883596 0.11877063 -0.3578036 0.23549682
0.39486125 -0.15738674 -0.3002687 0.052200228 -0.22275802 0.57811403 -0.030296126 0.12772068
0.21981744 0.38256967 0.3219421 0.3044484 0.2792077 0.07591286 0.2988975 0.09777272
0.14838414 -0.39033368 -0.045888472 0.17987454 -0.1398578 0.6618753 0.3430225 0.10370779
0.2577072 0.41517735 0.35474506 0.25879648 0.08483536 0.0054552257 0.12740663 0.122474074
0.4006817 0.08449881 0.48964483 -0.23596206 0.052482367 -0.051659867 0.51083195 0.11866984
0.22885825 0.061680555 0.5048478 0.087231606 0.16587938 0.22755477 -0.13960747 0.07648265
0.11036567 0.5163193 0.3601709 -0.19816744 0.123108655 0.4133147 0.3612423 -0.2361078
0.1867091 0.10481015 0.1249817 -0.09674165 -0.18358833 -0.14569569 -0.22754532 0.07932195
-0.0040875673 0.15235987 0.06828529 -0.023904622 0.07370505 0.1370709 0.04378277 0.05045992
0.25333893 0.27131623 0.22720891 -0.123850495 0.23408835 0.005471736 -0.02245711 0.20510507
-0.007050111 -0.17703676 0.31123096 0.015829414 -0.2386379 0.09889122 0.14753294 -0.12571412

fc1.bias f4 [64]
00000000: cc72 fd3e af9b 583e 934c 9b3e d4da ec3e
00000010: 47a8 053e 1932 9c3e 3336 6f3e f1d2 ed3e
00000020: 35a1 c83e c226 5ebe a56f a73e 32e4 d53e
00000030: 1b39 b13e 431d d03e 00fc 62be e3d7 f53e
00000040: 7250 c23e f95f cf3e ea22 ca3e 226a 023f
00000050: 8490 9b3e 5ea7 b33e 379f a33e a16e f33e
00000060: f4ff e73e ad72 043f c2cf 83be a37f 1f3f
00000070: 80bb c63e 3da3 bb3e 8812 dd3e d9cd f83e
00000080: ce65 f43e 32bc 7dbe 845e af3e b2dd d63e
00000090: 8b6b 983e d076 fb3e f389 033f be37 9f3e
000000a0: 38a2 7abe f009 25bd f80d f73e dad1 f73e
000000b0: 14e9 e63e f446 ba3e 81f3 e63e 76e5 f03e
000000c0: 5847 043f 30b5 b03e 1b1f ca3e 9859 113f
000000d0: 5cb9 e83e 9316 9a3e 2904 bd3e e35f df3e
000000e0: cc49 ce3e ee33 c23e 2316 af3e 568f df3e
000000f0: c613 093f de10 023f 0d98 c83e 9430 a93e
0.49501646 0.21153139 0.3033186 0.46260703 0.13052474 0.3050697 0.23360519 0.46449998
0.3918549 -0.21694472 0.32702366 0.41775662 0.3461388 0.40647325 -0.22166443 0.4801627
0.37952 0.4050291 0.39479762 0.50943196 0.30383694 0.3508863 0.3195741 0.4754534
0.45312464 0.5173748 -0.25744444 0.62304133 0.38814926 0.36647978 0.431782 0.4859455
0.4773392 -0.24778822 0.34251797 0.41966015 0.2976955 0.49114084 0.5138237 0.31097215
-0.24475944 -0.04029268 0.48252845 0.48402292 0.450997 0.36382258 0.45107654 0.47050065
0.5167136 0.34513235 0.39476857 0.56777334 0.45453918 0.30095348 0.36917236 0.43627843
0.40290678 0.37930244 0.34196576 0.43664044 0.53545797 0.5080699 0.39178506 0.33044875

fc2.weight f4 [32, 64]
00000000: f4c7 a53d 1fa2 fe3d 9deb bf3e 585d 493f
00000010: c2ee f43e 02d5 383d f305 f43e ae66 593e
00000020: ffae 373e 7a04 993d 9225 243e 36ba 923e
00000030: a457 993e 704b c93e a6e1 f83d 3e0e 0e3e
00000040: 43ef 8b3e 38aa 943e 9cdd bb3e 4979 833e
00000050: b07a 9d3e 5047 0b3f 3396 623e 560a 6d3d
00000060: 5b92 433e f786 2c3f 7742 453d ac8a 993e
00000070: 9b60 0a3f 5924 9b3d d772 963e c779 e93d
00000080: 321d ea3e 60a6 af3c 9bda 593e 3bcb 1a3f
00000090: bf41 a63e 57ee 5f3e de2e 793e da5d 013e
000000a0: 4778 67bc f4bd 50bd 673d 183e c449 883e
000000b0: ec21 5c3e bcc0 8f3e dc90 6ebd 342b b73e
000000c0: 5dbd a13e 0997 f03e 64aa 583e e212 8c3d
000000d0: 47ee 433e fd49 243e 0d95 873d 1755 523e
000000e0: 14ce 713e 2e9c 9b3e d8b5 713d 7f07 393e
000000f0: 195b 1e3d 28f2 a03e 324e a53e 5cf5 d23d
00000100: 6934 0f3f 17b0 443e 73be 7ebe 1791 9dbd
00000110: 612c 1bbe ffc0 e73e e237 8b3e a949 bc3e
00000120: b2d5 de3e 00c2 9cbb cdbb 103f 256e dd3e
00000130: e8bd ad3e e040 6e3e d460 a8bd 3957 b93e
00000140: bed0 e0bb cb11 32be 1093 843c fd07 143f
00000150: 9f15 3a3e f0f8 653c b861 163f 42b6 0e3f
00000160: 4439 2c3e 9b84 82be abce 8cbd 2167 ac3e
00000170: 11ec d13d 8dcb 7b3e 1d59 17be ff89 adbd
00000180: db47 37bf 44ed e53d fd84 0d3f 9a72 313e
00000190: 8881 d43d 53b6 353e 5f2a 76be 5dee 153f
000001a0: 2b52 67bd c277 a13d 36d6 1c3f 9f6f 8a3e
000001b0: 2b6c 923e e06a cebe b926 603f 4fff f0be
000001c0: 9690 813d aec2 8dbe ee04 a63e 3133 383f
000001d0: 1791 f63d 1847 babe 6d4e 75bc 23bb 2b3e
000001e0: 1114 a93e cbc4 9d3d d0ae 6d3f dfad af3e
000001f0: 9421 703f bf35 0d3e 04b5 96be d655 e03e
00000200: 89a8 ccbd 289b d53a 91f5 d93e 712e 923f
00000210: 4361 ef3e 23bc 95bd da84 343f 7a78 483e
00000220: 74bf a43e d6c2 b33d 0afe 393e 46bd 073e
00000230: 8e39 ee3b 8317 e53e f812 873d f04a 823d
00000240: db8d df3e ddbc e13d b517 aa3e 9ad1 b03e
00000250: 0185 8c3e c128 6a3f 0368 9a3e 2c07 9c3d
00000260: 98ed a63e 0091 893f 457e 66bd c26c dc3e
00000270: c0d7 0d3f 3144 3c3e e165 fe3c 7c0d 403e
00000280: 0302 213f 405c 543b 624a af3e 8270 883f
00000290: c574 bc3e 9236 313e 61e5 45be 89ec cc3d
000002a0: a76e 99bd a815 9abd 7f66 933e 0e10 993e
000002b0: 5585 ab3d 0129 b1bd bfac 24bc 2785 033f
000002c0: 2a49 1b3e f6fe 393f 4f12 a13c 11a7 a63e
000002d0: a9b3 e23e c3ff 8dbd 8081 923d b059 2c3a
000002e0: 76cb 2abe e08f af3e eef7 ebbc fdb9 783e
000002f0: 60ae 983e 51f5 853e 5e24 c53e 02a7 153e
00000300: c8d3 05bd 722f bdbd 8d30 eebc 61c2 a33d
00000310: a430 163d e0ec b339 054b 3e3c bfd4 2bbd
00000320: d88c 56bc 6842 243d d0d2 7bbd b4b3 83bc
00000330: b3d8 27be 7556 713d 72f0 a0bd 0dc2 e3bd
00000340: f5fd 03be 83e6 e83b 1e45 2ebc 7fd3 0fbd
00000350: e9cc 14be 85da f2bd 5ddb 1bbd 4950 19be
00000360: 2bce ecbd 4944 0cbe b00e fdbd 4489 d4bd
00000370: 070e 34bc 4bfa 38bc 9c04 85bc 2436 c3bd
00000380: 0b4d a1bc 3001 a83d ab49 8a3d ec5f d2bd
00000390: 71b5 293c 1728 8f3d c9df 02be 7f67 b0bd
000003a0: 41b7 043c 20fe e83c 1626 5b3d 2456 73bd
000003b0: be43 8ebc 3080 4f3a 1435 aabd 82c6 473c
000003c0: bf73 38bd 64ae 74bd ae39 1abe 91ee a5bc
000003d0: de9a 0cbe 2c8c b53d 9922 cfbc 05c0 f9bd
000003e0: 4be7 b7bd 16d2 293d 41e7 363d ad70 6f3d
000003f0: ee87 9b3d 8db5 e63c 35ba 8d3c 1c26 b8bd
0.08094779 0.12433266 0.37484446 0.78658056 0.47838408 0.045125015 0.4766079 0.21230575
0.1793785 0.07471557 0.16029957 0.28657693 0.29949677 0.39315367 0.12152414 0.1387262
0.2733098 0.29036117 0.36692512 0.2567847 0.30757666 0.5440569 0.22127609 0.057871185
0.19098799 0.6739344 0.04815909 0.2998861 0.5405366 0.07575292 0.2938449 0.1140018
0.457254 0.021441638 0.21274798 0.60466355 0.32472035 0.21868263 0.24334285 0.12633458
-0.014127797 -0.050962403 0.14867173 0.2661878 0.21497315 0.28076732 -0.058243617 0.3577515
0.31589785 0.4699023 0.21158749 0.06839539 0.19133864 0.1604385 0.06620226 0.20540272
0.23613769 0.30392593 0.05901131 0.18069266 0.038661096 0.3143475 0.3228622 0.10300705
0.55939347 0.19207798 -0.24877338 -0.07693689 -0.15153648 0.45264432 0.27191073 0.36774948
0.43522412 -0.004783869 0.5653656 0.43248096 0.3393395 0.23266935 -0.082215935 0.36199358
-0.0068608215 -0.173896 0.016183406 0.5782469 0.1817231 0.014036402 0.58742857 0.55746853
0.1681872 -0.25491795 -0.06875356 0.3367243 0.10250104 0.24589367 -0.14780088 -0.08473586
-0.7159402 0.112268955 0.5528105 0.17328873 0.103762686 0.17745332 -0.24039601 0.5856684
-0.056474846 0.0788417 0.6126436 0.27038285 0.2859815 -0.40315914 0.87559086 -0.47069785
0.06326406 -0.2768759 0.32425636 0.7195311 0.120393924 -0.36382365 -0.014972311 0.16770606
0.33023122 0.07703551 0.9284487 0.3431234 0.93801236 0.13790034 -0.2943498 0.43815488
-0.09993083 0.001629685 0.42570165 1.1420423 0.46753892 -0.07311275 0.70515215 0.19577208
0.32177317 0.087773964 0.18163314 0.13255796 0.0072700446 0.447445 0.06595415 0.063619494
0.43662915 0.11022351 0.33221212 0.34534913 0.27445224 0.91468436 0.3015748 0.076185554
0.32603145 1.0747375 -0.056272764 0.43051726 0.55407333 0.18385388 0.031054439 0.18755144
0.62893695 0.0032403618 0.34236437 1.0659335 0.36807838 0.17305973 -0.19325782 0.10006053
-0.074918084 -0.07523662 0.28789136 0.2989506 0.083750404 -0.08650399 -0.0100509515 0.5137505
0.15164629 0.72654665 0.01966205 0.32549337 0.44277695 -0.06933548 0.071536064 0.0006574644
-0.16679177 0.34289455 -0.028804746 0.24289699 0.29820538 0.26163724 0.38504308 0.1461449
-0.032672673 -0.09237565 -0.029075885 0.07996059 0.03666748 0.00034318026 0.011614566 -0.041950937
-0.013095103 0.040102392 -0.061480343 -0.0160769 -0.16391258 0.058920342 -0.07858361 -0.111209966
-0.12889846 0.0071075573 -0.010636596 -0.035113808 -0.14531292 -0.118580855 -0.038050998 -0.14972033
-0.11562761 -0.13697924 -0.12356317 -0.10377744 -0.0109896725 -0.011290143 -0.01623755 -0.09531811
-0.019690057 0.082033515 0.06752332 -0.10272202 0.0103582 0.069900684 -0.1278068 -0.0861349
0.008100332 0.028441489 0.05350312 -0.059408322 -0.017366286 0.0007915525 -0.08310905 0.012193324
-0.04503226 -0.059736624 -0.15061066 -0.020255359 -0.13730952 0.08864626 -0.025285052 -0.12194828
-0.089796625 0.04146012 0.044654135 0.058457065 0.07594286 0.028162742 0.017300704 -0.08991644

fc2.bias f4 [32]
00000000: 1afd 893e 7fe7 ba3e a0b7 693e dfba 103d
00000010: 615a 9d3e 42a7 93bd 617f 913e 7a05 72bd
00000020: e229 cebd 5465 cc3e 98ec 8c3d 2509 973e
00000030: 32aa c03e 40a4 a23e b0bd 69bc 6fd6 843e
00000040: ec6c a53e 8158 63bd 3512 08bd 2743 963e
00000050: 3011 08be d921 563e 3915 793e f2aa 5abd
00000060: 79f2 9d3e 9099 e7bd de85 993c f5dc 4ebd
00000070: 4c29 033e df6b 0ebe 9f44 283d 3805 a03e
0.26950914 0.36504743 0.22823954 0.035334464 0.30733016 -0.07209636 0.28417495 -0.059087254
-0.10066582 0.39921057 0.06881064 0.29499164 0.3762985 0.31765938 -0.014266416 0.2594485
0.32309663 -0.055504326 -0.03322049 0.29348108 -0.13287807 0.2091135 0.24324502 -0.053385682
0.30849054 -0.113085866 0.01874059 -0.05050369 0.12808722 -0.13908337 0.041081067 0.31253982

fc3.weight f4 [4, 32]
00000000: d9df 433e 1930 bb3e b764 e83d 83b0 96bb
00000010: 9e88 c73e 52e4 97bd 7752 b03e 0dbd b03d
00000020: 3d4d 313e 5f77 113f 2d97 183e ad05 16be
00000030: 35ca 793f af43 143e 18f7 1c3d 0f75 85be
00000040: a5ce b1bd a6ab c33d 9ab9 93bd 4cba cb3e
00000050: 7b4e 9dbd 934a 0b3f 0031 09bf e9d6 2e3c
00000060: e165 273f a668 d03d 5897 163e 136d b1bc
00000070: 5486 eb3e 8896 db3d 240a d3bb 0490 f83e
00000080: 7021 f43e aa3e 69be d544 073f 97f9 b6bd
00000090: f61b d63e 36c4 7abd ae66 1e3f 7a09 cdbc
000000a0: b065 9bbc 393d 013e 9ff4 e0bb 388e 73bd
000000b0: 5ab4 48bf f13c e63e 6893 473d db5e 283f
000000c0: 2e18 9f3e 4a9d d23d a723 7fbd 0070 e33e
000000d0: b2f8 ab3d 50e0 153f 6f1f 553e 0a82 103e
000000e0: a4e3 b23d 08d1 8ebd a24b b4bd 111c fa3d
000000f0: b17f 043f 15fe 493d f026 60bd 4a75 fd3d
00000100: a1d8 943e 3cbf 0e3f a3c4 f13e a2f4 1e3c
00000110: 6041 9a3e aa38 bd3d 6418 33be 04cf 0e3e
00000120: 54d9 31be e0f7 2e3e ac91 edbd 2d5a ed3e
00000130: de25 5b3e 6425 893e 7ad3 eebd ea8d 44be
00000140: 0d40 3b3f 6a79 d5bd 8d4b e53d 2942 e83d
00000150: 5cf4 103d b9e2 f2be 0ac1 373f 287f 08be
00000160: 0fdd b13e 66f4 c63d fc7d 563d 3cac b73d
00000170: 9fc4 953e a9e7 04be 718b c83d fbcc 6ebe
00000180: 9bc2 443e 3b09 c83e b36d 5e3d 7989 d7bd
00000190: 3634 733e 2954 32be a1a8 f53d 027b 8a3d
000001a0: 3568 18be c690 ab3e 79ce 5e3d e2a0 303f
000001b0: 9798 e33e d9ab 7b3d ee7f b63d 9a2d 2b3f
000001c0: 5924 86bd 2e50 b63d a4ac d5bd db78 c63e
000001d0: dac7 81bd 4ca2 b63e 012c f33e b7b7 0b3e
000001e0: 1f75 943d 3380 1b3e 7219 26bb 586a 8ebd
000001f0: 398c 85be c338 07be 6376 05be 90b0 3f3f
0.1912836 0.36560133 0.11347335 -0.0045986786 0.38971418 -0.074165955 0.34437916 0.086298086
0.1731462 0.5682277 0.14901419 -0.14650603 0.9757417 0.14478944 0.038321584 -0.2606587
-0.086819924 0.09554224 -0.07213135 0.3979057 -0.076809846 0.54410666 -0.53590393 0.010671356
0.6538983 0.1017621 0.1470617 -0.021658456 0.46000922 0.10722071 -0.006440418 0.48547375
0.4768176 -0.2277781 0.52839404 -0.08934324 0.41818208 -0.061222278 0.61875427 -0.025028933
-0.018969387 0.12621011 -0.0068650986 -0.059461802 -0.78400195 0.4496837 0.048724562 0.6576974
0.31073135 0.10283907 -0.06228986 0.44421387 0.08397044 0.585454 0.20812772 0.14112106
0.08734825 -0.06973463 -0.08803488 0.122123845 0.5175734 0.049314577 -0.054724634 0.12375887
0.29071525 0.5576055 0.47220334 0.00970188 0.30128002 0.092393234 -0.17489773 0.13946158
-0.1736806 0.17086744 -0.1160005 0.4635786 0.21401164 0.2678634 -0.1166143 -0.19194761
0.7314461 -0.104235485 0.11196051 0.11340744 0.03538929 -0.474386 0.7177893 -0.13329756
0.34738967 0.09714584 0.05236624 0.08968398 0.29251572 -0.12978996 0.09792221 -0.23320381
0.19214861 0.39069542 0.054303836 -0.10524268 0.23750386 -0.17414917 0.11995054 0.06761743
-0.14883502 0.3350889 0.054396126 0.6899549 0.44452354 0.061443184 0.089111194 0.6686646
-0.065499015 0.08902012 -0.10433319 0.3876408 -0.06336947 0.35670698 0.4749451 0.136443
0.072489016 0.15185623 -0.0025344756 -0.06953877 -0.26083544 -0.13205247 -0.13033442 0.7487879

fc3.bias f4 [4]
00000000: 06fb bd3e 9677 e1bb 6c95 4c3c fa4c d13e
0.37105578 -0.006880711 0.012486797 0.4087904
