policy_net5400.pth (torch, 15822 bytes, 6 tensors)

fc1.weight f4 [64, 16]
000000 09 7e be 3e cb cb 88 3e ab 7c 76 3e 2e e9 9e 3e
       0.37205532 0.26717982 0.24070995 0.31037277
000010 d5 68 ad be 5c ea dc 3d 6e ab 86 bd 30 18 16 3e
       -0.33869043 0.10786888 -0.06575666 0.14657664
000020 27 60 89 bd 00 13 20 3f 27 f1 f7 bd ee 53 54 be
       -0.06707793 0.6252899 -0.12106543 -0.20735142
000030 84 40 19 be 9d 1f 1b 3f f7 9e 31 3c cc 7d 8e bd
       -0.14966017 0.60595113 0.010841123 -0.069575876
000040 98 a9 2f 3d 30 80 14 3b 99 05 77 3e bf 30 f7 bd
       0.042886347 0.0022659414 0.24123229 -0.120698445
000050 2a db 15 3f b0 fb d2 bc 8e e3 d8 3d 10 33 ca bc
       0.5853754 -0.02575478 0.105902776 -0.024682552
000060 4c 6a a6 be 27 b3 00 3f 42 11 58 3f 2e ab 46 3e
       -0.32502973 0.50273365 0.84401333 0.19401237
000070 cc b9 26 be 91 0c a2 bc 2e a0 f6 3e c8 89 a0 bd
       -0.16281813 -0.019781383 0.48169082 -0.0783878
000080 6d d1 48 3e 6c 6c c9 3c 2c f7 62 3e dd 1a c0 3c
       0.1961114 0.024587832 0.22164601 0.02345031
000090 cc 3b a9 3e 6a 38 5e 3e 9a 80 af 3e 00 a5 97 3c
       0.33053434 0.21701208 0.34277803 0.018511295
0000a0 e4 cc a8 3d fc af e2 3e 42 b4 d3 3e 1a fe 0b be
       0.08242205 0.4427489 0.41348463 -0.13671151
0000b0 60 c5 a3 bc 1a fe d3 3e ad 99 15 3f 02 46 4f 3e
       -0.019991577 0.41404802 0.58437616 0.2024155
0000c0 53 c5 7b 3e 48 49 94 3e 6c 6c 17 3f 6f 2e 73 3e
       0.24586992 0.2896216 0.59149814 0.23748182
0000d0 27 b0 95 be ce 73 25 3e c9 bd 86 be 14 a7 ea bd
       -0.29235956 0.16157457 -0.2631667 -0.11457649
0000e0 be c5 e1 3e fc a4 48 3e 81 33 16 3d 34 50 12 be
       0.44096178 0.19594187 0.03667021 -0.14288408
0000f0 a4 fa 50 3e ab 99 22 3f 30 37 b3 3e c4 bb bf bd
       0.20408112 0.6351573 0.35003042 -0.09361985
000100 39 b1 57 3e 28 f4 49 3e 88 45 37 3e 22 09 1d be
       0.21063699 0.19722044 0.17897618 -0.15335515
000110 30 ce c8 bd 48 f9 b5 bd a8 3d fd 3d 84 14 e9 bd
       -0.09804952 -0.08885437 0.123652756 -0.11380866
000120 a0 32 7f bc 10 5f 5c 3d a4 ed bc bd c4 a2 19 be
       -0.015576035 0.053801596 -0.09225014 -0.15003496
000130 96 13 1d 3e 20 8d eb 3c e0 f5 28 be d0 95 39 3d
       0.15339503 0.028753817 -0.16500044 0.045308888
000140 77 44 fd 3d a6 1a fd bd 0b 77 0d 3f e9 6d 18 be
       0.12366574 -0.123585984 0.5525977 -0.14885677
000150 80 ad fe bd 40 23 c1 3c 4e 62 b7 3f c4 46 7f be
       -0.12435436 0.023576379 1.4326875 -0.24929339
000160 89 b0 8a be 31 67 7a be 0c 9d 1c bd a4 e7 d6 3d
       -0.2708781 -0.24453427 -0.03823571 0.10493401
000170 44 8f f3 bd 43 b4 b3 3f 94 bd 66 3d 98 28 15 bd
       -0.1189256 1.4039387 0.05633314 -0.036415666
000180 b5 d1 a0 3e 78 87 be bd eb f0 cf 3e 18 d3 c7 3c
       0.31409994 -0.09303182 0.40613493 0.02439265
000190 83 0f 86 bc 66 bb 18 be 92 0b 80 3d b0 4f eb 3c
       -0.016364818 -0.14915237 0.06252207 0.028724521
0001a0 41 49 a5 3e fb b4 c6 3e 0f dd 80 3c e0 97 5e bd
       0.3228245 0.38809952 0.015730409 -0.054344058
0001b0 f4 34 1f 3e 1b ad 29 3f c3 02 b8 3d 00 57 25 3e
       0.15547544 0.66279763 0.08984902 0.16146469
0001c0 2d 4c fc bc bc 4f 52 3f 4a a9 51 3e 32 06 4f 3f
       -0.030798042 0.82152915 0.20474735 0.8086883
0001d0 14 98 46 be 54 da cf bd 76 9b 04 bf 7e fe 3b 3e
       -0.1939395 -0.10149065 -0.51799715 0.183588
0001e0 6e e5 ec 3e 42 7c 96 be ae 37 04 bf 4a c8 28 3e
       0.4626879 -0.29391676 -0.5164746 0.16482654
0001f0 10 7a d7 3c 18 1d fc 3e b8 f8 d7 be 5c fd fe 3d
       0.026303321 0.49240947 -0.42181945 0.12450668
000200 de 92 87 3e 89 45 39 be d8 2a b2 3e ac 8a c1 be
       0.26479238 -0.18092932 0.34798312 -0.3780111
000210 9e 62 fa 3e 30 25 09 3e 3d 2d d4 3e a0 0e 4b 3e
       0.48903364 0.13393092 0.41440764 0.19829798
000220 41 8a c2 be ca 52 c7 3e e2 7c 8d 3e ae 13 19 be
       -0.37996104 0.3893035 0.2763434 -0.14948913
000230 14 be 53 be 1c 50 e9 3e b1 b2 0e 3c 00 1b 01 3e
       -0.20677978 0.4556893 0.008709596 0.12607956
000240 39 3b 63 3e 95 b5 7b bd 73 7b cc 3e 0a 80 88 3e
       0.2219056 -0.061452467 0.39937934 0.26660186
000250 d7 24 4b 3e f0 c4 7b be 52 55 87 3e 52 97 5f 3e
       0.19838272 -0.24586844 0.26432282 0.21835068
000260 a1 ed 80 3e 3c 16 b7 3e 67 08 27 be c0 25 50 be
       0.25181296 0.3575915 -0.16311799 -0.203269
000270 40 01 c4 3b 7e 59 17 3f 36 2d f3 3c c8 ac 93 bd
       0.0059815943 0.5912093 0.029684644 -0.0721069
000280 25 73 98 3e 8b ec 09 be 1b ce cb 3e f8 03 e5 be
       0.29775348 -0.1346914 0.39805683 -0.4472959
000290 3c a6 0b 3f 10 cc b0 bd 5b b7 52 3f c2 28 1e be
       0.5455053 -0.08632672 0.8231103 -0.15445235
0002a0 d2 0c a5 be 14 c8 ed be 47 dc 6e 3f b8 7d 0b 3d
       -0.32236344 -0.4644171 0.93304867 0.03405544
0002b0 48 13 25 be 8d 7a 49 3f 63 5e af 3e f2 79 13 be
       -0.16120636 0.7870262 0.342517 -0.14401987
0002c0 48 91 d4 3d 31 5e fc 3d 17 b7 27 3e ad 94 74 3e
       0.10379273 0.12322653 0.16378437 0.2388484
0002d0 6d 2f 8b 3e ae ff 17 3e d6 d5 30 3e e8 82 71 bd
       0.2718462 0.14843628 0.17269072 -0.058962733
0002e0 b3 ad ef 3d b6 98 87 be 6b bc b9 3e e8 dc 34 be
       0.11703052 -0.26483697 0.36276564 -0.17662394
0002f0 da f6 61 be a6 59 2b 3f 5b 01 6e 3e 78 e4 fd bd
       -0.22066823 0.6693367 0.23242705 -0.123970926
000300 86 17 f1 3e de 47 5d be 79 c7 00 3e f1 a0 85 bc
       0.4708826 -0.21609446 0.12576093 -0.016312094
000310 8c 01 08 3f f2 90 00 be 5b af c2 3e 10 71 55 3d
       0.5312736 -0.12555292 0.3802441 0.052109778
000320 3c f7 6d be 06 9c 18 3f 1e 88 72 3f a0 5b ec bc
       -0.23238844 0.5961307 0.9473895 -0.028852284
000330 38 73 2b bd 45 de 19 3e f2 3a 33 3f 74 dc da bd
       -0.041857928 0.15026195 0.7001182 -0.10686579
000340 54 be a5 3e 36 ff d0 bd 15 00 aa 3d e9 0e 56 3e
       0.3237177 -0.102049276 0.08300797 0.20904125
000350 b3 bc a0 be 36 51 0e 3e 00 5b 8e 3e 50 78 1b be
       -0.31393966 0.13898167 0.27803802 -0.15182614
000360 ab 89 14 bd 70 33 c2 3e 3f 25 aa be 08 02 85 3d
       -0.036264103 0.3792987 -0.33231542 0.06494528
000370 f0 d2 4c be 40 bf 68 3f 00 4b 3d 3e b8 1a 8a 3d
       -0.20002341 0.90916824 0.18485641 0.067433774
000380 7d 5e 8a be c6 cc 61 3f 3e d5 b3 3e 0e c9 e3 3e
       -0.27025214 0.88203084 0.35123628 0.4448933
000390 f3 34 c1 be fa 57 14 be 0e 7b 29 bf 50 ba 58 bd
       -0.3773571 -0.14486685 -0.6620339 -0.052912056
0003a0 92 ff 3f 3f 40 60 ee 3d b8 e7 be 3d 58 7d 28 be
       0.74999344 0.11639452 0.093215406 -0.16454065
0003b0 74 3e 2e 3e 6a a6 c7 3d ee e9 3a 3d e2 b9 3a 3e
       0.17016011 0.09748538 0.04563325 0.18234971
0003c0 0b e0 1e 3e ce 68 73 3e 35 c9 c5 3e 80 09 c5 3e
       0.15515153 0.23770449 0.3863007 0.3848381
0003d0 f0 26 c3 3e f2 72 4d 3e 43 85 73 39 44 e6 df bd
       0.38115644 0.2006338 0.0002322393 -0.109325916
0003e0 49 51 df 3e 49 5e 45 3e 46 56 fc 3e 50 ef 36 3d
       0.43616703 0.19274248 0.4928457 0.04466182
0003f0 74 a7 e9 bd 65 ce ed bd 99 e6 6a 3e f6 2d 29 be
       -0.11408892 -0.11611632 0.22939529 -0.16521439

fc1.bias f4 [64]
000000 dc ba 92 3e 60 3f 89 3e 71 ab c5 3e 3b 2e 83 3e
       0.28658187 0.26806164 0.38607362 0.2562121
000010 bf 52 89 be 44 a3 74 3e b9 23 e0 3e f6 35 f0 3e
       -0.26820943 0.23890406 0.43777254 0.4691617
000020 61 76 b3 3e 53 a4 af 3e 16 83 e8 3e d1 92 85 3e
       0.35051253 0.34305057 0.4541251 0.26088575
000030 27 b6 2e 3e ed 78 8c 3e 17 c8 28 3f 10 cf 72 3e
       0.17061673 0.2743601 0.6593031 0.237118
000040 f0 11 4f be c4 a6 54 3e d1 0a ad 3e 6b ee 87 3e
       -0.20221686 0.20766741 0.33797315 0.26549086
000050 b4 37 4d 3e 7b ac b5 3e fa 8f 66 be 67 be d4 3e
       0.2004078 0.35483155 -0.2251586 0.41551515
000060 61 f0 cc 3e b2 6c ac 3e dc e3 22 be 44 c4 b1 3e
       0.40027145 0.33676678 -0.15907234 0.3472005
000070 b4 6f b6 3e 2d f2 d6 3e 40 3e e5 3e 33 94 81 3e
       0.35632098 0.4198164 0.44774055 0.2530838
000080 a7 25 b2 3e 71 8c 45 3e b2 df c3 3e 88 e7 ad 3e
       0.3479435 0.19291855 0.38256603 0.33965707
000090 d8 6f da 3e 1f 3b ad 3d b3 58 c5 3e 1f 7b fe 3e
       0.42663455 0.08458542 0.38544235 0.4970331
0000a0 70 15 6c be 9f 25 30 be 42 99 af 3e 87 a3 8a 3e
       -0.23055053 -0.17201851 0.34296614 0.27077886
0000b0 b1 a3 7f 3e d3 df 8a 3e 82 40 3f 3e 57 d2 cc 3e
       0.24964787 0.2712389 0.18676952 0.40004227
0000c0 70 02 59 bd e9 a9 00 3f 07 21 67 3e 55 14 8c 3e
       -0.05298084 0.5025926 0.22571193 0.27359262
0000d0 d4 f1 ce 3e a1 1c b1 3e 48 89 e3 3e 3d cd 86 be
       0.40418875 0.34592155 0.44440675 -0.2632846
0000e0 92 f3 bc 3e ba 90 e9 3e c6 90 07 3e 79 ff b6 3e
       0.3690458 0.4561823 0.1323882 0.35741785
0000f0 28 20 c0 3e 69 ad a0 3e 0c 86 93 3e ff 28 a8 3e
       0.37524533 0.313823 0.28813207 0.32843778

fc2.weight f4 [32, 64]
000000 52 9c 93 3d a0 fe e0 bd e0 d8 73 bd e0 2f 4c bd
       0.0720755 -0.10986066 -0.059533 -0.049850345
000010 ea 4e 8f 3a 91 c3 cd bd 36 4c 45 bc 97 2c e3 bd
       0.0010933552 -0.10047067 -0.012042096 -0.11092489
000020 0d 83 f4 bc 5c 46 1d be 45 ca df 3b 52 ac 19 be
       -0.029847646 -0.15358871 0.0068295323 -0.15007141
000030 0a 52 aa bd b4 c5 1f be 5d 1d 5a bd c9 7c 16 be
       -0.08316429 -0.15602762 -0.05325066 -0.1469604
000040 00 af 75 bd 49 0d be 3d e9 22 9b bd b2 5d b7 bd
       -0.059981346 0.09279878 -0.07575018 -0.08953418
000050 cf e0 1b be 12 9c 8c bc 1c 83 fe 3d b1 e5 57 3d
       -0.15222476 -0.017164264 0.12427351 0.052709285
000060 29 1e 90 3d 82 30 c4 bd 40 37 c0 bc 70 d8 45 bd
       0.070370026 -0.09579565 -0.023463845 -0.048302114
000070 c1 19 9e 3c 3e 72 d2 bd ea da d6 bd ff 71 07 bd
       0.01929939 -0.10275696 -0.10490973 -0.0330677
000080 4a d2 f0 39 34 fd 1e 3d b2 17 13 be 67 d4 e4 bd
       0.00045933045 0.038815692 -0.14364508 -0.11173325
000090 74 30 9a 3c 42 75 84 3c 1a ca 31 be aa 4d c9 bc
       0.018821932 0.016169194 -0.17362252 -0.024573166
0000a0 cc 27 23 bd 01 81 c8 3c 92 16 10 3d a3 73 23 3b
       -0.039832875 0.024475576 0.035177775 0.002494075
0000b0 81 ab b2 bd 79 50 16 be c1 d0 a5 3c c7 19 d7 bc
       -0.08724118 -0.14679135 0.020241143 -0.026257409
0000c0 52 8a cf bd bb f8 ec bb e8 cd 84 bd bf 14 eb 3c
       -0.101338044 -0.0072317994 -0.06484586 0.028696416
0000d0 b3 9f 0a be 7a b5 2c 3d c3 c2 ec bd f8 58 19 be
       -0.13537483 0.042165257 -0.11560585 -0.14975345
0000e0 89 f0 38 be 20 f9 16 bd f1 13 92 bd 7f 58 44 3d
       -0.18060507 -0.036858678 -0.0713271 0.04793596
0000f0 3b a1 0a be 5f e2 00 3b 7c 51 6d bd c4 4c db bd
       -0.13538067 0.0019666178 -0.057939038 -0.10708001
000100 81 db 1f bd 92 a8 d1 b9 ae 4a 49 bd f1 86 c7 3d
       -0.039027695 -0.0003998918 -0.049143486 0.09742535
000110 e0 55 17 be 65 6f da bd 30 12 89 3d d4 e1 54 bd
       -0.14778852 -0.10665778 0.06692922 -0.05197318
000120 a3 b9 1a be 50 1a 6d 3d 1f 31 0a be 18 05 c7 bd
       -0.15109877 0.05788642 -0.134953 -0.097177684
000130 79 a7 75 bd 91 68 aa bd c1 51 e0 bb d0 ed 80 3d
       -0.059974167 -0.08320726 -0.0068456833 0.06295359
000140 30 55 1a 3c 65 69 17 be 8a ce ab 3d 6f ff fe bc
       0.009419724 -0.14786299 0.083890036 -0.03112766
000150 db 24 09 3d f8 3f e2 bd 40 47 9b 3c 2c 28 10 3d
       0.033482414 -0.11047357 0.018954873 0.03519456
000160 81 53 d4 3c 3d 8d 41 3d c2 c0 a3 bd 2a 77 81 bd
       0.025918724 0.047253836 -0.0799575 -0.06321557
000170 dc da c9 3c 2d fb 7e 3d ee 2e 01 be 6f c4 7c 3c
       0.024640493 0.06225126 -0.12615559 0.015427693
000180 50 e3 4b bd 3c 85 4c bd 3d 97 95 bd 23 c4 eb bb
       -0.04977733 -0.04993175 -0.07304237 -0.007195012
000190 8e 3d 90 3d 91 fd 71 bd 37 bc 7b bd db f8 44 3d
       0.070429906 -0.05907971 -0.061458793 0.04808889
0001a0 f7 1a 36 3d 00 00 ce 3c 0d a1 90 bd ea f9 93 bd
       0.04445931 0.025146484 -0.07061968 -0.07225402
0001b0 df 30 1b 3c b5 eb 9b 3d c8 63 c0 bb 8a c7 e6 bd
       0.009472101 0.07613317 -0.00587127 -0.11268528
0001c0 80 ea 0e bc 02 53 8e bd a3 34 5b bd 36 47 9d bd
       -0.008722901 -0.06949426 -0.053516995 -0.07679598
0001d0 38 d0 5f bd ba 32 a5 bd 4a d9 f2 bd 6c e6 1a 3d
       -0.054641932 -0.08066316 -0.11857851 0.037817404
0001e0 18 c2 6a bd df 7c 95 bc b2 b6 de bd 1c ca d7 bd
       -0.05731401 -0.01824802 -0.1087469 -0.10536596
0001f0 11 83 48 bc d7 86 bd bd d0 c7 83 bd bc 54 9e 3c
       -0.01223828 -0.09254234 -0.064345956 0.019327514
000200 59 6e 8c bd c1 81 21 3f 0d 0f 81 3e 0c 50 4e be
       -0.06856985 0.63088614 0.25206795 -0.20147723
000210 10 a1 4e 3d fa d3 68 bf e8 cf 69 3d 0c c1 5a bf
       0.05044657 -0.9094845 0.05708304 -0.85450816
000220 5d 34 b1 3e af 32 9a bd b4 79 21 3e d9 e8 21 be
       0.34610263 -0.075291984 0.15769082 -0.1581148
000230 c8 f6 4c 3f 4e 81 b1 be 37 6f b8 be 79 00 cf 3e
       0.8006406 -0.34668964 -0.3602235 0.40430048
000240 40 34 e1 bd bf 40 b8 3f 7e 09 06 3e 62 26 0c be
       -0.10996294 1.4394759 0.13089558 -0.13686517
000250 b6 d1 1c 3f ae ea 88 3f 20 2a 42 bc 9a d6 ce 3e
       0.61257493 1.0696619 -0.011850864 0.40398103
000260 b6 d5 79 3f 55 17 e6 3d 58 b6 d5 bd 71 cc 2f 3e
       0.9759172 0.11234919 -0.1043517 0.17167832
000270 18 3f d6 3e 3c ba 4a 3e a7 a4 c4 be 7a d9 17 be
       0.41845012 0.19797605 -0.3840687 -0.14829054
000280 58 d1 54 bd b2 4f 86 bd c4 f0 e1 3d 8c bf 27 3f
       -0.05195746 -0.065581694 0.110322505 0.6552665
000290 b2 9f 08 3e 12 07 ff 3e 41 46 0e be 70 71 a1 be
       0.13342169 0.49810082 -0.13893987 -0.31531858
0002a0 32 e8 d9 bd c2 84 dc bd f3 4e 9f 3e 89 38 26 3f
       -0.10639991 -0.10767509 0.3111492 0.64930016
0002b0 c5 11 5a 3c 3a 24 44 3f d7 96 15 3f ae ea 0d 3e
       0.013309901 0.7661778 0.5843329 0.13859054
0002c0 18 dd df 3c 0e e6 a7 3e f4 ce 8d 3f 37 1f 4e 3f
       0.027327105 0.32792705 1.1078782 0.8051638
0002d0 0d 05 b3 3e 73 ee 3c be d7 af b3 3e 88 c3 9c 3c
       0.3496479 -0.18450336 0.35095093 0.019136205
0002e0 b8 bb 9e 3d 4d 05 13 be 32 65 85 3d 60 c5 ca 3e
       0.07750648 -0.14357491 0.06513442 0.3960371
0002f0 09 df c4 3e 3b ea e6 be 8d 5e 10 bf ee 94 90 3e
       0.38451412 -0.4510058 -0.56394273 0.28238624
000300 af 3a 95 3e ae a3 70 3e d1 3e b1 3e 4a 9c 4e 3e
       0.29146335 0.23499939 0.34618238 0.20176807
000310 ba 0c bf 3d 1d 10 7f 3f e1 77 70 3e 47 94 45 be
       0.09328599 0.9963396 0.2348323 -0.19294845
000320 a8 29 b4 3e 54 8e 84 3e 72 56 74 3f df f9 85 3e
       0.3518803 0.25889838 0.95444405 0.261672
000330 c3 18 1d 3f 2f a9 fa 3e c9 b8 98 be 61 f2 91 bc
       0.6136591 0.48957202 -0.2982848 -0.01781577
000340 9c d0 6b bd a8 f3 6a be 4b b8 a0 3e 51 8c a0 3e
       -0.057571992 -0.2294451 0.31390604 0.31357053
000350 71 fd d9 bd 83 3d 30 3e a0 76 cf bd 42 12 b8 3d
       -0.10644043 0.17210965 -0.10130048 0.089878574
000360 7d 77 11 be 87 35 29 3f a4 91 ab 3d 28 82 3a 3f
       -0.14205737 0.660973 0.08377388 0.7285485
000370 4d 81 65 3e c5 e5 ac 3e 71 73 3f be 24 85 8c 3d
       0.22412606 0.3376905 -0.18696381 0.06861332
000380 17 70 91 3e ea 6a bd 3e 0f 2c 2f 3e aa c6 19 3f
       0.2840583 0.3699563 0.17106651 0.6006876
000390 0b 84 c7 3e 7f c7 ea 3e 86 8f 9c 3d 01 c4 5d 3c
       0.38967928 0.45855328 0.076445624 0.0135355005
0003a0 9a 70 a2 bd be 45 01 3e 06 c2 e4 3e 40 4e 08 3e
       -0.07931633 0.12624261 0.44679278 0.133111
0003b0 ec a0 00 3e d9 5a 97 3e df e0 b4 3e 7c d2 08 3e
       0.12561387 0.295615 0.35327813 0.13361543
0003c0 10 52 57 3d 81 14 ae 3e e9 e2 03 3e 83 eb be 3e
       0.052568495 0.34000018 0.12879528 0.37289056
0003d0 38 30 99 3c f6 00 f6 bd fb 57 6d 3f 59 5e 96 3d
       0.01869975 -0.12011902 0.9271237 0.07342214
0003e0 0d 71 c6 3e cc 42 b5 3e 9d e2 60 3f 4f a9 83 3e
       0.38758126 0.35402524 0.87845784 0.2571511
0003f0 bc 30 86 3e c3 b2 21 bd b1 c2 fb 3e 50 ba a3 3d
       0.26209056 -0.03947712 0.49171975 0.07994521

fc2.bias f4 [32]
000000 7f b4 51 3d 35 da bd bd 30 7b 4d 3d 29 46 95 3e
       0.051197525 -0.09270135 0.05016631 0.2915509
000010 e6 d7 a7 3e dc 9d 42 3e 1a 9e 91 bc a4 cc 36 3e
       0.32781905 0.19005531 -0.017775584 0.17851502
000020 b4 0d 90 bd 16 24 22 bd 7d 5d 99 3e 71 91 91 bd
       -0.07033864 -0.039585195 0.29954138 -0.07107819
000030 25 d7 0f 3b 36 da be 3e 32 ad 4d 3d fc 93 2a 3e
       0.0021948304 0.37275857 0.050214 0.16658014
000040 f9 0c d2 3e 9f f0 e2 bb e7 85 28 3d 90 fe 80 bd
       0.41025522 -0.006925657 0.041143324 -0.06298554
000050 7d ca 20 bd fa ec 23 be ce 17 c2 bd 8a 52 9f 3e
       -0.039255608 -0.16008368 -0.09477197 0.3111766
000060 c2 e6 9d 3e a1 4d af 3e 6f 82 8d 3e 34 8e da bd
       0.30840117 0.34238914 0.27638575 -0.10671654
000070 31 0a 42 3e eb a0 41 3d 30 54 95 3e 67 15 89 bd
       0.189492 0.047272604 0.29165792 -0.06693535

fc3.weight f4 [4, 32]
000000 f4 e2 0e bd 9a f3 ae 3d 61 59 27 3f d5 2c 14 bd
       -0.034884408 0.08542557 0.65370756 -0.036175568
000010 3e 2d b9 3e 50 32 cf 3e 17 af 2f 3e f1 8f 0b bd
       0.3616733 0.40468073 0.17156635 -0.03407282
000020 a3 bd 0a be b1 e2 b2 3c c2 43 83 3d 3c ee bf 3d
       -0.13548903 0.02183661 0.06409408 0.093716115
000030 b6 19 fd bb 8a 2b 60 be 65 73 22 3e 0d 10 81 be
       -0.0077240122 -0.21891609 0.15864332 -0.25207558
000040 60 16 ef 3e b8 09 d2 bd d2 78 cd 3d 77 e1 2b 3e
       0.46696758 -0.1025576 0.1003281 0.16785227
000050 bf c1 15 3e 91 d4 4b 3d eb 64 8b bd 55 cf 0a 3f
       0.1462469 0.049763266 -0.06806358 0.54222614
000060 2f bd 03 3f 9d a1 ce 3e 28 67 9c 3e 17 4b 7f 3c
       0.51460546 0.40357676 0.30547452 0.015581868
000070 ad 2d 29 3f 82 66 11 bd b5 40 07 3e 14 96 f8 3d
       0.6608532 -0.03549815 0.13208278 0.12138
000080 c0 1b 2c bc 8e 61 26 3d 8a 4a ca 3e 50 cd 1b 3f
       -0.010504663 0.04062038 0.39509994 0.60860157
000090 79 9f 6d be cb c9 0f 3f 75 0d 48 bd e6 b8 6e 3e
       -0.23205365 0.56167287 -0.04884096 0.2331272
0000a0 2a 61 bb 3d c9 86 dc bd 2c 17 10 3f 49 48 b0 bc
       0.09149392 -0.10767896 0.5628536 -0.021518843
0000b0 69 36 ba bd 14 3c 07 3f 22 ef 35 bd e0 7c 2f 3f
       -0.09092409 0.52826047 -0.044417508 0.6854992
0000c0 87 56 38 bc ce 57 1a bd d9 69 da bc 14 43 8f 3d
       -0.0112510985 -0.037681393 -0.0266618 0.06995216
0000d0 4d 54 a6 bd 63 69 f5 bd fc d9 d1 bd 27 25 f6 3e
       -0.08121548 -0.119829915 -0.10246655 0.4807522
0000e0 ab 2e 00 3e bd 5e b1 3e b1 4e b2 3e da 34 e2 bd
       0.12517802 0.34642592 0.34825662 -0.11045237
0000f0 05 9b a4 be 47 d1 f0 bc 10 79 85 be b6 a4 5d bd
       -0.3214952 -0.029396666 -0.26068926 -0.05411216
000100 17 ea a3 ba 0c 99 fb 3d ef 52 5a be 10 e9 68 3e
       -0.0012505677 0.12285051 -0.21320699 0.22745156
000110 0a 33 90 bf 36 e0 8c be 28 77 9e bc 51 47 15 3f
       -1.1265576 -0.2751481 -0.019343928 0.58311945
000120 c0 34 ed bb 92 a3 53 3e d1 06 c5 3d a3 f6 03 be
       -0.0072389543 0.20667866 0.09620441 -0.12887053
000130 c3 58 89 bc eb 32 f0 3e 58 2a 31 bd 2d 43 14 bb
       -0.016765958 0.46913847 -0.043253273 -0.0022623048
000140 01 3b 0c 3f 5f 4b cd bd 91 c4 1c 3d 6f 98 90 3b
       0.5477753 -0.100241415 0.038273398 0.0044127028
000150 1c 51 37 bd a9 29 33 bc e5 30 0c be 5d 85 b6 3e
       -0.044755086 -0.0109352255 -0.13690527 0.35648623
000160 10 8d 07 3f bc 0e b4 3e 36 01 d3 3e 33 4d 81 bd
       0.5294962 0.3516749 0.4121186 -0.06313553
000170 de f1 50 3e fe dd 50 bd df 46 03 3f 03 2a 41 3d
       0.20404765 -0.05099296 0.51280016 0.047159206
000180 1a a5 f0 bd 8b ba dc bd dc 53 d3 be 5a 3c 3c 3e
       -0.117502406 -0.10777768 -0.41274917 0.18382397
000190 e8 71 cf 3f bc 5f de 3d 52 d5 c4 3d bb 33 b0 3e
       1.6206636 0.10858104 0.09611 0.34414467
0001a0 cf 99 08 3e 8f 00 5b bd a0 53 0b 3e 22 c4 32 3d
       0.13339923 -0.05346733 0.13606119 0.043644078
0001b0 e8 f2 d3 3d 61 55 f8 3d 27 ca bd bb 50 c9 b0 3e
       0.10349065 0.1212566 -0.0057919207 0.3452859
0001c0 9a 1e a9 3e f5 7b 42 3e 21 97 d8 3c df 64 06 bd
       0.3303116 0.18992598 0.026439251 -0.032811042
0001d0 7e 10 c0 3c 8a ad 50 3e 10 48 4f bc ce f0 34 be
       0.023445364 0.203787 -0.012651458 -0.17669985
0001e0 1f fb d0 bd 38 34 0d bd 30 3c b6 3e d8 15 0b 3d
       -0.102041475 -0.034473628 0.35592794 0.03395638
0001f0 c4 a3 b8 3e 59 ed 4f bd d8 8f 3a 3f 9c 48 92 bd
       0.36062443 -0.05076346 0.7287574 -0.071427554

fc3.bias f4 [4]
000000 63 c5 12 3e f8 ba 5b 3e 94 16 ce 3e cc 43 5d 3e
       0.1433311 0.21458042 0.402516 0.21607894
