policy_net6800.pth (torch, 15822 bytes, 6 tensors)

fc1.weight f4 [64, 16]
00000000: faa9 bf3e 8f0d 8d3e 56ef 793e 0680 9d3e
00000010: d568 adbe 5cea dc3d 0a4b 8fbd 3018 163e
00000020: 1ffa 7fbd 4274 213f 9796 f7bd ee53 54be
00000030: 8440 19be 2a50 1d3f 2cd5 163c cc7d 8ebd
00000040: f9d4 3f3d 64ac f63b 6434 803e d732 00be
00000050: 38dc 153f b0fb d2bc 1f87 dd3d 1033 cabc
00000060: 4c6a a6be 445e 033f b157 583f 2eab 463e
00000070: ccb9 26be 6962 48bc 8b0a f63e c889 a0bd
00000080: d4d5 4c3e 8b5e 073d 0df9 6c3e a476 b63c
00000090: dafb a83e 6a38 5e3e a407 b03e 00a5 973c
000000a0: 5c49 b23d 784f e73e 01c9 d43e 1afe 0bbe
000000b0: 60c5 a3bc cd1b d93e 3a70 153f 0246 4f3e
000000c0: 3e32 803e 2e2c 9a3e b34a 193f 6f2d 753e
000000d0: 27b0 95be ce73 253e c9bd 86be 14a7 eabd
000000e0: 6aeb e43e b711 4f3e 53cd 123d 3450 12be
000000f0: a4fa 503e 6267 253f f1b2 b33e c4bb bfbd
00000100: 39b1 573e 28f4 493e 8845 373e 2209 1dbe
00000110: 30ce c8bd 48f9 b5bd a83d fd3d 8414 e9bd
00000120: a032 7fbc 105f 5c3d a4ed bcbd c4a2 19be
00000130: 9613 1d3e 208d eb3c e0f5 28be d095 393d
00000140: c6eb 003e e554 e9bd 48fa 0b3f 4373 10be
00000150: 7c57 01be 4023 c13c 646c b83f c446 7fbe
00000160: 89b0 8abe 3167 7abe d1bc 13bd a4e7 d63d
00000170: 448f f3bd df05 b53f b298 663d 9828 15bd
00000180: 92e3 a23e 8e12 acbd 5682 d33e 8b14 c03c
00000190: a8ac 8cbc 66bb 18be 609f 7c3d b04f eb3c
000001a0: 3189 a73e 67ac ca3e 9ebd 8b3c e097 5ebd
000001b0: f434 1f3e 124d 2c3f 3452 b93d 0057 253e
000001c0: 9a28 12bd 8bfe 533f b6e2 233e d053 523f
000001d0: bd49 4fbe 54da cfbd 769b 04bf 7efe 3b3e
000001e0: ef91 ec3e ee57 99be ae37 04bf 4ac8 283e
000001f0: 107a d73c 53b3 fb3e 979a d8be 5cfd fe3d
00000200: 0eb8 883e 4647 36be 796e b23e ac8a c1be
00000210: fe65 f93e 3025 093e f5ec d53e a00e 4b3e
00000220: 418a c2be 6965 cc3e 604f 8e3e ae13 19be
00000230: 14be 53be 44dc ec3e 51cc cd3b 001b 013e
00000240: abda 663e a9ca 5bbd 08cc ce3e e00f 883e
00000250: 70c1 493e f0c4 7bbe 4f3d 873e 5297 5f3e
00000260: 2eb7 823e 03c0 ba3e 945a 25be c025 50be
00000270: 4001 c43b 82b1 193f 1a2c f53c c8ac 93bd
00000280: e48f 993e 37c4 01be 0d4e cd3e 9f94 efbe
00000290: 168a 0b3f 10cc b0bd f056 543f c228 1ebe
000002a0: eae9 a5be 14c8 edbe 8a1e 6f3f b87d 0b3d
000002b0: 4813 25be a0ad 4b3f 3e43 af3e f279 13be
000002c0: 68c6 d83d 6bd4 083e a78b 2e3e 80e0 7c3e
000002d0: ca75 8a3e aeff 173e a488 323e e882 71bd
000002e0: 1882 f53d b698 87be 651a b93e e8dc 34be
000002f0: daf6 61be 046e 2d3f 1f26 6d3e 78e4 fdbd
00000300: 471f f33e de47 5dbe b9f2 0e3e 6ad0 abbc
00000310: 6c2a 083f f290 00be 93be c43e 1071 553d
00000320: 3cf7 6dbe aa9f 1b3f 50ff 723f a05b ecbc
00000330: 3873 2bbd 6826 223e f124 333f 74dc dabd
00000340: f2d8 a73e 3ca0 bfbd a0a3 be3d 85e6 553e
00000350: b3bc a0be 3651 0e3e 6db7 8d3e 5078 1bbe
00000360: 8d98 04bd 5ecd c53e 3f25 aabe 0802 853d
00000370: f0d2 4cbe aeb2 6b3f 12d7 3d3e b81a 8a3d
00000380: 614f 88be 531c 653f 7e38 b83e 0c3d e63e
00000390: 8eeb c1be fa57 14be 0e7b 29bf 50ba 58bd
000003a0: 1dce 413f 3131 f23d fc58 ba3d 587d 28be
000003b0: 743e 2e3e 9e82 d93d e314 3d3d e2b9 3a3e
000003c0: b4dd 213e 8632 7e3e 2b80 c93e c8fb c43e
000003d0: d8ce c23e f272 4d3e d690 c6b9 44e6 dfbd
000003e0: e461 e23e 805c 4c3e 3670 fb3e 50ef 363d
000003f0: 74a7 e9bd 0352 debd 6efb 693e f62d 29be
0.3743437 0.27549407 0.24407706 0.30761737 -0.33869043 0.10786888 -0.069967344 0.14657664
-0.062494393 0.6306802 -0.120892696 -0.20735142 -0.14966017 0.61450446 0.009206098 -0.069575876
0.046833966 0.007527875 0.2503997 -0.12519394 0.5853915 -0.02575478 0.10816788 -0.024682552
-0.32502973 0.5131571 0.84508806 0.19401237 -0.16281813 -0.012230494 0.4805492 -0.0783878
0.20003444 0.033049148 0.2314188 0.02227337 0.33004647 0.21701208 0.3438083 0.018511295
0.087053984 0.45177817 0.41559604 -0.13671151 -0.019991577 0.42404023 0.5837437 0.2024155
0.25038332 0.3011183 0.59879607 0.23943113 -0.29235956 0.16157457 -0.2631667 -0.11457649
0.44710857 0.20221601 0.035840344 -0.14288408 0.20408112 0.64610875 0.3509746 -0.09361985
0.21063699 0.19722044 0.17897618 -0.15335515 -0.09804952 -0.08885437 0.123652756 -0.11380866
-0.015576035 0.053801596 -0.09225014 -0.15003496 0.15339503 0.028753817 -0.16500044 0.045308888
0.1258994 -0.113931455 0.54678774 -0.14106469 -0.12631029 0.023576379 1.4408078 -0.24929339
-0.2708781 -0.24453427 -0.03606874 0.10493401 -0.1189256 1.4142417 0.056297965 -0.036415666
0.31814247 -0.084019765 0.41310376 0.023447296 -0.017172173 -0.14915237 0.06167543 0.028724521
0.32721856 0.39584658 0.01705819 -0.054344058 0.15547544 0.673051 0.09048882 0.16146469
-0.035683252 0.82810277 0.16004452 0.8215914 -0.20242973 -0.10149065 -0.51799715 0.183588
0.46205088 -0.29949898 -0.5164746 0.16482654 0.026303321 0.4916025 -0.42305443 0.12450668
0.26702923 -0.17800626 0.3484991 -0.3780111 0.48710626 0.13393092 0.41782346 0.19829798
-0.37996104 0.3992112 0.27794933 -0.14948913 -0.20677978 0.462618 0.00628046 0.12607956
0.22544353 -0.05366007 0.40390038 0.26574612 0.19702697 -0.24586844 0.26413962 0.21835068
0.2553038 0.36474618 -0.16147834 -0.203269 0.0059815943 0.6003648 0.029928256 -0.0721069
0.29992592 -0.12672506 0.4009861 -0.46793076 0.5450758 -0.08632672 0.82945156 -0.15445235
-0.32405025 -0.4644171 0.93405974 0.03405544 -0.16120636 0.79561806 0.3423099 -0.14401987
0.10584718 0.13362281 0.1704546 0.24695015 0.2704299 0.14843628 0.17434937 -0.058962733
0.11987704 -0.26483697 0.3615295 -0.17662394 -0.22066823 0.67745996 0.23159073 -0.123970926
0.474848 -0.21609446 0.13959779 -0.020973403 0.5318973 -0.12555292 0.38426647 0.052109778
-0.23238844 0.60790503 0.94920826 -0.028852284 -0.041857928 0.15834963 0.69978243 -0.10686579
0.32782704 -0.09356734 0.09308553 0.20888717 -0.31393966 0.13898167 0.27679005 -0.15182614
-0.032372046 0.38633245 -0.33231542 0.06494528 -0.20002341 0.9206952 0.18539074 0.067433774
-0.2662306 0.89496344 0.359806 0.4496845 -0.37875026 -0.14486685 -0.6620339 -0.052912056
0.7570513 0.11825789 0.09099004 -0.16454065 0.17016011 0.106206164 0.046162497 0.18234971
0.1580723 0.2482396 0.39355597 0.38473344 0.38048434 0.2006338 -0.00037873414 -0.109325916
0.4421531 0.19957161 0.49109048 0.04466182 -0.11408892 -0.10855486 0.22849819 -0.16521439

fc1.bias f4 [64]
00000000: 2386 923e 852a 893e 8426 c63e 8779 843e
00000010: bf52 89be 336e 753e 9f0d e13e 9f5a ee3e
00000020: b893 b23e 053c b03e c248 e83e ffa5 853e
00000030: 8148 2f3e 5992 8d3e 065f 293f 04fb 723e
00000040: f011 4fbe 6763 523e 9f1d ae3e e2f0 863e
00000050: fcd8 4e3e e1b0 b63e fa8f 66be 1a78 d53e
00000060: 2f2a ce3e a9ec ac3e dce3 22be d327 b23e
00000070: 0c40 b73e 45aa d73e 630f e53e e6b7 823e
00000080: 2706 b33e 67ae 473e 7be3 c43e 44f0 ad3e
00000090: 0042 db3e 435d ae3d 3431 c63e 0b6a ff3e
000000a0: 7015 6cbe 9f25 30be badf af3e 2a9a 8b3e
000000b0: d5ba 7f3e e59c 8b3e 84b6 3f3e 63c7 cd3e
000000c0: 7002 59bd 2919 013f 68b0 663e c4ae 8b3e
000000d0: 74cb cf3e 4944 b23e 6a33 e43e 3dcd 86be
000000e0: 7db2 bd3e ed67 ea3e fe18 0a3e 2658 b83e
000000f0: ce92 c03e dd9c a13e 0bce 933e c00b a93e
0.28617963 0.26790252 0.3870126 0.25873968 -0.26820943 0.23967819 0.43955705 0.46553513
0.34878325 0.3442079 0.4536801 0.26103207 0.17117502 0.27650717 0.6616062 0.23728567
-0.20221686 0.20545731 0.34006974 0.26355654 0.2019996 0.35681823 -0.2251586 0.41693193
0.4026656 0.33774307 -0.15907234 0.34796008 0.3579105 0.42122093 0.44738302 0.25530928
0.3496563 0.19500123 0.38454804 0.3397237 0.42823792 0.08513882 0.38709414 0.49885592
-0.23055053 -0.17201851 0.34350377 0.27266055 0.24973615 0.2726814 0.18721968 0.40191182
-0.05298084 0.50429016 0.22528231 0.27281773 0.4058491 0.34817722 0.44570476 -0.2632846
0.37050238 0.45782414 0.13486096 0.36004752 0.37612003 0.3156499 0.28868136 0.33016777

fc2.weight f4 [32, 64]
00000000: 529c 933d a0fe e0bd e0d8 73bd e02f 4cbd
00000010: ea4e 8f3a 91c3 cdbd 364c 45bc 972c e3bd
00000020: 0d83 f4bc 5c46 1dbe 45ca df3b 52ac 19be
00000030: 0a52 aabd b4c5 1fbe 5d1d 5abd c97c 16be
00000040: 00af 75bd 490d be3d e922 9bbd b25d b7bd
00000050: cfe0 1bbe 129c 8cbc 1c83 fe3d b1e5 573d
00000060: 291e 903d 8230 c4bd 4037 c0bc 70d8 45bd
00000070: c119 9e3c 3e72 d2bd eada d6bd ff71 07bd
00000080: 4ad2 f039 34fd 1e3d b217 13be 67d4 e4bd
00000090: 7430 9a3c 4275 843c 1aca 31be aa4d c9bc
000000a0: cc27 23bd 0181 c83c 9216 103d a373 233b
000000b0: 81ab b2bd 7950 16be c1d0 a53c c719 d7bc
000000c0: 528a cfbd bbf8 ecbb e8cd 84bd bf14 eb3c
000000d0: b39f 0abe 7ab5 2c3d c3c2 ecbd f858 19be
000000e0: 89f0 38be 20f9 16bd f113 92bd 7f58 443d
000000f0: 3ba1 0abe 5fe2 003b 7c51 6dbd c44c dbbd
00000100: 81db 1fbd 92a8 d1b9 ae4a 49bd f186 c73d
00000110: e055 17be 656f dabd 3012 893d d4e1 54bd
00000120: a3b9 1abe 501a 6d3d 1f31 0abe 1805 c7bd
00000130: 79a7 75bd 9168 aabd c151 e0bb d0ed 803d
00000140: 3055 1a3c 6569 17be 8ace ab3d 6fff febc
00000150: db24 093d f83f e2bd 4047 9b3c 2c28 103d
00000160: 8153 d43c 3d8d 413d c2c0 a3bd 2a77 81bd
00000170: dcda c93c 2dfb 7e3d ee2e 01be 6fc4 7c3c
00000180: 50e3 4bbd 3c85 4cbd 3d97 95bd 23c4 ebbb
00000190: 8e3d 903d 91fd 71bd 37bc 7bbd dbf8 443d
000001a0: f71a 363d 0000 ce3c 0da1 90bd eaf9 93bd
000001b0: df30 1b3c b5eb 9b3d c863 c0bb 8ac7 e6bd
000001c0: 80ea 0ebc 0253 8ebd a334 5bbd 3647 9dbd
000001d0: 38d0 5fbd ba32 a5bd 4ad9 f2bd 6ce6 1a3d
000001e0: 18c2 6abd df7c 95bc b2b6 debd 1cca d7bd
000001f0: 1183 48bc d786 bdbd d0c7 83bd bc54 9e3c
00000200: bc6b 9abd 0eb6 203f 2e57 803e 2125 52be
00000210: 10a1 4e3d e116 6abf 8ad2 593d bdc0 5dbf
00000220: 5e3c ae3e 77d7 a6bd 8fa0 1f3e b6d0 26be
00000230: c069 4c3f 604d b3be b1d1 b9be a48f cb3e
00000240: 4034 e1bd c1cf b63f c135 f53d 5f02 16be
00000250: 478b 1c3f 0496 883f 202a 42bc 4230 cd3e
00000260: 6753 793f 32d2 e03d 58b6 d5bd 8c41 293e
00000270: a607 d43e 227d 483e 821a c7be 25d6 1cbe
00000280: 4662 64bd 86a4 93bd 11bf dc3d 0de7 263f
00000290: 9858 063e b3c9 fe3e 1992 12be 561a a4be
000002a0: 32e8 d9bd c284 dcbd 413a 9e3e 6ece 253f
000002b0: 6980 5b3b 0ca4 433f 5689 143f 4853 0c3e
000002c0: 18dd df3c 329e a63e 04b5 8d3f e4db 4c3f
000002d0: e82c b23e ce63 43be 5886 b33e 88c3 9c3c
000002e0: a930 953d f4da 15be 3241 6c3d 3f73 c93e
000002f0: e4e2 c23e b00b e9be 5119 12bf 933d 903e
00000300: 76de 923e 12e8 6f3e 9cda b13e 597a 4d3e
00000310: ba0c bf3d 0d16 7e3f b130 6f3e f541 4bbe
00000320: 6dbc b13e f06c 823e 028c 743f f9c4 843e
00000330: cb27 1d3f 3800 fa3e 801a 98be 73b0 b4bc
00000340: 9cd0 6bbd f5ca 70be 24db 9b3e 5de6 9b3e
00000350: 5ce3 d4bd 08ae 303e a076 cfbd 5020 b73d
00000360: ce11 10be b40c 293f a491 ab3d 2930 393f
00000370: 9986 633e aced ac3e 9867 40be d46b 863d
00000380: 7bbe 903e 4868 ba3e 0a37 2f3e 3057 193f
00000390: 81a9 c73e 2c72 eb3e 2201 9a3d 2088 493c
000003a0: 9a70 a2bd be45 013e 62f7 e43e 2906 093e
000003b0: 6474 ef3d 7b71 973e 96c6 b33e cb1d 0a3e
000003c0: 1052 573d a661 ae3e cdcf 053e 5cd6 bd3e
000003d0: 7c4f a23c 924d fdbd 9dca 6d3f 595e 963d
000003e0: 4553 c53e 5348 b53e cf44 5f3f 0778 833e
000003f0: 3f92 853e 1a09 26bd 997a f83e a6a5 a83d
0.0720755 -0.10986066 -0.059533 -0.049850345 0.0010933552 -0.10047067 -0.012042096 -0.11092489
-0.029847646 -0.15358871 0.0068295323 -0.15007141 -0.08316429 -0.15602762 -0.05325066 -0.1469604
-0.059981346 0.09279878 -0.07575018 -0.08953418 -0.15222476 -0.017164264 0.12427351 0.052709285
0.070370026 -0.09579565 -0.023463845 -0.048302114 0.01929939 -0.10275696 -0.10490973 -0.0330677
0.00045933045 0.038815692 -0.14364508 -0.11173325 0.018821932 0.016169194 -0.17362252 -0.024573166
-0.039832875 0.024475576 0.035177775 0.002494075 -0.08724118 -0.14679135 0.020241143 -0.026257409
-0.101338044 -0.0072317994 -0.06484586 0.028696416 -0.13537483 0.042165257 -0.11560585 -0.14975345
-0.18060507 -0.036858678 -0.0713271 0.04793596 -0.13538067 0.0019666178 -0.057939038 -0.10708001
-0.039027695 -0.0003998918 -0.049143486 0.09742535 -0.14778852 -0.10665778 0.06692922 -0.05197318
-0.15109877 0.05788642 -0.134953 -0.097177684 -0.059974167 -0.08320726 -0.0068456833 0.06295359
0.009419724 -0.14786299 0.083890036 -0.03112766 0.033482414 -0.11047357 0.018954873 0.03519456
0.025918724 0.047253836 -0.0799575 -0.06321557 0.024640493 0.06225126 -0.12615559 0.015427693
-0.04977733 -0.04993175 -0.07304237 -0.007195012 0.070429906 -0.05907971 -0.061458793 0.04808889
0.04445931 0.025146484 -0.07061968 -0.07225402 0.009472101 0.07613317 -0.00587127 -0.11268528
-0.008722901 -0.06949426 -0.053516995 -0.07679598 -0.054641932 -0.08066316 -0.11857851 0.037817404
-0.05731401 -0.01824802 -0.1087469 -0.10536596 -0.01223828 -0.09254234 -0.064345956 0.019327514
-0.0754008 0.62777793 0.25066513 -0.20521976 0.05044657 -0.9144116 0.0531793 -0.8662222
0.34030432 -0.081465654 0.15588592 -0.16290554 0.7984886 -0.3501997 -0.36292794 0.39758027
-0.10996294 1.4282151 0.11973143 -0.14649342 0.6115002 1.0670781 -0.011850864 0.4007588
0.97392887 0.109775916 -0.1043517 0.1652891 0.41412085 0.19578984 -0.3888741 -0.15316065
-0.055757783 -0.07209115 0.107786305 0.65196306 0.13119733 0.4976326 -0.14313544 -0.32051343
-0.10639991 -0.10767509 0.3090382 0.6476811 0.0033493286 0.7642219 0.5802206 0.13703644
0.027327105 0.32542568 1.1070867 0.80023026 0.34799886 -0.19081041 0.35063434 0.019136205
0.07284672 -0.14634305 0.057679363 0.39345738 0.3806373 -0.4551673 -0.5706988 0.28171977
0.2868535 0.23428372 0.34737098 0.20066203 0.09328599 0.99252397 0.23358418 -0.1984938
0.3471407 0.25473738 0.95526135 0.25931528 0.61388844 0.48828292 -0.29707718 -0.022056794
-0.057571992 -0.23514922 0.3044063 0.3044919 -0.10394928 0.17253888 -0.10130048 0.0894171
-0.14069292 0.6603501 0.08377388 0.7233911 0.22219314 0.3377508 -0.18789518 0.06563535
0.28270325 0.36407685 0.1711084 0.5989866 0.3899651 0.45985544 0.07519747 0.012300521
-0.07931633 0.12624261 0.44719988 0.13381256 0.116921216 0.29578766 0.35112447 0.13487928
0.052568495 0.34058875 0.13067551 0.37077606 0.019813292 -0.12368311 0.9288729 0.07342214
0.38540092 0.35406741 0.8721437 0.2567751 0.2608814 -0.040536024 0.48531035 0.0823472

fc2.bias f4 [32]
00000000: 7fb4 513d 35da bdbd 3189 583d 39dc 983e
00000010: c142 a93e 1b9a 483e 1a9e 91bc b4da 3d3e
00000020: b40d 90bd 1624 22bd 27b6 9c3e 7191 91bd
00000030: 25d7 0f3b 19f5 c13e 32ad 4d3d 5b6a 303e
00000040: 0ad7 d53e 9ff0 e2bb e785 283d 90fe 80bd
00000050: 7dca 20bd faec 23be ce17 c2bd 5518 a33e
00000060: 9047 a13e 40d7 b23e 75aa 913e 348e dabd
00000070: 3054 473e eba0 413d f1ff 973e 6715 89bd
0.051197525 -0.09270135 0.05286521 0.29855517 0.33058742 0.19590037 -0.017775584 0.1854046
-0.07033864 -0.039585195 0.3060772 -0.07107819 0.0021948304 0.37882307 0.050214 0.17228071
0.41765624 -0.006925657 0.041143324 -0.06298554 -0.039255608 -0.16008368 -0.09477197 0.318545
0.3149991 0.34929848 0.2845036 -0.10671654 0.19465709 0.047272604 0.29687455 -0.06693535

fc3.weight f4 [4, 32]
00000000: f4e2 0ebd 9af3 ae3d e19f 273f 40c7 11bd
00000010: 8869 bb3e 407a cf3e 17af 2f3e bfa4 13bd
00000020: a3bd 0abe b1e2 b23c 2887 843d 3cee bf3d
00000030: b619 fdbb 462d 61be 6573 223e a780 80be
00000040: 1250 ee3e b809 d2bd d278 cd3d 77e1 2b3e
00000050: bfc1 153e 91d4 4b3d eb64 8bbd 09c5 0a3f
00000060: ce4d 033f 3983 ce3e dbfe 9b3e 174b 7f3c
00000070: d1de 283f 8266 11bd 9cbe f93d 1496 f83d
00000080: c01b 2cbc 8e61 263d 91df cb3e cab6 1b3f
00000090: dcfe 67be bc1e 103f 750d 48bd 4a02 6c3e
000000a0: 2a61 bb3d c986 dcbd d212 103f 4948 b0bc
000000b0: 6936 babd 1680 063f 22ef 35bd ec27 2f3f
000000c0: e958 3ebc ce57 1abd d969 dabc 1443 8f3d
000000d0: 4d54 a6bd 6369 f5bd fcd9 d1bd 2c65 f63e
000000e0: 0a71 ff3d b588 b13e 1ffa b13e da34 e2bd
000000f0: dfad a3be 47d1 f0bc 8348 8abe b6a4 5dbd
00000100: 17ea a3ba 0c99 fb3d 0dcb 58be aa59 683e
00000110: 409e 8fbf e9c5 8cbe 2877 9ebc 74ab 143f
00000120: c034 edbb 92a3 533e 39fc c33d a3f6 03be
00000130: c358 89bc 2af1 ee3e 582a 31bd 1e0f 40bb
00000140: f8e6 0b3f 5f4b cdbd 91c4 1c3d 6f98 903b
00000150: 1c51 37bd a929 33bc e530 0cbe e714 b63e
00000160: c612 073f 6fa1 b33e d866 d23e 334d 81bd
00000170: 8aea 503e fedd 50bd d65f 013f 032a 413d
00000180: 1aa5 f0bd 8bba dcbd 8eae d1be 024b 3c3e
00000190: ffc6 cf3f 68ec df3d 52d5 c43d 335b af3e
000001a0: cf99 083e 8f00 5bbd b06d 0b3e 22c4 323d
000001b0: e8f2 d33d a825 f53d 27ca bdbb 4d44 b03e
000001c0: 6a0e a93e f57b 423e 2197 d83c df64 06bd
000001d0: 7e10 c03c 8aad 503e 1048 4fbc 8e25 34be
000001e0: 0ca3 d0bd 62b1 0abd 2a06 b63e d815 0b3d
000001f0: c206 b93e 59ed 4fbd b44a 383f 9c48 92bd
-0.034884408 0.08542557 0.6547833 -0.03559041 0.3660395 0.40522957 0.17156635 -0.036045786
-0.13548903 0.02183661 0.064710915 0.093716115 -0.0077240122 -0.21989927 0.15864332 -0.25098154
0.46545464 -0.1025576 0.1003281 0.16785227 0.1462469 0.049763266 -0.06806358 0.542069
0.51290596 0.4033449 0.30467877 0.015581868 0.6596499 -0.03549815 0.12194559 0.12138
-0.010504663 0.04062038 0.39819005 0.6082579 -0.22655815 0.56296897 -0.04884096 0.23047748
0.09149392 -0.10767896 0.5627872 -0.021518843 -0.09092409 0.52539194 -0.044417508 0.6842029
-0.0116178775 -0.037681393 -0.0266618 0.06995216 -0.08121548 -0.119829915 -0.10246655 0.48124063
0.12472732 0.34674612 0.3476114 -0.11045237 -0.3196859 -0.029396666 -0.27008447 -0.05411216
-0.0012505677 0.12285051 -0.21171208 0.22690454 -1.1220169 -0.27494743 -0.019343928 0.58074117
-0.0072389543 0.20667866 0.09569592 -0.12887053 -0.016765958 0.4666837 -0.043253273 -0.0029305886
0.54649305 -0.100241415 0.038273398 0.0044127028 -0.044755086 -0.0109352255 -0.13690527 0.35562822
0.5276302 0.35084102 0.4109409 -0.06313553 0.2040197 -0.05099296 0.5053686 0.047159206
-0.117502406 -0.10777768 -0.40953487 0.18387988 1.6232604 0.10933763 0.09611 0.34249267
0.13339923 -0.05346733 0.13616061 0.043644078 0.10349065 0.11970073 -0.0057919207 0.3442711
0.3301881 0.18992598 0.026439251 -0.032811042 0.023445364 0.203787 -0.012651458 -0.17592451
-0.10187349 -0.03386057 0.35551578 0.03395638 0.36137968 -0.05076346 0.7198899 -0.071427554

fc3.bias f4 [4]
00000000: 41e3 1c3e a745 673e d91e d33e 2b0a 683e
0.15321065 0.22585164 0.41234472 0.22660129
