policy_net6600.pth (torch, 15822 bytes, 6 tensors)

fc1.weight f4 [64, 16]
00000000: a07f bf3e 1070 883e ca80 7b3e 0680 9d3e
00000010: d568 adbe 5cea dc3d e8a6 90bd 3018 163e
00000020: 02f0 7cbd 3cbe 213f daff f9bd ee53 54be
00000030: 8440 19be de2f 1d3f 6e29 1b3c cc7d 8ebd
00000040: c755 3b3d 5a64 333b 0947 803e d732 00be
00000050: 226c 163f b0fb d2bc 87fe d63d 1033 cabc
00000060: 4c6a a6be 3331 033f 6d5d 583f 2eab 463e
00000070: ccb9 26be 1b36 5fbc 9944 f63e c889 a0bd
00000080: ec8f 4b3e 4743 ca3c 229c 6d3e a476 b63c
00000090: 80e4 a93e 6a38 5e3e f8d1 ae3e 00a5 973c
000000a0: da9b b53d 5c41 e73e 7879 d43e 1afe 0bbe
000000b0: 60c5 a3bc a346 d83e 3080 153f 0246 4f3e
000000c0: d74b 7f3e 6d51 933e 3e92 193f 6f2d 753e
000000d0: 27b0 95be ce73 253e c9bd 86be 14a7 eabd
000000e0: be19 e53e 00b5 4f3e 2c82 0d3d 3450 12be
000000f0: a4fa 503e 0622 253f 759c b33e c4bb bfbd
00000100: 39b1 573e 28f4 493e 8845 373e 2209 1dbe
00000110: 30ce c8bd 48f9 b5bd a83d fd3d 8414 e9bd
00000120: a032 7fbc 105f 5c3d a4ed bcbd c4a2 19be
00000130: 9613 1d3e 208d eb3c e0f5 28be d095 393d
00000140: c57a fe3d bcc5 f5bd db71 0c3f 4373 10be
00000150: 97e8 00be 4023 c13c cd43 b93f c446 7fbe
00000160: 89b0 8abe 3167 7abe 5517 1bbd a4e7 d63d
00000170: 448f f3bd 0bb2 b43f 9206 673d 9828 15bd
00000180: a25b a23e e984 bfbd 8f02 d43e 8b14 c03c
00000190: 37c1 7dbc 66bb 18be bd96 743d b04f eb3c
000001a0: 0b1e a83e 70d3 ca3e 3af9 823c e097 5ebd
000001b0: f434 1f3e ccfc 2b3f f333 b93d 0057 253e
000001c0: fd51 05bd bbd0 503f d4bb 273e d053 523f
000001d0: aca9 52be 54da cfbd 769b 04bf 7efe 3b3e
000001e0: a63c ec3e dc4d 98be ae37 04bf 4ac8 283e
000001f0: 107a d73c 685e fc3e fa89 d8be 5cfd fe3d
00000200: 494b 883e 46ac 37be ebc7 b23e ac8a c1be
00000210: b197 fa3e 3025 093e a93a d53e a00e 4b3e
00000220: 418a c2be 9938 cc3e d02b 8e3e ae13 19be
00000230: 14be 53be 44fe eb3e 2c8a e53b 001b 013e
00000240: 4ee9 653e 06ee 7cbd 0050 cf3e e00f 883e
00000250: a27f 4b3e f0c4 7bbe cf7d 863e 5297 5f3e
00000260: 9961 833e 36e9 ba3e 3783 26be c025 50be
00000270: 4001 c43b ad69 193f 5083 f53c c8ac 93bd
00000280: 93c6 983e b5dd 04be af93 cd3e 9f94 efbe
00000290: 84e1 0b3f 10cc b0bd 025b 543f c228 1ebe
000002a0: ec4f a3be 14c8 edbe 57fe 6e3f b87d 0b3d
000002b0: 4813 25be ecd4 4a3f e96e af3e f279 13be
000002c0: 8496 d63d 4fe0 fa3d c851 2f3e 80e0 7c3e
000002d0: bec3 8a3e aeff 173e 2aed 313e e882 71bd
000002e0: 049b f93d b698 87be d9a5 b83e e8dc 34be
000002f0: daf6 61be 8df6 2c3f 6a7e 6d3e 78e4 fdbd
00000300: 1d80 f23e de47 5dbe 231a 0f3e 6ad0 abbc
00000310: 73c6 083f f290 00be 1735 c33e 1071 553d
00000320: 3cf7 6dbe e85a 1b3f 2afa 723f a05b ecbc
00000330: 3873 2bbd 3e01 203e c338 333f 74dc dabd
00000340: e028 a73e b83c d0bd eea2 c13d 85e6 553e
00000350: b3bc a0be 3651 0e3e b4b8 8d3e 5078 1bbe
00000360: 70c4 fabc c71c c63e 3f25 aabe 0802 853d
00000370: f0d2 4cbe bb4b 6b3f 00b4 3d3e b81a 8a3d
00000380: cc94 88be 5ea3 603f ddc6 b83e 0c3d e63e
00000390: 1bfd c1be fa57 14be 0e7b 29bf 50ba 58bd
000003a0: 0482 413f e7e7 f43d 9272 b83d 587d 28be
000003b0: 743e 2e3e 182a d93d ae6e 3c3d e2b9 3a3e
000003c0: 415e 213e e499 713e dda2 c93e c8fb c43e
000003d0: 0b89 c33e f272 4d3e c4f5 7fbb 44e6 dfbd
000003e0: be82 e23e e553 4c3e 8e6d fb3e 50ef 363d
000003f0: 74a7 e9bd 31da dfbd d559 6a3e f62d 29be
0.37402058 0.26647997 0.24560848 0.30761737 -0.33869043 0.10786888 -0.07063085 0.14657664
-0.061752327 0.631809 -0.12207003 -0.20735142 -0.14966017 0.61401165 0.009470327 -0.069575876
0.0457361 0.0027373047 0.25054196 -0.12519394 0.5875875 -0.02575478 0.10497766 -0.024682552
-0.32502973 0.5124695 0.84517556 0.19401237 -0.16281813 -0.01362374 0.4809921 -0.0783878
0.1987912 0.024690283 0.23204091 0.02227337 0.33182144 0.21701208 0.34144568 0.018511295
0.08867617 0.45167053 0.41498923 -0.13671151 -0.019991577 0.42241392 0.58398724 0.2024155
0.24931274 0.2877306 0.5998877 0.23943113 -0.29235956 0.16157457 -0.2631667 -0.11457649
0.44746202 0.2028389 0.03454797 -0.14288408 0.20408112 0.6450504 0.35080305 -0.09361985
0.21063699 0.19722044 0.17897618 -0.15335515 -0.09804952 -0.08885437 0.123652756 -0.11380866
-0.015576035 0.053801596 -0.09225014 -0.15003496 0.15339503 0.028753817 -0.16500044 0.045308888
0.1242576 -0.120006055 0.5486123 -0.14106469 -0.12588726 0.023576379 1.4473816 -0.24929339
-0.2708781 -0.24453427 -0.037864048 0.10493401 -0.1189256 1.4116834 0.05640275 -0.036415666
0.31710535 -0.093515225 0.41408202 0.023447296 -0.015487961 -0.14915237 0.059714068 0.028724521
0.3283542 0.3961444 0.015987981 -0.054344058 0.15547544 0.6718261 0.09043112 0.16146469
-0.032548893 0.815685 0.16380244 0.8215914 -0.20572537 -0.10149065 -0.51799715 0.183588
0.4614002 -0.29746902 -0.5164746 0.16482654 0.026303321 0.49290776 -0.42292768 0.12450668
0.26619938 -0.17936811 0.3491815 -0.3780111 0.48943856 0.13393092 0.41646317 0.19829798
-0.37996104 0.3988693 0.277678 -0.14948913 -0.20677978 0.46092427 0.0070049968 0.12607956
0.2245228 -0.061750434 0.40490723 0.26574612 0.19872907 -0.24586844 0.2626786 0.21835068
0.256604 0.3650605 -0.16260992 -0.203269 0.0059815943 0.59926873 0.029969841 -0.0721069
0.29839 -0.129752 0.40151736 -0.46793076 0.54640985 -0.08632672 0.82951367 -0.15445235
-0.31896913 -0.4644171 0.9335684 0.03405544 -0.16120636 0.79231143 0.34264305 -0.14401987
0.10477927 0.12249815 0.17121041 0.24695015 0.27102464 0.14843628 0.17375627 -0.058962733
0.1218777 -0.26483697 0.36064032 -0.17662394 -0.22066823 0.67563707 0.23192754 -0.123970926
0.47363368 -0.21609446 0.13974814 -0.020973403 0.5342781 -0.12555292 0.38126442 0.052109778
-0.23238844 0.60685587 0.9491297 -0.028852284 -0.041857928 0.15625474 0.70008487 -0.10686579
0.32648373 -0.10167831 0.094549045 0.20888717 -0.31393966 0.13898167 0.2767998 -0.15182614
-0.030611247 0.3869383 -0.33231542 0.06494528 -0.20002341 0.9191243 0.18525696 0.067433774
-0.26676023 0.8774928 0.3608922 0.4496845 -0.37888417 -0.14486685 -0.6620339 -0.052912056
0.75589013 0.11958294 0.090062276 -0.16454065 0.17016011 0.10603732 0.04600399 0.18234971
0.15758611 0.23593861 0.39382067 0.38473344 0.38190493 0.2006338 -0.00390564 -0.109325916
0.44240373 0.19953878 0.4910702 0.04466182 -0.11408892 -0.109302886 0.2288583 -0.16521439

fc1.bias f4 [64]
00000000: 2d86 923e da31 893e b415 c63e aa2a 843e
00000010: bf52 89be bb41 753e a2de e03e 955d ee3e
00000020: 90d4 b23e 5e1f b03e 4b63 e83e c296 853e
00000030: 4258 2f3e 1162 8d3e f42e 293f d3d8 723e
00000040: f011 4fbe adf4 523e 900b ae3e db37 873e
00000050: 266b 4e3e 8799 b63e fa8f 66be 4447 d53e
00000060: aaea cd3e bef8 ac3e dce3 22be cf3c b23e
00000070: 7415 b73e f486 d73e ede2 e43e 436d 823e
00000080: 21cf b23e 9f72 473e eba0 c43e a01d ae3e
00000090: ba17 db3e f507 ae3d 01ef c53e 5929 ff3e
000000a0: 7015 6cbe 9f25 30be d40f b03e eb6a 8b3e
000000b0: 77cf 7f3e 008b 8b3e 73b0 3f3e 038f cd3e
000000c0: 7002 59bd cc02 013f 84c4 663e 8dd7 8b3e
000000d0: 768d cf3e 9ffc b13e bf2e e43e 3dcd 86be
000000e0: 6090 bd3e d632 ea3e 58ab 093e b911 b83e
000000f0: 207c c03e 9453 a13e cbcc 933e 98be a83e
0.28617993 0.26795846 0.38688433 0.258138 -0.26820943 0.23950855 0.43919855 0.46555772
0.34927797 0.3439893 0.45388255 0.26091582 0.17123511 0.2761388 0.6608727 0.23715524
-0.20221686 0.20601149 0.33993196 0.26409802 0.20158061 0.35664007 -0.2251586 0.41655934
0.40218097 0.33783525 -0.15907234 0.34812018 0.35758555 0.4209515 0.4470438 0.25473985
0.34923652 0.19477318 0.3840402 0.34006977 0.4279154 0.084976114 0.38658908 0.49836233
-0.23055053 -0.17201851 0.34387076 0.2723001 0.24981485 0.27254486 0.18719654 0.40148172
-0.05298084 0.5039489 0.22535902 0.2731289 0.40537614 0.34763047 0.44566914 -0.2632846
0.37024212 0.4574191 0.13444269 0.3595102 0.375947 0.31509078 0.28867182 0.32957911

fc2.weight f4 [32, 64]
00000000: 529c 933d a0fe e0bd e0d8 73bd e02f 4cbd
00000010: ea4e 8f3a 91c3 cdbd 364c 45bc 972c e3bd
00000020: 0d83 f4bc 5c46 1dbe 45ca df3b 52ac 19be
00000030: 0a52 aabd b4c5 1fbe 5d1d 5abd c97c 16be
00000040: 00af 75bd 490d be3d e922 9bbd b25d b7bd
00000050: cfe0 1bbe 129c 8cbc 1c83 fe3d b1e5 573d
00000060: 291e 903d 8230 c4bd 4037 c0bc 70d8 45bd
00000070: c119 9e3c 3e72 d2bd eada d6bd ff71 07bd
00000080: 4ad2 f039 34fd 1e3d b217 13be 67d4 e4bd
00000090: 7430 9a3c 4275 843c 1aca 31be aa4d c9bc
000000a0: cc27 23bd 0181 c83c 9216 103d a373 233b
000000b0: 81ab b2bd 7950 16be c1d0 a53c c719 d7bc
000000c0: 528a cfbd bbf8 ecbb e8cd 84bd bf14 eb3c
000000d0: b39f 0abe 7ab5 2c3d c3c2 ecbd f858 19be
000000e0: 89f0 38be 20f9 16bd f113 92bd 7f58 443d
000000f0: 3ba1 0abe 5fe2 003b 7c51 6dbd c44c dbbd
00000100: 81db 1fbd 92a8 d1b9 ae4a 49bd f186 c73d
00000110: e055 17be 656f dabd 3012 893d d4e1 54bd
00000120: a3b9 1abe 501a 6d3d 1f31 0abe 1805 c7bd
00000130: 79a7 75bd 9168 aabd c151 e0bb d0ed 803d
00000140: 3055 1a3c 6569 17be 8ace ab3d 6fff febc
00000150: db24 093d f83f e2bd 4047 9b3c 2c28 103d
00000160: 8153 d43c 3d8d 413d c2c0 a3bd 2a77 81bd
00000170: dcda c93c 2dfb 7e3d ee2e 01be 6fc4 7c3c
00000180: 50e3 4bbd 3c85 4cbd 3d97 95bd 23c4 ebbb
00000190: 8e3d 903d 91fd 71bd 37bc 7bbd dbf8 443d
000001a0: f71a 363d 0000 ce3c 0da1 90bd eaf9 93bd
000001b0: df30 1b3c b5eb 9b3d c863 c0bb 8ac7 e6bd
000001c0: 80ea 0ebc 0253 8ebd a334 5bbd 3647 9dbd
000001d0: 38d0 5fbd ba32 a5bd 4ad9 f2bd 6ce6 1a3d
000001e0: 18c2 6abd df7c 95bc b2b6 debd 1cca d7bd
000001f0: 1183 48bc d786 bdbd d0c7 83bd bc54 9e3c
00000200: cf3c 99bd c0d4 203f 4e66 803e c7b5 51be
00000210: 10a1 4e3d b563 6abf 2454 5b3d 60bb 5dbf
00000220: 9c85 ae3e 53b8 a5bd 9d88 1f3e 3758 26be
00000230: 307d 4c3f 1936 b3be 7cc5 b9be c9fd cb3e
00000240: 4034 e1bd 5004 b73f 1b38 f83d c78d 16be
00000250: b3b3 1c3f 5ea8 883f 202a 42bc e466 cd3e
00000260: 4c6b 793f 8ef2 e03d 58b6 d5bd a8a2 293e
00000270: d15f d43e f5af 483e 51f6 c6be 232d 1cbe
00000280: 7acc 62bd f385 92bd 1e54 dd3d 7a02 273f
00000290: 94b2 063e 12d1 fe3e 9e2b 12be 74c1 a3be
000002a0: 32e8 d9bd c284 dcbd 3b50 9e3e c9e7 253f
000002b0: 9482 933b 50c1 433f bdaf 143f a988 0c3e
000002c0: 18dd df3c 1abc a63e 43bb 8d3f 5106 4d3f
000002d0: 8e51 b23e faa4 42be d77d b33e 88c3 9c3c
000002e0: 9954 963d 27bf 15be 7beb 6f3d b49b c93e
000002f0: a11c c33e aac4 e8be ee13 12bf a247 903e
00000300: f41b 933e 40ce 6f3e 08b4 b13e 5285 4d3e
00000310: ba0c bf3d a611 7e3f 875c 6f3e 6e87 4abe
00000320: 07f4 b13e c0c2 823e 4668 743f b4cc 843e
00000330: e815 1d3f 7004 fa3e be3b 98be a4b7 afbc
00000340: 9cd0 6bbd d5e3 6fbe c890 9c3e 456b 9c3e
00000350: ddcc d4bd 5798 303e a076 cfbd 7f1c b73d
00000360: f265 10be ea05 293f a491 ab3d 734e 393f
00000370: 6fb7 633e daed ac3e 978a 40be d636 873d
00000380: f7c4 903e cdd7 ba3e 2423 2f3e ae60 193f
00000390: 3d9f c73e 8233 eb3e ce1c 9a3d 40eb 4f3c
000003a0: 9a70 a2bd be45 013e aec8 e43e 77ec 083e
000003b0: 87e0 f13d 4468 973e 78d1 b33e 54d3 093e
000003c0: 1052 573d 0b36 ae3e bc6f 053e 73e0 bd3e
000003d0: bde6 a03c 540a fcbd 5aa8 6d3f 595e 963d
000003e0: 7973 c53e df2e b53e 5e6d 5f3f c27a 833e
000003f0: 1b9d 853e 5dd2 25bd 7cc8 f83e b4a5 a73d
0.0720755 -0.10986066 -0.059533 -0.049850345 0.0010933552 -0.10047067 -0.012042096 -0.11092489
-0.029847646 -0.15358871 0.0068295323 -0.15007141 -0.08316429 -0.15602762 -0.05325066 -0.1469604
-0.059981346 0.09279878 -0.07575018 -0.08953418 -0.15222476 -0.017164264 0.12427351 0.052709285
0.070370026 -0.09579565 -0.023463845 -0.048302114 0.01929939 -0.10275696 -0.10490973 -0.0330677
0.00045933045 0.038815692 -0.14364508 -0.11173325 0.018821932 0.016169194 -0.17362252 -0.024573166
-0.039832875 0.024475576 0.035177775 0.002494075 -0.08724118 -0.14679135 0.020241143 -0.026257409
-0.101338044 -0.0072317994 -0.06484586 0.028696416 -0.13537483 0.042165257 -0.11560585 -0.14975345
-0.18060507 -0.036858678 -0.0713271 0.04793596 -0.13538067 0.0019666178 -0.057939038 -0.10708001
-0.039027695 -0.0003998918 -0.049143486 0.09742535 -0.14778852 -0.10665778 0.06692922 -0.05197318
-0.15109877 0.05788642 -0.134953 -0.097177684 -0.059974167 -0.08320726 -0.0068456833 0.06295359
0.009419724 -0.14786299 0.083890036 -0.03112766 0.033482414 -0.11047357 0.018954873 0.03519456
0.025918724 0.047253836 -0.0799575 -0.06321557 0.024640493 0.06225126 -0.12615559 0.015427693
-0.04977733 -0.04993175 -0.07304237 -0.007195012 0.070429906 -0.05907971 -0.061458793 0.04808889
0.04445931 0.025146484 -0.07061968 -0.07225402 0.009472101 0.07613317 -0.00587127 -0.11268528
-0.008722901 -0.06949426 -0.053516995 -0.07679598 -0.054641932 -0.08066316 -0.11857851 0.037817404
-0.05731401 -0.01824802 -0.1087469 -0.10536596 -0.01223828 -0.09254234 -0.064345956 0.019327514
-0.074823014 0.6282463 0.25078052 -0.20479499 0.05044657 -0.9155839 0.05354704 -0.86614037
0.3408631 -0.08091798 0.15579458 -0.16244589 0.7987852 -0.3500221 -0.3628348 0.3984206
-0.10996294 1.4298191 0.12120076 -0.14702521 0.612117 1.0676382 -0.011850864 0.40117562
0.9742935 0.10983764 -0.1043517 0.16565955 0.41479352 0.19598372 -0.388598 -0.15251593
-0.055370785 -0.07154455 0.1080706 0.65238154 0.1315406 0.49768883 -0.14274451 -0.3198353
-0.10639991 -0.10767509 0.30920586 0.648068 0.00450165 0.76466846 0.58080655 0.13724007
0.027327105 0.32565385 1.1072773 0.80087763 0.34827846 -0.19008246 0.35056946 0.019136205
0.073403545 -0.146237 0.05857418 0.39376605 0.3810778 -0.45462543 -0.5706166 0.28179651
0.28732264 0.23418522 0.34707665 0.20070389 0.09328599 0.9924568 0.2337514 -0.19778225
0.3475649 0.25539207 0.9547161 0.25937426 0.6136155 0.4883151 -0.2973308 -0.021449871
-0.057571992 -0.23426755 0.3057921 0.3055059 -0.10390637 0.17245613 -0.10130048 0.08940982
-0.14101389 0.6602465 0.08377388 0.7238533 0.22237943 0.33775216 -0.18802868 0.06602256
0.28275272 0.36492768 0.17103249 0.59913146 0.38988677 0.45937735 0.07525025 0.012690365
-0.07931633 0.12624261 0.44684356 0.13371454 0.11810403 0.29571736 0.3512075 0.13459522
0.052568495 0.34025607 0.13030905 0.37085304 0.019641275 -0.123066574 0.9283501 0.07342214
0.3856466 0.35387322 0.87276256 0.25679594 0.26096424 -0.04048382 0.48590457 0.08185902

fc2.bias f4 [32]
00000000: 7fb4 513d 35da bdbd d7e2 553d 4745 983e
00000010: 71f4 a83e 7d91 473e 1a9e 91bc e074 3c3e
00000020: b40d 90bd 1624 22bd b229 9c3e 7191 91bd
00000030: 25d7 0f3b c779 c13e 32ad 4d3d 0876 2f3e
00000040: 9af6 d43e 9ff0 e2bb e785 283d 90fe 80bd
00000050: 7dca 20bd faec 23be ce17 c2bd a056 a23e
00000060: c3a3 a03e c11d b23e 82d2 903e 348e dabd
00000070: da16 463e eba0 413d 3344 973e 6715 89bd
0.051197525 -0.09270135 0.052218284 0.29740354 0.32998994 0.19489093 -0.017775584 0.1840396
-0.07033864 -0.039585195 0.3050056 -0.07107819 0.0021948304 0.3778822 0.050214 0.17134869
0.41594392 -0.006925657 0.041143324 -0.06298554 -0.039255608 -0.16008368 -0.09477197 0.31706715
0.3137494 0.34788325 0.28285605 -0.10671654 0.19344655 0.047272604 0.2954422 -0.06693535

fc3.weight f4 [4, 32]
00000000: f4e2 0ebd 9af3 ae3d 5584 273f 68c4 13bd
00000010: a3d7 ba3e 9d50 cf3e 17af 2f3e 1b38 14bd
00000020: a3bd 0abe b1e2 b23c 1596 833d 3cee bf3d
00000030: b619 fdbb 5d67 61be 6573 223e 19d7 80be
00000040: de3c ee3e b809 d2bd d278 cd3d 77e1 2b3e
00000050: bfc1 153e 91d4 4b3d eb64 8bbd d7b6 0a3f
00000060: 854d 033f 3063 ce3e 17db 9b3e 174b 7f3c
00000070: 61cb 283f 8266 11bd c805 fc3d 1496 f83d
00000080: c01b 2cbc 8e61 263d 9299 cb3e 5aae 1b3f
00000090: 2c23 69be a810 103f 750d 48bd 4259 6c3e
000000a0: 2a61 bb3d c986 dcbd 210a 103f 4948 b0bc
000000b0: 6936 babd f092 063f 22ef 35bd f221 2f3f
000000c0: 4644 3cbc ce57 1abd d969 dabc 1443 8f3d
000000d0: 4d54 a6bd 6369 f5bd fcd9 d1bd 335c f63e
000000e0: 9cd3 ff3d c880 b13e c201 b23e da34 e2bd
000000f0: 4bc0 a3be 47d1 f0bc e83b 89be b6a4 5dbd
00000100: 17ea a3ba 0c99 fb3d 632e 59be db2e 683e
00000110: 9ccd 8fbf 90fc 8cbe 2877 9ebc 69bb 143f
00000120: c034 edbb 92a3 533e 399a c33d a3f6 03be
00000130: c358 89bc 431b ef3e 582a 31bd 0925 58bb
00000140: 8fea 0b3f 5f4b cdbd 91c4 1c3d 6f98 903b
00000150: 1c51 37bd a929 33bc e530 0cbe d423 b63e
00000160: 182b 073f b2a9 b33e d962 d23e 334d 81bd
00000170: df85 503e fedd 50bd c19f 013f 032a 413d
00000180: 1aa5 f0bd 8bba dcbd 1a0d d2be 7ad6 3b3e
00000190: 40b5 cf3f a56d df3d 52d5 c43d c53f af3e
000001a0: cf99 083e 8f00 5bbd a108 0b3e 22c4 323d
000001b0: e8f2 d33d ce8a f43d 27ca bdbb 8f16 b03e
000001c0: a9ec a83e f57b 423e 2197 d83c df64 06bd
000001d0: 7e10 c03c 8aad 503e 1048 4fbc b28f 34be
000001e0: 9741 d1bd 3456 0cbd c1e2 b53e d815 0b3d
000001f0: 3ded b83e 59ed 4fbd 26a0 383f 9c48 92bd
-0.034884408 0.08542557 0.654363 -0.03607598 0.36492643 0.4049119 0.17156635 -0.03618632
-0.13548903 0.02183661 0.0642511 0.093716115 -0.0077240122 -0.22012086 0.15864332 -0.25164106
0.46530813 -0.1025576 0.1003281 0.16785227 0.1462469 0.049763266 -0.06806358 0.5418524
0.5129016 0.4031005 0.3044059 0.015581868 0.6593533 -0.03549815 0.1230579 0.12138
-0.010504663 0.04062038 0.39765602 0.60812914 -0.22767323 0.56275415 -0.04884096 0.23080924
0.09149392 -0.10767896 0.56265455 -0.021518843 -0.09092409 0.5256796 -0.044417508 0.6841117
-0.011490887 -0.037681393 -0.0266618 0.06995216 -0.08121548 -0.119829915 -0.10246655 0.48117217
0.12491533 0.34668565 0.34766966 -0.11045237 -0.31982645 -0.029396666 -0.26803517 -0.05411216
-0.0012505677 0.12285051 -0.21209101 0.22674124 -1.1234622 -0.2753644 -0.019343928 0.58098465
-0.0072389543 0.20667866 0.095509 -0.12887053 -0.016765958 0.46700487 -0.043253273 -0.003298106
0.54654783 -0.100241415 0.038273398 0.0044127028 -0.044755086 -0.0109352255 -0.13690527 0.3557421
0.5280013 0.35090405 0.4109104 -0.06313553 0.20363568 -0.05099296 0.5063439 0.047159206
-0.117502406 -0.10777768 -0.4102562 0.18343535 1.6227188 0.10909585 0.09611 0.3422834
0.13339923 -0.05346733 0.1357751 0.043644078 0.10349065 0.119405374 -0.0057919207 0.3439221
0.32993057 0.18992598 0.026439251 -0.032811042 0.023445364 0.203787 -0.012651458 -0.1763294
-0.102175884 -0.034261897 0.35524562 0.03395638 0.36118498 -0.05076346 0.7211937 -0.071427554

fc3.bias f4 [4]
00000000: fd89 1a3e 6b67 653e 3410 d23e b3d5 653e
0.15091701 0.22402732 0.41027987 0.22444801
