policy_net1000.pth (torch, 15822 bytes, 6 tensors)

fc1.weight f4 [64, 16]
0.22743617 0.5570034 0.4935072 0.59672815 0.5440999 0.07023811 -0.42086533 0.14893341
0.5979983 0.3521486 0.5685709 0.19713116 0.083390206 -0.49617186 0.579992 0.13161784
0.36084473 0.095478915 0.24662162 -0.1630664 0.3147771 0.20264444 0.06694248 0.19554439
0.13598345 -0.20670974 -0.22399415 0.22130933 0.17274114 0.40041018 0.44477925 -0.14159158
0.06684361 -0.32299137 -0.08955567 -0.06298921 0.17605412 -0.12209922 0.4274979 -0.19371963
-0.37180126 0.76659405 0.45934522 -0.15383658 -0.014387578 0.18907984 0.31296867 -0.032693684
0.40946153 -0.17776737 0.15837802 -0.3980847 -0.4599948 0.14582232 -0.04432268 0.005669147
-0.33931246 0.99927163 -0.4659168 -0.12662777 0.12767482 0.39817035 -0.36067548 0.15503624
0.39040777 -0.16284579 -0.20387724 -0.1633627 0.5351127 0.22286314 0.3222835 -0.18986246
-0.16033769 0.48781613 0.013811766 0.085012734 -0.1559689 0.5411399 0.7127029 0.20498785
0.26721612 0.38419196 0.35722366 0.33972555 0.4628591 -0.2497594 -0.28781548 -0.22293407
0.25977853 0.19355386 0.47535822 0.12549305 0.08676982 -0.30569786 0.6293027 -0.19748753
-0.044881064 -0.25044858 0.34529227 0.18056676 -0.2492881 0.23617843 -0.25444934 -0.07518408
0.22890063 0.5659729 0.1493295 -0.21406347 -0.19993573 0.44912767 -0.06413638 -0.012236506
0.3590683 0.059238903 0.3430084 0.36714932 0.27023765 -0.20765102 -0.3280363 0.14295545
0.32668537 0.20187685 0.52620107 -0.1715481 0.0819484 -0.21166322 0.069280654 -0.024875522
0.4854319 0.31486806 0.24969608 0.42508212 -0.3245414 0.17195976 -0.026599772 -0.10035339
0.24360693 0.045017026 -0.05773593 -0.108548224 0.18632162 0.33762473 -0.16465762 -0.05989319
-0.2219454 0.075496614 -0.059396148 0.09306446 0.15493295 0.09315351 -0.14063543 0.12570637
-0.23992562 -0.16590136 -0.08727506 -0.1467374 -0.20227814 0.021457106 -0.19612077 -0.14429915
0.2694432 0.49562615 0.19667658 0.17844392 0.03726418 0.11877063 -0.3578036 0.23549682
0.39003327 -0.1336714 -0.31749177 0.052200228 -0.22275802 0.5663364 -0.034308143 0.12772068
0.21065773 0.38277882 0.3185738 0.30472246 0.2755273 0.07591286 0.28582984 0.09777272
0.14145315 -0.39966154 -0.08132927 0.17987454 -0.1398578 0.63926476 0.33118352 0.10370779
0.2577823 0.4143615 0.35367897 0.27360892 0.08284919 0.0054552257 0.14659989 0.122474074
0.39844927 0.09243459 0.4749576 -0.23596206 0.052482367 -0.058468495 0.50428337 0.11866984
0.23045917 0.062357824 0.50473404 0.0928703 0.16412272 0.22755477 -0.13280098 0.07648265
0.11008103 0.51814276 0.3582294 -0.19816744 0.123108655 0.40954715 0.360579 -0.2361078
0.1867091 0.10481015 0.1249817 -0.09674165 -0.18358833 -0.14569569 -0.22754532 0.07932195
-0.0040875673 0.15235987 0.06828529 -0.023904622 0.07370505 0.1370709 0.04378277 0.05045992
0.25117025 0.27106705 0.22522533 -0.116779596 0.2315413 0.005471736 -0.013304533 0.20510507
-0.009852411 -0.15746258 0.29416507 0.015829414 -0.2386379 0.08815292 0.1400082 -0.12571412
00000000: 07e5 683e c697 0e3f faac fc3e 2dc3 183f
00000010: 224a 0b3f 00d9 8f3d a97b d7be 0082 183e
00000020: 6b16 193f d24c b43e dd8d 113f c0dc 493e
00000030: 7cc8 aa3d 3d0a febe 5b7a 143f d4c6 063e
00000040: a4c0 b83e 738a c33d 618a 7c3e e1fa 26be
00000050: 772a a13e 0682 4f3e 2419 893d ca3c 483e
00000060: 3f3f 0b3e b8ab 53be b95e 65be ea9e 623e
00000070: 0ee3 303e 9002 cd3e 1bba e33e 62fd 10be
00000080: 4de5 883d 205f a5be f768 b7bd 7d00 81bd
00000090: 8847 343e 280f fabd 01e1 da3e 705e 46be
000000a0: bc5c bebe 823f 443f 4c2f eb3e 5687 1dbe
000000b0: e0b9 6bbc 259e 413e 6e3d a03e d0e9 05bd
000000c0: f1a4 d13e a608 36be d92d 223e c2d1 cbbe
000000d0: 7084 ebbe 7252 153e b38b 35bd 40c4 b93b
000000e0: 5dba adbe 44d0 7f3f a68c eebe b6aa 01be
000000f0: 30bd 023e fcdc cb3e 75aa b8be d2c1 1e3e
00000100: 87e3 c73e 0cc1 26be 32c5 50be 8d48 27be
00000110: 25fd 083f 3c36 643e 5802 a53e 4e6b 42be
00000120: 902f 24be 09c3 f93e bf4a 623c 281b ae3d
00000130: 50b6 1fbe 2588 0a3f b273 363f 56e8 513e
00000140: 8dd0 883e cfb4 c43e 05e6 b63e 82f0 ad3e
00000150: defb ec3e eec0 7fbe 8d5c 93be d448 64be
00000160: b101 853e fc32 463e 2762 f33e 4081 003e
00000170: 60b4 b13d 6e84 9cbe fb19 213f 2c3a 4abe
00000180: 35d5 37bd cc3a 80be 26ca b03e 7ee6 383e
00000190: 6145 7fbe c2d8 713e 2f47 82be 1cfa 99bd
000001a0: ed64 6a3e 9ae3 103f d5e9 183e 7433 5bbe
000001b0: f4bb 4cbe 10f4 e53e ef59 83bd a07b 48bc
000001c0: cdd7 b73e 7ea4 723d cc9e af3e fffa bb3e
000001d0: 975c 8a3e 78a2 54be 60f4 a7be ea62 123e
000001e0: 4e43 a73e ceb8 4e3e 1db5 063f 4eaa 2fbe
000001f0: 90d4 a73d 3ebe 58be 04e3 8d3d c0c7 cbbc
00000200: 888a f83e 6336 a13e 54b0 7f3e 5da4 d93e
00000210: 4a2a a6be 3816 303e c4e7 d9bc 1486 cdbd
00000220: 1874 793e c663 383d 837c 6cbd 884e debd
00000230: 18cb 3e3e 26dd ac3e 029c 28be 9052 75bd
00000240: a845 63be f89d 9a3d 6049 73bd 9498 be3d
00000250: bea6 1e3e 44c7 be3d bc02 10be 2cb9 003e
00000260: 10af 75be 0ce2 29be 44bd b2bd 5442 16be
00000270: 0022 4fbe d0c6 af3c e2d3 48be 28c3 13be
00000280: 76f4 893e b6c2 fd3e 9665 493e 01ba 363e
00000290: 53a2 183d 043e f33d 0932 b7be 1426 713e
000002a0: 71b2 c73e 28e1 08be 488e a2be e8cf 553d
000002b0: ae1a 64be 6cfb 103f b286 0cbd 36c9 023e
000002c0: a9b6 573e 96fb c33e 1b1c a33e 9504 9c3e
000002d0: ea11 8d3e 3478 9b3d 4a58 923e 103d c83d
000002e0: 18d9 103e 70a0 ccbe f68f a6bd 0831 383e
000002f0: e236 0fbe dba6 233f e390 a93e c064 d43d
00000300: 0bfc 833e 3127 d43e 6915 b53e 7816 8c3e
00000310: d6ac a93d c0c1 b23b 481e 163e b0d3 fa3d
00000320: 8b01 cc3e 594e bd3d a42d f33e 0aa0 71be
00000330: c0f7 563d a97c 6fbd b718 013f 2c09 f33d
00000340: 7dfd 6b3e eb6a 7f3d 4036 013f c932 be3d
00000350: c90f 283e 1e04 693e fbfc 07be f0a2 9c3d
00000360: 2a72 e13d 01a5 043f d869 b73e 68ec 4abe
00000370: 6420 fc3d 2ab0 d13e d09d b83e 3ec6 71be
00000380: ac30 3f3e b4a6 d63d 68f6 ff3d 7c20 c6bd
00000390: 94fe 3bbe 4031 15be a401 69be 8c73 a23d
000003a0: 00f1 85bb 3a04 1c3e 28d9 8b3d a0d3 c3bc
000003b0: acf2 963d 505c 0c3e 9055 333d 10af 4e3d
000003c0: 6399 803e 4dc9 8a3e 78a1 663e 242a efbd
000003d0: 2a19 6d3e 404c b33b 42fb 59bc 1007 523e
000003e0: 026c 21bc df3d 21be ce9c 963e b0ac 813c
000003f0: 7e5d 74be 8589 b43d 4f5e 0f3e 34bb 00be

fc1.bias f4 [64]
0.4961869 0.20322278 0.30229107 0.45822585 0.13108952 0.30718172 0.23286608 0.46474972
0.39245024 -0.21694472 0.3287074 0.38925153 0.34648076 0.40689042 -0.22166443 0.481134
0.3790039 0.4063784 0.3955774 0.50847864 0.30411237 0.35099122 0.3232188 0.47650346
0.4536628 0.51574934 -0.25744444 0.5911308 0.38841814 0.3667104 0.4329806 0.48639578
0.4761642 -0.24778822 0.3425986 0.40890512 0.2990791 0.49118292 0.51964223 0.31121704
-0.24475944 -0.04029268 0.48051673 0.48463455 0.45150694 0.36522213 0.449376 0.47014278
0.51720667 0.3191697 0.39415333 0.5703072 0.4548251 0.286166 0.36992848 0.41703653
0.3759303 0.3794245 0.33640572 0.43669006 0.5326509 0.5082829 0.39181 0.33074883
00000000: 360c fe3e a219 503e e5c5 9a3e 949c ea3e
00000010: 553c 063e ec46 9d3e 7274 6e3e adf3 ed3e
00000020: 3def c83e c226 5ebe 564c a83e fa4b c73e
00000030: ed65 b13e f153 d03e 00fc 62be 3257 f63e
00000040: cd0c c23e d410 d03e 1f89 ca3e a82b 023f
00000050: 9eb4 9b3e 1fb5 b33e ef7c a53e 43f8 f33e
00000060: 7e46 e83e 2608 043f c2cf 83be 5954 173f
00000070: bede c63e 77c1 bb3e a2af dd3e de08 f93e
00000080: cbcb f33e 32bc 7dbe 1569 af3e 035c d13e
00000090: e520 993e 547c fb3e 4607 053f d757 9f3e
000000a0: 38a2 7abe f009 25bd 4a06 f63e 0522 f83e
000000b0: eb2b e73e 65fe ba3e 9c14 e63e 8eb6 f03e
000000c0: a867 043f 366a a33e 77ce c93e a7ff 113f
000000d0: d6de e83e 5a84 923e 4467 bd3e d085 d53e
000000e0: f079 c03e ee43 c23e 5f3d ac3e d795 df3e
000000f0: cf5b 083f d41e 023f 529b c83e e957 a93e

fc2.weight f4 [32, 64]
0.08262898 0.12273346 0.37430483 0.7852507 0.4769895 0.046800032 0.47561228 0.21310855
0.1795349 0.07471557 0.15916173 0.2849733 0.3004226 0.39264315 0.12152414 0.1384549
0.27349848 0.2899547 0.3660355 0.2566302 0.30676112 0.541683 0.22030255 0.05697272
0.19053595 0.6720816 0.04815909 0.29429385 0.54009104 0.077165574 0.293461 0.11415544
0.45594993 0.021441638 0.21430583 0.60303783 0.32275376 0.21897893 0.24376737 0.12850167
-0.014127797 -0.050962403 0.14935356 0.26535594 0.21535942 0.27911282 -0.057111487 0.35608923
0.31579274 0.4660518 0.21370907 0.06892137 0.1909869 0.15855873 0.06642875 0.20348236
0.23472358 0.30367652 0.058325574 0.18197729 0.03973248 0.3139644 0.32198372 0.10378712
0.5622569 0.18688196 -0.24211475 -0.06754514 -0.15035434 0.45369086 0.27245677 0.36878526
0.43635884 -0.004783869 0.5602105 0.4288446 0.34148797 0.23301387 -0.082215935 0.36123067
-0.0008651701 -0.17518511 0.015446341 0.5780664 0.18170305 0.019885017 0.5836511 0.5555269
0.17144139 -0.24259685 -0.06875356 0.3246058 0.10380409 0.2531469 -0.1498655 -0.08251966
-0.71143043 0.112268955 0.55805546 0.17785913 0.10018977 0.18170676 -0.23896949 0.5904069
-0.056474846 0.0788417 0.6135059 0.26840666 0.28831387 -0.40662038 0.8738987 -0.46752095
0.06458727 -0.282667 0.32982215 0.71815 0.12538733 -0.3695809 -0.012044843 0.16318637
0.32346 0.08101675 0.92262506 0.34924757 0.9442043 0.14055337 -0.292073 0.44189024
-0.10039679 0.0070194304 0.41786844 1.1254996 0.46459702 -0.071580485 0.6979827 0.19553173
0.32274756 0.087773964 0.18499996 0.1389505 0.0094759 0.44534048 0.06595415 0.06645815
0.4280767 0.113141894 0.33342022 0.3439058 0.27233157 0.9073885 0.30272976 0.07786555
0.3246213 1.0605587 -0.056272764 0.43941414 0.5511515 0.18120742 0.034283936 0.1871505
0.6232352 0.0032403618 0.33926013 1.0538286 0.37063342 0.16838117 -0.1891558 0.09912961
-0.074918084 -0.07523662 0.28707728 0.29986373 0.084419504 -0.082643814 -0.006229536 0.51033473
0.1521456 0.7307822 0.016958395 0.3291834 0.4389116 -0.060445268 0.07263268 0.0076891193
-0.15523176 0.3384279 -0.021254696 0.23971061 0.29129386 0.26049733 0.3822054 0.14353433
-0.032672673 -0.09237565 -0.029075885 0.07996059 0.03666748 0.00034318026 0.011614566 -0.041950937
-0.013095103 0.040102392 -0.061480343 -0.0160769 -0.16391258 0.058920342 -0.07858361 -0.111209966
-0.12889846 0.0071075573 -0.010636596 -0.035113808 -0.14531292 -0.118580855 -0.038050998 -0.14972033
-0.11562761 -0.13697924 -0.12356317 -0.10377744 -0.0109896725 -0.011290143 -0.01623755 -0.09531811
-0.019690057 0.082033515 0.06752332 -0.10272202 0.0103582 0.069900684 -0.1278068 -0.0861349
0.008100332 0.028441489 0.05350312 -0.059408322 -0.017366286 0.0007915525 -0.08310905 0.012193324
-0.04503226 -0.059736624 -0.15061066 -0.020255359 -0.13730952 0.08864626 -0.025285052 -0.12194828
-0.089796625 0.04146012 0.044654135 0.058457065 0.07594286 0.028162742 0.017300704 -0.08991644
00000000: 6239 a93d ae5b fb3d e2a4 bf3e 3106 493f
00000010: f837 f43e 64b1 3f3d 7483 f33e 2139 5a3e
00000020: ffd7 373e 7a04 993d 4bfb 223e 05e8 913e
00000030: fed0 993e 8608 c93e a6e1 f83d 1fc7 0d3e
00000040: fe07 8c3e f174 943e 0169 bb3e 0965 833e
00000050: cb0f 9d3e bdab 0a3f fe96 613e 3a5c 693d
00000060: db1b 433e 8a0d 2c3f 7742 453d afad 963e
00000070: 6843 0a3f fc08 9e3d 8540 963e 54ca e93d
00000080: 4572 e93e 60a6 af3c fd72 5b3e b060 1a3f
00000090: fb3f a53e 033c 603e 279e 793e f195 033e
000000a0: 4778 67bc f4bd 50bd 24f0 183e bcdc 873e
000000b0: 2e87 5c3e e0e7 8e3e bced 69bd 5451 b63e
000000c0: 96af a13e 579e ee3e 8dd6 5a3e a626 8d3d
000000d0: 1292 433e 385d 223e cc0b 883d ae5d 503e
000000e0: 615b 703e 7d7b 9b3e cce6 6e3d 4158 3a3e
000000f0: 86be 223d f1bf a03e 0ddb a43e 578e d43d
00000100: 11f0 0f3f fc5d 3f3e eeec 77be 1b55 8abd
00000110: 7df6 19be 2b4a e83e 747f 8b3e 6cd1 bc3e
00000120: 6d6a df3e 00c2 9cbb f569 0f3f 8591 db3e
00000130: 83d7 ae3e 309b 6e3e d460 a8bd 3af3 b83e
00000140: 95cc 62ba ba63 33be a612 7d3c 29fc 133f
00000150: 5d10 3a3e e7e5 a23c 296a 153f 0337 0e3f
00000160: 558e 2f3e 4f6b 78be abce 8cbd bb32 a63e
00000170: 3d97 d43d 789c 813e 5776 19be 1100 a9bd
00000180: 4e20 36bf 44ed e53d b9dc 0e3f b420 363e
00000190: 4b30 cd3d 5611 3a3e 6bb4 74be e824 173f
000001a0: 2b52 67bd c277 a13d b90e 1d3f 996c 893e
000001b0: e09d 933e 8c30 d0be d3b7 5f3f e85e efbe
000001c0: 5546 843d bbb9 90be 73de a83e aed8 373f
000001d0: 8965 003e b539 bdbe bc57 45bc 541a 273e
000001e0: 8d9c a53e 1cec a53d 2831 6c3f 94d0 b23e
000001f0: 5fb7 713f 39ed 0f3e 988a 95be 703f e23e
00000200: d59c cdbd 4003 e63b daf2 d53e 5f10 903f
00000210: a9df ed3e ca98 92bd ffae 323f 7839 483e
00000220: 2b3f a53e d6c2 b33d a170 3d3e 0a49 0e3e
00000230: ce40 1b3c ab03 e43e f812 873d 361b 883d
00000240: df2c db3e f0b6 e73d 0eb6 aa3e 6c14 b03e
00000250: 0b6f 8b3e 9d4a 683f 65ff 9a3e f977 9f3d
00000260: c334 a63e 63c0 873f 457e 66bd e4fa e03e
00000270: 4418 0d3f 708e 393e 506d 0c3d 61a4 3f3e
00000280: 588c 1f3f 405c 543b 81b3 ad3e dbe3 863f
00000290: aac3 bd3e 1d6c 2c3e 0fb2 41be 7704 cb3d
000002a0: a76e 99bd a815 9abd cbfb 923e bd87 993e
000002b0: 22e4 ac3d 2941 a9bd 2321 ccbb 4ca5 023f
000002c0: 0ecc 1b3e 8b14 3b3f 55ec 8a3c ba8a a83e
000002d0: 05b9 e03e 7595 77bd 71c0 943d 02f5 fb3b
000002e0: 13f5 1ebe 6c46 ad3e 541e aebc b376 753e
000002f0: 7824 953e e85f 853e 6db0 c33e aafa 123e
00000300: c8d3 05bd 722f bdbd 8d30 eebc 61c2 a33d
00000310: a430 163d e0ec b339 054b 3e3c bfd4 2bbd
00000320: d88c 56bc 6842 243d d0d2 7bbd b4b3 83bc
00000330: b3d8 27be 7556 713d 72f0 a0bd 0dc2 e3bd
00000340: f5fd 03be 83e6 e83b 1e45 2ebc 7fd3 0fbd
00000350: e9cc 14be 85da f2bd 5ddb 1bbd 4950 19be
00000360: 2bce ecbd 4944 0cbe b00e fdbd 4489 d4bd
00000370: 070e 34bc 4bfa 38bc 9c04 85bc 2436 c3bd
00000380: 0b4d a1bc 3001 a83d ab49 8a3d ec5f d2bd
00000390: 71b5 293c 1728 8f3d c9df 02be 7f67 b0bd
000003a0: 41b7 043c 20fe e83c 1626 5b3d 2456 73bd
000003b0: be43 8ebc 3080 4f3a 1435 aabd 82c6 473c
000003c0: bf73 38bd 64ae 74bd ae39 1abe 91ee a5bc
000003d0: de9a 0cbe 2c8c b53d 9922 cfbc 05c0 f9bd
000003e0: 4be7 b7bd 16d2 293d 41e7 363d ad70 6f3d
000003f0: ee87 9b3d 8db5 e63c 35ba 8d3c 1c26 b8bd

fc2.bias f4 [32]
0.2688534 0.36735702 0.22718439 0.035334464 0.30722702 -0.07209636 0.28265524 -0.059087254
-0.10066582 0.40045124 0.06881064 0.2966335 0.37439352 0.31659245 -0.014266416 0.26267737
0.3223293 -0.055504326 -0.03322049 0.29345924 -0.13287807 0.20849773 0.2440992 -0.053385682
0.30968267 -0.113085866 0.01874059 -0.05050369 0.12669836 -0.13908337 0.041081067 0.31416926
00000000: 27a7 893e 3816 bc3e 06a3 683e dfba 103d
00000010: dc4c 9d3e 42a7 93bd 30b8 903e 7a05 72bd
00000020: e229 cebd f207 cd3e 98ec 8c3d 59e0 973e
00000030: 82b0 bf3e 6818 a23e b0bd 69bc a67d 863e
00000040: 5908 a53e 8158 63bd 3512 08bd 4a40 963e
00000050: 3011 08be 6e80 553e 24f5 793e f2aa 5abd
00000060: ba8e 9e3e 9099 e7bd de85 993c f5dc 4ebd
00000070: 37bd 013e df6b 0ebe 9f44 283d cbda a03e

fc3.weight f4 [4, 32]
0.18753187 0.3641601 0.10633628 -0.0045986786 0.3860691 -0.074165955 0.34243494 0.086298086
0.1731462 0.5667199 0.14901419 -0.13600858 0.9810366 0.13883917 0.038321584 -0.2441793
-0.096128225 0.09554224 -0.07213135 0.39821157 -0.076809846 0.54945284 -0.531161 0.010671356
0.64416444 0.1017621 0.1470617 -0.021658456 0.44257426 0.10722071 -0.006440418 0.49706182
0.47348228 -0.22748086 0.5238289 -0.08934324 0.41537568 -0.061222278 0.61506504 -0.025028933
-0.018969387 0.12517111 -0.0068650986 -0.05798923 -0.7840675 0.44554374 0.048724562 0.6571847
0.30604947 0.10283907 -0.06228986 0.4421717 0.08397044 0.5837185 0.2065963 0.14112106
0.08495044 -0.06973463 -0.08803488 0.122123845 0.5109184 0.049314577 -0.054724634 0.125126
0.2893655 0.5584313 0.4685349 0.00970188 0.30031782 0.092393234 -0.17511624 0.13946158
-0.1736806 0.17180882 -0.1160005 0.46932653 0.21656203 0.2650877 -0.1166143 -0.18441509
0.7261903 -0.104235485 0.11196051 0.11448853 0.03538929 -0.47083187 0.71973217 -0.13329756
0.34452894 0.09714584 0.05236624 0.08968398 0.2848364 -0.12978996 0.09792221 -0.22585481
0.19945918 0.39149836 0.06828669 -0.10524268 0.24491285 -0.17414917 0.12562962 0.06761743
-0.14883502 0.33789304 0.054396126 0.66352534 0.44677204 0.07325351 0.089111194 0.6335833
-0.04760004 0.08902012 -0.10433319 0.3878086 -0.06336947 0.34968114 0.4600595 0.136443
0.089640245 0.15185623 -0.0025344756 -0.06953877 -0.23162492 -0.13205247 -0.13033442 0.7259005
00000000: 5b08 403e 3173 ba3e d6c6 d93d 83b0 96bb
00000010: d9aa c53e 52e4 97bd a253 af3e 0dbd b03d
00000020: 3d4d 313e 8e14 113f 2d97 183e d545 0bbe
00000030: 3725 7b3f db2b 0e3e 18f7 1c3d 230a 7abe
00000040: e0de c4bd a6ab c33d 9ab9 93bd 63e2 cb3e
00000050: 7b4e 9dbd f1a8 0c3f 2bfa 07bf e9d6 2e3c
00000060: f6e7 243f a668 d03d 5897 163e 136d b1bc
00000070: 1899 e23e 8896 db3d 240a d3bb e37e fe3e
00000080: 456c f23e bef0 68be a719 063f 97f9 b6bd
00000090: 1fac d43e 36c4 7abd e774 1d3f 7a09 cdbc
000000a0: b065 9bbc db2c 003e 9ff4 e0bb 1d86 6dbd
000000b0: a6b8 48bf 4f1e e43e 6893 473d 423d 283f
000000c0: 84b2 9c3e 4a9d d23d a723 7fbd 5464 e23e
000000d0: b2f8 ab3d 936e 153f fb8d 533e 0a82 103e
000000e0: 7ffa ad3d 08d1 8ebd a24b b4bd 111c fa3d
000000f0: 8ccb 023f 15fe 493d f026 60bd 0821 003e
00000100: b727 943e 5bf5 0e3f cee3 ef3e a2f4 1e3c
00000110: 42c3 993e aa38 bd3d ac51 33be 04cf 0e3e
00000120: 54d9 31be a7ee 2f3e ac91 edbd 914b f03e
00000130: 70c2 5d3e 93b9 873e 7ad3 eebd 4fd7 3cbe
00000140: 9ce7 393f 6a79 d5bd 8d4b e53d f678 ea3d
00000150: 5cf4 103d e010 f1be 5e40 383f 287f 08be
00000160: 1966 b03e 66f4 c63d fc7d 563d 3cac b73d
00000170: 14d6 913e a9e7 04be 718b c83d 7c46 67be
00000180: 073f 4c3e 7972 c83e e4d9 8b3d 7989 d7bd
00000190: 6fca 7a3e 2954 32be 0da5 003e 027b 8a3d
000001a0: 3568 18be 5100 ad3e 79ce 5e3d ccdc 293f
000001b0: 4ebf e43e f005 963d ee7f b63d 8432 223f
000001c0: 42f8 42bd 2e50 b63d a4ac d5bd d98e c63e
000001d0: dac7 81bd 6809 b33e eb8c eb3e b7b7 0b3e
000001e0: 4e95 b73d 3380 1b3e 7219 26bb 586a 8ebd
000001f0: 152f 6dbe c338 07be 6376 05be 9dd4 393f

fc3.bias f4 [4]
0.37188378 -0.0089308685 0.012549173 0.41038916
00000000: 8d67 be3e c752 12bc 0c9b 4d3c 871e d23e
