policy_net3200.pth (torch, 15822 bytes, 6 tensors)

fc1.weight f4 [64, 16]
000000 e0 ce be 3e d6 b7 87 3e 92 d2 73 3e 0d 7c 9a 3e
       0.37267208 0.26507443 0.23810795 0.30172768
000010 d5 68 ad be 5c ea dc 3d ec 45 84 bd 30 18 16 3e
       -0.33869043 0.10786888 -0.06458649 0.14657664
000020 15 9a 8a bd 31 7a 1f 3f 13 07 f2 bd ee 53 54 be
       -0.0676767 0.62295824 -0.118177556 -0.20735142
000030 84 40 19 be f9 d9 19 3f 90 09 7e 3c cc 7d 8e bd
       -0.14966017 0.60098225 0.01550521 -0.069575876
000040 40 43 31 3d 7c 44 8a 3a f7 99 79 3e 22 48 ff bd
       0.043277025 0.0010548974 0.24375139 -0.1246493
000050 ff 58 16 3f b0 fb d2 bc 20 ab da 3d 10 33 ca bc
       0.5872955 -0.02575478 0.10677171 -0.024682552
000060 4c 6a a6 be c5 74 00 3f b8 ca 58 3f 2e ab 46 3e
       -0.32502973 0.50178176 0.84684324 0.19401237
000070 cc b9 26 be b4 ee 9d bc c9 cf f8 3e c8 89 a0 bd
       -0.16281813 -0.019278862 0.48596027 -0.0783878
000080 99 be 48 3e d1 46 b9 3c 2d 49 63 3e ae ac 96 3c
       0.19603957 0.022616776 0.22195883 0.018392887
000090 46 38 aa 3e 6a 38 5e 3e 64 02 b0 3e 00 a5 97 3c
       0.33246058 0.21701208 0.34376824 0.018511295
0000a0 c7 0d a8 3d 13 00 e2 3e fb b1 d4 3e 1a fe 0b be
       0.08205753 0.44140682 0.41542038 -0.13671151
0000b0 60 c5 a3 bc e7 db d1 3e 1c 99 16 3f 02 46 4f 3e
       -0.019991577 0.40988085 0.58827376 0.2024155
0000c0 86 eb 7a 3e 65 81 92 3e 56 19 17 3f a9 e3 6d 3e
       0.24503908 0.28614345 0.59023035 0.23231377
0000d0 27 b0 95 be ce 73 25 3e c9 bd 86 be 14 a7 ea bd
       -0.29235956 0.16157457 -0.2631667 -0.11457649
0000e0 e8 d3 e0 3e 28 e8 46 3e f4 25 20 3d 34 50 12 be
       0.43911672 0.19424498 0.039098695 -0.14288408
0000f0 a4 fa 50 3e 9d da 20 3f d9 fd b3 3e c4 bb bf bd
       0.20408112 0.6283358 0.35154608 -0.09361985
000100 39 b1 57 3e 28 f4 49 3e 88 45 37 3e 22 09 1d be
       0.21063699 0.19722044 0.17897618 -0.15335515
000110 30 ce c8 bd 48 f9 b5 bd a8 3d fd 3d 84 14 e9 bd
       -0.09804952 -0.08885437 0.123652756 -0.11380866
000120 a0 32 7f bc 10 5f 5c 3d a4 ed bc bd c4 a2 19 be
       -0.015576035 0.053801596 -0.09225014 -0.15003496
000130 96 13 1d 3e 20 8d eb 3c e0 f5 28 be d0 95 39 3d
       0.15339503 0.028753817 -0.16500044 0.045308888
000140 60 6e fa 3d 7d bf fd bd 28 28 0c 3f 09 95 1e be
       0.122280836 -0.12390039 0.54748774 -0.1548654
000150 0f e8 f8 bd 40 23 c1 3c e8 bf b5 3f c4 46 7f be
       -0.12153637 0.023576379 1.419919 -0.24929339
000160 89 b0 8a be c8 87 70 be c3 4f 12 bd a4 e7 d6 3d
       -0.2708781 -0.23489296 -0.035720598 0.10493401
000170 44 8f f3 bd ab a3 b2 3f 38 d0 74 3d 98 28 15 bd
       -0.1189256 1.3956198 0.059768885 -0.036415666
000180 f7 af a0 3e 5b 04 c3 bd d9 8a cf 3e ca 00 95 3c
       0.3138425 -0.09522315 0.4053562 0.018188853
000190 17 64 71 bc 66 bb 18 be 2f 52 82 3d b0 4f eb 3c
       -0.014733336 -0.14915237 0.063633315 0.028724521
0001a0 4b 12 a5 3e 9f 0c c6 3e 76 f4 93 3c e0 97 5e bd
       0.3224052 0.38681504 0.018060904 -0.054344058
0001b0 f4 34 1f 3e 2e 27 28 3f 8d 80 bb 3d 00 57 25 3e
       0.15547544 0.65684783 0.091553785 0.16146469
0001c0 0e 0f f1 bc 71 49 51 3f ce e2 4d 3e 6f da 4f 3f
       -0.029426124 0.8175269 0.2010605 0.8119268
0001d0 3c 30 43 be 54 da cf bd 76 9b 04 bf 7e fe 3b 3e
       -0.19061369 -0.10149065 -0.51799715 0.183588
0001e0 80 d1 ec 3e 1d ff 95 be ae 37 04 bf 4a c8 28 3e
       0.46253586 -0.29296198 -0.5164746 0.16482654
0001f0 10 7a d7 3c 38 da fa 3e 44 b3 d5 be 5c fd fe 3d
       0.026303321 0.48994613 -0.4173833 0.12450668
000200 20 24 88 3e 83 62 39 be 47 8d b2 3e ac 8a c1 be
       0.2659006 -0.18103985 0.3487341 -0.3780111
000210 5c ff fb 3e 30 25 09 3e cf 33 d3 3e a0 0e 4b 3e
       0.4921826 0.13393092 0.41250464 0.19829798
000220 41 8a c2 be b1 ed c6 3e 05 8b 8f 3e ae 13 19 be
       -0.37996104 0.3885322 0.2803575 -0.14948913
000230 14 be 53 be e6 fa e8 3e af 3e 6c 3c 00 1b 01 3e
       -0.20677978 0.4550392 0.014419242 0.12607956
000240 e2 15 63 3e 57 96 81 bd 61 08 cc 3e 4e 8d 85 3e
       0.22176316 -0.06327503 0.39850143 0.2608437
000250 a6 1c 4d 3e f0 c4 7b be c2 72 87 3e 52 97 5f 3e
       0.2003046 -0.24586844 0.2645474 0.21835068
000260 cb e9 80 3e 86 bb b6 3e 7c c9 24 be c0 25 50 be
       0.2517837 0.35689944 -0.16092485 -0.203269
000270 40 01 c4 3b b6 12 16 3f 95 c9 01 3d c8 ac 93 bd
       0.0059815943 0.586223 0.031686384 -0.0721069
000280 5a 66 98 3e c1 20 0a be 80 f4 cb 3e 73 58 e7 be
       0.29765588 -0.13489057 0.39834976 -0.4518467
000290 25 63 0c 3f 10 cc b0 bd 0d d0 51 3f c2 28 1e be
       0.5483878 -0.08632672 0.81958085 -0.15445235
0002a0 36 98 a3 be 14 c8 ed be 4f b5 6f 3f b8 7d 0b 3d
       -0.31952065 -0.4644171 0.9363603 0.03405544
0002b0 48 13 25 be b9 ba 48 3f b0 19 b1 3e f2 79 13 be
       -0.16120636 0.78409916 0.3458991 -0.14401987
0002c0 8b ea d3 3d a7 95 f6 3d 3e c9 26 3e 6d 8a 73 3e
       0.1034747 0.12040263 0.16287705 0.23783274
0002d0 51 6c 8c 3e ae ff 17 3e 9f 72 31 3e e8 82 71 bd
       0.2742639 0.14843628 0.1732888 -0.058962733
0002e0 22 52 ef 3d b6 98 87 be 19 b1 bb 3e e8 dc 34 be
       0.116855875 -0.26483697 0.36658552 -0.17662394
0002f0 da f6 61 be af 15 2a 3f e8 2c 72 3e 78 e4 fd bd
       -0.22066823 0.66439337 0.23649943 -0.123970926
000300 f4 5c f1 3e de 47 5d be 2d 1a 05 3e c4 3c ad bc
       0.4714123 -0.21609446 0.12998267 -0.02114714
000310 f4 7d 08 3f f2 90 00 be 78 6a c2 3e 10 71 55 3d
       0.5331719 -0.12555292 0.37971854 0.052109778
000320 3c f7 6d be fb 29 18 3f 67 2b 73 3f a0 5b ec bc
       -0.23238844 0.5943906 0.949881 -0.028852284
000330 38 73 2b bd 12 7a 1a 3e 7e 0e 34 3f 74 dc da bd
       -0.041857928 0.15085629 0.70334613 -0.10686579
000340 1b 60 a5 3e b7 53 d4 bd 6a 6f a3 3d 60 84 4d 3e
       0.32299885 -0.1036753 0.07980235 0.20070028
000350 b3 bc a0 be 36 51 0e 3e 1c da 8d 3e 50 78 1b be
       -0.31393966 0.13898167 0.27705467 -0.15182614
000360 17 c4 13 bd ef 0f c1 3e 3f 25 aa be 08 02 85 3d
       -0.036075678 0.3770747 -0.33231542 0.06494528
000370 f0 d2 4c be 0f c9 66 3f 64 98 3f 3e b8 1a 8a 3d
       -0.20002341 0.9015054 0.18710476 0.067433774
000380 fe c6 8a be 90 79 60 3f a5 40 b3 3e bf ed e3 3e
       -0.27104944 0.8768549 0.35010257 0.44517323
000390 8a d3 c0 be fa 57 14 be 0e 7b 29 bf 50 ba 58 bd
       -0.37661391 -0.14486685 -0.6620339 -0.052912056
0003a0 a1 10 3f 3f 2e 71 ec 3d a0 a4 c0 3d 58 7d 28 be
       0.7463475 0.11545025 0.094064 -0.16454065
0003b0 74 3e 2e 3e cb 47 bd 3d ac be 41 3d e2 b9 3a 3e
       0.17016011 0.09242209 0.04730098 0.18234971
0003c0 a4 58 1f 3e a7 e8 6f 3e 4b eb c6 3e d3 35 c4 3e
       0.15561157 0.23428594 0.3885139 0.38322315
0003d0 86 0d c4 3e f2 72 4d 3e 1d 73 7b 3b 44 e6 df bd
       0.38291568 0.2006338 0.0038368173 -0.109325916
0003e0 c8 5a de 3e 0b ef 44 3e 08 20 fe 3e 50 ef 36 3d
       0.43428636 0.19231813 0.49633813 0.04466182
0003f0 74 a7 e9 bd fc 72 f2 bd 6c 71 6e 3e f6 2d 29 be
       -0.11408892 -0.11838338 0.23285455 -0.16521439

fc1.bias f4 [64]
000000 01 ed 93 3e c8 0e 8b 3e 49 e6 c6 3e 34 e6 82 3e
       0.28891757 0.27159715 0.3884757 0.25566256
000010 bf 52 89 be ce 80 76 3e 00 51 e0 3e 51 d4 f1 3e
       -0.26820943 0.24072573 0.43811798 0.47232297
000020 41 05 b6 3e 3b 09 b0 3e 68 d3 e9 3e 96 03 87 3e
       0.35550883 0.34382042 0.45669103 0.26369923
000030 38 45 31 3e e8 5a 8c 3e 70 a4 28 3f d6 8a 75 3e
       0.17311561 0.27413106 0.6587591 0.23978743
000040 f0 11 4f be 76 6d 59 3e fa 66 ac 3e c2 79 87 3e
       -0.20221686 0.21233162 0.33672315 0.2646008
000050 25 98 4e 3e 7f ca b5 3e fa 8f 66 be 72 72 d5 3e
       0.20175226 0.35506055 -0.2251586 0.41688877
000060 29 93 cc 3e 95 78 ad 3e dc e3 22 be a3 cb b2 3e
       0.39956024 0.3388106 -0.15907234 0.34920987
000070 34 ec b6 3e a7 9d d7 3e 46 f7 e6 3e 3d 8d 81 3e
       0.35727084 0.42112467 0.4511053 0.2530307
000080 4e 9f b2 3e b2 a4 46 3e ef 36 c4 3e d5 24 b0 3e
       0.34887165 0.19398764 0.3832316 0.344031
000090 1a f9 da 3e c6 65 b1 3d 7c b5 c5 3e 84 5c fe 3e
       0.42768174 0.0866199 0.38615024 0.4967996
0000a0 70 15 6c be 9f 25 30 be 68 6b b0 3e 9d 2c 8b 3e
       -0.23055053 -0.17201851 0.34456944 0.27182475
0000b0 35 1a 80 3e 1f 04 8c 3e 20 ed 41 3e 37 5c cd 3e
       0.25019994 0.27346894 0.18938112 0.40109417
0000c0 70 02 59 bd 9b fc 00 3f a6 2b 6a 3e 16 bc 8d 3e
       -0.05298084 0.50385445 0.22868213 0.2768256
0000d0 51 75 cf 3e 44 c8 b0 3e 0e 73 e4 3e 3d cd 86 be
       0.40519193 0.3452779 0.4461903 -0.2632846
0000e0 12 7a bd 3e 50 10 ea 3e c3 22 07 3e 42 df b6 3e
       0.37007195 0.4571557 0.13196854 0.35717207
0000f0 02 46 c1 3e 46 e7 a0 3e fe 85 94 3e 32 7f a8 3e
       0.37748724 0.31426448 0.29008478 0.32909542

fc2.weight f4 [32, 64]
000000 52 9c 93 3d a0 fe e0 bd e0 d8 73 bd e0 2f 4c bd
       0.0720755 -0.10986066 -0.059533 -0.049850345
000010 ea 4e 8f 3a 91 c3 cd bd 36 4c 45 bc 97 2c e3 bd
       0.0010933552 -0.10047067 -0.012042096 -0.11092489
000020 0d 83 f4 bc 5c 46 1d be 45 ca df 3b 52 ac 19 be
       -0.029847646 -0.15358871 0.0068295323 -0.15007141
000030 0a 52 aa bd b4 c5 1f be 5d 1d 5a bd c9 7c 16 be
       -0.08316429 -0.15602762 -0.05325066 -0.1469604
000040 00 af 75 bd 49 0d be 3d e9 22 9b bd b2 5d b7 bd
       -0.059981346 0.09279878 -0.07575018 -0.08953418
000050 cf e0 1b be 12 9c 8c bc 1c 83 fe 3d b1 e5 57 3d
       -0.15222476 -0.017164264 0.12427351 0.052709285
000060 29 1e 90 3d 82 30 c4 bd 40 37 c0 bc 70 d8 45 bd
       0.070370026 -0.09579565 -0.023463845 -0.048302114
000070 c1 19 9e 3c 3e 72 d2 bd ea da d6 bd ff 71 07 bd
       0.01929939 -0.10275696 -0.10490973 -0.0330677
000080 4a d2 f0 39 34 fd 1e 3d b2 17 13 be 67 d4 e4 bd
       0.00045933045 0.038815692 -0.14364508 -0.11173325
000090 74 30 9a 3c 42 75 84 3c 1a ca 31 be aa 4d c9 bc
       0.018821932 0.016169194 -0.17362252 -0.024573166
0000a0 cc 27 23 bd 01 81 c8 3c 92 16 10 3d a3 73 23 3b
       -0.039832875 0.024475576 0.035177775 0.002494075
0000b0 81 ab b2 bd 79 50 16 be c1 d0 a5 3c c7 19 d7 bc
       -0.08724118 -0.14679135 0.020241143 -0.026257409
0000c0 52 8a cf bd bb f8 ec bb e8 cd 84 bd bf 14 eb 3c
       -0.101338044 -0.0072317994 -0.06484586 0.028696416
0000d0 b3 9f 0a be 7a b5 2c 3d c3 c2 ec bd f8 58 19 be
       -0.13537483 0.042165257 -0.11560585 -0.14975345
0000e0 89 f0 38 be 20 f9 16 bd f1 13 92 bd 7f 58 44 3d
       -0.18060507 -0.036858678 -0.0713271 0.04793596
0000f0 3b a1 0a be 5f e2 00 3b 7c 51 6d bd c4 4c db bd
       -0.13538067 0.0019666178 -0.057939038 -0.10708001
000100 81 db 1f bd 92 a8 d1 b9 ae 4a 49 bd f1 86 c7 3d
       -0.039027695 -0.0003998918 -0.049143486 0.09742535
000110 e0 55 17 be 65 6f da bd 30 12 89 3d d4 e1 54 bd
       -0.14778852 -0.10665778 0.06692922 -0.05197318
000120 a3 b9 1a be 50 1a 6d 3d 1f 31 0a be 18 05 c7 bd
       -0.15109877 0.05788642 -0.134953 -0.097177684
000130 79 a7 75 bd 91 68 aa bd c1 51 e0 bb d0 ed 80 3d
       -0.059974167 -0.08320726 -0.0068456833 0.06295359
000140 30 55 1a 3c 65 69 17 be 8a ce ab 3d 6f ff fe bc
       0.009419724 -0.14786299 0.083890036 -0.03112766
000150 db 24 09 3d f8 3f e2 bd 40 47 9b 3c 2c 28 10 3d
       0.033482414 -0.11047357 0.018954873 0.03519456
000160 81 53 d4 3c 3d 8d 41 3d c2 c0 a3 bd 2a 77 81 bd
       0.025918724 0.047253836 -0.0799575 -0.06321557
000170 dc da c9 3c 2d fb 7e 3d ee 2e 01 be 6f c4 7c 3c
       0.024640493 0.06225126 -0.12615559 0.015427693
000180 50 e3 4b bd 3c 85 4c bd 3d 97 95 bd 23 c4 eb bb
       -0.04977733 -0.04993175 -0.07304237 -0.007195012
000190 8e 3d 90 3d 91 fd 71 bd 37 bc 7b bd db f8 44 3d
       0.070429906 -0.05907971 -0.061458793 0.04808889
0001a0 f7 1a 36 3d 00 00 ce 3c 0d a1 90 bd ea f9 93 bd
       0.04445931 0.025146484 -0.07061968 -0.07225402
0001b0 df 30 1b 3c b5 eb 9b 3d c8 63 c0 bb 8a c7 e6 bd
       0.009472101 0.07613317 -0.00587127 -0.11268528
0001c0 80 ea 0e bc 02 53 8e bd a3 34 5b bd 36 47 9d bd
       -0.008722901 -0.06949426 -0.053516995 -0.07679598
0001d0 38 d0 5f bd ba 32 a5 bd 4a d9 f2 bd 6c e6 1a 3d
       -0.054641932 -0.08066316 -0.11857851 0.037817404
0001e0 18 c2 6a bd df 7c 95 bc b2 b6 de bd 1c ca d7 bd
       -0.05731401 -0.01824802 -0.1087469 -0.10536596
0001f0 11 83 48 bc d7 86 bd bd d0 c7 83 bd bc 54 9e 3c
       -0.01223828 -0.09254234 -0.064345956 0.019327514
000200 f7 b4 85 bd 70 43 22 3f 67 a6 81 3e d4 94 4c be
       -0.06528657 0.6338415 0.25322267 -0.19978648
000210 10 a1 4e 3d 06 97 68 bf 60 16 74 3d 1a f4 5a bf
       0.05044657 -0.90855443 0.05959165 -0.8552872
000220 14 78 b3 3e ee 1a 93 bd a5 dd 22 3e 34 62 1f be
       0.3505255 -0.07182871 0.15904863 -0.15564805
000230 c8 95 4d 3f d7 b5 b0 be 57 fe b7 be df 9f d1 3e
       0.80306673 -0.34513733 -0.35936233 0.40942284
000240 40 34 e1 bd 18 dd b9 3f 90 4b 0e 3e a3 52 0a be
       -0.10996294 1.4520597 0.13896012 -0.13508086
000250 6d 98 1d 3f 69 46 89 3f 20 2a 42 bc a0 1d d0 3e
       0.6156071 1.0724612 -0.011850864 0.40647602
000260 05 49 7a 3f 3b 84 ea 3d 58 b6 d5 bd de eb 34 3e
       0.9776767 0.11451002 -0.1043517 0.17668101
000270 ef e3 d7 3e 20 77 4c 3e 38 c0 c3 be 9e b5 14 be
       0.42166087 0.19967318 -0.3823259 -0.14522406
000280 2e ce 4b bd 6e 1b 77 bd 56 35 e5 3d e4 96 28 3f
       -0.049757175 -0.060328893 0.11191814 0.6585524
000290 e0 b1 09 3e 71 f4 fe 3e 18 22 0c be 8c 07 a0 be
       0.1344676 0.4979587 -0.1368488 -0.31255758
0002a0 32 e8 d9 bd c2 84 dc bd 53 fc 9f 3e 8e b9 26 3f
       -0.10639991 -0.10767509 0.31247196 0.65126884
0002b0 5e 94 95 3c f8 bc 44 3f fc 6c 16 3f c2 fd 0e 3e
       0.018259224 0.76850843 0.58760047 0.13963988
0002c0 18 dd df 3c 8c d2 a8 3e 6d e5 8d 3f af 69 4f 3f
       0.027327105 0.32973135 1.108564 0.81020635
0002d0 17 9d b3 3e 95 df 38 be a3 bb b3 3e 88 c3 9c 3c
       0.35080788 -0.1805404 0.35104093 0.019136205
0002e0 3e f5 a4 3d 1b a6 11 be 83 73 8f 3d 94 ed cb 3e
       0.08054589 -0.1422352 0.07004454 0.39829695
0002f0 f8 98 c6 3e 6e 5d e6 be 9c b0 0f bf 57 a3 90 3e
       0.3878858 -0.44993156 -0.5612886 0.28249618
000300 86 64 96 3e a2 b9 70 3e fb 83 b0 3e bd 76 4e 3e
       0.29373568 0.23508313 0.34475693 0.20162483
000310 ba 0c bf 3d aa 89 7f 3f 8b c1 70 3e fc 29 45 be
       0.09328599 0.99819434 0.23511331 -0.19254297
000320 10 c5 b5 3e 1c 95 85 3e bb 05 74 3f 2a 97 86 3e
       0.3550191 0.26090324 0.95321244 0.26287204
000330 bd fb 1c 3f ed ce fa 3e 24 e4 99 be 87 88 81 bc
       0.6132162 0.48985997 -0.3005687 -0.015812172
000340 9c d0 6b bd 59 d6 68 be 0d 63 a4 3e 17 81 a0 3e
       -0.057571992 -0.22738017 0.3210682 0.31348488
000350 3e 28 db bd 72 45 2f 3e a0 76 cf bd 7f cd b6 3d
       -0.10701035 0.17116335 -0.10130048 0.08925914
000360 18 4e 13 be 7e 4b 29 3f a4 91 ab 3d 2b 75 3b 3f
       -0.14385259 0.66130817 0.08377388 0.7322566
000370 a7 28 66 3e c8 6d ac 3e ed cc 40 be da f2 8f 3d
       0.22476445 0.33677506 -0.18828173 0.07028742
000380 d2 63 91 3e da 00 c0 3e a0 33 2e 3e 62 00 1a 3f
       0.2839647 0.3750065 0.17011881 0.60156834
000390 8d ea c6 3e 8b f7 e9 3e f0 f9 9b 3d f9 f4 6a 3c
       0.38850823 0.45696673 0.07616031 0.014340633
0003a0 9a 70 a2 bd be 45 01 3e d1 2e e4 3e 68 a0 07 3e
       -0.07931633 0.12624261 0.44566968 0.13244784
0003b0 71 df 05 3e 04 48 97 3e 46 9d b5 3e 0a 12 07 3e
       0.13073517 0.2954713 0.35471553 0.13190475
0003c0 10 52 57 3d 18 64 ad 3e ab 60 01 3e 81 89 bf 3e
       0.052568495 0.33865428 0.12634532 0.37409595
0003d0 e0 5a 8d 3c 91 cb f1 bd 76 e5 6c 3f 59 5e 96 3d
       0.017255247 -0.11806405 0.9253763 0.07342214
0003e0 59 d3 c6 3e 24 d9 b4 3e 73 6f 62 3f 7d 7e 83 3e
       0.3883312 0.35321915 0.8845131 0.2568244
0003f0 36 4f 86 3e e1 e9 20 bd c4 f0 fd 3e 4f 2d 9e 3d
       0.26232308 -0.039285544 0.49597752 0.07723486

fc2.bias f4 [32]
000000 7f b4 51 3d 35 da bd bd 6d e5 44 3d 0e 1b 92 3e
       0.051197525 -0.09270135 0.04807036 0.28536266
000010 80 b2 a6 3e 1a 3a 3d 3e 1a 9e 91 bc ce 9e 30 3e
       0.3255806 0.18479195 -0.017775584 0.17248079
000020 b4 0d 90 bd 16 24 22 bd 58 85 96 3e 71 91 91 bd
       -0.07033864 -0.039585195 0.29398608 -0.07107819
000030 25 d7 0f 3b 1b 2b bc 3e 32 ad 4d 3d 52 c9 25 3e
       0.0021948304 0.36751637 0.050214 0.16190079
000040 20 b3 ce 3e 9f f0 e2 bb e7 85 28 3d 90 fe 80 bd
       0.40371037 -0.006925657 0.041143324 -0.06298554
000050 7d ca 20 bd fa ec 23 be ce 17 c2 bd e7 bf 9b 3e
       -0.039255608 -0.16008368 -0.09477197 0.30419847
000060 b2 91 9a 3e b1 1a ac 3e 34 a6 89 3e 34 8e da bd
       0.30189282 0.33614114 0.26884615 -0.10671654
000070 a1 eb 3d 3e eb a0 41 3d af 72 92 3e 67 15 89 bd
       0.18546917 0.047272604 0.28603122 -0.06693535

fc3.weight f4 [4, 32]
000000 f4 e2 0e bd 9a f3 ae 3d df d9 26 3f ba 20 1c bd
       -0.034884408 0.08542557 0.65176195 -0.038117148
000010 9a a2 b5 3e ba ee ce 3e 17 af 2f 3e 72 79 09 bd
       0.35475618 0.4041651 0.17156635 -0.033563085
000020 a3 bd 0a be b1 e2 b2 3c 61 3d 7f 3d 3c ee bf 3d
       -0.13548903 0.02183661 0.062314395 0.093716115
000030 b6 19 fd bb 5f 95 60 be 65 73 22 3e 1b 50 82 be
       -0.0077240122 -0.2193198 0.15864332 -0.2545174
000040 ea 47 ef 3e b8 09 d2 bd d2 78 cd 3d 77 e1 2b 3e
       0.46734554 -0.1025576 0.1003281 0.16785227
000050 bf c1 15 3e 91 d4 4b 3d eb 64 8b bd 2c 9e 0a 3f
       0.1462469 0.049763266 -0.06806358 0.541476
000060 dc f1 03 3f a7 35 ce 3e ca 45 9c 3e 17 4b 7f 3c
       0.51540923 0.40275308 0.30521995 0.015581868
000070 e5 3d 29 3f 82 66 11 bd 78 5e 0f 3e 14 96 f8 3d
       0.6611007 -0.03549815 0.1400088 0.12138
000080 c0 1b 2c bc 8e 61 26 3d b9 c6 c7 3e ee 94 1b 3f
       -0.010504663 0.04062038 0.390188 0.60774124
000090 35 fe 75 be 4a 70 0f 3f 75 0d 48 bd 81 2e 70 3e
       -0.24022754 0.56030715 -0.04884096 0.2345524
0000a0 2a 61 bb 3d c9 86 dc bd 98 d3 0f 3f 49 48 b0 bc
       0.09149392 -0.10767896 0.5618224 -0.021518843
0000b0 69 36 ba bd 9f bd 07 3f 22 ef 35 bd 8e 9b 2f 3f
       -0.09092409 0.53023714 -0.044417508 0.6859673
0000c0 58 e5 46 bc ce 57 1a bd d9 69 da bc 14 43 8f 3d
       -0.012139641 -0.037681393 -0.0266618 0.06995216
0000d0 4d 54 a6 bd 63 69 f5 bd fc d9 d1 bd 6a 48 f5 3e
       -0.08121548 -0.119829915 -0.10246655 0.4790681
0000e0 47 b9 fe 3d d0 90 b0 3e 80 15 b2 3e da 34 e2 bd
       0.124376826 0.34485483 0.34782028 -0.11045237
0000f0 dd 76 a6 be 47 d1 f0 bc f3 4a 81 be b6 a4 5d bd
       -0.3251256 -0.029396666 -0.25252494 -0.05411216
000100 17 ea a3 ba 0c 99 fb 3d ba ce 5c be 6e 7e 69 3e
       -0.0012505677 0.12285051 -0.21563235 0.22802135
000110 cf d6 90 bf 9c 30 8c be 28 77 9e bc af cc 15 3f
       -1.1315554 -0.27380836 -0.019343928 0.5851545
000120 c0 34 ed bb 92 a3 53 3e a2 7f c6 3d a3 f6 03 be
       -0.0072389543 0.20667866 0.09692313 -0.12887053
000130 c3 58 89 bc d1 5c f1 3e 58 2a 31 bd 14 c8 12 ba
       -0.016765958 0.47141126 -0.043253273 -0.0005599272
000140 69 75 0c 3f 5f 4b cd bd 91 c4 1c 3d 6f 98 90 3b
       0.54866654 -0.100241415 0.038273398 0.0044127028
000150 1c 51 37 bd a9 29 33 bc e5 30 0c be 5c 9b b6 3e
       -0.044755086 -0.0109352255 -0.13690527 0.35665405
000160 2a c1 07 3f 64 2d b4 3e 7b 9e d3 3e 33 4d 81 bd
       0.5302912 0.3519088 0.41331849 -0.06313553
000170 c9 c5 50 3e fe dd 50 bd c3 48 05 3f 03 2a 41 3d
       0.20387949 -0.05099296 0.5206415 0.047159206
000180 1a a5 f0 bd 8b ba dc bd 5f a4 d5 be 33 e6 3b 3e
       -0.117502406 -0.10777768 -0.41726968 0.18349533
000190 a7 eb ce 3f d9 4e dd 3d 52 d5 c4 3d 66 0e b1 3e
       1.6165665 0.108060546 0.09611 0.34581298
0001a0 cf 99 08 3e 8f 00 5b bd 12 f5 0a 3e 22 c4 32 3d
       0.13339923 -0.05346733 0.1357005 0.043644078
0001b0 e8 f2 d3 3d eb 7f fb 3d 27 ca bd bb a2 36 b1 3e
       0.10349065 0.12280258 -0.0057919207 0.34611994
0001c0 21 43 a9 3e f5 7b 42 3e 21 97 d8 3c df 64 06 bd
       0.33059028 0.18992598 0.026439251 -0.032811042
0001d0 7e 10 c0 3c 8a ad 50 3e 10 48 4f bc df dd 35 be
       0.023445364 0.203787 -0.012651458 -0.17760418
0001e0 cc 14 d1 bd 4c 41 10 bd 0a 79 b6 3e d8 15 0b 3d
       -0.10209045 -0.035218522 0.3563922 0.03395638
0001f0 64 16 b8 3e 59 ed 4f bd dc f2 3c 3f 9c 48 92 bd
       0.35954583 -0.05076346 0.73808074 -0.071427554

fc3.bias f4 [4]
000000 2e 98 08 3e a6 a6 50 3e b6 6c c9 3e dd b4 53 3e
       0.13339302 0.20376071 0.39340752 0.20674463
