policy_net600.pth (torch, 15812 bytes, 6 tensors)

fc1.weight f4 [64, 16]
00000000: b189 7c3e 5c3e 0c3f 8d72 fe3e 8675 173f
00000010: 2a77 073f 00d9 8f3d c9f1 babe 0082 183e
00000020: 2264 233f acdd 703e 3a8d 0f3f c0dc 493e
00000030: 7cc8 aa3d aa0d f9be d5a7 233f d4c6 063e
00000040: 1f57 bc3e f2b1 bc3d 64c4 823e 1eae 32be
00000050: c1a5 993e 0682 4f3e 0ba7 cebb ca3c 483e
00000060: bb6f 153e b959 01be b95e 65be ea9e 623e
00000070: 0ee3 303e 1dc0 b63e 7751 d63e 62fd 10be
00000080: 73ba 653d 205f a5be ffd9 bdbd 8c55 77bd
00000090: 8a74 3d3e 280f fabd b823 ec3e 705e 46be
000000a0: bc5c bebe 6316 333f 150a f73e 5687 1dbe
000000b0: e0b9 6bbc efff 5d3e d3af a13e d0e9 05bd
000000c0: 857e d33e 7b83 2abe ec5c 1d3e 820c c9be
000000d0: 1dd3 dcbe 7252 153e 1f04 5f3d 40c4 b93b
000000e0: 3ba0 a0be f978 4c3f 4a32 ebbe b6aa 01be
000000f0: 30bd 023e b604 ec3e 7a16 b3be d2c1 1e3e
00000100: 95d9 c13e 0cc1 26be 32c5 50be 8d48 27be
00000110: 6ba0 093f 3c36 643e 4366 a13e 4e6b 42be
00000120: 902f 24be 4b38 0a3f 43c7 25bc 281b ae3d
00000130: 50b6 1fbe 76e1 093f 6eca 2b3f 56e8 513e
00000140: d5f2 8f3e 5b95 c03e d4f1 b83e e686 aa3e
00000150: 7aa0 e53e eec0 7fbe ddda 85be d448 64be
00000160: dc42 943e f301 063e e7c8 e53e 4081 003e
00000170: 60b4 b13d 8937 9bbe 43ad 2c3f 2c3a 4abe
00000180: 4441 07bd cc3a 80be e2fc b13e 5c0e 353e
00000190: 6145 7fbe c2d8 713e 2f47 82be 1cfa 99bd
000001a0: 6d53 7c3e feaa ed3e 92ab 5d3e 7433 5bbe
000001b0: f4bb 4cbe c17f f73e 5b05 58bd a07b 48bc
000001c0: 0df5 be3e 569b 5e3d 3898 b13e 9bc9 b83e
000001d0: 9271 853e 78a2 54be dd0b 96be ea62 123e
000001e0: 2300 b53e 014c f83d 2f9d 093f 4eaa 2fbe
000001f0: 90d4 a73d 28a9 40be ba7e da3d c0c7 cbbc
00000200: 1135 013f 7107 a13e db05 833e 5987 d33e
00000210: 6b16 aabe 3816 303e c092 95bc 1486 cdbd
00000220: 6358 883e 1dea 5ebb 7d8b 87bc 884e debd
00000230: 18cb 3e3e 16cd b03e ae72 20be 9052 75bd
00000240: a845 63be f89d 9a3d 6049 73bd 9498 be3d
00000250: bea6 1e3e 44c7 be3d bc02 10be 2cb9 003e
00000260: 10af 75be 0ce2 29be 44bd b2bd 5442 16be
00000270: 0022 4fbe d0c6 af3c e2d3 48be 28c3 13be
00000280: 385c 943e 0cb0 fc3e 5df8 523e 3c54 263e
00000290: b2a5 b83c 043e f33d b531 b7be 1426 713e
000002a0: 34a1 d13e 9476 e6bd cb76 9bbe e8cf 553d
000002b0: ae1a 64be 3097 0a3f 3f9e 1cbd 36c9 023e
000002c0: 69be 653e c9aa c13e c2b6 a93e a768 923e
000002d0: 468c 813e 3478 9b3d fcb0 373e 103d c83d
000002e0: 3ac4 1c3e 1631 aebe 71f7 09be 0831 383e
000002f0: e236 0fbe 896c 103f fb77 993e c064 d43d
00000300: fefb 8b3e 133f d13e e717 b83e 1e43 873e
00000310: 75dc 8e3d c0c1 b23b 0dcd 183e b0d3 fa3d
00000320: 0f8b d93e 68bb 743d e17f ee3e 0aa0 71be
00000330: c0f7 563d a49b 64bd d862 073f 2c09 f33d
00000340: a681 723e 3657 7b3d f113 023f 4354 b63d
00000350: 4c0d 243e 1e04 693e b9a3 f5bd f0a2 9c3d
00000360: a7a5 003e a4b8 f73e 20ab c13e 68ec 4abe
00000370: 6420 fc3d f588 d73e 463e bc3e 3ec6 71be
00000380: ac30 3f3e b4a6 d63d 68f6 ff3d 7c20 c6bd
00000390: 94fe 3bbe 4031 15be a401 69be 8c73 a23d
000003a0: 00f1 85bb 3a04 1c3e 28d9 8b3d a0d3 c3bc
000003b0: acf2 963d 505c 0c3e 9055 333d 10af 4e3d
000003c0: 95e0 853e 2bce 883e 32d6 6d3e 0c4d 01be
000003d0: 96ab 5f3e 404c b33b 36f8 1dbd 1007 523e
000003e0: 6a96 f43b d136 06be 8570 8c3e b0ac 813c
000003f0: 7e5d 74be ffd9 943d 2cf8 0f3e 34bb 00be
0.246619 0.5478265 0.4969677 0.591637 0.52916205 0.07023811 -0.36512592 0.14893341
0.63824666 0.23522061 0.5607487 0.19713116 0.083390206 -0.48643237 0.63927966 0.13161784
0.36785218 0.09213628 0.2554046 -0.17449233 0.30009273 0.20264444 -0.006306534 0.19554439
0.14593403 -0.12631883 -0.22399415 0.22130933 0.17274114 0.35693446 0.41859028 -0.14159158
0.056086015 -0.32299137 -0.09270095 -0.06038432 0.18501487 -0.12209922 0.46121 -0.19371963
-0.37180126 0.69956034 0.4824988 -0.15383658 -0.014387578 0.21679662 0.31579456 -0.032693684
0.41307464 -0.16651718 0.15367478 -0.39267355 -0.43129817 0.14582232 0.05444729 0.005669147
-0.31372246 0.7987209 -0.45936805 -0.12662777 0.12767482 0.46097344 -0.34978086 0.15503624
0.37861314 -0.16284579 -0.20387724 -0.1633627 0.53760403 0.22286314 0.31523332 -0.18986246
-0.16033769 0.53992146 -0.0101183085 0.085012734 -0.1559689 0.5385965 0.6710576 0.20498785
0.28114954 0.3761395 0.36122 0.33306044 0.44848996 -0.2497594 -0.26143542 -0.22293407
0.2895726 0.13086681 0.4487984 0.12549305 0.08676982 -0.30315807 0.67451876 -0.19748753
-0.033021227 -0.25044858 0.34763247 0.17681259 -0.2492881 0.23617843 -0.25444934 -0.07518408
0.246412 0.4641952 0.2164748 -0.21406347 -0.19993573 0.48339656 -0.052739482 -0.012236506
0.37296334 0.05434736 0.34686446 0.36091313 0.2606321 -0.20765102 -0.29305926 0.14295545
0.35351667 0.121238716 0.5375547 -0.1715481 0.0819484 -0.18814528 0.106687024 -0.024875522
0.504716 0.3145099 0.25590405 0.413142 -0.3322023 0.17195976 -0.018258452 -0.10035339
0.26629934 -0.0034014054 -0.016546005 -0.108548224 0.18632162 0.34531468 -0.15668747 -0.05989319
-0.2219454 0.075496614 -0.059396148 0.09306446 0.15493295 0.09315351 -0.14063543 0.12570637
-0.23992562 -0.16590136 -0.08727506 -0.1467374 -0.20227814 0.021457106 -0.19612077 -0.14429915
0.28976607 0.49353063 0.20602556 0.1624307 0.022539947 0.11877063 -0.3578011 0.23549682
0.409433 -0.11253086 -0.3036407 0.052200228 -0.22275802 0.54136944 -0.038236853 0.12772068
0.22435917 0.3782561 0.33147246 0.28595468 0.25302333 0.07591286 0.17938608 0.09777272
0.1530923 -0.34021825 -0.13473298 0.17987454 -0.1398578 0.5641561 0.2997435 0.10370779
0.27340692 0.40868434 0.35955736 0.26418394 0.069756426 0.0054552257 0.1492197 0.122474074
0.42488906 0.059749037 0.4658194 -0.23596206 0.052482367 -0.055812493 0.528852 0.11866984
0.2368227 0.061362468 0.5081168 0.089027904 0.16020697 0.22755477 -0.11994118 0.07648265
0.12563191 0.48383057 0.3782587 -0.19816744 0.123108655 0.42096677 0.3676626 -0.2361078
0.1867091 0.10481015 0.1249817 -0.09674165 -0.18358833 -0.14569569 -0.22754532 0.07932195
-0.0040875673 0.15235987 0.06828529 -0.023904622 0.07370505 0.1370709 0.04378277 0.05045992
0.26147905 0.26719794 0.2322624 -0.12627047 0.21842799 0.005471736 -0.03856679 0.20510507
0.00746422 -0.13106848 0.27429596 0.015829414 -0.2386379 0.07268142 0.14059514 -0.12571412

fc1.bias f4 [64]
00000000: 4666 f13e 6738 523e 69ac 9b3e 8bd8 dc3e
00000010: 4f03 0f3e b696 963e 8183 643e ae6c eb3e
00000020: c9e7 c73e c226 5ebe 1316 ab3e 4dd6 b23e
00000030: 6e83 af3e 8f97 d03e 00fc 62be 9808 f73e
00000040: 315f bf3e 527e d33e e58d cc3e 93d7 ff3e
00000050: 9f61 9b3e c976 b23e dcf0 a43e ec74 f33e
00000060: b5d3 e83e 4115 033f c2cf 83be 4162 f53e
00000070: e17c c63e dee3 b93e e404 e03e e232 f93e
00000080: cfa1 f73e 32bc 7dbe 0049 ab3e 61ff cb3e
00000090: 528f 9c3e 13c7 f83e a2d9 073f 4c95 9a3e
000000a0: 38a2 7abe f009 25bd 34e1 f03e 5678 f83e
000000b0: a42b e63e 15f9 c13e 8cfb e43e 8303 f63e
000000c0: f5af 043f 795d 873e c39f ba3e 2e6d 0e3f
000000d0: 5000 e93e 2ef3 843e c0f5 be3e 75d4 bc3e
000000e0: 1161 953e 21b5 c03e 31a7 a83e 2a8e dc3e
000000f0: fe33 013f 03ab 013f 8a63 cb3e 0325 a63e
0.4714834 0.20529328 0.30404976 0.4313396 0.13966106 0.29411858 0.2231579 0.45981354
0.39044026 -0.21694472 0.3341528 0.34929124 0.3427996 0.4074063 -0.22166443 0.48248744
0.37377313 0.41307312 0.39952007 0.49969158 0.30347916 0.3485625 0.3221501 0.47550142
0.4547402 0.51204306 -0.25744444 0.47926524 0.3876715 0.3630666 0.4375373 0.48671633
0.48365638 -0.24778822 0.33454132 0.39843276 0.30578095 0.48589382 0.53066456 0.3019203
-0.24475944 -0.04029268 0.47046816 0.4852931 0.4495517 0.37885347 0.44723165 0.48049554
0.5183099 0.264385 0.36450014 0.55635345 0.4550805 0.2596678 0.37296867 0.36880842
0.29175618 0.3763819 0.32940057 0.43077213 0.5046996 0.5065157 0.3972438 0.32450113

fc2.weight f4 [32, 64]
00000000: a298 973d 689b 0e3e d771 b63e 5eb1 3e3f
00000010: 6ff2 ef3e faf5 2c3d 7764 ec3e 9b8e 573e
00000020: c9f6 3c3e 7a04 993d b3fd 2d3e 0b8b 9d3e
00000030: a417 9c3e a106 c63e a6e1 f83d 18be 153e
00000040: 2b6b 813e b2e3 963e a3c8 be3e 751b 813e
00000050: ccda 9a3e afdf 073f 69bc 673e 66d4 833d
00000060: f4e3 423e 2c5c 253f 7742 453d 4da0 ad3e
00000070: 0eae 083f cd3e 883d 4036 983e abc2 e13d
00000080: bdf6 e23e 60a6 af3c 126e 513e 3941 133f
00000090: 79d4 ad3e 3ca8 523e 972e 813e 187e 003e
000000a0: 4778 67bc f4bd 50bd 54ae 133e c3e3 8a3e
000000b0: 5744 5d3e e81b 943e a1b1 40bd f091 b43e
000000c0: bf2a a23e 8447 fe3e f334 503e a1be a03d
000000d0: 0057 3e3e e945 3e3e 6584 8b3d a91a 6d3e
000000e0: ae4f 883e 5ccf 953e b92c a53d cda9 2f3e
000000f0: 10b6 c23c b64a a13e 2579 a13e 9c11 c23d
00000100: 15ad 0f3f e189 4d3e 5f15 87be 4bea c7bd
00000110: fcb3 28be 902e e93e 07dd 843e ea4e bd3e
00000120: cc9e e43e 00c2 9cbb c8e6 113f a5b3 e33e
00000130: 2249 b43e 8440 673e d460 a8bd a3e3 bb3e
00000140: a1cb 8abc 9a61 34be e44c a63c 90f0 133f
00000150: babf 353e 5afa 523a 22d0 173f 2a48 0f3f
00000160: b1b7 293e 6489 8bbe abce 8cbd b8eb af3e
00000170: 625f d53d d0cc 7d3e 056e 1cbe c6d3 b2bd
00000180: d9b4 3abf 44ed e53d ba9e 0f3f bfee 1f3e
00000190: 2d73 ee3d 4fdb 303e 12f0 70be 8ca3 193f
000001a0: 2b52 67bd c277 a13d bf33 1e3f 6106 8d3e
000001b0: 5b8c 943e 502d d2be 30fa 643f 7543 f6be
000001c0: 71a4 813d fcdb 87be e268 ab3e 8bb3 3c3f
000001d0: dbe1 f83d 1654 b6be a0eb 5fbc 7e6d 3e3e
000001e0: bed7 ae3e d52a 8a3d 5343 723f e380 b23e
000001f0: 1b22 713f 88d9 103e 70d3 9bbe fb5a de3e
00000200: 4b78 00be c4e4 443d 876b be3e d23e 823f
00000210: 7721 e43e e910 aebd 539a 273f d762 3d3e
00000220: f380 a93e d6c2 b33d 4d49 563e aa89 4c3e
00000230: 8554 903c 1327 db3e f812 873d eef0 af3d
00000240: a88e bb3e 6987 033e 4960 b23e 1bf2 a73e
00000250: 0d7e 833e 6c38 613f 108b 9f3e 048c c13d
00000260: b5d5 a53e 1db8 7e3f 457e 66bd 4e2b 0e3f
00000270: f999 073f 26a3 1b3e 523f 4a3d e51b 363e
00000280: a4be 173f 405c 543b a2ed 9c3e 6ac2 793f
00000290: f6b0 d03e 064e 053e 754b 29be d8be a93d
000002a0: a76e 99bd a815 9abd 6cd9 883e 2688 9f3e
000002b0: 6641 ae3d c059 4ebd 2bb2 2c3c d10e 013f
000002c0: 12f2 1e3e dbdd 4e3f a094 92bc 97f5 b03e
000002d0: d595 d73e 2c42 813c 4348 a23d abf1 a13d
000002e0: 09c9 8cbd 43ba 9d3e cc10 fc3c 9674 543e
000002f0: ac76 733e 5fea 843e a5d0 bb3e e354 f13d
00000300: c8d3 05bd 722f bdbd 8d30 eebc 61c2 a33d
00000310: a430 163d e0ec b339 054b 3e3c bfd4 2bbd
00000320: d88c 56bc 6842 243d d0d2 7bbd b4b3 83bc
00000330: b3d8 27be 7556 713d 72f0 a0bd 0dc2 e3bd
00000340: f5fd 03be 83e6 e83b 1e45 2ebc 7fd3 0fbd
00000350: e9cc 14be 85da f2bd 5ddb 1bbd 4950 19be
00000360: 2bce ecbd 4944 0cbe b00e fdbd 4489 d4bd
00000370: 070e 34bc 4bfa 38bc 9c04 85bc 2436 c3bd
00000380: 0b4d a1bc 3001 a83d ab49 8a3d ec5f d2bd
00000390: 71b5 293c 1728 8f3d c9df 02be 7f67 b0bd
000003a0: 41b7 043c 20fe e83c 1626 5b3d 2456 73bd
000003b0: be43 8ebc 3080 4f3a 1435 aabd 82c6 473c
000003c0: bf73 38bd 64ae 74bd ae39 1abe 91ee a5bc
000003d0: de9a 0cbe 2c8c b53d 9922 cfbc 05c0 f9bd
000003e0: 4be7 b7bd 16d2 293d 41e7 363d ad70 6f3d
000003f0: ee87 9b3d 8db5 e63c 35ba 8d3c 1c26 b8bd
0.07402159 0.1392647 0.35633728 0.7448939 0.4686465 0.04222677 0.461704 0.21050493
0.18453516 0.07471557 0.1699131 0.30770144 0.30486786 0.38676932 0.12152414 0.14623296
0.25277075 0.29470593 0.3726245 0.2521626 0.30245054 0.5307569 0.22630467 0.06436996
0.1903227 0.6459377 0.04815909 0.33911362 0.53390586 0.06652603 0.2972889 0.11023458
0.4432887 0.021441638 0.20452145 0.57521397 0.33951166 0.20571989 0.25230858 0.12548101
-0.014127797 -0.050962403 0.1442197 0.27126893 0.21608101 0.2892754 -0.0470444 0.3526759
0.31673238 0.49663937 0.20332699 0.078488596 0.18587875 0.18581356 0.06812362 0.23154701
0.2662329 0.29259765 0.08065171 0.17154618 0.023768455 0.31502312 0.31537738 0.09476015
0.5612348 0.20072128 -0.26383492 -0.09761485 -0.16474909 0.45543337 0.2594988 0.3697427
0.44652402 -0.004783869 0.5699277 0.44472995 0.35212046 0.22583205 -0.082215935 0.3669711
-0.016942801 -0.17615357 0.020300336 0.57788944 0.17748919 0.00080481695 0.5930196 0.5596949
0.16573979 -0.27253258 -0.06875356 0.34359527 0.104185835 0.24785161 -0.15276344 -0.08731799
-0.729322 0.112268955 0.5610157 0.15618418 0.11643062 0.1727116 -0.2352908 0.6001518
-0.056474846 0.0788417 0.6179771 0.2754393 0.29013333 -0.41050196 0.89444256 -0.4809834
0.06330193 -0.26535022 0.33478457 0.7371146 0.121524535 -0.35611027 -0.013667017 0.18596455
0.34148973 0.06746451 0.9463398 0.34863958 0.94192666 0.14145482 -0.30434752 0.43428788
-0.12545888 0.04806973 0.37191412 1.0175421 0.44556782 -0.08499319 0.65469855 0.18494736
0.33106193 0.087773964 0.209264 0.1997439 0.017618427 0.4280325 0.06595415 0.085908756
0.36632276 0.12844624 0.34839085 0.328019 0.25682107 0.8797672 0.31160784 0.09450534
0.32389608 0.99499685 -0.056272764 0.5553483 0.5296932 0.15198955 0.049376793 0.17784078
0.5927527 0.0032403618 0.3065005 0.9756228 0.4076001 0.13018045 -0.16532691 0.08288354
-0.074918084 -0.07523662 0.2672838 0.3115856 0.085085675 -0.05037856 0.010540525 0.50413233
0.1552203 0.80807275 -0.017893136 0.3456237 0.421065 0.015778624 0.07923939 0.07907423
-0.06874282 0.3080617 0.030769728 0.20747599 0.23775738 0.2596006 0.3668262 0.11783769
-0.032672673 -0.09237565 -0.029075885 0.07996059 0.03666748 0.00034318026 0.011614566 -0.041950937
-0.013095103 0.040102392 -0.061480343 -0.0160769 -0.16391258 0.058920342 -0.07858361 -0.111209966
-0.12889846 0.0071075573 -0.010636596 -0.035113808 -0.14531292 -0.118580855 -0.038050998 -0.14972033
-0.11562761 -0.13697924 -0.12356317 -0.10377744 -0.0109896725 -0.011290143 -0.01623755 -0.09531811
-0.019690057 0.082033515 0.06752332 -0.10272202 0.0103582 0.069900684 -0.1278068 -0.0861349
0.008100332 0.028441489 0.05350312 -0.059408322 -0.017366286 0.0007915525 -0.08310905 0.012193324
-0.04503226 -0.059736624 -0.15061066 -0.020255359 -0.13730952 0.08864626 -0.025285052 -0.12194828
-0.089796625 0.04146012 0.044654135 0.058457065 0.07594286 0.028162742 0.017300704 -0.08991644

fc2.bias f4 [32]
00000000: 6e3c 893e 94b3 ba3e 5775 663e dfba 103d
00000010: 3e23 9c3e 42a7 93bd 707c 903e 7a05 72bd
00000020: e229 cebd 3f7c cb3e 98ec 8c3d 3e86 9a3e
00000030: 7aa4 b93e 6448 a13e b0bd 69bc c646 923e
00000040: 930a a23e 8158 63bd 3512 08bd a51e 963e
00000050: 3011 08be b28b 593e 9dcf 823e f2aa 5abd
00000060: c8e6 9a3e 9099 e7bd de85 993c f5dc 4ebd
00000070: 0847 f23d df6b 0ebe 9f44 283d 9b96 a23e
0.26803917 0.36465132 0.22505699 0.035334464 0.30495638 -0.07209636 0.28219938 -0.059087254
-0.10066582 0.3974323 0.06881064 0.30180544 0.36258298 0.31500542 -0.014266416 0.2856962
0.31648692 -0.055504326 -0.03322049 0.29320255 -0.13287807 0.21244696 0.2554902 -0.053385682
0.30254197 -0.113085866 0.01874059 -0.05050369 0.118299544 -0.13908337 0.041081067 0.31755528

fc3.weight f4 [4, 32]
00000000: 5820 283e 78e4 ba3e 722a 863d 83b0 96bb
00000010: c58a b93e 52e4 97bd 4633 a23e 0dbd b03d
00000020: 3d4d 313e 3425 0e3f 2d97 183e 21cd 91bd
00000030: 4c8f 803f 8491 d13d 18f7 1c3d 57fc 2cbe
00000040: d3d6 10be a6ab c33d 9ab9 93bd ba3e c93e
00000050: 7b4e 9dbd 3169 0e3f 33f3 fdbe e9d6 2e3c
00000060: 4a3b 173f a668 d03d 5897 163e 136d b1bc
00000070: 6a75 ae3e 8896 db3d 240a d3bb f8fb 0c3f
00000080: bb88 f13e 8296 6ebe 4bd1 043f 97f9 b6bd
00000090: f11e d33e 36c4 7abd d6c9 1d3f 7a09 cdbc
000000a0: b065 9bbc d40b f93d 9ff4 e0bb 6fbc 47bd
000000b0: 656d 4bbf 6f38 e23e 6893 473d 66e0 2d3f
000000c0: 543c 983e 4a9d d23d a723 7fbd b2ee e23e
000000d0: b2f8 ab3d 116a 173f 0fd1 5d3e 0a82 103e
000000e0: b348 953d 08d1 8ebd a24b b4bd 111c fa3d
000000f0: 6d54 fd3e 15fe 493d f026 60bd 4135 0a3e
00000100: 234a 8c3e c6a5 0f3f 7e04 e13e a2f4 1e3c
00000110: 07a9 923e aa38 bd3d dfa7 41be 04cf 0e3e
00000120: 54d9 31be c31a 2c3e ac91 edbd e7a9 033f
00000130: ba01 713e 81bc 763e 7ad3 eebd 7e95 07be
00000140: d5fe 303f 6a79 d5bd 8d4b e53d 23ce e73d
00000150: 5cf4 103d 10a5 ecbe 499b 3e3f 287f 08be
00000160: d8c9 a03e 66f4 c63d fc7d 563d 3cac b73d
00000170: 67bd 613e a9e7 04be 718b c83d d74f 3fbe
00000180: f1e9 693e 596d d03e 92a7 fa3d 7989 d7bd
00000190: 6e1a 8d3e 2954 32be b962 153e 027b 8a3d
000001a0: 3568 18be 9f58 b63e 79ce 5e3d d3fc 113f
000001b0: 6738 e93e 9411 f33d ee7f b63d f116 ff3e
000001c0: c91e c83c 2e50 b63d a4ac d5bd 0636 c83e
000001d0: dac7 81bd cc80 a43e f9fa cc3e b7b7 0b3e
000001e0: ceac 283e 3380 1b3e 7219 26bb 586a 8ebd
000001f0: f8f8 ecbd c338 07be 6376 05be 9b86 253f
0.16418588 0.36502433 0.065510646 -0.0045986786 0.36238685 -0.074165955 0.31679744 0.086298086
0.1731462 0.5552552 0.14901419 -0.07119203 1.0043731 0.10232833 0.038321584 -0.16893135
-0.14144449 0.09554224 -0.07213135 0.3930567 -0.076809846 0.5562926 -0.4959961 0.010671356
0.5907484 0.1017621 0.1470617 -0.021658456 0.34073955 0.10722071 -0.006440418 0.55071974
0.4717463 -0.23299602 0.51881856 -0.08934324 0.41234544 -0.061222278 0.616361 -0.025028933
-0.018969387 0.12160459 -0.0068650986 -0.04876369 -0.794638 0.4418368 0.048724562 0.6792053
0.29733527 0.10283907 -0.06228986 0.44322735 0.08397044 0.5914622 0.21661781 0.14112106
0.07289257 -0.06973463 -0.08803488 0.122123845 0.49478474 0.049314577 -0.054724634 0.13496877
0.27400312 0.56112325 0.4394874 0.00970188 0.28644583 0.092393234 -0.18911694 0.13946158
-0.1736806 0.16807084 -0.1160005 0.51431125 0.23535815 0.24095346 -0.1166143 -0.1324062
0.6913884 -0.104235485 0.11196051 0.11318614 0.03538929 -0.46219683 0.74455696 -0.13329756
0.31403995 0.09714584 0.05236624 0.08968398 0.22044908 -0.12978996 0.09792221 -0.186828
0.22843148 0.40708426 0.12238993 -0.10524268 0.27559227 -0.17414917 0.14588441 0.06761743
-0.14883502 0.35614488 0.054396126 0.57026404 0.45550844 0.11868587 0.089111194 0.4982219
0.024428742 0.08902012 -0.10433319 0.39103717 -0.06336947 0.32129514 0.40035227 0.136443
0.1647217 0.15185623 -0.0025344756 -0.06953877 -0.115709245 -0.13205247 -0.13033442 0.64658517

fc3.bias f4 [4]
00000000: c201 ba3e a40d 17bc e29a 043c af01 d73e
0.36329466 -0.009219561 0.008093568 0.41993472
