policy_net4000.pth (torch, 15822 bytes, 6 tensors)

fc1.weight f4 [64, 16]
000000 ad 81 be 3e fb d1 87 3e 2c ea 7b 3e 0d 7c 9a 3e
       0.3720831 0.2652739 0.24601048 0.30172768
000010 d5 68 ad be 5c ea dc 3d 89 b1 85 bd 30 18 16 3e
       -0.33869043 0.10786888 -0.06528003 0.14657664
000020 c0 72 8a bd 8b cf 1f 3f 7a 11 f6 bd ee 53 54 be
       -0.06760168 0.6242606 -0.12015052 -0.20735142
000030 84 40 19 be e4 2e 1a 3f 33 1f 66 3c cc 7d 8e bd
       -0.14966017 0.602278 0.014045524 -0.069575876
000040 20 6f 30 3d 71 d2 bf 3a fa 82 7f 3e 22 48 ff bd
       0.043074727 0.001463486 0.24952307 -0.1246493
000050 f6 48 16 3f b0 fb d2 bc a7 70 d9 3d 10 33 ca bc
       0.5870508 -0.02575478 0.1061719 -0.024682552
000060 4c 6a a6 be 70 4c 00 3f d0 67 58 3f 2e ab 46 3e
       -0.32502973 0.50116634 0.84533405 0.19401237
000070 cc b9 26 be b1 42 a2 bc b9 fd f7 3e c8 89 a0 bd
       -0.16281813 -0.019807192 0.48435763 -0.0783878
000080 9e 99 48 3e 49 61 bb 3c 76 91 6a 3e ae ac 96 3c
       0.1958985 0.022873538 0.22907051 0.018392887
000090 1e dd a9 3e 6a 38 5e 3e d8 ab af 3e 00 a5 97 3c
       0.33176512 0.21701208 0.34310794 0.018511295
0000a0 78 18 a7 3d b1 1d e2 3e 64 d4 d3 3e 1a fe 0b be
       0.08158964 0.44163278 0.4137298 -0.13671151
0000b0 60 c5 a3 bc 8c 3b d2 3e 95 35 16 3f 02 46 4f 3e
       -0.019991577 0.41061056 0.5867551 0.2024155
0000c0 54 e0 7a 3e 2b 9d 92 3e db 78 19 3f a9 e3 6d 3e
       0.24499637 0.28635535 0.59950036 0.23231377
0000d0 27 b0 95 be ce 73 25 3e c9 bd 86 be 14 a7 ea bd
       -0.29235956 0.16157457 -0.2631667 -0.11457649
0000e0 aa 25 e1 3e 47 15 47 3e 6c 85 18 3d 34 50 12 be
       0.43974048 0.1944171 0.037236616 -0.14288408
0000f0 a4 fa 50 3e 9f 36 21 3f 54 ad b3 3e c4 bb bf bd
       0.20408112 0.6297397 0.35093176 -0.09361985
000100 39 b1 57 3e 28 f4 49 3e 88 45 37 3e 22 09 1d be
       0.21063699 0.19722044 0.17897618 -0.15335515
000110 30 ce c8 bd 48 f9 b5 bd a8 3d fd 3d 84 14 e9 bd
       -0.09804952 -0.08885437 0.123652756 -0.11380866
000120 a0 32 7f bc 10 5f 5c 3d a4 ed bc bd c4 a2 19 be
       -0.015576035 0.053801596 -0.09225014 -0.15003496
000130 96 13 1d 3e 20 8d eb 3c e0 f5 28 be d0 95 39 3d
       0.15339503 0.028753817 -0.16500044 0.045308888
000140 c1 ad fa 3d 91 14 00 be c1 25 0d 3f 09 95 1e be
       0.12240172 -0.12507845 0.5513573 -0.1548654
000150 7c d5 fd bd 40 23 c1 3c 58 22 b6 3f c4 46 7f be
       -0.123942345 0.023576379 1.4229231 -0.24929339
000160 89 b0 8a be 15 18 6d be ae 93 24 bd a4 e7 d6 3d
       -0.2708781 -0.23153718 -0.0401799 0.10493401
000170 44 8f f3 bd 5b ff b2 3f 1f f5 6f 3d 98 28 15 bd
       -0.1189256 1.3984178 0.058583375 -0.036415666
000180 91 95 a0 3e 64 9f c2 bd 00 bb d3 3e ca 00 95 3c
       0.3136411 -0.095030576 0.41353607 0.018188853
000190 9a ed 80 bc 66 bb 18 be 0c c9 80 3d b0 4f eb 3c
       -0.015738297 -0.14915237 0.06288347 0.028724521
0001a0 fa 0a a5 3e ee 3f c6 3e ef fe 82 3c e0 97 5e bd
       0.32234937 0.3872065 0.015990702 -0.054344058
0001b0 f4 34 1f 3e 07 82 28 3f 54 79 ba 3d 00 57 25 3e
       0.15547544 0.65823406 0.09105173 0.16146469
0001c0 e5 90 f2 bc 94 3d 51 3f ca 8a 54 3e 6f da 4f 3f
       -0.029610107 0.81734586 0.20756069 0.8119268
0001d0 77 50 45 be 54 da cf bd 76 9b 04 bf 7e fe 3b 3e
       -0.19268976 -0.10149065 -0.51799715 0.183588
0001e0 89 d9 ed 3e 13 3e 96 be ae 37 04 bf 4a c8 28 3e
       0.4645503 -0.29344234 -0.5164746 0.16482654
0001f0 10 7a d7 3c 20 37 fb 3e 3d 65 d6 be 5c fd fe 3d
       0.026303321 0.49065495 -0.41874114 0.12450668
000200 5a e2 87 3e b4 3c 39 be f7 f8 b4 3e ac 8a c1 be
       0.2653988 -0.18089563 0.35346195 -0.3780111
000210 dc 55 fb 3e 30 25 09 3e f2 3e d3 3e a0 0e 4b 3e
       0.49088943 0.13393092 0.4125896 0.19829798
000220 41 8a c2 be f8 ab c7 3e f9 14 8e 3e ae 13 19 be
       -0.37996104 0.3899839 0.27750376 -0.14948913
000230 14 be 53 be 44 33 e9 3e a7 23 50 3c 00 1b 01 3e
       -0.20677978 0.45546925 0.012703813 0.12607956
000240 26 de 62 3e b6 47 81 bd d1 d5 cf 3e 4e 8d 85 3e
       0.22155055 -0.06312506 0.40592816 0.2608437
000250 67 ff 4b 3e f0 c4 7b be ce 31 87 3e 52 97 5f 3e
       0.19921647 -0.24586844 0.26405185 0.21835068
000260 8a d8 80 3e 65 ef b6 3e fc 10 27 be c0 25 50 be
       0.25165206 0.3572952 -0.16315073 -0.203269
000270 40 01 c4 3b 23 63 16 3f 96 5f ff 3c c8 ac 93 bd
       0.0059815943 0.5874502 0.031173509 -0.0721069
000280 88 7d 98 3e 97 7a 0a be 8d 5c cd 3e 73 58 e7 be
       0.29783273 -0.13523327 0.40109673 -0.4518467
000290 8c 21 0c 3f 10 cc b0 bd b4 fa 51 3f c2 28 1e be
       0.5473869 -0.08632672 0.8202317 -0.15445235
0002a0 17 5b a4 be 14 c8 ed be c1 d8 6e 3f b8 7d 0b 3d
       -0.32100746 -0.4644171 0.9329949 0.03405544
0002b0 48 13 25 be 20 f4 48 3f 43 70 b0 3e f2 79 13 be
       -0.16120636 0.78497505 0.3446065 -0.14401987
0002c0 2b 66 d4 3d 8f 77 f6 3d 88 22 2d 3e 6d 8a 73 3e
       0.103710495 0.12034523 0.16907704 0.23783274
0002d0 91 10 8c 3e ae ff 17 3e 31 01 31 3e e8 82 71 bd
       0.2735639 0.14843628 0.1728561 -0.058962733
0002e0 51 84 ef 3d b6 98 87 be b6 32 ba 3e e8 dc 34 be
       0.11695159 -0.26483697 0.36366814 -0.17662394
0002f0 da f6 61 be 15 57 2a 3f e5 76 70 3e 78 e4 fd bd
       -0.22066823 0.66539127 0.23482855 -0.123970926
000300 0b 3e f1 3e de 47 5d be 15 f8 0e 3e c4 3c ad bc
       0.47117648 -0.21609446 0.13961823 -0.02114714
000310 1d 67 08 3f f2 90 00 be 27 46 c2 3e 10 71 55 3d
       0.5328234 -0.12555292 0.37944147 0.052109778
000320 3c f7 6d be 94 34 18 3f 6b aa 72 3f a0 5b ec bc
       -0.23238844 0.5945523 0.9479129 -0.028852284
000330 38 73 2b bd fd 11 1a 3e 38 bf 33 3f 74 dc da bd
       -0.041857928 0.15045924 0.7021365 -0.10686579
000340 b1 3d a5 3e 19 57 d4 bd 76 ba bf 3d 60 84 4d 3e
       0.3227363 -0.10368175 0.093617365 0.20070028
000350 b3 bc a0 be 36 51 0e 3e ba bc 8d 3e 50 78 1b be
       -0.31393966 0.13898167 0.2768305 -0.15182614
000360 8b 71 14 bd ee 02 c2 3e 3f 25 aa be 08 02 85 3d
       -0.036241096 0.3789286 -0.33231542 0.06494528
000370 f0 d2 4c be ec 4f 67 3f 18 d5 3e 3e b8 1a 8a 3d
       -0.20002341 0.90356326 0.18635976 0.067433774
000380 be bc 8a be 2c 92 60 3f fb 4c b8 3e bf ed e3 3e
       -0.27097124 0.8772304 0.3599623 0.44517323
000390 4f ed c0 be fa 57 14 be 0e 7b 29 bf 50 ba 58 bd
       -0.37681052 -0.14486685 -0.6620339 -0.052912056
0003a0 97 73 3f 3f fa 97 ea 3d 23 51 c1 3d 58 7d 28 be
       0.7478575 0.114547685 0.09439304 -0.16454065
0003b0 74 3e 2e 3e 86 ae be 3d 40 64 3e 3d e2 b9 3a 3e
       0.17016011 0.093106315 0.046482325 0.18234971
0003c0 fd 46 1f 3e aa 66 70 3e 9f a8 ca 3e d3 35 c4 3e
       0.15554424 0.23476663 0.39581773 0.38322315
0003d0 a9 13 c4 3e f2 72 4d 3e 1b 35 28 3b 44 e6 df bd
       0.3829625 0.2006338 0.002566642 -0.109325916
0003e0 24 6f de 3e 2e b0 43 3e 65 95 fd 3e 50 ef 36 3d
       0.4344417 0.19110176 0.4952804 0.04466182
0003f0 74 a7 e9 bd d0 7c f2 bd fc 0e 6d 3e f6 2d 29 be
       -0.11408892 -0.11840212 0.23150247 -0.16521439

fc1.bias f4 [64]
000000 eb 9a 93 3e bf 5d 8a 3e 76 59 c6 3e c1 f4 82 3e
       0.2882913 0.27024648 0.38740128 0.25577357
000010 bf 52 89 be 9e 21 76 3e 1f 3a e0 3e 79 8d f1 3e
       -0.26820943 0.24036261 0.43794343 0.47178248
000020 e1 5b b5 3e 6b eb af 3e 5d 2f e9 3e 65 6a 86 3e
       0.3542166 0.34359297 0.45543948 0.26253048
000030 52 31 30 3e ae 7e 8c 3e 6e a5 28 3f 3c 67 74 3e
       0.17206314 0.274404 0.65877426 0.23867506
000040 f0 11 4f be f0 70 57 3e 4e a5 ac 3e 83 e0 87 3e
       -0.20221686 0.21039176 0.33719867 0.26538476
000050 08 83 4d 3e d2 9a b5 3e fa 8f 66 be 53 12 d5 3e
       0.20069516 0.3546968 -0.2251586 0.41615543
000060 96 9c cc 3e b4 26 ad 3e dc e3 22 be 56 81 b2 3e
       0.39963216 0.3381859 -0.15907234 0.348643
000070 a1 a3 b6 3e e6 4a d7 3e 6c 59 e6 3e 5e 7b 81 3e
       0.35671714 0.4204933 0.44990098 0.25289434
000080 37 5c b2 3e 3e b8 46 3e 41 fa c3 3e 58 5b af 3e
       0.3483598 0.1940622 0.38276866 0.34249377
000090 4f ae da 3e a8 cf af 3d 67 80 c5 3e 6d 66 fe 3e
       0.42711112 0.08584529 0.38574526 0.4968752
0000a0 70 15 6c be 9f 25 30 be 6d 04 b0 3e b2 d3 8a 3e
       -0.23055053 -0.17201851 0.34378377 0.27114636
0000b0 ca 24 80 3e 8b 8d 8b 3e 9b c0 40 3e cf 0c cd 3e
       0.25028068 0.27256426 0.18823473 0.40048835
0000c0 70 02 59 bd e0 d1 00 3f 4a b6 68 3e ba 18 8d 3e
       -0.05298084 0.50320244 0.22725788 0.27557927
0000d0 23 23 cf 3e 2d df b0 3e fd c8 e3 3e 3d cd 86 be
       0.40456495 0.3454527 0.4448928 -0.2632846
0000e0 94 3c bd 3e 1e cf e9 3e 62 98 07 3e 19 ce b6 3e
       0.3696028 0.4566583 0.13241723 0.35704115
0000f0 aa c4 c0 3e 42 c2 a0 3e 62 32 94 3e 97 59 a8 3e
       0.37650043 0.31398207 0.2894469 0.32880852

fc2.weight f4 [32, 64]
000000 52 9c 93 3d a0 fe e0 bd e0 d8 73 bd e0 2f 4c bd
       0.0720755 -0.10986066 -0.059533 -0.049850345
000010 ea 4e 8f 3a 91 c3 cd bd 36 4c 45 bc 97 2c e3 bd
       0.0010933552 -0.10047067 -0.012042096 -0.11092489
000020 0d 83 f4 bc 5c 46 1d be 45 ca df 3b 52 ac 19 be
       -0.029847646 -0.15358871 0.0068295323 -0.15007141
000030 0a 52 aa bd b4 c5 1f be 5d 1d 5a bd c9 7c 16 be
       -0.08316429 -0.15602762 -0.05325066 -0.1469604
000040 00 af 75 bd 49 0d be 3d e9 22 9b bd b2 5d b7 bd
       -0.059981346 0.09279878 -0.07575018 -0.08953418
000050 cf e0 1b be 12 9c 8c bc 1c 83 fe 3d b1 e5 57 3d
       -0.15222476 -0.017164264 0.12427351 0.052709285
000060 29 1e 90 3d 82 30 c4 bd 40 37 c0 bc 70 d8 45 bd
       0.070370026 -0.09579565 -0.023463845 -0.048302114
000070 c1 19 9e 3c 3e 72 d2 bd ea da d6 bd ff 71 07 bd
       0.01929939 -0.10275696 -0.10490973 -0.0330677
000080 4a d2 f0 39 34 fd 1e 3d b2 17 13 be 67 d4 e4 bd
       0.00045933045 0.038815692 -0.14364508 -0.11173325
000090 74 30 9a 3c 42 75 84 3c 1a ca 31 be aa 4d c9 bc
       0.018821932 0.016169194 -0.17362252 -0.024573166
0000a0 cc 27 23 bd 01 81 c8 3c 92 16 10 3d a3 73 23 3b
       -0.039832875 0.024475576 0.035177775 0.002494075
0000b0 81 ab b2 bd 79 50 16 be c1 d0 a5 3c c7 19 d7 bc
       -0.08724118 -0.14679135 0.020241143 -0.026257409
0000c0 52 8a cf bd bb f8 ec bb e8 cd 84 bd bf 14 eb 3c
       -0.101338044 -0.0072317994 -0.06484586 0.028696416
0000d0 b3 9f 0a be 7a b5 2c 3d c3 c2 ec bd f8 58 19 be
       -0.13537483 0.042165257 -0.11560585 -0.14975345
0000e0 89 f0 38 be 20 f9 16 bd f1 13 92 bd 7f 58 44 3d
       -0.18060507 -0.036858678 -0.0713271 0.04793596
0000f0 3b a1 0a be 5f e2 00 3b 7c 51 6d bd c4 4c db bd
       -0.13538067 0.0019666178 -0.057939038 -0.10708001
000100 81 db 1f bd 92 a8 d1 b9 ae 4a 49 bd f1 86 c7 3d
       -0.039027695 -0.0003998918 -0.049143486 0.09742535
000110 e0 55 17 be 65 6f da bd 30 12 89 3d d4 e1 54 bd
       -0.14778852 -0.10665778 0.06692922 -0.05197318
000120 a3 b9 1a be 50 1a 6d 3d 1f 31 0a be 18 05 c7 bd
       -0.15109877 0.05788642 -0.134953 -0.097177684
000130 79 a7 75 bd 91 68 aa bd c1 51 e0 bb d0 ed 80 3d
       -0.059974167 -0.08320726 -0.0068456833 0.06295359
000140 30 55 1a 3c 65 69 17 be 8a ce ab 3d 6f ff fe bc
       0.009419724 -0.14786299 0.083890036 -0.03112766
000150 db 24 09 3d f8 3f e2 bd 40 47 9b 3c 2c 28 10 3d
       0.033482414 -0.11047357 0.018954873 0.03519456
000160 81 53 d4 3c 3d 8d 41 3d c2 c0 a3 bd 2a 77 81 bd
       0.025918724 0.047253836 -0.0799575 -0.06321557
000170 dc da c9 3c 2d fb 7e 3d ee 2e 01 be 6f c4 7c 3c
       0.024640493 0.06225126 -0.12615559 0.015427693
000180 50 e3 4b bd 3c 85 4c bd 3d 97 95 bd 23 c4 eb bb
       -0.04977733 -0.04993175 -0.07304237 -0.007195012
000190 8e 3d 90 3d 91 fd 71 bd 37 bc 7b bd db f8 44 3d
       0.070429906 -0.05907971 -0.061458793 0.04808889
0001a0 f7 1a 36 3d 00 00 ce 3c 0d a1 90 bd ea f9 93 bd
       0.04445931 0.025146484 -0.07061968 -0.07225402
0001b0 df 30 1b 3c b5 eb 9b 3d c8 63 c0 bb 8a c7 e6 bd
       0.009472101 0.07613317 -0.00587127 -0.11268528
0001c0 80 ea 0e bc 02 53 8e bd a3 34 5b bd 36 47 9d bd
       -0.008722901 -0.06949426 -0.053516995 -0.07679598
0001d0 38 d0 5f bd ba 32 a5 bd 4a d9 f2 bd 6c e6 1a 3d
       -0.054641932 -0.08066316 -0.11857851 0.037817404
0001e0 18 c2 6a bd df 7c 95 bc b2 b6 de bd 1c ca d7 bd
       -0.05731401 -0.01824802 -0.1087469 -0.10536596
0001f0 11 83 48 bc d7 86 bd bd d0 c7 83 bd bc 54 9e 3c
       -0.01223828 -0.09254234 -0.064345956 0.019327514
000200 e9 15 89 bd a1 fa 21 3f e5 55 81 3e ea 35 4d be
       -0.06693632 0.63273054 0.25260845 -0.20040098
000210 10 a1 4e 3d 6c 96 68 bf b1 46 6f 3d ce e4 5a bf
       0.05044657 -0.90854526 0.058417026 -0.8550538
000220 61 c1 b2 3e b0 da 95 bd 6d a3 22 3e d2 0e 20 be
       0.3491316 -0.07317102 0.15882654 -0.15630654
000230 f3 4e 4d 3f 87 33 b1 be 6a 51 b8 be be ac d0 3e
       0.8019859 -0.34609625 -0.35999614 0.40756792
000240 40 34 e1 bd 4b 4f b9 3f 91 e8 0a 3e 6e 75 0c be
       -0.10996294 1.4477323 0.1356528 -0.13716671
000250 ef 31 1d 3f 87 18 89 3f 20 2a 42 bc d2 8a cf 3e
       0.6140432 1.071061 -0.011850864 0.405356
000260 6e 21 7a 3f 76 71 e8 3d 58 b6 d5 bd 47 50 33 3e
       0.9770726 0.11349766 -0.1043517 0.17511092
000270 d5 30 d7 3e 38 7d 4b 3e 13 16 c4 be a9 b3 15 be
       0.42029443 0.19871986 -0.3829809 -0.14619316
000280 a4 d5 4d bd ae f9 80 bd b3 13 e4 3d 05 3c 28 3f
       -0.05025257 -0.062976226 0.1113657 0.6571658
000290 5d 23 09 3e 72 27 ff 3e e9 07 0d be 9c 02 a1 be
       0.13392396 0.49834782 -0.13772549 -0.31447303
0002a0 32 e8 d9 bd c2 84 dc bd 32 d8 9f 3e 51 7a 26 3f
       -0.10639991 -0.10767509 0.3121963 0.6503039
0002b0 a0 66 85 3c 7e 6f 44 3f b9 22 16 3f a9 79 0e 3e
       0.016284287 0.76732624 0.5864673 0.13913597
0002c0 18 dd df 3c 31 82 a8 3e 70 dc 8d 3f a3 dd 4e 3f
       0.027327105 0.32911828 1.1082897 0.8080694
0002d0 1e 38 b3 3e d2 c9 3a be 86 c6 b3 3e 88 c3 9c 3c
       0.35003752 -0.18241051 0.351124 0.019136205
0002e0 e8 5f a2 3d 89 2f 12 be f9 95 8a 3d 45 5e cb 3e
       0.07928449 -0.14275946 0.06766886 0.3972036
0002f0 04 d0 c5 3e b7 a8 e6 be 54 e1 0f bf da a3 90 3e
       0.38635266 -0.45050594 -0.562032 0.2825001
000300 81 39 96 3e fb d9 70 3e 31 d3 b0 3e 69 c7 4e 3e
       0.29340747 0.23520653 0.34536126 0.20193256
000310 ba 0c bf 3d 3e 7a 7f 3f 2f e1 70 3e c7 39 46 be
       0.09328599 0.997959 0.235234 -0.19357978
000320 a6 7a b5 3e 9a 5a 85 3e 97 23 74 3f ed 47 86 3e
       0.35445136 0.26045686 0.95366806 0.2622675
000330 00 0f 1d 3f c6 e7 fa 3e 8d 82 99 be b8 cc 87 bc
       0.61351013 0.49004954 -0.29982415 -0.01657711
000340 9c d0 6b bd 2f b3 68 be 00 8c a3 3e 56 4d a1 3e
       -0.057571992 -0.22724603 0.3194275 0.31504315
000350 80 12 db bd 78 c7 2f 3e a0 76 cf bd 61 56 b7 3d
       -0.10696888 0.17165935 -0.10130048 0.08952022
000360 5a cc 12 be d6 59 29 3f a4 91 ab 3d a0 31 3b 3f
       -0.14335766 0.66152704 0.08377388 0.73122597
000370 e2 2b 66 3e 05 a1 ac 3e ca c2 40 be 8d 60 8f 3d
       0.22477677 0.33716598 -0.18824306 0.070008375
000380 22 6a 91 3e c0 71 bf 3e 99 81 2e 3e ac 04 1a 3f
       0.28401285 0.37391472 0.17041625 0.6016338
000390 86 3f c7 3e f7 51 ea 3e 0e 33 9c 3d 16 57 63 3c
       0.38915652 0.4576566 0.076269254 0.013875743
0003a0 9a 70 a2 bd be 45 01 3e 97 66 e4 3e c5 f1 07 3e
       -0.07931633 0.12624261 0.4460952 0.13275822
0003b0 37 4a 05 3e 4c 68 97 3e ab 7b b5 3e 33 a2 07 3e
       0.13016592 0.2957176 0.35445914 0.13245468
0003c0 10 52 57 3d 57 9d ad 3e b5 99 02 3e 7f 54 bf 3e
       0.052568495 0.33909103 0.12753947 0.37369153
0003d0 7e ce 91 3c 5a d9 f2 bd 1a 13 6d 3f 59 5e 96 3d
       0.017798658 -0.11857863 0.9260727 0.07342214
0003e0 af d3 c6 3e e1 05 b5 3e 78 0c 62 3f c2 98 83 3e
       0.38833377 0.35356048 0.88300276 0.25702482
0003f0 d2 2f 86 3e 41 fe 21 bd bd 3c fd 3e ce cd 9f 3d
       0.2620836 -0.039549116 0.49460402 0.07802926

fc2.bias f4 [32]
000000 7f b4 51 3d 35 da bd bd 43 14 46 3d 9c 18 93 3e
       0.051197525 -0.09270135 0.048359167 0.28729713
000010 c9 1c a7 3e 05 fa 3e 3e 1a 9e 91 bc b1 b3 32 3e
       0.3263915 0.18650062 -0.017775584 0.1745136
000020 b4 0d 90 bd 16 24 22 bd 3e 60 97 3e 71 91 91 bd
       -0.07033864 -0.039585195 0.29565614 -0.07107819
000030 25 d7 0f 3b 54 0f bd 3e 32 ad 4d 3d 6e 97 27 3e
       0.0021948304 0.36925757 0.050214 0.1636636
000040 42 c7 cf 3e 9f f0 e2 bb e7 85 28 3d 90 fe 80 bd
       0.4058171 -0.006925657 0.041143324 -0.06298554
000050 7d ca 20 bd fa ec 23 be ce 17 c2 bd 6a db 9c 3e
       -0.039255608 -0.16008368 -0.09477197 0.3063615
000060 15 b7 9b 3e 0b 1a ad 3e 76 e2 8a 3e 34 8e da bd
       0.30413118 0.33808932 0.271259 -0.10671654
000070 13 35 3f 3e eb a0 41 3d 8b 59 93 3e 67 15 89 bd
       0.1867259 0.047272604 0.28779253 -0.06693535

fc3.weight f4 [4, 32]
000000 f4 e2 0e bd 9a f3 ae 3d c4 07 27 3f 8a fc 19 bd
       -0.034884408 0.08542557 0.65246224 -0.037594356
000010 c4 20 b7 3e b4 15 cf 3e 17 af 2f 3e 7c f2 0a bd
       0.35767186 0.40446246 0.17156635 -0.033922657
000020 a3 bd 0a be b1 e2 b2 3c 47 b0 80 3d 3c ee bf 3d
       -0.13548903 0.02183661 0.06283622 0.093716115
000030 b6 19 fd bb 25 cb 60 be 65 73 22 3e c6 eb 81 be
       -0.0077240122 -0.21952493 0.15864332 -0.25375193
000040 ac 34 ef 3e b8 09 d2 bd d2 78 cd 3d 77 e1 2b 3e
       0.46719873 -0.1025576 0.1003281 0.16785227
000050 bf c1 15 3e 91 d4 4b 3d eb 64 8b bd 6d a2 0a 3f
       0.1462469 0.049763266 -0.06806358 0.5415409
000060 33 d2 03 3f 67 45 ce 3e 89 47 9c 3e 17 4b 7f 3c
       0.51492614 0.40287325 0.30523327 0.015581868
000070 b4 4d 29 3f 82 66 11 bd dc 47 0d 3e 14 96 f8 3d
       0.6613419 -0.03549815 0.13796943 0.12138
000080 c0 1b 2c bc 8e 61 26 3d cc c4 c8 3e c9 b2 1b 3f
       -0.010504663 0.04062038 0.39212644 0.6081968
000090 6d 06 73 be 92 90 0f 3f 75 0d 48 bd 55 a6 6f 3e
       -0.2373292 0.5607997 -0.04884096 0.23403294
0000a0 2a 61 bb 3d c9 86 dc bd ce f4 0f 3f 49 48 b0 bc
       0.09149392 -0.10767896 0.5623292 -0.021518843
0000b0 69 36 ba bd 46 a0 07 3f 22 ef 35 bd b6 9f 2f 3f
       -0.09092409 0.5297893 -0.044417508 0.68603075
0000c0 22 88 45 bc ce 57 1a bd d9 69 da bc 14 43 8f 3d
       -0.012056382 -0.037681393 -0.0266618 0.06995216
0000d0 4d 54 a6 bd 63 69 f5 bd fc d9 d1 bd b3 a5 f5 3e
       -0.08121548 -0.119829915 -0.10246655 0.4797798
0000e0 02 3a ff 3d d8 e0 b0 3e db 1f b2 3e da 34 e2 bd
       0.12462236 0.34546542 0.3478993 -0.11045237
0000f0 e8 05 a6 be 47 d1 f0 bc 3e f2 82 be b6 a4 5d bd
       -0.3242638 -0.029396666 -0.2557544 -0.05411216
000100 17 ea a3 ba 0c 99 fb 3d d7 b1 5b be 05 5f 69 3e
       -0.0012505677 0.12285051 -0.2145456 0.22790153
000110 66 9f 90 bf e0 84 8c be 28 77 9e bc d9 ac 15 3f
       -1.1298645 -0.27445126 -0.019343928 0.5846687
000120 c0 34 ed bb 92 a3 53 3e 19 16 c6 3d a3 f6 03 be
       -0.0072389543 0.20667866 0.096721835 -0.12887053
000130 c3 58 89 bc 08 10 f1 3e 58 2a 31 bd 86 59 ab ba
       -0.016765958 0.47082543 -0.043253273 -0.0013072945
000140 d5 72 0c 3f 5f 4b cd bd 91 c4 1c 3d 6f 98 90 3b
       0.5486272 -0.100241415 0.038273398 0.0044127028
000150 1c 51 37 bd a9 29 33 bc e5 30 0c be cc be b6 3e
       -0.044755086 -0.0109352255 -0.13690527 0.3569244
000160 9f cd 07 3f 0d 48 b4 3e 49 7b d3 3e 33 4d 81 bd
       0.5304813 0.3521122 0.41304997 -0.06313553
000170 b1 0a 51 3e fe dd 50 bd ff b3 04 3f 03 2a 41 3d
       0.20414235 -0.05099296 0.5183715 0.047159206
000180 1a a5 f0 bd 8b ba dc bd cd ce d4 be 0a ee 3b 3e
       -0.117502406 -0.10777768 -0.41564026 0.18352523
000190 fa 1f cf 3f ff 7a dd 3d 52 d5 c4 3d ab b7 b0 3e
       1.6181633 0.10814475 0.09611 0.34515128
0001a0 cf 99 08 3e 8f 00 5b bd 87 03 0b 3e 22 c4 32 3d
       0.13339923 -0.05346733 0.13575564 0.043644078
0001b0 e8 f2 d3 3d e0 3c fa 3d 27 ca bd bb dc 06 b1 3e
       0.10349065 0.12218642 -0.0057919207 0.34575546
0001c0 76 2b a9 3e f5 7b 42 3e 21 97 d8 3c df 64 06 bd
       0.3304097 0.18992598 0.026439251 -0.032811042
0001d0 7e 10 c0 3c 8a ad 50 3e 10 48 4f bc 40 9e 35 be
       0.023445364 0.203787 -0.012651458 -0.17736149
0001e0 4c 33 d1 bd 71 86 0f bd c7 57 b6 3e d8 15 0b 3d
       -0.10214862 -0.035040323 0.35613844 0.03395638
0001f0 87 49 b8 3e 59 ed 4f bd b9 38 3c 3f 9c 48 92 bd
       0.35993597 -0.05076346 0.7352405 -0.071427554

fc3.bias f4 [4]
000000 be b2 0b 3e d2 dd 53 3e f9 e1 ca 3e 3c 91 56 3e
       0.13642403 0.20690086 0.39625528 0.2095384
