trained_agents/policy_net4800.pth (torch, 15822 bytes, 6 tensors)

fc1.weight f4 [64, 16]
-0.013024015 -0.011736595 -0.21137726 -0.18617009 -0.21638218 0.24212027 0.097624086 0.019311935
-0.11554975 0.063216165 -0.22499049 0.21218237 -0.19977146 0.35261294 0.04090379 -0.1261228
0.11373214 -0.13790798 0.21683693 -0.11564617 0.09304091 0.0024238825 0.21889791 -0.18191111
-0.051930226 -0.001804339 0.42855114 -0.11952579 0.15481871 -0.14033616 -0.14343295 -0.19618875
-0.14227834 0.119001 0.08617153 -0.015632365 -0.20278114 0.15329403 0.03679223 0.1756927
0.025479797 -0.15549964 -0.13037834 -0.15220559 -0.1093913 0.41117242 0.22703402 0.08239663
-0.11148498 0.3676092 -0.22463503 0.55225855 -0.091672815 -0.114941955 -0.03954412 0.14097965
0.18383329 -0.20985988 -0.0011457485 0.17353764 -0.04231891 -0.2811536 -0.28711894 0.046727538
0.17914197 -0.034884125 0.041610897 0.015299052 -0.0528228 0.026030362 0.16143328 -0.19511384
0.19138262 0.13360679 -0.1181612 0.12055594 0.09247276 0.15799424 -0.1810382 0.14317244
-0.24348566 0.16019689 0.053527404 -0.1534566 -0.027350545 -0.16079754 -0.2015219 0.17193055
-0.24175334 0.14573146 -0.004111886 0.1663895 -0.16950646 0.14364836 -0.006433159 0.05019003
-0.13631499 0.10648625 -0.19809937 -0.04882002 -0.129655 0.14837736 0.03056409 0.060870856
-0.12760848 -0.030334048 0.24540845 0.13842991 -0.014207453 -0.092478245 -0.11735743 -0.1718188
-0.13131362 -0.1272465 -0.2199027 -0.035659045 -0.07335496 0.007017076 0.09036785 -0.061333597
-0.1661469 -0.0416089 0.10114157 -0.08348659 -0.21033925 0.15402794 -0.17143998 -0.059683025
0.007226683 -0.12045106 -0.017778039 -0.16122645 -0.30653742 -0.21123487 0.057416543 -0.020997047
-0.11125881 -0.18289341 -0.2522292 0.13216814 0.19538835 0.35781613 0.2624738 0.16370127
-0.084161125 -0.25561023 -0.07574695 -0.061329868 -0.20037745 0.03902939 -0.14335716 0.05688134
-0.0004534215 -0.25072792 -0.15409186 0.15393716 0.19171676 0.27092516 0.17749229 0.014518559
0.08119015 -0.23570316 0.108802415 -0.23050854 -0.2442033 -0.18298101 0.028516091 -0.03831044
-0.16800453 0.41730615 -0.22968441 -0.12775108 -0.03743899 0.5086717 0.16859327 -0.2132751
0.00915496 -0.014546115 0.12652849 -0.20092873 -0.22486761 -0.0770168 0.122789934 0.085048646
-0.13804924 -0.2163237 0.086162575 0.009112 -0.09527692 0.44313076 0.3618613 0.022445858
-0.115222245 0.20727022 0.0030459464 -0.07800397 0.12485093 -0.12998801 -0.0030406415 0.014056623
0.20592687 0.027703643 -0.20328626 -0.1751445 -0.23289719 -0.10737926 0.12168321 0.212776
0.0021403856 -0.02828668 0.10092542 -0.034710385 0.13783355 -0.12714797 0.44416022 0.09828916
-0.1043018 -0.21897715 0.22017144 0.19596809 -0.025888175 -0.19904718 -0.006431926 -0.23148382
0.18522966 -0.29249308 0.40065902 -0.28191987 0.32389447 0.013581902 0.21675299 -0.091552615
-0.29853946 0.26098642 0.27155313 -0.21663615 -0.040177852 -0.30750164 0.33158705 0.049164176
-0.03685522 -0.22025198 -0.026156813 0.114353806 -0.1948967 0.123756975 -0.071377814 -0.08343658
0.16072577 0.13432035 0.009403884 -0.04399112 0.24719667 0.013199091 0.039253384 -0.16225928
00000000: ae62 55bc d94a 40bc 4873 58be 5fa3 3ebe
00000010: 4a93 5dbe 60ee 773e 23ef c73d 1034 9e3c
00000020: 59a5 ecbd 7a77 813d e863 66be 5646 593e
00000030: e490 4cbe af89 b43e bc8a 273d 5626 01be
00000040: 65ec e83d c037 0dbe 800a 5e3e e6d7 ecbd
00000050: 3c8c be3d 00da 1e3b c626 603e e846 3abe
00000060: cab4 54bd 927f ecba 0e6b db3e f0c9 f4bd
00000070: cc88 1e3e 48b4 0fbe 16e0 12be b4e5 48be
00000080: 6ab1 11be ccb6 f33d b37a b03d 720f 80bc
00000090: dca5 4fbe 1cf9 1c3e 73b3 163d cae8 333e
000000a0: 02bb d03c 4c3b 1fbe e681 05be c8db 1bbe
000000b0: 8c08 e0bd 3185 d23e 9b7b 683e 90bf a83d
000000c0: 3d52 e4bd 4637 bc3e ba06 66be d160 0d3f
000000d0: f5be bbbd b066 ebbd 04f9 21bd f85c 103e
000000e0: cb3e 3c3e 82e5 56be f12c 96ba dab3 313e
000000f0: 9856 2dbd 5df3 8fbe 4101 93be 6065 3f3d
00000100: fe70 373e a8e2 0ebd 3070 2a3d e0a8 7a3c
00000110: b85c 58bd a03d d53c c44e 253e eccb 47be
00000120: cef9 433e 38d0 083e 80fe f1bd 08e6 f63d
00000130: 5c62 bd3d 3ec9 213e 1462 39be cc9b 123e
00000140: 4e54 79be a70a 243e 8d3f 5b3d ba23 1dbe
00000150: 400e e0bc 1ca8 24be c25b 4ebe 900e 303e
00000160: 308e 77be a13a 153e 00bd 86bb 0262 2a3e
00000170: 1a93 2dbe 8e18 133e 40cd d2bb 1094 4d3d
00000180: 2896 0bbe 7715 da3d 90da 4abe 80f7 47bd
00000190: 48c4 04be 3cf0 173e 8b61 fa3c b853 793d
000001a0: ccab 02be 1c7f f8bc 5a4c 7b3e 92c0 0d3e
000001b0: 60c6 68bc 3c65 bdbd 1859 f0bd 44f1 2fbe
000001c0: 1477 06be e84c 02be 2c2e 61be 380f 12bd
000001d0: 203b 96bd 80ef e53b c812 b93d f038 7bbd
000001e0: 6a22 2abe 186e 2abd 5023 cf3d 04fb aabd
000001f0: 2c63 57be 80b9 1d3e f68d 2fbe 3076 74bd
00000200: d0cd ec3b 0caf f6bd 40a3 91bc 8c18 25be
00000210: 79f2 9cbe f44d 58be 9c2d 6b3d 0002 acbc
00000220: a9db e3bd 6948 3bbe 3024 81be 1657 073e
00000230: e213 483e ad33 b73e f762 863e 4ea1 273e
00000240: ab5c acbd 58df 82be 3821 9bbd 0735 7bbd
00000250: bf2f 4dbe 48dd 1f3d 38cc 12be 68fc 683d
00000260: 34b9 edb9 695f 80be 42ca 1dbe b4a1 1d3e
00000270: 6651 443e b4b6 8a3e 8ac0 353e 40df 6d3c
00000280: 0547 a63d 2b5c 71be cdd3 de3d 6e0a 6cbe
00000290: 6e10 7abe 605f 3bbe 949a e93c 68eb 1cbd
000002a0: 6109 2cbe 27a9 d53e 6432 6bbe 2ed1 02be
000002b0: a059 19bd 4f38 023f b7a3 2c3e ca64 5abe
000002c0: affe 153c d452 6ebc af90 013e 43c0 4dbe
000002d0: b243 66be fcba 9dbd 4a79 fb3d fc2d ae3d
000002e0: c85c 0dbe f683 5dbe 0176 b03d 804a 153c
000002f0: 8c20 c3bd 09e2 e23e e245 b93e 60e0 b73c
00000300: a4f9 ebbd a53e 543e 809e 473b 8cc0 9fbd
00000310: d8b1 ff3d 941b 05be 8045 47bb c04d 663c
00000320: 7ede 523e c0f2 e23c 462a 50be 1459 33be
00000330: 9a7c 6ebe a8e9 dbbd 0c35 f93d f4e1 593e
00000340: b645 0c3b 78b9 e7bc fdb1 ce3d 7a2c 0ebd
00000350: 3d24 0d3e 1433 02be f868 e33e d44b c93d
00000360: 2f9c d5bd 8c3b 60be 9f74 613e dcab 483e
00000370: 7013 d4bc 06d3 4bbe e8c2 d2bb 180a 6dbe
00000380: d8ac 3d3e a7c1 95be 2e23 cd3e cd57 90be
00000390: 7fd5 a53e a086 5e3c 7ff4 5d3e f07f bbbd
000003a0: 2ada 98be 03a0 853e 0309 8b3e ded5 5dbe
000003b0: 8891 24bd db70 9dbe c7c5 a93e 6060 493d
000003c0: 80f5 16bd bc89 61be d046 d6bc 5432 ea3d
000003d0: 0093 47be 4c74 fd3d 882e 92bd cce0 aabd
000003e0: 4c95 243e 468b 093e c012 1a3c 0830 34bd
000003f0: 2021 7d3e 0041 583c 28c8 203d 4c27 26be

fc1.bias f4 [64]
0.10182119 0.022185005 0.05875484 0.15736142 -0.22329119 -0.17039753 -0.15294322 -0.21451265
0.30165392 0.19157045 0.22043182 0.17163962 -0.2279347 0.1192655 0.25488725 -0.21803567
-0.18827626 0.27111295 -0.25534305 -0.062317327 -0.20393 -0.23925395 0.08010116 0.08238038
-0.24602588 0.082560256 0.20169112 0.2495562 0.092305474 -0.15701716 0.065995246 0.26585087
-0.15229097 -0.03327259 -0.048152667 -0.114595965 -0.052602567 0.06542145 -0.2780362 -0.18878752
-0.22072597 -0.1031184 -0.23245421 -0.14742172 -0.23060232 -0.22907794 -0.25506 -0.0051105595
-0.17525415 0.2843742 -0.099440746 0.16132599 0.022201376 0.19150782 -0.019327499 0.17771894
0.18225014 -0.1244618 0.19032425 0.091281034 -0.24661392 -0.17425413 -0.02696054 0.22192147
00000000: a187 d03d 54bd b53c eaa8 703d 5a23 213e
00000010: 72a6 64be b17c 2ebe 269d 1cbe 34a9 5bbe
00000020: 6272 9a3e 0b2b 443e e1b8 613e 4cc2 2f3e
00000030: b767 69be 7841 f43d 9580 823e be44 5fbe
00000040: 7ecb 40be 51cf 8a3e 53bc 82be 7440 7fbd
00000050: 07d3 50be fdfe 74be 140c a43d 0bb7 a83d
00000060: 35ee 7bbe 5a15 a93d 1e88 4e3e a98b 7f3e
00000070: a70a bd3d 1bc9 20be 8428 873d 9b1d 883e
00000080: 2af2 1bbe d748 08bd bb3b 45bd 4ab1 eabd
00000090: ca75 57bd aefb 853d c35a 8ebe 8451 41be
000000a0: fd05 62be bd2f d3bd 7a08 6ebe b8f5 16be
000000b0: 0423 6cbe 6893 6abe 3997 82be 7b76 a7bb
000000c0: d375 33be 7f99 913e 97a7 cbbd a432 253e
000000d0: a9df b53c a01a 443e b454 9ebc f4fb 353e
000000e0: c89f 3a3e d4e5 febd 5ce4 423e 8df1 ba3d
000000f0: 5c88 7cbe ad6f 32be 5adc dcbc 623f 633e

fc2.weight f4 [32, 64]
0.11699311 -0.048792843 -0.015283392 -0.0030515962 0.07513952 0.059092123 -0.05047915 0.02015756
0.031225787 -0.13532478 -0.0039535826 0.09403542 0.022846468 0.15513356 0.13008085 -0.039004907
-0.01805219 -0.11136408 0.14446385 0.16296554 -0.06867965 0.22442196 0.26421624 0.06891712
0.1412124 0.12869415 0.14779027 -0.012550453 0.08745841 0.0022652603 0.1514874 0.10345771
0.12797044 0.10231346 -0.078636944 -0.075988814 -0.10630279 -0.0051065646 0.12385975 0.056362316
0.061719373 -0.06330564 -0.08605373 -0.11466731 -0.036497056 0.111549065 -0.086853854 0.24762814
0.11176107 0.16618083 0.3340289 -0.051849004 0.22472605 0.18438065 0.12888937 0.025382577
0.055916708 -0.31925002 0.058786146 0.12417425 -0.12012212 0.0070967455 0.080832504 0.0061432677
0.041357137 -0.012929513 0.05686634 0.25684547 0.0018238723 -0.07083025 0.10372648 -0.117801026
0.08030905 0.1201897 -0.2556979 0.08495008 0.009924294 -0.11896192 0.00051792385 0.084616795
-0.013335496 -0.07851803 -0.12632248 0.04517372 0.060324524 -0.03194133 -0.38822788 -0.070298955
0.058029402 -0.07557402 0.09942677 0.07594709 -0.027314086 -0.07699161 -0.28151268 0.029494567
-0.15342207 -0.0053341263 -0.102228716 -0.069595054 0.1613832 0.131851 -0.09308939 -0.017662182
0.13342766 0.021656863 -0.022867575 0.034926027 0.057415366 0.083851755 0.13732167 -0.105954945
0.067544505 -0.15841334 -0.13562196 0.048553508 -0.10133018 -0.10461823 0.07829564 0.16661021
0.1221513 0.3933595 0.0106525505 0.02044457 0.08427021 -0.05594894 -0.04135982 0.16509427
-0.12474765 0.15618195 -0.043105282 0.06323309 0.107807234 -0.01284213 0.1074147 -0.069775835
-0.017985571 0.012728839 -0.012057513 0.15173858 -0.10457531 -0.0037540826 0.0649858 0.032209873
-0.071350425 0.063069195 -0.07291275 0.04201136 0.14094017 -0.06234392 0.10297808 -0.03932979
0.012194366 -0.075740896 0.027262915 -0.032241136 0.07076714 0.018444825 0.08705713 0.13604844
0.012596817 0.11069866 0.062582366 -0.04490995 -0.03475783 -0.21663791 -0.06208511 -0.003319174
0.080474526 -0.03391044 -0.081248194 -0.07458365 -0.12260178 -0.0505656 -0.052994117 -0.03733114
0.032246534 0.017761322 -0.004336229 -0.1979302 0.18735485 0.21298315 -0.07773662 0.1906074
-0.102975935 -0.08067105 0.10840739 -0.013792224 -0.0536433 -0.014928933 0.10086782 -0.063177966
0.12571527 -0.06583258 0.24848875 -0.09134351 -0.06638564 -0.13154322 0.046491515 0.01938583
0.18136202 0.08170055 0.30193973 0.27888948 -0.04709777 0.051074456 0.046212967 0.115172416
-0.09241305 0.010987924 0.048754066 0.01776227 -0.072146654 -0.047054846 -0.03533034 0.038364746
0.0017750823 0.05940317 0.048500944 0.15768223 -0.061064564 0.10791633 0.16787253 0.039452426
-0.008934057 -0.11962072 0.15097722 0.1196729 -0.03142982 0.066600755 0.12323464 -0.033204556
0.08445861 -0.026933778 -0.11338501 0.07192448 -0.068706945 -0.118456125 -0.040117066 -0.13806027
-0.055572376 0.107644 0.0787542 0.23650353 -0.26753357 -0.025199702 0.2091797 0.20597914
0.17878132 -0.022774804 -0.034938455 -0.047298066 -0.05013472 -0.08437311 -3.0608193e-05 0.12951416
00000000: 159a ef3d 01db 47bd 3167 7abc 4afd 47bb
00000010: c0e2 993d 950a 723d 3ac3 4ebd 7821 a53c
00000020: 39cd ff3c 9492 0abe 0e8d 81bb a495 c03d
00000030: 8428 bb3c 55db 1e3e ea33 053e 9cc3 1fbd
00000040: 30e2 93bc da12 e4bd 55ee 133e 70e0 263e
00000050: eba7 8cbd dfce 653e 5a47 873e 6b24 8d3d
00000060: fc99 103e 66c8 033e 5556 173e 6aa0 4dbc
00000070: 651d b33d c374 143b 831f 1b3e a3e1 d33d
00000080: af0a 033e b889 d13d 680c a1bd 06a0 9bbd
00000090: 47b5 d9bd f854 a7bb 2eaa fd3d 2cdc 663d
000000a0: 74cd 7c3d 63a6 81bd f03c b0bd b2d6 eabd
000000b0: f07d 15bd d673 e43d 6fe0 b1bd 3b92 7d3e
000000c0: fde2 e43d 4f2b 2a3e d605 ab3e 9f5f 54bd
000000d0: 961e 663e 48ce 3c3e 93fb 033e 1fef cf3c
000000e0: eb08 653d bd74 a3be bec9 703d 124f fe3d
000000f0: 9602 f6bd d18b e83b 838b a53d 774d c93b
00000100: 1a66 293d 4fd6 53bc aeec 683d 4081 833e
00000110: 000f ef3a 730f 91bd 8c6e d43d aa41 f1bd
00000120: 1279 a43d 0426 f63d d6ea 82be 4ffa ad3d
00000130: 8299 223c 4fa2 f3bd 48c5 073a 924b ad3d
00000140: 207d 5abc 10ce a0bd ae5a 01be 1408 393d
00000150: d916 773d e9d4 02bd cec5 c6be e6f8 8fbd
00000160: 3db0 6d3d 8dc6 9abd 43a0 cb3d 268a 9b3d
00000170: cac1 dfbc c7ad 9dbd 6e22 90be 979e f13c
00000180: ad1a 1dbe e5c9 aebb 4a5d d1bd da87 8ebd
00000190: a341 253e f303 073e a6a5 bebd 48b0 90bc
000001a0: 43a1 083e bc69 b13c c854 bbbc 980e 0f3d
000001b0: 602c 6b3d 78ba ab3d 0d9e 0c3e e8fe d8bd
000001c0: c654 8a3d 1b37 22be 7ce0 0abe 0be0 463d
000001d0: 3386 cfbd 1542 d6bd 7759 a03d de9b 2a3e
000001e0: 762a fa3d 6b66 c93e 0988 2e3c 5f7b a73c
000001f0: dc95 ac3d b72a 65bd ea68 29bd 790e 293e
00000200: b27b ffbd 29ee 1f3e 2a8f 30bd 5a80 813d
00000210: 0aca dc3d cc67 52bc 3dfc db3d a2e6 8ebd
00000220: 7a56 93bc 9f8c 503c e08c 45bc 5c61 1b3e
00000230: 952b d6bd 0e07 76bb 4617 853d 80ee 033d
00000240: 2c20 92bd 6c2a 813d 4853 95bd 1b14 2c3d
00000250: 9f52 103e 575c 7fbd 2ce6 d23d 4618 21bd
00000260: e1ca 473c 0b1e 9bbd 7a56 df3c 480f 04bd
00000270: 5dee 903d 9a19 973c 024b b23d 4850 0b3e
00000280: e162 4e3c fbb5 e23d 2f2b 803d 7ff3 37bd
00000290: 3a5e 0ebd 54d6 5dbe f54c 7ebd 8086 59bb
000002a0: d4cf a43d ace5 0abd 7465 a6bd 50bf 98bd
000002b0: a416 fbbd e01d 4fbd 5c10 59bd 8ae8 18bd
000002c0: f114 043d 3180 913c ed16 8ebb 37ae 4abe
000002d0: f3d9 3f3e 4118 5a3e 6134 9fbd 962e 433e
000002e0: 0ce5 d2bd dd36 a5bd b204 de3d c8f8 61bc
000002f0: 14b9 5bbd 7c98 74bc ca93 ce3d 7363 81bd
00000300: 81bb 003e 3bd3 86bd d673 7e3e 4e12 bbbd
00000310: 32f5 87bd 44b3 06be e36d 3e3d 08cf 9e3c
00000320: f7b6 393e 9e52 a73d d897 9a3e 9aca 8e3e
00000330: 97e9 40bd 7333 513d cf49 3d3d 84df eb3d
00000340: 0e43 bdbd b206 343c 58b2 473d 2e82 913c
00000350: a0c1 93bd 95bc 40bd 8cb6 10bd 5a24 1d3d
00000360: e1a9 e83a bd50 733d eda8 463d 7377 213e
00000370: d61e 7abd 3d03 dd3d c7e6 2b3e de98 213d
00000380: 2760 12bc b5fb f4bd c699 1a3e 1117 f53d
00000390: 8ebc 00bd fa65 883d 7162 fc3d 8001 08bd
000003a0: a3f8 ac3d 3aa4 dcbc 6636 e8bd 244d 933d
000003b0: 3ab6 8cbd 2099 f2bd cb51 24bd ac5f 0dbe
000003c0: dc9f 63bd 7574 dc3d e249 a13d fb2d 723e
000003d0: 29fa 88be 9b6f cebc 3433 563e 32ec 523e
000003e0: 7312 373e 3a92 babc a01b 0fbd 9ebb 41bd
000003f0: 105a 4dbd cfcb acbd 4c61 00b8 5c9f 043e

fc2.bias f4 [32]
-0.041040603 0.06974109 0.16324678 0.069693014 -0.0071165888 0.10259945 0.04215501 0.069426894
0.118350886 0.061366174 0.21532194 -0.06931631 0.08500405 0.059217468 -0.04431442 0.16117746
0.18826865 -0.12343153 0.04307374 0.20678772 -0.06477085 0.011137883 -0.11161102 0.03179228
0.011827442 -0.098862216 0.11811472 0.06615464 -0.07722369 -0.11527525 0.028158294 -0.04762909
00000000: 311a 28bd 6bd4 8e3d 2a2a 273e 36bb 8e3d
00000010: 4632 e9bb a91f d23d bbaa 2c3d b02f 8e3d
00000020: f361 f23d 195b 7b3d 5b7d 5c3e b6f5 8dbd
00000030: 9a16 ae3d 048e 723d 0a83 35bd b40b 253e
00000040: 7fc9 403e acc9 fcbd 176e 303d 29c0 533e
00000050: 94a6 84bd ab7b 363c 5294 e4bd 9f38 023d
00000060: e3c7 413c 4678 cabd 21e6 f13d 157c 873d
00000070: 7427 9ebd 6e15 ecbd 39ac e63c b816 43bd

fc3.weight f4 [4, 32]
0.0034699605 0.20444879 0.12955801 -0.079476416 -0.08608935 0.07021345 0.07349111 -0.06696835
0.1680445 -0.16194254 0.02953085 0.043472216 -0.046377093 0.03775964 -0.16951366 0.2932964
0.2315488 -0.028123856 -0.0051068277 -0.058854934 0.084014095 -0.23434499 -0.101403296 -0.023966543
0.00022134445 -0.049639836 0.0016396729 0.06091577 -0.07992351 -0.082092226 0.13044402 -0.1653214
0.16369316 -0.12621373 0.15808985 0.0666754 -0.12094299 0.11166335 0.14125432 -0.05911572
0.11326918 -0.12734781 0.13753878 -0.029271854 0.10935462 -0.14068249 0.06340351 -0.12583415
0.25315115 0.16860409 0.00793409 0.058614068 -0.16191797 0.09073247 -0.14365534 -0.1344751
-0.028321423 -0.09342026 -0.14193119 -0.00799711 -0.17296238 -0.016762327 0.013445804 -0.1186735
-0.12739313 0.050992776 -0.027051194 0.14033386 -0.12960288 0.112706296 -0.024695227 -0.13219813
-0.1186122 0.09650985 0.16281272 0.010085423 -0.14837731 -0.005224388 -0.026712602 0.14287886
0.14805274 0.06477596 0.0042791376 0.2020624 0.016000167 -0.017672082 -0.08767265 -0.036356762
-0.021540826 -0.11126418 0.11456119 -0.060505375 0.032441527 -0.025437132 0.12731612 0.02340917
0.0035296178 0.07626385 0.11732934 0.0723997 -0.00665005 -0.54041654 0.03293679 -0.11728967
0.053184822 0.14636801 -0.05045404 0.07214819 0.20349263 0.12577753 -0.108660914 0.07860541
0.022865457 0.12599988 -0.033132587 0.20226216 0.07194418 0.11453917 0.16873367 0.062252183
0.11401197 -0.10786358 0.21019715 0.052522425 -0.008516148 -0.016728254 -0.048527353 0.07173875
00000000: 4768 633b 065b 513e dbaa 043e 88c4 a2bd
00000010: 9d4f b0bd 12cc 8f3d 8282 963d b426 89bd
00000020: db13 2c3e 44d4 25be aeea f13c ec0f 323d
00000030: e8f5 3dbd daa9 1a3d fd94 2dbe f22a 963e
00000040: 211b 6d3e 0064 e6bc 2d57 a7bb df11 71bd
00000050: 950f ac3d 22f8 6fbe 88ac cfbd 7c55 c4bc
00000060: b318 6839 2453 4bbd 4bea d63a d082 793d
00000070: f0ae a3bd f81f a8bd 1e93 053e 034a 29be
00000080: 2e9f 273e 2c3e 01be 4ee2 213e 1d8d 883d
00000090: f5b0 f7bd c1af e43d f9a4 103e 5323 72bd
000000a0: acf9 e73d 7767 02be f7d6 0c3e 87cb efbc
000000b0: 51f5 df3d 120f 10be b3d9 813d abda 00be
000000c0: 079d 813e 8da6 2c3e fcfd 013c 4e15 703d
000000d0: d3cd 25be f2d1 b93d 631a 13be d7b3 09be
000000e0: 5402 e8bc 1f53 bfbd 6956 11be 4f06 03bc
000000f0: 0d1d 31be 2651 89bc ca4b 5c3c 180b f3bd
00000100: 5873 02be cddd 503d 779a ddbc aeb3 0f3e
00000110: 9eb6 04be 8fd2 e63d a54d cabc f25e 07be
00000120: f4ea f2bd f5a6 c53d 61b8 263e 543d 253c
00000130: 39f0 17be 5831 abbb 63d4 dabc d64e 123e
00000140: 239b 173e 42a9 843d 0238 8c3b 72e9 4e3e
00000150: c812 833c 0bc5 90bc b88d b3bd d4ea 14bd
00000160: 6376 b0bc 79de e3bd 0f9f ea3d 7cd4 77bd
00000170: 68e1 043d 8861 d0bc 285f 023e 96c4 bf3c
00000180: 2951 673b 3930 9c3d 5d4a f03d 4b46 943d
00000190: aae8 d9bb bd58 0abf bae8 063d 9135 f0bd
000001a0: 54d8 593d 7fe1 153e e5a8 4ebd 6ec2 933d
000001b0: 5f60 503e d3cb 003e 9d89 debd e0fb a03d
000001c0: 5750 bb3c 1d06 013e 09b6 07bd d01d 4f3e
000001d0: 7857 933d 8393 ea3d 85c8 2c3e 25fc 7e3d
000001e0: 1c7f e93d 95e7 dcbd ec3d 573e c121 573d
000001f0: 5087 0bbc b109 89bc 9ec4 46bd c4eb 923d

fc3.bias f4 [4]
0.24338801 0.086021036 0.2585375 0.21377623
00000000: b53a 793e cc2b b03d 075f 843e 28e8 5a3e
