trained_agents/policy_net1800.pth (torch, 15822 bytes, 6 tensors)

fc1.weight f4 [64, 16]
0.10527953 0.019202573 0.028768934 -0.086459056 0.048287787 0.13010341 -0.11801265 -0.15046659
0.05557681 0.16539113 -0.17686567 -0.0139374435 0.2413544 -0.09845719 0.4495131 0.089437634
0.1599509 0.12276774 0.11696545 0.05575359 -0.12653513 -0.193154 -0.15341768 0.24289742
0.08859268 0.36713463 -0.14034563 0.11562249 -0.17433307 0.50966716 0.20089619 0.11285025
0.12090797 0.25863522 -0.20908895 -0.076581314 -0.034025602 -0.21660212 -0.016489306 0.09160724
0.30561996 -0.20912099 -0.22054681 0.18095237 -0.13178283 -0.034009278 0.3145721 0.03581488
-0.046591945 -0.16050874 -0.20110837 -0.16671377 -0.17522725 0.21359321 0.17617682 -0.18535683
-0.15815932 -0.13091931 0.043792464 0.028372884 -0.04273969 0.25781614 0.24773107 -0.09197518
-0.21634488 -0.21947601 -0.010149523 -0.2409144 -0.23217848 -0.22538069 -0.21217416 -0.0199987
-0.06269612 0.043419197 -0.21959227 -0.024073869 0.24571568 0.44984007 -0.20966192 -0.13628888
0.07260325 -0.13415948 -0.013417076 -0.0895873 -0.027176058 -0.14009225 0.052374545 -0.12986442
0.15954933 0.013547081 -0.20762232 0.116472244 -0.032987505 -0.030169785 0.18931621 -0.2147707
0.2508058 -0.32315204 0.25131238 -0.12900358 0.23731156 0.025379539 0.21486224 0.12339571
-0.19867927 0.16871224 0.19623184 -0.12320632 -0.027667254 -2.8659691e-05 0.29129854 -0.031417817
0.0030104679 -0.117958754 -0.24005273 0.14283916 -0.20863599 0.04601586 -0.056853797 0.13400671
-0.20031038 -0.06796807 -0.2105307 0.22604343 -0.110018075 -0.08905965 0.2760454 -0.22320223
0.08224684 -0.13063389 0.013874001 0.14940679 -0.11122173 0.060647488 0.04026329 -0.1688227
-0.115958504 0.39260364 -0.2334185 0.15233949 -0.19204795 -0.10419756 -0.18818787 0.22371331
0.07021767 0.14554915 -0.097488314 0.15128125 -0.10390732 -0.063361704 0.11626204 0.20284262
-0.052262504 0.09532804 -0.16693473 -0.24088535 -0.057820648 0.40745872 -0.0802193 0.19296405
-0.09318671 0.05093798 -0.20642439 -0.14585915 -0.0760175 0.19071731 0.09640196 0.23064134
-0.18756706 -0.16157705 -0.047685623 -0.030100018 0.18534303 -0.1514675 -0.0067932904 0.07134807
-0.116243005 0.17950484 -0.06527823 -0.20134556 -0.1194599 -0.14942828 0.049275905 0.1910725
-0.2240954 0.23842022 0.026835382 -0.07403675 -0.10883999 -0.03440225 -0.1816274 0.008601338
-0.23944932 0.2144036 -0.13040647 -0.079832196 0.029462315 0.12174627 -0.0829874 -0.06828874
0.021777973 0.32167062 -0.23294276 0.22121948 0.045708597 -0.09723428 -0.10105606 -0.06488305
-0.13304314 -0.20910037 0.013250583 0.33496717 -0.072154194 0.015732884 0.036325645 -0.09380591
0.18669297 0.14214182 0.0039967853 0.09154236 -0.2025195 -0.081777744 -0.089347124 0.02607143
-0.05358279 0.14583789 -0.123714924 -0.10845766 -0.1956824 -0.008545786 -0.30464277 -0.20438647
0.041770954 0.08151417 -0.31430888 -0.17002356 -0.2044431 0.27768207 0.33364725 -0.20532528
-0.066129625 -0.04617004 -0.092891194 0.1790663 -0.23831446 -0.22470734 0.11677958 0.19062108
-0.08412903 -0.17051232 -0.30109638 -0.024066597 -0.22121859 0.296834 -0.13863248 0.044433028
00000000: cb9c d73d b74e 9d3c d4ac eb3c 7211 b1bd
00000010: 6ac9 453d d439 053e 9eb0 f1bd ea13 1abe
00000020: 82a4 633d 4b5c 293e 461c 35be e059 64bc
00000030: 9c25 773e eca3 c9bd 9526 e63e 142b b73d
00000040: 2bca 233e a76d fb3d 958b ef3d e05d 643d
00000050: 6d92 01be 2aca 45be 8619 1dbe 1aba 783e
00000060: 1470 b53d 12f9 bb3e c4b6 0fbe 7ccb ec3d
00000070: 5e84 32be 8c79 023f bbb7 4d3e 081e e73d
00000080: 999e f73d d66b 843e 6a1b 56be aad6 9cbd
00000090: 6e5e 0bbd f2cc 5dbe 9514 87bc 949c bb3d
000000a0: 387a 9c3e d023 56be 06d7 61be 944b 393e
000000b0: 14f2 06be 504d 0bbd 980f a13e a0b2 123d
000000c0: 32d7 3ebd 675c 24be 5aef 4dbe 04b7 2abe
000000d0: c66e 33be 2eb8 5a3e b267 343e 2ece 3dbe
000000e0: 84f4 21be b60f 06be ba5f 333d 406e e83c
000000f0: d00f 2fbd 7a00 843e 37ad 7d3e 7c5d bcbd
00000100: 8389 5dbe 52be 60be 2f4a 26bc 44b2 76be
00000110: 32c0 6dbe 32ca 66be 2f44 59be 50d4 a3bc
00000120: d366 80bd 54d8 313d ccdc 60be 9036 c5bc
00000130: e49c 7b3e 7051 e63e 9db1 56be 508f 0bbe
00000140: 03b1 943d 1a61 09be 4cd3 5bbc 8c79 b7bd
00000150: 53a0 debc 5874 0fbe b186 563d 2efb 04be
00000160: e660 233e 93f4 5d3c f29a 54be 0089 ee3d
00000170: e81d 07bd a026 f7bc 1cdc 413e daec 5bbe
00000180: 9e69 803e 2f74 a5be 04ac 803e 8419 04be
00000190: cd01 733e c0e8 cf3c d904 5c3e e4b6 fc3d
000001a0: 9472 4bbe e7c2 2c3e 00f1 483e 9853 fcbd
000001b0: 70a6 e2bc 386a f0b7 1525 953e f8af 00bd
000001c0: 454b 453b 5c94 f1bd 62d0 75be 6e44 123e
000001d0: aca4 55be 207b 3c3d 87df 68bd 0e39 093e
000001e0: 2a1e 4dbe d832 8bbd 5c95 57be ee77 673e
000001f0: 2851 e1bd e864 b6bd d355 8d3e 208f 64be
00000200: 0871 a83d e4c4 05be c74f 633c 18fe 183e
00000210: 38c8 e3bd 8069 783d 1feb 243d dcdf 2cbe
00000220: a77b edbd 5803 c93e 4205 6fbe e2fe 1b3e
00000230: 38a8 44be 8865 d5bd 52b4 40be 1a15 653e
00000240: 48ce 8f3d d60a 153e f4a7 c7bd 79e9 1a3e
00000250: 5ccd d4bd c8c3 81bd cb1a ee3d fab5 4f3e
00000260: 3511 56bd 593b c33d f0f0 2abe a6aa 76be
00000270: 58d5 6cbd 6e9e d03e 044a a4bd 5e98 453e
00000280: acd8 bebd 58a4 503d ea60 53be 1a5c 15be
00000290: 10af 9bbd 664b 433e 646e c53d 3e2d 6c3e
000002a0: 9411 40be 7474 25be 0052 43bd 5094 f6bc
000002b0: 90ca 3d3e 4c1a 1bbe 409a debb f01e 923d
000002c0: d010 eebd 1ed0 373e 98b0 85bd 882d 4ebe
000002d0: 64a7 f4bd ba03 19be 88d5 493d 82a8 433e
000002e0: 4479 65be 6e24 743e e0d5 db3c 94a0 97bd
000002f0: 80e7 debd 60e9 0cbd 88fc 39be a0ec 0c3c
00000300: 3432 75be 9e8c 5b3e 4689 05be 107f a3bd
00000310: f45a f13c 1c56 f93d 4cf5 a9bd f8da 8bbd
00000320: b867 b23c 03b2 a43e 8c88 6ebe 5c87 623e
00000330: f038 3b3d c422 c7bd 7bf6 cebd 68e1 84bd
00000340: 763c 08be 681e 56be f918 593c d180 ab3e
00000350: 94c5 93bd 40e2 803c 33ca 143d 501d c0bd
00000360: 712c 3f3e a08d 113e 77f7 823b 907a bb3d
00000370: 4661 4fbe 177b a7bd a0fb b6bd c093 d53c
00000380: a179 5bbd 8756 153e 405e fdbd 0d1f debd
00000390: f860 48be a003 0cbc 23fa 9bbe b04a 51be
000003a0: 0518 2b3d e7f0 a63d 18ed a0be a81a 2ebe
000003b0: 8859 51be 582c 8e3e d0d3 aa3e ca40 52be
000003c0: f86e 87bd cc1c 3dbd bd3d bebd 285d 373e
000003d0: b508 74be ae19 66be 222a ef3d 2c32 433e
000003e0: d74b acbd c89a 2ebe 4e29 9abe 5027 c5bc
000003f0: 2087 62be a0fa 973e acf5 0dbe 68ff 353d

fc1.bias f4 [64]
0.057272524 0.116854414 -0.021082195 0.09096106 0.16779162 -0.08880068 0.3352331 -0.0064390698
0.028460998 -0.047930587 -0.15828308 -0.24085891 0.030610299 -0.08477329 0.30501837 0.25163746
-0.08969381 0.082116805 -0.005901376 -0.11335573 -0.20634048 0.07326439 0.26567602 0.22855432
0.14211659 -0.17126696 0.10882761 0.3359947 0.3737254 0.14684756 -0.12470195 -0.23302698
0.11315264 0.05102875 0.2244567 -0.1792195 -0.12706625 -0.12790714 -0.14364114 -0.065110564
-0.041585747 0.31761286 -0.13575491 -0.20535159 0.31425834 0.1533126 0.09727708 0.2382715
-0.082418956 0.060222577 0.19591399 -0.29053414 -0.009771448 0.039142083 0.2169538 -0.0049800714
0.39674723 0.04336849 0.29130602 0.186689 0.31930488 0.09770068 0.07346495 0.12527232
00000000: 9896 6a3d 5e51 ef3d 91b4 acbc cb49 ba3d
00000010: 91d1 2b3e 22dd b5bd aca3 ab3e d5fe d2bb
00000020: 0a27 e93c dd52 44bd f614 22be b8a3 76be
00000030: 73c2 fa3c 9e9d adbd 5e2b 9c3e a0d6 803e
00000040: 63b1 b7bd db2c a83d 5460 c1bb 0d27 e8bd
00000050: eb4a 53be a40b 963d b006 883e 250a 6a3e
00000060: 0387 113e 9b60 2fbe 03e1 de3d 7f07 ac3e
00000070: f058 bf3e 355f 163e bc63 ffbd a09e 6ebe
00000080: 92bc e73d 8603 513d fad7 653e 5185 37be
00000090: a81d 02be 17fa 02be aa16 13be b058 85bd
000000a0: d155 2abd 279e a23e 5603 0bbe b047 52be
000000b0: 78e6 a03e fafd 1c3e 3539 c73d 72fd 733e
000000c0: 45cb a8bd f3ab 763d ad9d 483e e4c0 94be
000000d0: 6c18 20bc 7353 203d 2329 5e3e de2f a3bb
000000e0: 7422 cb3e 28a3 313d 1026 953e 672b 3f3e
000000f0: ee7b a33e 4b17 c83d cb74 963d 6347 003e

fc2.weight f4 [32, 64]
0.087326914 0.0012909637 0.06621354 -0.046393782 -0.09712436 -0.13005975 0.1710819 0.09931609
0.056728017 -0.110951535 0.1039719 -0.0641443 0.1747346 0.019056663 0.025181342 -0.13241774
-0.05847561 -0.20567562 0.14646618 0.12083047 0.06661473 0.056403667 0.08940313 0.18171634
-0.08526231 0.0108923875 0.28928602 0.14149761 0.15003988 0.066353165 0.06805966 0.09785321
0.24605303 0.1654806 0.057418685 -0.1477419 -0.06417583 -0.15463948 0.12567109 -0.3447508
-0.09649862 0.14198911 -0.015249744 -0.107455604 -0.037362408 0.16603895 -0.14226997 -0.032274984
-0.009543384 0.059921015 0.2526208 -0.22569077 0.08279992 -0.20567359 0.1688238 -0.28602985
0.34894356 0.0036400475 -0.095172636 -0.022538368 0.06656261 0.10435699 -0.100082904 -0.09045476
-0.059740096 0.107367426 -0.015503973 0.058228076 0.019892529 -0.027586415 0.024187401 -0.09990308
0.01116769 -0.0989247 -0.11109264 0.03384459 0.08779088 -0.016528219 -0.027895093 -0.09574883
-0.036644563 0.0641657 0.057624206 0.044259444 0.09191124 -0.12125869 -0.047392428 -0.005154848
-0.037215576 0.073167756 -0.016872868 -0.08805339 0.060006484 0.10529211 0.0032427907 0.032551795
-0.05336128 -0.025120854 0.039158657 -0.110810146 0.09591779 -0.0627422 0.07788624 -0.028256923
0.11867486 -0.07723455 -0.086036325 -0.053497866 0.045640737 -0.08723414 0.065418854 -0.06530471
-0.03585747 0.016672388 0.1157127 0.10206404 0.1005317 -0.013483986 0.045049235 0.03978519
-0.08316702 -0.07309058 0.05732414 -0.057418063 -0.044047996 -0.057420313 0.0663798 0.09866348
-0.21367495 -0.1793278 -0.02973202 -0.042478938 -0.11960243 -0.0034289423 -0.21101579 0.036043927
-0.02079865 -0.032995656 -0.03724706 0.05831331 0.018181792 0.12981908 -0.08332758 -0.019687196
0.028697966 0.10465813 -0.13516045 -0.03696599 0.029212477 0.014881385 -0.08333734 -0.12045493
-0.17702557 0.07592011 -0.12998141 -0.18617232 -0.02300641 0.038672436 0.008072958 0.030281305
0.12057851 -0.20316957 -0.018679317 0.10716045 0.029422656 -0.20678908 0.050925896 0.033844363
-0.0015019382 -0.11247824 -0.07563713 0.010309378 0.082255945 0.057101265 0.1478916 -0.029909473
-0.2895144 0.0288475 -0.153353 -0.046149872 -0.12881729 0.12910332 -0.15928079 -0.01576109
-0.17045441 0.00809878 -0.09180606 0.021718157 -0.00852642 -0.16385022 -0.064644635 -0.00082285126
0.005662799 0.040735766 -0.07037631 0.09190252 0.035240486 -0.10912289 -0.1413135 0.09603483
0.086079344 -0.14328936 0.047500715 0.0710579 -0.12281361 -0.11670344 0.08785628 -0.09908403
-0.05097628 0.092720315 0.040387467 0.052705213 0.08487821 0.09370063 -0.019397458 -0.14721341
0.09161219 -0.08386153 -0.023987636 0.034026265 -0.10423623 0.01786159 -0.11202121 -0.08616963
-0.0833942 -0.01606451 -0.11018589 -0.12385087 -0.019391194 0.060122747 -0.016282067 -0.037377745
0.033041224 0.051925376 0.10201305 -0.020638943 -0.11201391 -0.037924767 0.05130642 -0.08441876
-0.054602087 -0.009874218 -0.020566734 0.12464541 -0.04478243 0.09761221 0.027849028 -0.08867246
0.06981557 0.078079 -0.037183274 0.0059648477 -0.09509133 0.099382125 0.060036015 -0.03910853
00000000: 74d8 b23d 8e35 a93a f79a 873d 6807 3ebd
00000010: 23e9 c6bd 622e 05be 1830 2f3e 3c66 cb3d
00000020: a35b 683d 8f3a e3bd 38ef d43d 165e 83bd
00000030: a1ed 323e b81c 9c3c 1a49 ce3c 8498 07be
00000040: 1f84 6fbd a19c 52be 3bfb 153e f775 f73d
00000050: 4e6d 883d 8807 673d fd18 b73d d913 3a3e
00000060: 029e aebd fc75 323c 4c1d 943e c0e4 103e
00000070: 0ea4 193e 2be4 873d dd62 8b3d 4467 c83d
00000080: 53f5 7b3e bf73 293e db2f 6b3d a749 17be
00000090: 9e6e 83bd d059 1ebe ecaf 003e 2d83 b0be
000000a0: 12a1 c5bd 9865 113e 10da 79bc af11 dcbd
000000b0: 5309 19bd 1d06 2a3e 38af 11be c632 04bd
000000c0: db5b 1cbc bd6f 753d 8357 813e 7b1b 67be
000000d0: 0193 a93d 199c 52be 25e0 2c3e 8172 92be
000000e0: bba8 b23e dd8d 6e3b dfe9 c2bd 62a2 b8bc
000000f0: fa51 883d 1eb9 d53d 44f8 ccbd 5840 b9bd
00000100: 08b2 74bd 74e3 db3d 6004 7ebc 9080 6e3d
00000110: a8f5 a23c e8fc e1bc a824 c63c fc99 ccbd
00000120: b0f8 363c 0899 cabd 8a84 e3bd a0a0 0a3d
00000130: b4cb b33d 3066 87bc 4084 e4bc f617 c4bd
00000140: 9c18 16bd 4e69 833d 5c07 6c3d 6449 353d
00000150: f63b bc3d 7a56 f8bd 901e 42bd 00ea a8bb
00000160: 5c6f 18bd fad8 953d f838 8abc 5655 b4bd
00000170: 5cc9 753d 64a3 d73d 0085 543b 0855 053d
00000180: 5c91 5abd 40ca cdbc d464 203d 6ef0 e2bd
00000190: 8c70 c43d fc7e 80bd d282 9f3d 107b e7bc
000001a0: ce0b f33d 262d 9ebd d033 b0bd 9420 5bbd
000001b0: c8f1 3a3d d0a7 b2bd 52fa 853d 7abe 85bd
000001c0: 48df 12bd 8894 883c c8fa ec3d f406 d13d
000001d0: 90e3 cd3d f0eb 5cbc 8c85 383d ccf5 223d
000001e0: 7853 aabd 84b0 95bd b8cc 6a3d 342f 6bbd
000001f0: ac6b 34bd 9031 6bbd 22f2 873d 1410 ca3d
00000200: 9bcd 5abe b5a1 37be 9190 f3bc 65fe 2dbd
00000210: 1ef2 f4bd 1bb8 60bb 8614 58be cca2 133d
00000220: ee61 aabc 7426 07bd 6090 18bd f0d9 6e3d
00000230: fbf1 943c 4bef 043e a6a7 aabd 0b47 a1bc
00000240: ff17 eb3c 0057 d63d 8067 0abe a669 17bd
00000250: 014f ef3c 0dd1 733c c4ac aabd 13b1 f6bd
00000260: 3146 35be 017c 9b3d d919 05be f5a3 3ebe
00000270: f077 bcbc fd66 1e3d 7144 043c 8010 f83c
00000280: def1 f63d af0b 50be 5e05 99bc f076 db3d
00000290: c807 f13c 84c0 53be ac97 503d 63a0 0a3d
000002a0: afdc c4ba fe5a e6bd a4e7 9abd aae8 283c
000002b0: ce75 a83d 04e3 693d e570 173e b604 f5bc
000002c0: 3b3b 94be 9851 ec3c 9208 1dbe a607 3dbd
000002d0: aee8 03be a933 043e 811a 23be 671d 81bc
000002e0: 9a8b 2ebe bfb0 043c d104 bcbd 47ea b13c
000002f0: 66b2 0bbc 5ac8 27be 6864 84bd 9db4 57ba
00000300: 008f b93b 8cda 263d 7421 90bd 6337 bc3d
00000310: 5458 103d d27b dfbd 7cb4 10be e9ad c43d
00000320: 5e4a b03d 72ba 12be 1c90 423d ce86 913d
00000330: b485 fbbd 3702 efbd feed b33d 91ec cabd
00000340: 81cc 50bd 26e4 bd3d 546d 253d 6ce1 573d
00000350: a1d4 ad3d 1ee6 bf3d 6be7 9ebc 1dbf 16be
00000360: 2c9f bb3d 98bf abbd b881 c4bc 205f 0b3d
00000370: ce79 d5bd 7852 923c 606b e5bd b479 b0bd
00000380: 94ca aabd b899 83bc 24a9 e1bd 86a5 fdbd
00000390: 48da 9ebc 4543 763d f861 85bc 6819 19bd
000003a0: 3c56 073d b4af 543d 38ec d03d 0013 a9bc
000003b0: 8d67 e5bd 0057 1bbd ae26 523d bee3 acbd
000003c0: 70a6 5fbd 79c7 21bc 917b a8bc 1846 ff3d
000003d0: c86d 37bd e9e8 c73d a523 e43c e899 b5bd
000003e0: 77fb 8e3d e2e7 9f3d 7d4d 18bd c574 c33b
000003f0: 3ebf c2bd db88 cb3d 53e8 753d 4430 20bd

fc2.bias f4 [32]
0.20543313 -0.088779315 0.022926442 -0.08267083 0.120749794 -0.0073951953 -0.08516148 0.06459172
0.12436834 0.17037424 -0.003153569 0.09793312 -0.1377588 0.20095405 0.08271316 -0.10784106
0.14679489 -0.0644397 -0.04639843 0.015657628 -0.07245007 -0.10000082 -0.029630786 -0.07796939
-0.081554696 -0.07055971 0.080963984 0.026585653 -0.07911649 0.18781106 0.11127811 0.033665072
00000000: 105d 523e eed1 b5bd 3cd0 bb3c 534f a9bd
00000010: ab4b f73d 6553 f2bb 2469 aebd aa48 843d
00000020: d4b4 fe3d 9676 2e3e 1cac 4ebb 2991 c83d
00000030: a510 0dbe e6c6 4d3e 8465 a93d c6db dcbd
00000040: 6651 163e f6f8 83bd 480c 3ebd 6d44 803c
00000050: b460 94bd 3bcd ccbd 43bc f2bc 6aae 9fbd
00000060: 2606 a7bd 9c81 90bd 72d0 a53d 28ca d93c
00000070: d407 a2bd 8b51 403e c7e5 e33d 63e4 093d

fc3.weight f4 [4, 32]
0.20449927 -0.0751115 0.1344303 0.011995944 0.1352223 0.04165513 0.05205363 -0.02423972
-0.15128109 -0.15562756 -0.033975627 0.20212333 0.10569994 0.17755333 0.044909604 0.021840448
0.11224253 -0.028869864 0.14764343 0.013446812 0.16618776 0.108008035 0.003460314 -0.16156398
0.1028281 0.13978718 0.018063769 -0.17018384 -0.16255812 -0.02538047 0.040541347 -0.09196641
0.20037511 -0.06697497 -0.1515762 0.003888896 0.060507707 0.005674009 0.018052481 0.029740416
0.08022973 0.20257224 0.030578932 0.045375217 -0.19540407 0.1624644 -0.052859932 -0.14819734
0.14748017 -0.14840652 0.05100645 0.049817476 -0.10539081 -0.13156956 -0.14326055 -0.117474705
0.06492865 -0.12104894 -0.016430955 0.00028577118 0.15804912 -0.12263159 -0.1680898 0.108298354
0.018772064 0.07941951 0.08324049 0.045581073 0.09010464 -0.10238795 -0.09409885 0.021450577
0.1391722 -0.087867334 -0.014587159 0.11835169 -0.06166461 -0.057556394 0.21749383 0.095706
0.019871823 -0.04388814 -0.16540225 0.058085416 0.049926113 -0.024444789 0.040505856 0.013104662
-0.012686372 0.02968349 0.092862464 -0.11730372 0.15480831 0.20666915 0.16321826 0.21873842
-0.1309533 -0.056280665 -0.038362425 -0.06116064 0.10720503 0.006912261 0.15663409 -0.13683411
0.06681332 0.025472837 0.20090607 0.031431552 0.20935012 0.18274376 -0.078403436 0.10987313
0.18110469 0.092632584 -0.031160936 0.13157275 -0.10594899 0.14572625 -0.060203295 0.028100252
0.13985096 0.049580377 -0.0048234835 0.10055401 0.023151558 0.11265863 0.2177681 -0.10658652
00000000: 4268 513e 0fd4 99bd 19a8 093e a38a 443c
00000010: b777 0a3e 929e 2a3d 3036 553d 6192 c6bc
00000020: 6ee9 1abe d55c 1fbe 072a 0bbd 6bf9 4e3e
00000030: 3679 d83d 8ad0 353e 22f3 373d bdea b23c
00000040: 69df e53d 7e80 ecbc d72f 173e 0450 5c3c
00000050: 202d 2a3e 5133 dd3d 6fc6 623b 0771 25be
00000060: 8a97 d23d 5f24 0f3e 78fa 933c ac44 2ebe
00000070: a375 26be b4ea cfbc af0e 263d e358 bcbd
00000080: 222f 4d3e 2c2a 89bd cb36 1bbe d9dc 7e3b
00000090: eed6 773d 0aed b93b cce2 933c 2ca2 f33c
000000a0: 7c4f a43d 196f 4f3e ab80 fa3c 5ddb 393d
000000b0: 0118 48be 115d 263e a883 58bd 0bc1 17be
000000c0: 0b05 173e e1f7 17be 24ec 503d 690d 4c3d
000000d0: 23d7 d7bd 2cba 06be e5b2 12be 9496 f0bd
000000e0: 50f9 843d 82e8 f7bd 369a 86bc 8fd3 9539
000000f0: a1d7 213e 4526 fbbd bc1f 2cbe 87cb dd3d
00000100: dfc7 993c b2a6 a23d fd79 aa3d 38b3 3a3d
00000110: c888 b83d c6b0 d1bd e6b6 c0bd 1fb9 af3c
00000120: 2883 0e3e caf3 b3bd fbfe 6ebc 5f62 f23d
00000130: 0894 7cbd 41c0 6bbd b4b6 5e3e 8201 c43d
00000140: 3cca a23c 0dc4 33bd 355f 29be f9ea 6d3d
00000150: 537f 4c3d 7040 c8bc 78e9 253d f0b4 563c
00000160: 80da 4fbc ca2a f33c ad2e be3d ef3c f0bd
00000170: 1286 1e3e 14a1 533e b022 273e f7fc 5f3e
00000180: 9f18 06be 8e86 66bd eb21 1dbd 9483 7abd
00000190: 508e db3d 3f80 e23b b064 203e 3e1e 0cbe
000001a0: 6cd5 883d 69ac d03c 52ba 4d3e 5fbe 003d
000001b0: e15f 563e 2e21 3b3e fb91 a0bd 2a05 e13d
000001c0: 8273 393e 27b6 bd3d 3845 ffbc 02bb 063e
000001d0: c9fb d8bd 4339 153e bb97 76bd 8032 e63c
000001e0: 1735 0f3e cb14 4b3d 500e 9ebb 43ef cd3d
000001f0: 56a8 bd3c 91b9 e63d 9afe 5e3e 094a dabd

fc3.bias f4 [4]
0.22539854 0.04040559 -0.04152964 0.21821767
00000000: e0ce 663e 5580 253d fc1a 2abd 7474 5f3e
