trained_agents/policy_net_CNN_2000.pth (torch, 16224 bytes, 10 tensors)

conv_block1.0.weight f4 [10, 3, 3, 3]
0	0xbc987c8b	-0.018614074
1	0xbe837d86	-0.25681704
2	0x3e26c1fc	0.16284937
3	0xbe065525	-0.13118418
4	0x3b74ce3d	0.0037354373
5	0x3e033c4b	0.12815969
6	0xbccadc98	-0.02476339
7	0x3df9ec26	0.12203245
8	0x3c3b6809	0.011438378
9	0x3e229bd4	0.15879756
10	0xbd0f2d34	-0.03495522
11	0xbd8904fb	-0.06690403
12	0xbde83f81	-0.113402374
13	0x3e16737d	0.14692493
14	0x3e2b36f6	0.16720185
15	0xbe2f513a	-0.17120829
16	0x3e8febf0	0.28109694
17	0x3e88631a	0.26638108
18	0x3e155728	0.14584029
19	0x3dcc3f05	0.099729575
20	0x3d78537f	0.060626503
21	0xbdc363ba	-0.09540506
22	0x3e4e548e	0.20149443
23	0x3d8f48ad	0.06996284
24	0xbbf9bd91	-0.007621475
25	0xbd812a18	-0.06306857
26	0x3d1f3291	0.038866583
27	0xbd2c0208	-0.041994125
28	0x3f1c894e	0.6114701
29	0xbe23e092	-0.16003636
30	0xba6a1f00	-0.0008931011
31	0xbdca1d6f	-0.09868895
32	0xbe2ad12d	-0.16681357
33	0xbc8e4481	-0.01736665
34	0xbd2bb7c2	-0.041923292
35	0xbc2fac64	-0.0107222535
36	0xbe42feb2	-0.19042471
37	0x3f187b29	0.5956293
38	0xbd8c4ca3	-0.06850555
39	0xbb5dcdc0	-0.003384456
40	0xbe401a6b	-0.18760078
41	0xbc8e45f0	-0.017367333
42	0x3b83c924	0.0040217806
43	0xbd02d77e	-0.03194379
44	0xbd94fc78	-0.07274717
45	0xbbaf98a0	-0.0053587705
46	0x3ec71f64	0.38891137
47	0x3d2e3ab8	0.042536467
48	0xbe235bbc	-0.15952963
49	0xbddd88e4	-0.108171254
50	0x3e0359f7	0.12827288
51	0xbdb46930	-0.088091254
52	0xbd62bcca	-0.055355825
53	0x3d28c07c	0.041199192
54	0x3e2bc12e	0.16772911
55	0xbc4bb402	-0.012433054
56	0xbda7ff52	-0.08202995
57	0xbe1af239	-0.15131463
58	0x3e45aaeb	0.19303481
59	0x3ea37ef3	0.31932792
60	0xbe48444a	-0.195573
61	0xbe0bb604	-0.13643652
62	0x3c9c66e9	0.01909204
63	0x3c8b0248	0.016968861
64	0xbe7f2299	-0.24915542
65	0x3c0b064f	0.008485391
66	0xbdca061f	-0.09864449
67	0x3e4cfd84	0.20018584
68	0x3e25c04c	0.16186637
69	0xbdb25a46	-0.087086245
70	0xbd82f81c	-0.06394979
71	0xb9ea9036	-0.00044739404
72	0x3e690d75	0.2275904
73	0xbe0ba294	-0.13636237
74	0xbd0aaa6a	-0.033853926
75	0xbe7219f3	-0.23642711
76	0x3ec16d15	0.37778535
77	0x3e9b3fc9	0.30322102
78	0xbc9cfec9	-0.01916446
79	0xbe4dac90	-0.20085359
80	0xbdd6e972	-0.10493745
81	0xbda5a4ca	-0.08088072
82	0xbe2bb108	-0.16766751
83	0xbd939db8	-0.07207817
84	0xbe13b209	-0.14423384
85	0xbde1d0b6	-0.110261366
86	0xbe2049b0	-0.1565311
87	0xbdd62c52	-0.10457672
88	0x3e241ebf	0.16027354
89	0x3ec82333	0.39089355
90	0xbda32c0c	-0.07967386
91	0xbd069af1	-0.032862607
92	0xbdf93168	-0.121676266
93	0xbde6970c	-0.11259279
94	0xbdd53af3	-0.10411634
95	0xbdaed4a0	-0.08536649
96	0x3e245ef9	0.16051854
97	0x3ee7d7b7	0.45281765
98	0x3e8ef360	0.27920055
99	0xbe2cc6e9	-0.16872753
100	0x3b8a949e	0.0042291423
101	0xbd76b14b	-0.060227674
102	0x3dc67c8a	0.09691723
103	0xbd326128	-0.043549687
104	0xbd4a262c	-0.04935281
105	0xbe399842	-0.18124488
106	0x3ed79764	0.4210769
107	0x3ec565d8	0.38554263
108	0x3e1bc113	0.1521037
109	0xbe60c06e	-0.21948406
110	0xbe3d57bd	-0.18490501
111	0x3d7ddc12	0.061977454
112	0xbd8c65c1	-0.068553455
113	0xbe2c23dc	-0.16810554
114	0x3e7c8682	0.24660686
115	0x3e6109c3	0.2197638
116	0x3e990c55	0.2989222
117	0x3e5951a0	0.21222544
118	0xbd7f0277	-0.06225821
119	0xbe0a2b0e	-0.13492987
120	0xbd65395e	-0.055962913
121	0xbddb6e48	-0.10714394
122	0xbe46c035	-0.19409259
123	0x3dca6f09	0.098844595
124	0x3de04ddd	0.10952351
125	0x3c52cbca	0.01286597
126	0x3d2cf992	0.042230196
127	0xbd95909f	-0.07302975
128	0xbd92b346	-0.071631
129	0x3df26f2a	0.11837609
130	0xbe396f98	-0.18108976
131	0xbe43443f	-0.19069003
132	0x3e586aed	0.21134539
133	0xbd820ee0	-0.063504934
134	0x3d18e6db	0.037329536
135	0x3d5c2abe	0.0537517
136	0xbe285fd6	-0.16442809
137	0x3d3b5f36	0.045745097
138	0x3eb4415a	0.3520611
139	0x3e824b9a	0.25448304
140	0xbe2d6366	-0.16932449
141	0xbdc04a8e	-0.0938922
142	0xbe22b850	-0.15890622
143	0x3ecf5aee	0.4049906
144	0x3d79cc49	0.060985837
145	0x3e0a6827	0.13516293
146	0xbe64470e	-0.2229273
147	0x3eea5f1a	0.45775682
148	0x3eb2db87	0.3493311
149	0xbe006002	-0.12536624
150	0xbda24de7	-0.07925015
151	0xbe2fa088	-0.17151082
152	0x3ee35cc1	0.44406703
153	0x3e19cac1	0.1501875
154	0xbd629920	-0.055321813
155	0xbe748f49	-0.23882784
156	0x3ea4f563	0.32218465
157	0x3de282b3	0.11060085
158	0x3e0145a3	0.1262422
159	0xbe39120b	-0.18073289
160	0xbd099869	-0.033592615
161	0x3e952486	0.29129428
162	0xbdd230b4	-0.10263196
163	0x3e6e3412	0.23262051
164	0xbe2eb0b0	-0.17059588
165	0xbe0ac555	-0.13551839
166	0xbe39ace5	-0.1813236
167	0xbe424bb0	-0.18974185
168	0xbdcec998	-0.10097045
169	0xbe33d6e9	-0.1756245
170	0x3ed23480	0.4105568
171	0x3d53b9a9	0.05169073
172	0x3e5bae8c	0.21453303
173	0xbe00a083	-0.1256123
174	0xbe5c91c3	-0.21539979
175	0xbde73c82	-0.11290838
176	0xbe37e16b	-0.17957084
177	0xbe725f3b	-0.2366914
178	0xbdaeafb0	-0.085296035
179	0x3e777d6e	0.24168941
180	0xbe6bc5de	-0.23024699
181	0x3d9bf8ac	0.0761579
182	0xbd81a13a	-0.0632958
183	0xbdc2c9c2	-0.095111385
184	0xbded8b52	-0.11598839
185	0x3dadf3f6	0.084937975
186	0xbdf8dd22	-0.12151553
187	0xbdc39c64	-0.095513135
188	0x3edbd46e	0.42935508
189	0xbe44b560	-0.19209814
190	0xbd3b0eff	-0.0456686
191	0xbda07f66	-0.07836799
192	0xbe18347a	-0.14863768
193	0x3e2c6b24	0.16837746
194	0x3d89d2dd	0.06729672
195	0x3e9ed77b	0.31023774
196	0x3eb207a1	0.34771445
197	0x3e45f8db	0.19333212
198	0xbdfb2c0e	-0.12264262
199	0xbe1571f6	-0.14594254
200	0xbdb3c6ac	-0.08778128
201	0x3d755cf9	0.05990312
202	0x3e3d622f	0.18494485
203	0xbdbf68c3	-0.093461536
204	0x3dfe584a	0.124191836
205	0x3e0688bf	0.13138102
206	0x3e8a508f	0.27014586
207	0xbda5619d	-0.08075259
208	0xbc7d4fb3	-0.015460896
209	0xbea12e98	-0.3148086
210	0xbe2fcf97	-0.17169033
211	0xbc537d94	-0.012908358
212	0xbe80aa3c	-0.2512988
213	0x3e74aa9c	0.23893207
214	0x3eb0c916	0.34528416
215	0x3e84b535	0.259195
216	0xbdccf592	-0.10007776
217	0xbdf5d184	-0.120028526
218	0xbe210842	-0.15725806
219	0xbd195ff0	-0.03744501
220	0xbcca9fe8	-0.024734452
221	0x3ecc35ae	0.39884704
222	0x3de81478	0.11332029
223	0xbde07c83	-0.10961249
224	0x3ebb539d	0.3658723
225	0xbd792670	-0.060827672
226	0xbe3d295d	-0.1847281
227	0x3e440e4f	0.19146083
228	0xbde0fd90	-0.10985863
229	0xbe2c810a	-0.168461
230	0x3ebab32b	0.3646482
231	0x3dfca9d7	0.12337082
232	0xbc6e2b2c	-0.01453666
233	0x3e29c70c	0.16579837
234	0xbd4b9340	-0.049700975
235	0x3dca95ea	0.09891875
236	0xbd1793b8	-0.03700611
237	0xbe04f739	-0.12984933
238	0xbe68cccf	-0.22734378
239	0x3e4266a3	0.18984465
240	0x3d9d85a1	0.07691503
241	0xbe3d8ccd	-0.18510742
242	0x3dbb27f9	0.091384836
243	0xbe297102	-0.16547015
244	0x3dcaaa16	0.098957226
245	0x3c278200	0.0102238655
246	0xbd884fb6	-0.06655829
247	0xbdebaba3	-0.115073465
248	0xbdef0e5f	-0.11672663
249	0x3cc3cf78	0.02390264
250	0xbc8b0ba8	-0.016973332
251	0x3dfd85a2	0.12379004
252	0xbd6b6b30	-0.05747527
253	0xbcd53400	-0.026025772
254	0x3dd2cb76	0.10292713
255	0x3e18206b	0.14856116

conv_block1.0.bias f4 [10]
0	0x3e356365	0.17713697
1	0xbbc8c5eb	-0.0061271093
2	0x3e3bb7d4	0.18331844
3	0x3dc428ed	0.095781185
4	0x3e60c43f	0.21949862
5	0x3dba1005	0.09085087
6	0x3e2ffa76	0.17185387
7	0x3e615111	0.2200358
8	0x3dc2f2cc	0.09518966
9	0xbe36f0b6	-0.17865261

conv_block1.2.weight f4 [10, 10, 3, 3]
0	0x3e285382	0.16438106
1	0xbc9148ae	-0.017734852
2	0xbb97a6bc	-0.0046280306
3	0x3dcb98a2	0.09941222
4	0xbd0be35f	-0.034152385
5	0x3d92c676	0.0716676
6	0xbe078c07	-0.1323701
7	0x3d56a4f5	0.05240341
8	0x3e795b4f	0.24351238
9	0xbe449a37	-0.19199453
10	0x3d4b088c	0.049568698
11	0xbebc2795	-0.3674895
12	0xbeb6e91e	-0.3572473
13	0xbd3cecae	-0.046124153
14	0x3ced2bc4	0.028951533
15	0x3e4d0d42	0.20024589
16	0xbdb7d473	-0.08976068
17	0xbceef9e5	-0.029171893
18	0x3dc34329	0.09534294
19	0x3c640963	0.013918254
20	0x3dc77a81	0.09740163
21	0x3e3b1ca5	0.18272646
22	0xbd88679e	-0.066603884
23	0x3c1b2adc	0.009470668
24	0x3c49650f	0.012292161
25	0x3e3798be	0.1792936
26	0x3e453e4b	0.19262044
27	0x3e953c01	0.29147342
28	0x3d680ee8	0.05665484
29	0xbda30a32	-0.07960929
30	0x3c5f173f	0.013616382
31	0xbc927455	-0.017877737
32	0x3de503a7	0.11182337
33	0xbd268800	-0.040657043
34	0x3df5a9de	0.1199529
35	0x3e0b55a3	0.13606887
36	0x3df3c528	0.11902839
37	0x3d629bb5	0.055324275
38	0x3d6ba3c5	0.05752923
39	0x3cf88e6b	0.030341348
40	0x3d9e79be	0.07738064
41	0x3d20ba34	0.039240077
42	0x3bc07dd5	0.0058743753
43	0x3de39082	0.11111547
44	0x3e4b1769	0.19833149
45	0xbdbd3a61	-0.092396505
46	0xbeb4d818	-0.35321116
47	0xbe3fc273	-0.1872652
48	0x3e4c68f3	0.1996191
49	0x3e73a472	0.237932
50	0xbe7690cb	-0.24078672
51	0x3e882054	0.26587164
52	0x3e8a4f7f	0.27013776
53	0xba8023c6	-0.0009776286
54	0x3d8dd6e3	0.06925752
55	0x3c5ab883	0.013349655
56	0x3cee590f	0.0290952
57	0xbd4a372e	-0.04936903
58	0x3d1e1377	0.038592782
59	0x3d9ffa96	0.07811467
60	0x3e5de2f0	0.21668601
61	0x3db42638	0.08796352
62	0x3be24196	0.006904791
63	0x3d902881	0.070389755
64	0x3e2af887	0.16696368
65	0x3dd6d512	0.10489859
66	0x3e804ff8	0.2506101
67	0x3d2d4a1e	0.04230701
68	0xbace0c0d	-0.0015720144
69	0xbd37342d	-0.044727493
70	0x3d4991cd	0.049211312
71	0x3dec7829	0.11546356
72	0x3dbbde6e	0.091732845
73	0x3d656bf1	0.056011144
74	0xbd94cb1f	-0.07265305
75	0x3e311f36	0.17297062
76	0x3dfa9796	0.12235944
77	0xbd90dda5	-0.07073525
78	0xbc9fd00f	-0.01950839
79	0x3be8558c	0.007090276
80	0x3e162550	0.14662671
81	0xbccfb1e0	-0.025353372
82	0xbd770ab2	-0.060312934
83	0xbdd1f73e	-0.10252236
84	0xba82a880	-0.000996843
85	0xbd4671f7	-0.04844853
86	0xbd1bfdfc	-0.038084015
87	0xbd9a9171	-0.07547272
88	0xbd73e1b8	-0.059541434
89	0x3ab237c0	0.0013596937
90	0x3d648fc4	0.055801168
91	0x3e1dd73d	0.15414138
92	0xbd145f89	-0.036223922
93	0x3e51cd80	0.20488548
94	0x3d20294d	0.039101887
95	0xbd9cae80	-0.07650471
96	0x3d564f1b	0.052321535
97	0xbdfdd31c	-0.123937815
98	0x3e14d424	0.1453405
99	0x3e834913	0.2564169
100	0x3d95714a	0.07296999
101	0x3f20ffc3	0.6289026
102	0xbda7768d	-0.08176909
103	0x3e0c9d05	0.13731773
104	0xbebdafd0	-0.37048197
105	0xbe3ee461	-0.18641807
106	0xbdeea64c	-0.11652812
107	0xbef8600a	-0.48510772
108	0x3e3a972b	0.18221729
109	0xbd6107f0	-0.05493921
110	0xbc816d11	-0.015799077
111	0x3e19bb40	0.15012836
112	0x3d8ff290	0.07028687
113	0x3d1ac0fb	0.037781697
114	0x3d9a69c3	0.07539704
115	0x3a62226a	0.0008626344
116	0xbc80c396	-0.015718263
117	0x3e3c5109	0.18390287
118	0x3e0220ff	0.127079
119	0xbe0e4dd8	-0.13896883
120	0x3e0e43e0	0.1389308
121	0xbcbbfe0f	-0.022948293
122	0xbca52d2f	-0.020163147
123	0x3c23b712	0.009992378
124	0x3cfc5d85	0.030806312
125	0x3e549a50	0.2076199
126	0x3df1fa34	0.118153006
127	0x3dc1a13f	0.094545834
128	0x3e2b90b5	0.1675442
129	0x3d8d980d	0.06913767
130	0xbd415648	-0.047201425
131	0x3d954e4a	0.07290323
132	0x3d9d3c1c	0.076774806
133	0x3e0763f5	0.13221724
134	0x3c473258	0.012157999
135	0x3e8740cd	0.26416627
136	0x3da0857e	0.078379616
137	0xbcdc0d5a	-0.026861835
138	0x3c59f42d	0.013302845
139	0xbe0dd2eb	-0.1384999
140	0x3e194706	0.149685
141	0x3df9df68	0.122008145
142	0x3e4cacef	0.19987844
143	0xbd567c1f	-0.052364465
144	0x3eb14fea	0.34631282
145	0xbd762648	-0.0600951
146	0x3e1c9f0d	0.15295048
147	0x3d4f4673	0.050604295
148	0xbd170df7	-0.036878552
149	0xbe00b17d	-0.12567706
150	0xbdec4e1e	-0.11538337
151	0x3dc923a7	0.09821253
152	0x3e0d6e83	0.13811688
153	0x3e258e2d	0.16167517
154	0x3d044341	0.0322907
155	0x3e17f564	0.14839703
156	0x3e33573a	0.17513743
157	0x3d91d156	0.07120006
158	0xbd8733e9	-0.06601698
159	0x3d33cd88	0.04389718
160	0xbbd20013	-0.0064087003
161	0x3db5be40	0.08874178
162	0x3e9239bf	0.28559682
163	0xbe57a0c1	-0.21057416
164	0x3e7b9b4b	0.24570958
165	0x3eab4e73	0.3345829
166	0x3ce4eb7f	0.027944325
167	0xbd091228	-0.03346458
168	0xbd1104f2	-0.035405107
169	0x3e33e545	0.17567928
170	0xba76ef4b	-0.00094198127
171	0x3dc46b33	0.09590759
172	0xbda52b42	-0.080648914
173	0xbd42b958	-0.04754004
174	0xbc9c7dec	-0.019103013
175	0x3c00b578	0.0078557655
176	0x3dd1bf47	0.102415614
177	0x3d91f74f	0.071272485
178	0xbc46f3a8	-0.012143053
179	0x3d1530da	0.03642354
180	0x3ca12e19	0.019675301
181	0xbd1b54b4	-0.037922576
182	0xbe055a84	-0.1302281
183	0xbd3de9fc	-0.046365723
184	0x3d709db6	0.058744155
185	0x3c136446	0.008996075
186	0xbd6215de	-0.055196635
187	0xbd4ddb9b	-0.05025826
188	0xbd8b30bb	-0.06796404
189	0x3d83286b	0.064041935
190	0xbc38e558	-0.011285149
191	0xbd977147	-0.07394653
192	0xbd88d7e6	-0.06681804
193	0xbc2e88b8	-0.0106527135
194	0x3d66ef86	0.05638077
195	0xbcc63a50	-0.024197727
196	0xbd5ebf5a	-0.054381706
197	0xbd8f2408	-0.06989294
198	0xbd94419a	-0.07239075
199	0xbe019377	-0.1265391
200	0x3d860b05	0.065450706
201	0xbd933cc2	-0.07189323
202	0xbde1da9f	-0.11028027
203	0xbd6f7085	-0.058456916
204	0xbcea048f	-0.028566627
205	0x3cb0f87e	0.021602865
206	0x3da3c7ff	0.079971306
207	0x3d782482	0.06058169
208	0x3d3b1520	0.045674443
209	0x3dc33723	0.09532001
210	0xbd7752ab	-0.060381573
211	0xbdafd857	-0.085861854
212	0xbdc97170	-0.098360896
213	0xbdc5baf3	-0.09654798
214	0x3d6a8e3d	0.057264555
215	0xbdd8267e	-0.10554217
216	0xbd2e7667	-0.042593386
217	0x3d94beb1	0.07262934
218	0xbdd03192	-0.10165705
219	0xbc4fd275	-0.012684454
220	0xbd05b30b	-0.03264145
221	0xbd2dc404	-0.042423263
222	0x3da3140b	0.07962807
223	0xbd9f958d	-0.077921964
224	0xbd4dd505	-0.05025198
225	0xbd7ea533	-0.062169265
226	0x3d9cc6d9	0.07655115
227	0xbc7d8538	-0.015473656
228	0xbcdb677c	-0.026782744
229	0x3c92cd20	0.017920077
230	0x3d910c59	0.07082433
231	0xbb863093	-0.004095146
232	0x3d4730f2	0.048630662
233	0x3d0191d6	0.03163322
234	0x3d220f5a	0.03956542
235	0x3c4e97b6	0.012609413
236	0x3d816c91	0.063195355
237	0x3d6a803d	0.057251204
238	0x3d4a27d5	0.049354393
239	0x3c9931c2	0.018700484
240	0xbdb09412	-0.08621992
241	0x3daa2069	0.08306963
242	0xbdd86af7	-0.10567277
243	0x3caa0087	0.020752205
244	0x3d808536	0.06275408
245	0xbdca2023	-0.09869411
246	0xbdaeeadb	-0.08540889
247	0x3d991ee5	0.07476596
248	0xbd286e1c	-0.041120633
249	0xbc3073ed	-0.010769826
250	0xbdc0482d	-0.093887664
251	0x3b9d7ae3	0.004805909
252	0xbdbd37ba	-0.092391446
253	0x3c0c3e30	0.0085597485
254	0xbcf0fe6a	-0.02941819
255	0xbd8007da	-0.062514976

conv_block1.2.bias f4 [10]
0	0x3db0214f	0.08600103
1	0x3dce4159	0.10071058
2	0xbdd0f7b6	-0.10203497
3	0xbe025efa	-0.12731543
4	0xbe012eb4	-0.12615472
5	0xbd928fc1	-0.07156325
6	0x3c65fd76	0.014037481
7	0xbe0533ec	-0.13008088
8	0x3da28aed	0.07936654
9	0x3d2d6cff	0.042340275

conv_block2.0.weight f4 [10, 10, 3, 3]
0	0xbe82bfd4	-0.25536978
1	0xbda9e54a	-0.082956865
2	0xbc85dd95	-0.01634101
3	0x3db9919d	0.09060977
4	0x3e039293	0.12848882
5	0xbd0288d0	-0.031868756
6	0xbdd76d40	-0.10518885
7	0xbe24da3a	-0.16098872
8	0xbe2ca017	-0.16857944
9	0xbdc62714	-0.09675422
10	0xbe752022	-0.23938039
11	0x3c836d7c	0.016043417
12	0x3de6ad77	0.112635545
13	0x3da106c6	0.0786262
14	0xbd9b17f3	-0.07572927
15	0xbdee39ba	-0.11632104
16	0xbd47c6db	-0.048773628
17	0x3da82dc5	0.08211855
18	0xbda2a3f5	-0.079414286
19	0xbd7baa2a	-0.061441578
20	0xbdbeffea	-0.093261555
21	0xbd4675c6	-0.04845216
22	0x3dcf1415	0.10111252
23	0xbdcd4700	-0.10023308
24	0x3dc7da71	0.09758461
25	0x3d79f8ce	0.061028294
26	0xbd4a621d	-0.049409974
27	0xbe486f5d	-0.19573732
28	0xbcca8b11	-0.024724515
29	0x3e3c4f75	0.18389685
30	0x3d51fc3b	0.051265936
31	0x3f01d59d	0.50716573
32	0x3e649740	0.22323322
33	0xbdaacff9	-0.08340449
34	0x3dac4ef5	0.08413497
35	0xbddb34b0	-0.10703409
36	0x3d26ea6a	0.0407509
37	0xbcb2b970	-0.02181694
38	0x3db635c4	0.08896974
39	0x3ad09580	0.0015913695
40	0xbd9e2fc7	-0.077239566
41	0xbd9d67c9	-0.07685811
42	0xbd88fcba	-0.06688829
43	0x3dd23aa3	0.1026509
44	0xbc3acf20	-0.0114019215
45	0xbdb1502f	-0.08657872
46	0x3c2d2028	0.010566749
47	0xbd043660	-0.03227842
48	0x3cae1e9c	0.02125483
49	0x3b5615e0	0.0032666847
50	0x3d77f17e	0.06053304
51	0xbdbecd5a	-0.093165115
52	0xbd674a33	-0.056467246
53	0xbd98ff5c	-0.07470581
54	0xbe4b2662	-0.1983886
55	0xbdd2355e	-0.10264085
56	0x395d8f88	0.00021129672
57	0xbc57f168	-0.013180114
58	0x3e359c4b	0.17735402
59	0x3df88609	0.1213494
60	0x3d3741aa	0.044740357
61	0xbdc7d2bb	-0.097569905
62	0xbd471d3d	-0.04861187
63	0x3cf170f4	0.029472806
64	0xbd39ebd0	-0.045390904
65	0xbd84f021	-0.064911135
66	0x3d7df776	0.062003575
67	0xbd03e605	-0.032201786
68	0x3d987cfc	0.07445714
69	0x3d834461	0.064095266
70	0x3c643470	0.013928518
71	0xbd4169ee	-0.047220163
72	0xbd9738c3	-0.07383873
73	0xbdb49519	-0.088175006
74	0x3e28d7bd	0.16488548
75	0xbed4d8cb	-0.4157165
76	0xbc95a78f	-0.018268375
77	0x3b095736	0.0020956523
78	0x3dc17778	0.09446615
79	0x3e53cd32	0.20683745
80	0x3e494dee	0.19658634
81	0xbe25bafb	-0.16184609
82	0xbdc470bf	-0.09591817
83	0xbcb6b4bc	-0.022302978
84	0x3e26a3ba	0.16273394
85	0x3dac82cf	0.08423387
86	0x3e250feb	0.16119353
87	0xbd4ac5e5	-0.049505133
88	0x3ce9edb2	0.028555725
89	0x3d9be527	0.07612067
90	0x3db3a14e	0.08771001
91	0x3d7c7970	0.06163925
92	0x3cb497df	0.022045074
93	0xbc102ddf	-0.008799999
94	0x3d8576de	0.06516813
95	0xbd98dd03	-0.0746403
96	0xbcf148a0	-0.029453576
97	0x3deae573	0.11469545
98	0x3dc5b072	0.09652795
99	0xbd6e8e38	-0.0582411
100	0x3d9b1d6e	0.07573973
101	0xbcba19a5	-0.022717306
102	0x3d16ad99	0.03678665
103	0x3d02b0e8	0.031906992
104	0x3dc25f02	0.094907776
105	0x3e1275f9	0.14302815
106	0x3d45edf9	0.04832265
107	0xbe12c413	-0.14332609
108	0x3974a62c	0.00023331557
109	0xbd7270a8	-0.05918947
110	0x3db446aa	0.088025406
111	0x3d7ecfb7	0.06220981
112	0xbd8d14f8	-0.06888765
113	0x3d9991a4	0.07498482
114	0xbd3759ed	-0.044763494
115	0x3dd99b22	0.10625292
116	0x3dde31fd	0.10849378
117	0xbe82769e	-0.25481123
118	0xbe5d418f	-0.2160704
119	0xbec0dc74	-0.37668192
120	0x3dbafd71	0.09130371
121	0x3dd55654	0.104168564
122	0x3e18a192	0.14905384
123	0x3e25dd5f	0.16197728
124	0x3e49f7f7	0.19723497
125	0x3e0dcde5	0.13848074
126	0x3c15fb28	0.009154119
127	0xbd1f2fbe	-0.03886389
128	0x3db64b3e	0.0890107
129	0xbdcff1db	-0.10153552
130	0x3d014975	0.031564195
131	0xbd074992	-0.033029146
132	0x3d759af2	0.05996222
133	0xbd991a9d	-0.07475779
134	0x3b8b54f0	0.0042520687
135	0x3d074e1e	0.033033483
136	0xbcb1df5f	-0.021712957
137	0x3d887397	0.06662672
138	0x3cab6f7e	0.020927187
139	0x3c3cc94e	0.011522604
140	0xbcf4423c	-0.02981674
141	0x3c9d690e	0.019215133
142	0xbc7bc6fa	-0.015367264
143	0x3dc1c3b4	0.094611555
144	0xbbe7e923	-0.0070773526
145	0x3e62e7dd	0.22158761
146	0xbd89e305	-0.06732754
147	0x3e677553	0.2260335
148	0x3d604810	0.054756224
149	0xba9bdf9a	-0.00118922
150	0xbe313079	-0.17303647
151	0x3d8697f3	0.06571951
152	0x3dbd0407	0.09229284
153	0x3d869975	0.06572238
154	0xbca7fd3d	-0.020506496
155	0xbd7e6e1f	-0.06211674
156	0xbd105d9c	-0.035245523
157	0xbc98fd89	-0.018675582
158	0xbdabbca2	-0.08385588
159	0x3d940ae5	0.072286405
160	0x3dc6a88d	0.09700117
161	0xbd9cd548	-0.07657868
162	0x3d77f3b0	0.060535133
163	0x3e71947a	0.23591796
164	0x3e1786e3	0.14797549
165	0x3e1bdd76	0.152212
166	0x3e26e180	0.16296959
167	0x3e228302	0.15870288
168	0x3d37c53a	0.044865824
169	0x3cad0e47	0.021124972
170	0xbe0eb287	-0.1393529
171	0xbc575609	-0.013143071
172	0x3c0d7864	0.00863466
173	0x3e00ab79	0.12565412
174	0x3e0f0143	0.13965325
175	0x3e00311b	0.12518732
176	0xbdc0512d	-0.09390483
177	0x3cf0e87c	0.029407732
178	0x3df61e51	0.12017501
179	0x3cdf3728	0.02724798
180	0xbd93ea55	-0.0722243
181	0xbd9d6d46	-0.07686858
182	0xbddc5a2e	-0.10759388
183	0xbd3e99ae	-0.04653328
184	0xbdd60766	-0.1045063
185	0xbdfe9f35	-0.1243271
186	0x3d41f3be	0.04735159
187	0xbcf6d880	-0.030132532
188	0xbd35596d	-0.044274736
189	0xbca7280c	-0.020404838
190	0xbe007dce	-0.1254799
191	0xbc79dfdc	-0.015251126
192	0xbd3efa8a	-0.04662565
193	0x3c07e92f	0.008295341
194	0x3ce6ddd5	0.02818195
195	0x3d6ab15a	0.057298042
196	0x3d5bb362	0.05363787
197	0xbcc7bae4	-0.024381109
198	0x3c1d6a28	0.009607829
199	0x3d17ea0e	0.037088446
200	0x3ce7a6e4	0.028277822
201	0x3dae99a1	0.08525396
202	0xbd88c904	-0.06678966
203	0xbc41ccb8	-0.011828594
204	0xbd502cff	-0.05082416
205	0x3b2cc740	0.002636388
206	0x3dabbcc9	0.08385617
207	0xbcc15a30	-0.023602575
208	0xbe0e76b8	-0.13912475
209	0xbe205a1d	-0.15659375
210	0x3c0cfa90	0.008604661
211	0x3ccfdb5e	0.025373157
212	0xbde4fb11	-0.111806996
213	0x3c8f6868	0.01750584
214	0x3d05b54e	0.03264361
215	0x3d57da72	0.05269856
216	0xbc9791c0	-0.018502116
217	0xbdae0d2f	-0.08498608
218	0xbd31c606	-0.04340174
219	0xbdbe0e4a	-0.09280069
220	0xbc479558	-0.012181602
221	0xbc019af0	-0.007910475
222	0x3cd0ca8c	0.025487207
223	0xbd628806	-0.055305503
224	0x3d3695ea	0.044576563
225	0x3d9e2ab7	0.07722991
226	0x3db49791	0.088179715
227	0xbdb47d00	-0.08812904
228	0xbd8c4649	-0.06849343
229	0x3dc314bb	0.095254384
230	0xbdb76e92	-0.089566365
231	0xbd6d9e61	-0.05801237
232	0x3d3590ba	0.044327475
233	0xbd4f6e75	-0.05064245
234	0xbbea92a0	-0.0071585923
235	0xbbcc87ea	-0.006241788
236	0xbd8d3d09	-0.06896407
237	0x3d33d602	0.043905266
238	0xbdf22b41	-0.11824656
239	0xbe28a8a8	-0.16470587
240	0xbd83cf23	-0.064359926
241	0xbd209ee2	-0.039214022
242	0xbd148138	-0.036256045
243	0x3dcd0503	0.100107215
244	0xbce17a94	-0.02752427
245	0x3cbe65ec	0.02324196
246	0xbdab94a8	-0.08377963
247	0xbd1b591e	-0.037926786
248	0x3d6f1eca	0.058378972
249	0xbdd61e2c	-0.104549736
250	0xbcb97964	-0.022640891
251	0xbc9d7530	-0.019220918
252	0x3d7913ca	0.060809888
253	0xbd390cf0	-0.045178354
254	0xbd335786	-0.04378464
255	0x3d7a95ba	0.061177947

conv_block2.0.bias f4 [10]
0	0x3c7aaab5	0.015299489
1	0x3d11bee0	0.035582423
2	0xbdc82e8c	-0.09774503
3	0x3e0ff624	0.14058739
4	0x3db23aed	0.087026455
5	0xbda75bef	-0.08171832
6	0x3d62d869	0.055382166
7	0x3d080da9	0.033216152
8	0x3d9681eb	0.07348999
9	0x3dae1a41	0.08501101

conv_block2.2.weight f4 [10, 10, 3, 3]
0	0xbd6c82d9	-0.057741974
1	0x3a98ceec	0.0011658347
2	0xbd67f4ab	-0.056629818
3	0xbe85fe56	-0.26170605
4	0xbe8472e2	-0.258689
5	0x3d787f86	0.06066849
6	0xbde0de4d	-0.109799005
7	0x3d89121f	0.066929094
8	0x3d0b4f6e	0.034011297
9	0xbd1aa51b	-0.037755113
10	0xbd5da8ac	-0.054115936
11	0xbd5f990b	-0.054589313
12	0x3db0fa92	0.086415425
13	0x3d4be616	0.049779974
14	0xbdbed237	-0.09317439
15	0xbe0c62e3	-0.13709597
16	0xbe3a89dd	-0.18216653
17	0xbd1a47fa	-0.0376663
18	0x3cc804fc	0.02441644
19	0xbc84d280	-0.016213655
20	0x3daee689	0.08540065
21	0x3ce60757	0.028079672
22	0xbdd41f3d	-0.10357521
23	0x3cf730cc	0.030174635
24	0x3c803384	0.015649565
25	0xbdaae760	-0.083449125
26	0xbd1fbb64	-0.03899707
27	0xbe0bf9aa	-0.13669458
28	0x3c735c05	0.014853482
29	0x3d495098	0.049149126
30	0x3e3982ea	0.18116346
31	0x3d2b10a7	0.041763928
32	0xbdf871bd	-0.12131069
33	0xbe547851	-0.20749022
34	0xbe89bfcb	-0.2690414
35	0x3da63181	0.08114911
36	0x3e996db5	0.29966512
37	0xbe143599	-0.14473571
38	0x3d1ce175	0.03830095
39	0xbca4b0fd	-0.020103926
40	0x3e31b047	0.173524
41	0xbde537c2	-0.111922756
42	0xbe52836a	-0.20557943
43	0xbdcad045	-0.099030055
44	0x3d764ed6	0.060133778
45	0x3a1cdb00	0.0005983561
46	0x3d388a1e	0.045053594
47	0xbdd70472	-0.10498895
48	0xbd772f2d	-0.060347725
49	0xbc894dd4	-0.016760744
50	0xbc830360	-0.01599282
51	0x3d1ff692	0.039053507
52	0x3d941567	0.07230645
53	0x3d8f523f	0.06998109
54	0x3d1e0d0f	0.038586672
55	0xbce7c111	-0.028290303
56	0xbc998284	-0.018738993
57	0x3e71701b	0.23577921
58	0x3e34eb40	0.17667866
59	0xbdd5c725	-0.104383744
60	0xbe7d3cbb	-0.24730198
61	0xbe044d99	-0.12920226
62	0x3d65971a	0.056052305
63	0x3e034547	0.12819396
64	0x3d8f025e	0.069828734
65	0x3d8157b1	0.06315554
66	0x3d654396	0.055972658
67	0x3d863228	0.06552535
68	0xbcfe4490	-0.031038553
69	0xbd1d6104	-0.0384226
70	0x3d605506	0.054768585
71	0xbdb66e64	-0.08907774
72	0xbd778ccf	-0.06043702
73	0x3e082cb0	0.13298297
74	0xbc9ebce8	-0.019377187
75	0xbe570df5	-0.21001418
76	0x3e539b40	0.20664692
77	0xbd6dcf69	-0.05805913
78	0xbc5302c1	-0.012879075
79	0xbe3d8ca8	-0.18510687
80	0x3b785600	0.0037893057
81	0x3de9e541	0.1142068
82	0x3c4acd09	0.012377986
83	0xbde2c0ae	-0.11071907
84	0x3e022691	0.12710024
85	0xbdc3399a	-0.09532471
86	0xbdfba529	-0.12287361
87	0xbe451d71	-0.19249512
88	0xbe9e3940	-0.30903053
89	0xbdcf4f74	-0.10122576
90	0xbc57e50c	-0.013177168
91	0xbdf285d5	-0.11841933
92	0xbc015240	-0.007893145
93	0x3dda74fc	0.10666844
94	0x3ca5c531	0.02023563
95	0xbd36119f	-0.0444504
96	0x3e156470	0.14589095
97	0x3dc364e9	0.095407315
98	0xbd48a084	-0.048981205
99	0x3d6ebfae	0.05828827
100	0x3d210021	0.039306764
101	0xbb0bb160	-0.002131544
102	0x3d9d2f93	0.0767509
103	0x3de35aae	0.1110128
104	0xbda7df14	-0.08196846
105	0xbc118f99	-0.008884334
106	0x3e18a85a	0.14907971
107	0x3dc8f202	0.09811784
108	0x3dac238b	0.08405217
109	0xbd2ccc1e	-0.04218685
110	0x3db197e3	0.08671548
111	0xbdd51979	-0.10405249
112	0xbd81f710	-0.063459516
113	0xbd2671be	-0.040635817
114	0xbd9567e3	-0.072952054
115	0xbdb194b2	-0.086709395
116	0x3d02cec6	0.031935476
117	0xbd9fba29	-0.07799179
118	0xbded09a6	-0.11574106
119	0xbdbb8a79	-0.09157271
120	0x3d9db4d0	0.07700503
121	0x3e10ce60	0.14141226
122	0x3da8afea	0.08236678
123	0xbe02293e	-0.12711045
124	0x3d9bf199	0.076144405
125	0x3bdf5068	0.006815005
126	0x3d6f0316	0.058352552
127	0xbde3bf90	-0.11120522
128	0x3d1c1256	0.038103424
129	0xbd379e45	-0.044828672
130	0xbda72d67	-0.08162957
131	0x3de64990	0.112445
132	0xbd0501db	-0.032472473
133	0x3df67453	0.12033906
134	0x3cc64e90	0.024207383
135	0x3d86d139	0.06582875
136	0x3d563952	0.05230076
137	0x3d16e806	0.03684237
138	0xbdd52d38	-0.104090154
139	0xbcb1924e	-0.021676209
140	0x3c23ffd0	0.010009721
141	0xbdd410d8	-0.10354775
142	0xbd32c815	-0.043647844
143	0xbd19bbd4	-0.037532642
144	0x3d27f979	0.0410094
145	0x3d2da48e	0.04239326
146	0xbb3a1c60	-0.002839826
147	0x3dedfad1	0.11620105
148	0x3dde8026	0.10864286
149	0xbe49136b	-0.19636314
150	0xbdbdc63a	-0.09266324
151	0x3cf8f966	0.03039236
152	0x3dc1e3c1	0.09467269
153	0xbcd3d874	-0.025860049
154	0xbcb85ef8	-0.022506222
155	0x3dd10987	0.10206895
156	0x3d1f446a	0.038883604
157	0x3cb1d56c	0.021708213
158	0x3c322718	0.0108735785
159	0xbd8d9965	-0.06914023
160	0x3adbde00	0.0016774535
161	0x3d137a3a	0.036005236
162	0x3b17990a	0.002313199
163	0xbd2cf6ec	-0.04222767
164	0x3d423c12	0.04742057
165	0x3c4a9933	0.012365627
166	0x3d34ec36	0.04417058
167	0x3dcfe23f	0.10150575
168	0x3e264c71	0.16240098
169	0x3e035fc8	0.12829506
170	0xbdedd3e8	-0.116126835
171	0xbc329b61	-0.010901303
172	0x3ca5b060	0.020225704
173	0x3c471360	0.012150615
174	0x3da907c5	0.08253435
175	0x3df58185	0.119875945
176	0xbcb7562c	-0.022379957
177	0xbd3d3f31	-0.046202842
178	0xbcf4f3f0	-0.029901475
179	0xbc90440c	-0.017610572
180	0xbe4d031c	-0.20020717
181	0xbdff4265	-0.124638356
182	0xbded447f	-0.1158533
183	0xbd7f1af2	-0.062281556
184	0xbc8bcc31	-0.01706514
185	0xbbe4fe20	-0.006988302
186	0x3c8e8e63	0.01740188
187	0xbdb84107	-0.08996778
188	0xbdbcb3ac	-0.09213957
189	0xbd4d2769	-0.050086413
190	0x3d6f5c72	0.058437772
191	0x3e080ef1	0.1328695
192	0x3977f398	0.00023646501
193	0x3e35ada9	0.17742027
194	0x3d44fa8c	0.048090503
195	0xbb68aee3	-0.0035504631
196	0xbce4f59d	-0.027949149
197	0xbd8f85b3	-0.07007923
198	0xbd4caccb	-0.049969476
199	0xbdba35b7	-0.090922765
200	0xbd3a2374	-0.045443967
201	0xbc73fae0	-0.014891356
202	0xbd53c991	-0.0517059
203	0xbd6747d4	-0.056464985
204	0x3c43b0f8	0.011944048
205	0xbdad1da6	-0.084529206
206	0x3d809f27	0.06280356
207	0xbcc57c50	-0.024107128
208	0xbdb4f8e3	-0.08836534
209	0x3e2778eb	0.1635472
210	0xbd935427	-0.07193785
211	0xbe293d4c	-0.16527289
212	0x3dd0a3f7	0.10187524
213	0xbc3f3e51	-0.011672572
214	0xbc452c9f	-0.012034564
215	0xbe206341	-0.15662862
216	0xbdd45671	-0.1036805
217	0x3de5d403	0.11222079
218	0x3ccebf03	0.025237566
219	0xbdccd4eb	-0.100015484
220	0x3e235f59	0.15954341
221	0x3d5a614c	0.053315446
222	0x3d2310ac	0.03981082
223	0xbe12cfb2	-0.14337042
224	0xbd924ffb	-0.07144161
225	0x3ceb744c	0.028741978
226	0x3d600316	0.054690443
227	0x3d93efeb	0.07223495
228	0xbcad1ea4	-0.021132775
229	0x3da99b37	0.08281558
230	0xbb859326	-0.0040763794
231	0x3c684330	0.014176175
232	0x3dca6831	0.09883154
233	0xbd6293b6	-0.05531665
234	0xbe128412	-0.14308193
235	0x3e6f6e44	0.23381907
236	0xbdb5ab02	-0.08870508
237	0xbe2c27ac	-0.16812009
238	0xbca6c343	-0.02035678
239	0x3dcb9725	0.09940938
240	0x3d8e5323	0.06949451
241	0xbd4751b9	-0.04866192
242	0x3d8c17e1	0.06840492
243	0x3cb1af4c	0.021690033
244	0x3c08b9b7	0.008345059
245	0xbcfbebbd	-0.030752057
246	0x3ba70930	0.005097531
247	0x3d98d194	0.07461849
248	0x3d2057b5	0.039146144
249	0x3c89d4c0	0.01682508
250	0x3d63507a	0.05549667
251	0x3bc94c10	0.0061431006
252	0xbe3a0cfe	-0.18169019
253	0xbe2d3431	-0.1691444
254	0x3ce94c0c	0.028478645
255	0xbd65362d	-0.05595987

conv_block2.2.bias f4 [10]
0	0x3e2df3ff	0.16987608
1	0x3b2cd83c	0.0026374003
2	0x3e0befc1	0.13665678
3	0x3d0c8717	0.03430852
4	0x3dc01bd3	0.09380307
5	0xbdb6a3d0	-0.089179635
6	0x3d2ff9fd	0.042963017
7	0xbdd4c511	-0.1038915
8	0xbe07dd59	-0.13268031
9	0x3d943603	0.072368644

layer_stack.1.weight f4 [4, 10]
0	0x3ea2a004	0.31762707
1	0xbbae9f27	-0.005329031
2	0x3eb930c1	0.3617001
3	0x3d1bd019	0.038040254
4	0xbd992210	-0.074772
5	0xbe1c05c5	-0.15236576
6	0x3ea630e3	0.32459173
7	0x3d0178a8	0.031609207
8	0xbd2c67ae	-0.042091064
9	0xbeca7723	-0.3954402
10	0xbeec42d8	-0.46144748
11	0x3ed6698e	0.41877407
12	0x3e45349a	0.19258347
13	0x3e3d2b3e	0.18473527
14	0xbd50dafb	-0.050990086
15	0xbe4ce678	-0.20009792
16	0xbe7f3b90	-0.24925065
17	0x3e71c716	0.23611102
18	0xbc89f385	-0.016839752
19	0xbd2f0a6d	-0.042734552
20	0x3d93a51f	0.07209229
21	0x3dc14f8c	0.094390005
22	0x3dca1c89	0.09868724
23	0xbe29a820	-0.16568041
24	0x3e888d0c	0.2667011
25	0xbe416ef0	-0.18889976
26	0xbe466032	-0.19372633
27	0xbd4e0028	-0.050293118
28	0x3cc1c3e0	0.02365297
29	0x3e3b1235	0.18268664
30	0x3d4afafe	0.04955577
31	0x3e8791b8	0.26478362
32	0xbd016367	-0.031588938
33	0x3e6d4a2b	0.23172824
34	0xbe8759fd	-0.26435843
35	0x3e1b0b82	0.15141109
36	0xbe7fc2d7	-0.24976669
37	0x3e875372	0.2643085
38	0x3e2bc98a	0.167761
39	0x3e82c90d	0.25544015

layer_stack.1.bias f4 [4]
0	0x3dd5b58d	0.10435019
1	0x3e42fe4f	0.19042324
2	0xbe8376f4	-0.25676692
3	0x3e8fb637	0.28068706
