trained_agents/policy_net_CNN_400.pth (torch, 16210 bytes, 10 tensors)

conv_block1.0.weight f4 [10, 3, 3, 3]
000000 77 fe bc bc 86 7d 83 be c8 53 4c 3e 3e e5 fe bd
       -0.023070557 -0.25681704 0.19953835 -0.12446068
000010 34 2c 68 3a 71 4d 1e 3e 18 d0 54 3d 26 60 0e 3e
       0.00088566844 0.15459229 0.051956266 0.13903865
000020 24 a8 d6 3b 81 0b 1e 3e 34 2d 0f bd 49 96 f7 bc
       0.0065508056 0.15434076 -0.03495522 -0.030223029
000030 b8 7b da bd 44 88 13 3e d7 46 46 3e 1c 8a c1 bd
       -0.10668129 0.1440745 0.19362961 -0.094501704
000040 ae a0 98 3e a3 e2 85 3e ca c6 10 3e 05 3f cc 3d
       0.2981009 0.26149473 0.14138332 0.099729575
000050 ad 4b c7 3d 23 9f b5 bd 76 69 4b 3e ed 69 c5 3d
       0.09731231 -0.088682435 0.19864449 0.09639344
000060 b0 80 8d 3d a2 ac 3c bd 21 2e 0b 3d 08 02 2c bd
       0.06909311 -0.046063073 0.03397954 -0.041994125
000070 d6 06 14 3f 92 e0 23 be 00 1f 6a ba 6f 1d ca bd
       0.5782293 -0.16003636 -0.0008931011 -0.09868895
000080 2d d1 2a be 81 44 8e bc c2 b7 2b bd 6c 0f ef ba
       -0.16681357 -0.01736665 -0.041923292 -0.0018238849
000090 b2 fe 42 be c3 f8 0f 3f a3 4c 8c bd c0 cd 5d bb
       -0.19042471 0.56238955 -0.06850555 -0.003384456
0000a0 6b 1a 40 be f0 45 8e bc 25 c9 83 3b 7e d7 02 bd
       -0.18760078 -0.017367333 0.004021781 -0.03194379
0000b0 2c c4 82 bd a0 98 af bb 56 1a b6 3e b8 3a 2e 3d
       -0.06385073 -0.0053587705 0.35566968 0.042536467
0000c0 bc 5b 23 be e4 88 dd bd f7 59 03 3e 30 69 b4 bd
       -0.15952963 -0.108171254 0.12827288 -0.088091254
0000d0 ca bc 62 bd 4f 32 4d 3d 09 7c 35 3e 88 44 da 3b
       -0.055355825 0.050096806 0.17723097 0.0066610016
0000e0 35 db 0f be 38 ab bd bd 7d ed 1c 3e 18 07 95 3e
       -0.14048465 -0.09261173 0.1532497 0.29106975
0000f0 5a 53 06 be 31 19 0b be 06 a5 98 3d 6e d5 d8 3c
       -0.13117734 -0.13583829 0.07453351 0.026468959
000100 a4 95 6b be 59 8b 4c bd a8 af 24 bd e0 40 24 3e
       -0.23006302 -0.04993758 -0.04020658 0.16040373
000110 60 d1 08 3e 4f f3 b9 bc b7 be 81 bd 65 35 61 3d
       0.1336112 -0.022699026 -0.06335204 0.05498256
000120 09 c8 72 3e a4 2a f0 bd ea 05 bd bd 14 18 36 be
       0.2370912 -0.11726883 -0.09229644 -0.17782623
000130 86 0e ad 3e 12 c8 8c 3e 12 41 39 3d cb 0f 4d be
       0.33800143 0.27496392 0.04522807 -0.20025556
000140 e0 c0 4a bd b0 16 d3 bc 34 33 16 be 66 0e 2f bd
       -0.049500346 -0.025767654 -0.1466797 -0.04273834
000150 31 cf 12 be 00 99 e0 bd b0 49 20 be 52 2c d6 bd
       -0.1433685 -0.109666824 -0.1565311 -0.10457672
000160 93 d8 1e 3e 7e 56 ba 3e c8 6a ca bc 1d 9f 44 bc
       0.15512304 0.36394113 -0.02470912 -0.012000826
000170 a2 24 bd bd f7 d1 e4 bd f0 03 d4 bd a0 d4 ae bd
       -0.09235503 -0.1117286 -0.103523135 -0.08536649
000180 f9 5e 24 3e 9c 34 e5 3e e7 26 81 3e a8 cc e8 bd
       0.16051854 0.447667 0.25224993 -0.1136716
000190 f5 2d ce 3c 7c 17 fd bc 07 42 c8 3d 3f f2 2f bd
       0.025168398 -0.030894987 0.09778219 -0.042955633
0001a0 2c 26 4a bd 42 98 39 be 5c f4 d4 3e 3a 99 b7 3e
       -0.04935281 -0.18124488 0.4159268 0.3585909
0001b0 c6 67 16 3e 6e c0 60 be bd 57 3d be 5e 6f 8b 3d
       0.14688024 -0.21948406 -0.18490501 0.06808351
0001c0 9f e1 a0 bc dc 23 2c be 51 3b 90 3e da 45 6a 3e
       -0.019638835 -0.16810554 0.28170255 0.22878209
0001d0 f5 aa 8f 3e 62 f8 53 3e 77 02 7f bd 0e 2b 0a be
       0.28060117 0.2070022 -0.06225821 -0.13492987
0001e0 a3 37 4c bd 19 87 6e bd 35 c0 46 be 49 26 09 3e
       -0.049857747 -0.058234308 -0.19409259 0.13393511
0001f0 a1 c5 f2 3d 9c af b2 bb 40 94 17 3d 9f 90 95 bd
       0.11854101 -0.005453063 0.037006617 -0.07302975
000200 46 b3 92 bd 4f f0 fe 3d 5e 59 07 be 3f 44 43 be
       -0.071631 0.12448179 -0.13217685 -0.19069003
000210 87 5a 7c 3e ac 2d 5f bd ca b9 9b 3c 39 ef da 3c
       0.24643908 -0.054486915 0.01900949 0.026725398
000220 d6 5f 28 be 36 5f 3b 3d 30 02 b1 3e 68 bb 89 3e
       -0.16442809 0.045745097 0.3457198 0.26900792
000230 66 63 2d be 1d 6e bc bd e3 81 d0 bd 67 0b ce 3e
       -0.16932449 -0.0920069 -0.10181024 0.40243074
000240 26 1b 0b 3d 27 68 0a 3e 0e 47 64 be f6 1f e7 3e
       0.033961438 0.13516293 -0.2229273 0.45141572
000250 3c 4b ba 3e 02 60 00 be 2c 72 9e bd 7d bf ea bd
       0.36385524 -0.12536624 -0.0773662 -0.11462305
000260 4d 0d e2 3e 7b 3c fc 3d 20 99 62 bd 49 8f 74 be
       0.44150773 0.12316223 -0.055321813 -0.23882784
000270 3b b6 a1 3e db 20 00 3e a3 45 01 3e f7 23 37 be
       0.31584343 0.12512533 0.1262422 -0.17884813
000280 28 e2 bf 3c fb d4 93 3e 75 58 b8 bd 12 7a 51 3e
       0.02342327 0.2887343 -0.09001247 0.20456722
000290 b0 b0 2e be 5d 93 bb bd ed 32 03 be b0 4b 42 be
       -0.17059588 -0.09158967 -0.12812395 -0.18974185
0002a0 86 c9 ce bd e9 d6 33 be b7 82 ca 3e 83 b2 83 3d
       -0.10097031 -0.1756245 0.39552853 0.06430533
0002b0 0a f5 3e 3e 83 a0 00 be e8 98 2f be 08 9c 74 bd
       0.18648162 -0.1256123 -0.17148173 -0.059719115
0002c0 6b e1 37 be 34 5f 72 be b0 af ae bd 2e 1a 68 3e
       -0.17957084 -0.2366913 -0.085296035 0.22666237
0002d0 46 da 5e be 1e 0a 45 3d 3a a1 81 bd 42 a9 51 bd
       -0.21762952 0.04810535 -0.0632958 -0.051186807
0002e0 76 99 80 bd f6 f3 ad 3d 10 dd f8 bd 64 9c c3 bd
       -0.0627927 0.084937975 -0.12151539 -0.095513135
0002f0 c1 22 d4 3e 60 b5 44 be 53 35 32 bd ff 7d 90 bd
       0.41432765 -0.19209814 -0.043507885 -0.07055282
000300 05 32 fb bd e7 ff 41 3e 97 92 1b 3e 40 4c a1 3e
       -0.122654 0.18945275 0.15192638 0.31503487
000310 68 73 b6 3e 05 e2 2b 3e 0e 2c fb bd 92 3b 13 be
       0.35634923 0.16785438 -0.12264262 -0.14378193
000320 dd c6 a3 bd b7 e3 af 3d 68 f6 52 3e 00 ec 10 bc
       -0.079969145 0.08588355 0.20601809 -0.008845329
000330 37 15 04 3e fb 5f 0f 3e 09 8b 7a 3e 9d 61 a5 bd
       0.12898718 0.14001457 0.244671 -0.08075259
000340 fe e8 59 bc 65 2e 9d be 68 34 15 be b4 cb 05 3c
       -0.013300179 -0.3069946 -0.14570773 0.008166242
000350 b7 ac 2a be e5 93 79 3e c1 34 b5 3e be 53 6f 3e
       -0.16667448 0.24372824 0.3539181 0.23371789
000360 92 f5 cc bd 84 d1 f5 bd 42 08 21 be f0 5f 19 bd
       -0.10007776 -0.120028526 -0.15725806 -0.03744501
000370 46 2f bb bc 5c ec cb 3e 90 57 16 3e 0c e6 55 bd
       -0.02284969 0.39828765 0.1468184 -0.052221343
000380 dd 75 a5 3e 70 26 79 bd 5d 29 3d be 4f 0e 44 3e
       0.32316485 -0.060827672 -0.1847281 0.19146083
000390 90 fd e0 bd c2 93 2a be d1 69 ba 3e 20 a1 20 3e
       -0.10985863 -0.16657928 0.36408857 0.15686464
0003a0 48 09 2e 3d 42 19 fc 3d 40 93 4b bd ea 95 ca 3d
       0.04248932 0.12309505 -0.049700975 0.09891875
0003b0 b8 93 17 bd 39 f7 04 be 0f df 66 be e2 d3 41 3e
       -0.03700611 -0.12984933 -0.22546028 0.18928483
0003c0 91 1f e2 3d fd ec 02 be 97 63 47 3d 02 71 29 be
       0.11041177 -0.12785716 0.04867896 -0.16547015
0003d0 16 aa ca 3d 00 82 27 3c b6 4f 88 bd a3 ab eb bd
       0.098957226 0.0102238655 -0.06655829 -0.115073465
0003e0 5f 0e ef bd 78 cf c3 3c a8 0b 8b bc a2 85 fd 3d
       -0.11672663 0.02390264 -0.016973332 0.12379004
0003f0 30 6b 6b bd 00 34 d5 bc 76 cb d2 3d 6b 20 18 3e
       -0.05747527 -0.026025772 0.10292713 0.14856116

conv_block1.0.bias f4 [10]
000000 bd 40 3b 3e 55 82 80 bc 5f 35 2d 3e 70 61 a2 3d
       0.18286414 -0.015687147 0.1691489 0.07928741
000010 b6 b3 61 3e f4 8f d9 3d 75 8a 18 3e 1d 4b 6c 3e
       0.2204121 0.1062316 0.14896567 0.23075528
000020 76 53 b8 3d b6 f0 36 be
       0.09000294 -0.17865261

conv_block1.2.weight f4 [10, 10, 3, 3]
000000 01 03 25 3e 8e ad 38 bd 4f 83 12 bc 5f 66 c5 3d
       0.16114427 -0.04508739 -0.008942439 0.09638666
000010 fe f8 eb bc aa a3 9f 3d e4 f2 02 be 22 11 69 3d
       -0.028805252 0.07794888 -0.12787968 0.056901105
000020 9c b3 66 3e 77 9b 45 be 42 6b ac 3d 84 1f bc be
       0.22529453 -0.19297586 0.08418895 -0.36742795
000030 6b cd b6 be 5d b1 40 bd 38 b3 72 bd 4f 2c 56 3e
       -0.35703596 -0.047044147 -0.059252948 0.2091534
000040 e2 97 ad bd 8b 01 e3 bc c4 fa 37 3d 31 8d cd bc
       -0.08476235 -0.027710697 0.044916883 -0.02509174
000050 02 65 dd 3d 10 0a 3a 3e e7 71 6d bd 0b 1c b9 3c
       0.10810281 0.18167901 -0.057969954 0.02259638
000060 cf cb a3 3c dc d3 30 3e c1 8a 25 3e cf 35 88 3e
       0.019994644 0.17268318 0.16166212 0.26603553
000070 76 26 0f 3d c2 85 ad bd f0 eb 3e 3d 5f 69 3c bc
       0.03494879 -0.08472778 0.046611726 -0.011499732
000080 6f 66 9e 3d 56 f4 09 3b 5c a3 0f 3e 3e f6 d0 3d
       0.077343814 0.0021050177 0.1402716 0.10203217
000090 f9 dd ca 3d e8 b4 33 3d b9 ba 8c 3d 0b 44 22 3d
       0.09905619 0.043873698 0.06871552 0.039615672
0000a0 fd 2a a9 3d 21 d9 64 3d f2 ac 22 3b c0 bc f4 3d
       0.082601525 0.055871133 0.0024822322 0.11950064
0000b0 be 30 59 3e 0d 46 05 be ed 2c ba be c6 30 46 be
       0.2121 -0.13015004 -0.363624 -0.19354543
0000c0 25 50 5f 3e d8 6d 61 3e fe 3d 70 be 67 a1 8a 3e
       0.21807916 0.22014558 -0.23461148 0.27076265
0000d0 bc 13 8c 3e 30 9c 8f 3b 95 22 bd 3c 6c 27 05 3d
       0.27358806 0.0043826327 0.023087779 0.0325083
0000e0 d6 92 b6 3c db 20 12 bb d0 ac 8e 3c 4b f2 94 3d
       0.022286814 -0.0022297415 0.017416388 0.07272776
0000f0 8f 4d 68 3e 4d 7a 85 3d c2 9e 34 bc 8a b8 68 3d
       0.22685836 0.06517468 -0.011024179 0.056816615
000100 99 3c 20 3e 33 93 a6 3d 4c 44 82 3e a1 42 61 3d
       0.15648116 0.08133545 0.2544273 0.054995183
000110 09 73 72 3b 78 d8 2c bd c3 a8 95 3d 7c 9b db 3d
       0.0036994836 -0.04219863 0.07307579 0.10723016
000120 e9 c2 8f 3d 83 74 a7 3c 80 30 b8 bd e1 fb 50 3e
       0.07019598 0.0204413 -0.08993626 0.20408584
000130 5b a3 c5 3d c5 a8 0f bd 29 1e 22 3d f0 79 55 bd
       0.09650298 -0.03507306 0.039579544 -0.05211824
000140 e1 f9 1f 3e e0 b1 cf bc b2 0a 77 bd 3e f7 d1 bd
       0.15622665 -0.025353372 -0.060312934 -0.10252236
000150 80 a8 82 ba f7 71 46 bd fc fd 1b bd 71 91 9a bd
       -0.000996843 -0.04844853 -0.038084015 -0.07547272
000160 b8 e1 73 bd c0 37 b2 3a 09 dc 38 3d 04 98 1a 3e
       -0.059541434 0.0013596937 0.045131717 0.15097052
000170 98 b0 86 bc b0 1b 4e 3e a7 57 23 3d b4 91 21 bd
       -0.016441628 0.2012775 0.039878514 -0.039445594
000180 c2 28 0c 3d 70 64 d4 bd 5e 64 14 3e 35 d6 65 3e
       0.034218557 -0.103707194 0.14491412 0.22444995
000190 dc e0 94 3d 8c c2 fe 3e 39 01 b5 bd 63 60 4a 3e
       0.07269451 0.49757802 -0.08838124 0.19763331
0001a0 e9 a6 bd be 6d 2f 12 be 8e fc 41 be aa 34 f8 be
       -0.37041405 -0.14275904 -0.18943998 -0.4847768
0001b0 f4 77 2f 3e 09 a1 79 bc 02 41 2c bd 20 1d d6 3d
       0.17135602 -0.015236148 -0.042054184 0.10454774
0001c0 a5 8d 1f 3d e0 39 f3 3d a8 97 a6 3d 2f 7c 04 3d
       0.038953442 0.11876273 0.08134395 0.032344993
0001d0 55 4f 31 bd 6e 7d e3 3d 73 65 d3 3d de a9 01 bd
       -0.043288548 0.11107908 0.10322084 -0.03165614
0001e0 16 c0 14 3e 9e 37 7b 3c c6 06 b7 bb a5 ea 9d bb
       0.145264 0.015333084 -0.0055855243 -0.0048192316
0001f0 99 91 21 3d eb f2 4b 3e d2 ae b0 3d 50 95 c6 3d
       0.039445493 0.19916885 0.08627094 0.09696448
000200 39 5e 3a 3e 5a 9c a9 3d d9 a9 1a bd f2 e5 cb 3d
       0.18200006 0.08281775 -0.037759636 0.09955968
000210 08 34 82 3d 5e 68 11 3e 89 bf 7a 3c c6 28 64 3e
       0.063575804 0.14199969 0.015304455 0.22281179
000220 4e 0a 08 3e 31 20 4c 3d 04 33 59 3d 80 2f 3c be
       0.13285181 0.049835388 0.053027168 -0.18377495
000230 06 25 f4 3d ed 45 07 3e 6d f2 55 3e 37 ac f9 bc
       0.11921124 0.13210268 0.2089326 -0.030477626
000240 99 93 81 3e 22 37 2c ba b5 8e 2d 3e 84 a3 72 3d
       0.2530792 -0.0006569495 0.1694897 0.059237972
000250 1c ae 85 bb d9 a9 e8 bd 3c eb ef bd d2 b5 a2 3d
       -0.0040795933 -0.11360521 -0.11714789 0.07944836
000260 b2 ae 0a 3e cb f3 14 3e ea 4e 31 3d 31 69 10 3e
       0.13543203 0.14546125 0.04328815 0.14102627
000270 84 24 2b 3e 40 57 97 3d 4c b8 cf bc 61 b6 00 3d
       0.16713148 0.073896885 -0.025356434 0.03142393
000280 dd dd ad 3b b2 dc c1 3d 31 bf 95 3e 14 cf 1c be
       0.005305989 0.094659224 0.2924743 -0.15313369
000290 90 75 39 3e 0f 23 86 3e 9d f5 53 3d 89 bb 37 3d
       0.18111253 0.26198623 0.051747907 0.04485658
0002a0 a0 ba 00 3b 0b b5 26 3e 18 fa 06 3c 33 6b c4 3d
       0.0019642487 0.1628 0.008238338 0.09590759
0002b0 42 2b a5 bd 58 b9 42 bd ec 7d 9c bc 78 b5 00 3c
       -0.080648914 -0.04754004 -0.019103013 0.0078557655
0002c0 47 bf d1 3d 4f f7 91 3d a8 f3 46 bc da 30 15 3d
       0.102415614 0.071272485 -0.012143053 0.03642354
0002d0 19 2e a1 3c b4 54 1b bd 84 5a 05 be fc e9 3d bd
       0.019675301 -0.037922576 -0.1302281 -0.046365723
0002e0 b6 9d 70 3d 46 64 13 3c de 15 62 bd 9b db 4d bd
       0.058744155 0.008996075 -0.055196635 -0.05025826
0002f0 bb 30 8b bd 6b 28 83 3d 58 e5 38 bc 47 71 97 bd
       -0.06796404 0.064041935 -0.011285149 -0.07394653
000300 e6 d7 88 bd b8 88 2e bc 86 ef 66 3d 50 3a c6 bc
       -0.06681804 -0.0106527135 0.05638077 -0.024197727
000310 5a bf 5e bd 08 24 8f bd 9a 41 94 bd 77 93 01 be
       -0.054381706 -0.06989294 -0.07239075 -0.1265391
000320 05 0b 86 3d c2 3c 93 bd 9f da e1 bd 85 70 6f bd
       0.065450706 -0.07189323 -0.11028027 -0.058456916
000330 8f 04 ea bc 7e f8 b0 3c ff c7 a3 3d 82 24 78 3d
       -0.028566627 0.021602865 0.079971306 0.06058169
000340 20 15 3b 3d 23 37 c3 3d ab 52 77 bd 57 d8 af bd
       0.045674443 0.09532001 -0.060381573 -0.085861854
000350 70 71 c9 bd f3 ba c5 bd 3d 8e 6a 3d 7e 26 d8 bd
       -0.098360896 -0.09654798 0.057264555 -0.10554217
000360 67 76 2e bd b1 be 94 3d 92 31 d0 bd 75 d2 4f bc
       -0.042593386 0.07262934 -0.10165705 -0.012684454
000370 0b b3 05 bd 04 c4 2d bd 0b 14 a3 3d 8d 95 9f bd
       -0.03264145 -0.042423263 0.07962807 -0.077921964
000380 05 d5 4d bd 33 a5 7e bd d9 c6 9c 3d 38 85 7d bc
       -0.05025198 -0.062169265 0.07655115 -0.015473656
000390 7c 67 db bc 20 cd 92 3c 59 0c 91 3d 93 30 86 bb
       -0.026782744 0.017920077 0.07082433 -0.004095146
0003a0 f2 30 47 3d d6 91 01 3d 5a 0f 22 3d b6 97 4e 3c
       0.048630662 0.03163322 0.03956542 0.012609413
0003b0 91 6c 81 3d 3d 80 6a 3d d5 27 4a 3d c2 31 99 3c
       0.063195355 0.057251204 0.049354393 0.018700484
0003c0 12 94 b0 bd 69 20 aa 3d f7 6a d8 bd 87 00 aa 3c
       -0.08621992 0.08306963 -0.10567277 0.020752205
0003d0 36 85 80 3d 23 20 ca bd db ea ae bd e5 1e 99 3d
       0.06275408 -0.09869411 -0.08540889 0.07476596
0003e0 1c 6e 28 bd ed 73 30 bc 2d 48 c0 bd e3 7a 9d 3b
       -0.041120633 -0.010769826 -0.093887664 0.004805909
0003f0 ba 37 bd bd 30 3e 0c 3c 6a fe f0 bc da 07 80 bd
       -0.092391446 0.0085597485 -0.02941819 -0.062514976

conv_block1.2.bias f4 [10]
000000 a4 2b bb 3d 99 1e e1 3d b6 f7 d0 bd e4 2b e6 bd
       0.09139183 0.10992164 -0.10203497 -0.1123884
000010 09 79 8c bd c1 8f 92 bd 21 90 c3 3c ec 33 05 be
       -0.06859023 -0.07156325 0.023872437 -0.13008088
000020 3f 15 b0 3d ce 65 52 3d
       0.08597802 0.05136662

conv_block2.0.weight f4 [10, 10, 3, 3]
000000 3e 8b 51 be a3 10 c0 bd bf ff b8 bc 65 bd 83 3d
       -0.20463273 -0.09378173 -0.022582887 0.064326085
000010 64 71 08 3e 93 d9 27 bd 7e c6 dc bd a0 af 0e be
       0.13324505 -0.04097898 -0.10780047 -0.13934183
000020 f0 96 07 be c1 61 16 bd 02 9f 5a be 62 2f 41 bc
       -0.13241172 -0.03671432 -0.21349719 -0.011791082
000030 37 65 14 3e d1 6a 84 3d 52 db 87 bd dd 16 8e bd
       0.14491735 0.06465686 -0.06633629 -0.069379546
000040 5b c2 1b bd fc aa b1 3d f5 a3 a2 bd 2a aa 7b bd
       -0.03802715 0.08675191 -0.079414286 -0.061441578
000050 ea ff be bd c6 75 46 bd 15 14 cf 3d 00 47 cd bd
       -0.093261555 -0.04845216 0.10111252 -0.10023308
000060 71 da c7 3d ce f8 79 3d 1d 62 4a bd 37 f3 18 be
       0.09758461 0.061028294 -0.049409974 -0.14936529
000070 33 af 51 bd 36 a3 0d 3e 95 dc 1b 3d c7 3f fb 3e
       -0.051192474 0.13831791 0.03805216 0.49072096
000080 6e fb 4f 3e 2b 74 84 bd 3e ae c0 3d ac 9b c8 bd
       0.20310757 -0.0646747 0.09408234 -0.09795317
000090 6a ea 26 3d 70 b9 b2 bc 5b 3f b6 3d 80 95 d0 3a
       0.0407509 -0.02181694 0.08898803 0.0015913695
0000a0 90 21 a1 bd 2c 4a a0 bd ba fc 88 bd a3 3a d2 3d
       -0.0786773 -0.07826647 -0.06688829 0.1026509
0000b0 20 cf 3a bc 2f 50 b1 bd 28 20 2d 3c 60 36 04 bd
       -0.0114019215 -0.08657872 0.010566749 -0.03227842
0000c0 9c 1e ae 3c e0 15 56 3b 7e f1 77 3d 5a cd be bd
       0.02125483 0.0032666847 0.06053304 -0.093165115
0000d0 33 4a 67 bd 5c ff 98 bd 99 97 0f be 46 b3 de bd
       -0.056467246 -0.07470581 -0.14022674 -0.108740374
0000e0 03 e1 0a bc f7 f7 9f 3c 23 92 44 3e 6f 36 d7 3d
       -0.008476499 0.019527419 0.19196372 0.10508429
0000f0 67 23 5b 3d e4 9c d4 bd 59 bb 01 bd f4 70 f1 3c
       0.05350056 -0.10381487 -0.03167281 0.029472806
000100 d0 eb 39 bd 21 f0 84 bd 76 f7 7d 3d 05 e6 03 bd
       -0.045390904 -0.064911135 0.062003575 -0.032201786
000110 fc 7c 98 3d 61 44 83 3d 70 34 64 3c ee 69 41 bd
       0.07445714 0.064095266 0.013928518 -0.047220163
000120 40 a3 88 bc a6 c0 ae bd f5 79 08 3e 16 f3 ab be
       -0.016679406 -0.085328385 0.13327773 -0.33583897
000130 d2 6f ae bc d0 0e 6c 3c 37 0a 8a 3d ac 90 4a 3e
       -0.021293554 0.014407828 0.067402296 0.1978175
000140 da 2b 2c 3e d4 fb d4 bd 6d 64 c9 bd fb 2b 6c bc
       0.16813603 -0.10399595 -0.09833608 -0.014414783
000150 d1 3b 06 3e 27 c8 c0 3d 31 7e 22 3e d2 73 38 bd
       0.13108756 0.09413176 0.1586845 -0.04503233
000160 42 5f 16 3d 6b e7 cc 3d 14 a4 cb 3d 97 b8 60 3d
       0.03671194 0.10005077 0.09943405 0.05486354
000170 d5 94 2f 3d 40 d0 71 3a 4d 8e a2 3d 87 5f 95 bd
       0.042866547 0.0009224452 0.07937298 -0.07293611
000180 da 97 c2 bc 06 5d e3 3d 29 9d c2 3d 94 a4 f5 bc
       -0.02375405 0.11101727 0.09502632 -0.029985704
000190 a2 33 93 3d 9b b7 50 3c 49 22 60 3d 73 62 27 3d
       0.071875826 0.012739087 0.054720197 0.040865373
0001a0 4f 59 b5 3d d1 c7 15 3e e3 0c 5e 3d b5 83 05 be
       0.08854925 0.14627005 0.05421151 -0.13038523
0001b0 2c a6 74 39 a8 70 72 bd aa 46 b4 3d b7 cf 7e 3d
       0.00023331557 -0.05918947 0.088025406 0.06220981
0001c0 f8 14 8d bd a4 91 99 3d ed 59 37 bd 22 9b d9 3d
       -0.06888765 0.07498482 -0.044763494 0.10625292
0001d0 fd 31 de 3d 5e 66 4e be 5a f4 38 be 15 cb 95 be
       0.10849378 -0.20156237 -0.18061963 -0.29256502
0001e0 f9 35 12 3e 08 06 12 3e b8 0e 14 3e 6e e4 3a 3e
       0.14278401 0.14260113 0.1445874 0.18251202
0001f0 7a 53 6d 3e 54 c9 3d 3e 28 fb 15 3c 02 2a 1d bd
       0.23176375 0.18533832 0.009154119 -0.03837014
000200 50 e8 ba 3d db f1 cf bd 76 89 09 3d 27 6a 02 bd
       0.09126341 -0.10153552 0.03357836 -0.031839516
000210 f2 9a 75 3d 9d 1a 99 bd f0 54 8b 3b 1e 4e 07 3d
       0.05996222 -0.07475779 0.0042520687 0.033033483
000220 5f df b1 bc 97 73 88 3d 7e 6f ab 3c 4e c9 3c 3c
       -0.021712957 0.06662672 0.020927187 0.011522604
000230 3c 42 f4 bc 0e 69 9d 3c fa c6 7b bc b4 c3 c1 3d
       -0.02981674 0.019215133 -0.015367264 0.094611555
000240 c5 2a 06 3d 87 0e 40 3e 93 b9 53 bd 42 6b 78 3e
       0.032755632 0.18755542 -0.05169065 0.24259666
000250 13 50 81 3d d0 e4 c5 bc 84 c0 29 be 21 10 75 3d
       0.06314101 -0.024156958 -0.16577345 0.059829835
000260 87 e0 b9 3d 75 99 86 3d 3d fd a7 bc 1f 6e 7e bd
       0.09076028 0.06572238 -0.020506496 -0.06211674
000270 9c 5d 10 bd 89 fd 98 bc a2 bc ab bd e5 0a 94 3d
       -0.035245523 -0.018675582 -0.08385588 0.072286405
000280 8d a8 c6 3d 48 d5 9c bd f6 79 7c 3d b6 dd 5f 3e
       0.09700117 -0.07657868 0.06163975 0.2186192
000290 82 f2 a4 3d 17 e7 1b 3e 63 93 ff 3d d4 a2 13 3e
       0.08054067 0.15224873 0.12479284 0.14417583
0002a0 c1 e1 36 3d ee 58 d2 3c f0 90 0c be cc bb 74 bc
       0.04464889 0.02567717 -0.13727164 -0.014937352
0002b0 1c 4b 19 3c 0e 1c 02 3e 13 f0 0d 3e d1 af 01 3e
       0.009356286 0.12706015 0.13861112 0.12664725
0002c0 3d 5d c8 bd f7 86 16 3d 11 f7 f7 3d 13 95 ef 3c
       -0.09783409 0.036749806 0.12107671 0.029245889
0002d0 55 ea 93 bd 5b 44 a8 bc 8e 4c 53 bd ae 99 3e bd
       -0.0722243 -0.020540407 -0.05158668 -0.04653328
0002e0 76 69 45 bd f2 44 8b bd be f3 41 3d 80 d8 f6 bc
       -0.04819628 -0.0680026 0.04735159 -0.030132532
0002f0 6d 59 35 bd 0c 28 a7 bc 36 b5 8d bd 74 d3 27 3d
       -0.044274736 -0.020404838 -0.06919329 0.04097314
000300 8a fa 3e bd e0 98 84 3d 08 37 ad 3d 5a b1 6a 3d
       -0.04662565 0.06474471 0.08457762 0.057298042
000310 62 b3 5b 3d e4 ba c7 bc 28 6a 1d 3c 0e ea 17 3d
       0.05363787 -0.024381109 0.009607829 0.037088446
000320 e4 a6 e7 3c a1 99 ae 3d 04 c9 88 bd b8 cc 41 bc
       0.028277822 0.08525396 -0.06678966 -0.011828594
000330 ff 2c 50 bd 40 c7 2c 3b c9 bc ab 3d 30 5a c1 bc
       -0.05082416 0.002636388 0.08385617 -0.023602575
000340 65 14 aa bd 30 db cd bd 90 fa 0c 3c b1 81 a7 3d
       -0.08304671 -0.10051572 0.008604661 0.081790335
000350 f4 3b 6e bd 68 68 8f 3c 4e b5 05 3d 72 da 57 3d
       -0.058162645 0.01750584 0.03264361 0.05269856
000360 c0 91 97 bc 2f 0d ae bd 06 c6 31 bd 4a 0e be bd
       -0.018502116 -0.08498608 -0.04340174 -0.09280069
000370 58 95 47 bc f0 9a 01 bc 8c ca d0 3c 06 88 62 bd
       -0.012181602 -0.007910475 0.025487207 -0.055305503
000380 ea 95 36 3d b7 2a 9e 3d 91 97 b4 3d 00 7d b4 bd
       0.044576563 0.07722991 0.088179715 -0.08812904
000390 49 46 8c bd bb 14 c3 3d 92 6e b7 bd 61 9e 6d bd
       -0.06849343 0.095254384 -0.089566365 -0.05801237
0003a0 ba 90 35 3d 75 6e 4f bd a0 92 ea bb 35 e4 4c 3d
       0.044327475 -0.05064245 -0.0071585923 0.050022323
0003b0 77 25 53 bc 02 d6 33 3d 0d 2b 7d bd ab 91 de bd
       -0.01288735 0.043905266 -0.061808635 -0.10867628
0003c0 23 cf 83 bd e2 9e 20 bd 38 81 14 bd 03 05 cd 3d
       -0.064359926 -0.039214022 -0.036256045 0.100107215
0003d0 94 7a e1 bc ec 65 be 3c a8 94 ab bd 1e 59 1b bd
       -0.02752427 0.02324196 -0.08377963 -0.037926786
0003e0 ca 1e 6f 3d 2c 1e d6 bd 64 79 b9 bc 30 75 9d bc
       0.058378972 -0.104549736 -0.022640891 -0.019220918
0003f0 ca 13 79 3d 09 bc 37 3c f7 63 4d 3c ba 95 7a 3d
       0.060809888 0.011214265 0.0125360405 0.061177947

conv_block2.0.bias f4 [10]
000000 14 3b ad 3c 9b ce f9 3c e3 9c 34 bd 80 b4 05 3e
       0.021146335 0.030494025 -0.04409493 0.13057137
000010 29 90 a9 3d b4 35 7a bd 5d 06 47 3d a9 0d 08 3d
       0.082794495 -0.06108637 0.048590053 0.033216152
000020 3c 23 66 3d a7 28 a7 3d
       0.056185946 0.08162051

conv_block2.2.weight f4 [10, 10, 3, 3]
000000 18 9f aa bd 06 68 46 bd ab f4 67 bd 9a 5f 93 be
       -0.08331126 -0.04843905 -0.056629818 -0.28783876
000010 12 73 84 be 86 7f 78 3d 4d de e0 bd 1f 12 89 3d
       -0.25869042 0.06066849 -0.109799005 0.066929094
000020 6e 4f 0b 3d bf 65 42 bd 40 a8 89 bd 0b 99 5f bd
       0.034011297 -0.047460314 -0.06721544 -0.054589313
000030 08 c8 9a 3d 33 c1 10 3d 37 d2 be bd e3 62 0c be
       0.07557684 0.0353405 -0.09317439 -0.13709597
000040 dd 89 3a be fa 47 1a bd fc 04 c8 3c 80 d2 84 bc
       -0.18216653 -0.0376663 0.02441644 -0.016213655
000050 89 e6 ae 3d 53 91 2f 3d 3d 1f d4 bd cc 30 f7 3c
       0.08540065 0.0428632 -0.10357521 0.030174635
000060 84 33 80 3c 60 e7 aa bd 64 bb 1f bd b3 9c b7 bd
       0.015649565 -0.083449125 -0.03899707 -0.08965435
000070 31 98 4f 3b 98 50 49 3d 24 b5 40 3e ea 36 16 3d
       0.0031676407 0.049149126 0.188191 0.036673464
000080 bd 71 f8 bd 51 78 54 be cb bf 89 be 81 31 a6 3d
       -0.12131069 -0.20749022 -0.2690414 0.08114911
000090 46 03 8c 3e df d4 04 be 75 e1 1c 3d 5f b4 44 bc
       0.27346247 -0.12971829 0.03830095 -0.012005894
0000a0 e6 91 2b 3e c2 37 e5 bd 6a 83 52 be 45 d0 ca bd
       0.16754875 -0.111922756 -0.20557943 -0.099030055
0000b0 d6 4e 76 3d 00 db 1c 3a 1e 8a 38 3d 72 04 d7 bd
       0.060133778 0.0005983561 0.045053594 -0.10498895
0000c0 2d 2f 77 bd c9 b4 84 bd 60 03 83 bc 92 f6 1f 3d
       -0.060347725 -0.064797945 -0.01599282 0.039053507
0000d0 67 15 94 3d 3f 52 8f 3d ad d2 ae 3c 4d 14 19 bd
       0.07230645 0.06998109 0.021340692 -0.037372876
0000e0 84 82 99 bc b4 f9 82 3e 96 e8 37 3e 25 c7 d5 bd
       -0.018738993 0.25581133 0.17959818 -0.104383744
0000f0 bb 3c 7d be 99 4d 04 be 1a 97 65 3d 47 45 03 3e
       -0.24730198 -0.12920226 0.056052305 0.12819396
000100 5e 02 8f 3d b1 57 81 3d 96 43 65 3d 28 32 86 3d
       0.069828734 0.06315554 0.055972658 0.06552535
000110 90 44 fe bc 04 61 1d bd 06 55 60 3d 64 6e b6 bd
       -0.031038553 -0.0384226 0.054768585 -0.08907774
000120 b3 e4 b2 bd c9 6e f6 3d e8 bc 9e bc fb 9d 82 be
       -0.08735027 0.12032849 -0.019377187 -0.25511155
000130 33 f1 33 3e 69 cf 6d bd c1 02 53 bc a8 8c 3d be
       0.17572479 -0.05805913 -0.012879075 -0.18510687
000140 00 56 78 3b db 43 e5 3d f6 54 53 3b ae c0 e2 bd
       0.0037893057 0.11194583 0.0032246686 -0.11071907
000150 d1 ee 07 3e 7a 3b bf bd 29 a5 fb bd 71 1d 45 be
       0.13274695 -0.09337516 -0.12287361 -0.19249512
000160 40 39 9e be 74 4f cf bd 0c e5 57 bc d5 85 f2 bd
       -0.30903053 -0.10122576 -0.013177168 -0.11841933
000170 40 52 01 bc de 25 e5 3d 9a a8 0c bd bb b9 32 bd
       -0.007893145 0.11188863 -0.03434048 -0.043634158
000180 d3 d9 01 3e 26 f3 e2 3d 84 a0 48 bd ae bf 6e 3d
       0.1268075 0.11081533 -0.048981205 0.05828827
000190 21 00 21 3d 60 b1 0b bb be ee a7 3d 7d 75 ea 3d
       0.039306764 -0.002131544 0.08199833 0.1144819
0001a0 ab a0 95 bd 60 d8 8a bb 50 e2 08 3e ee 07 db 3d
       -0.073060356 -0.0042372197 0.13367581 0.10694872
0001b0 8b 23 ac 3d 1e cc 2c bd e3 97 b1 3d 79 19 d5 bd
       0.08405217 -0.04218685 0.08671548 -0.10405249
0001c0 10 f7 81 bd be 71 26 bd e3 67 95 bd 53 f5 bf bd
       -0.063459516 -0.040635817 -0.072952054 -0.09372964
0001d0 c6 ce 02 3d 29 ba 9f bd a6 09 ed bd 79 8a bb bd
       0.031935476 -0.07799179 -0.11574106 -0.09157271
0001e0 93 2d bc 3d 2b be 14 3e 68 69 b9 3d d0 fb 0d bd
       0.0918838 0.14525668 0.09053308 -0.034663975
0001f0 49 12 a5 3d 37 cb 67 3c 16 03 6f 3d 90 bf e3 bd
       0.08060128 0.014147571 0.058352552 -0.11120522
000200 56 12 1c 3d 6d 4a 0a bd 67 97 ff bc e2 ed f6 3d
       0.038103424 -0.033762384 -0.031200124 0.12057091
000210 eb 95 90 bc bd 60 a0 3d 74 2a 01 3d 39 d1 86 3d
       -0.017649611 0.07830951 0.031534627 0.06582875
000220 52 39 56 3d 06 e8 16 3d 38 2d d5 bd 4e 92 b1 bc
       0.05230076 0.03684237 -0.104090154 -0.021676209
000230 d0 ff 23 3c d8 10 d4 bd 2c f4 26 bd d4 bb 19 bd
       0.010009721 -0.10354775 -0.040760204 -0.037532642
000240 79 f9 27 3d 8e a4 2d 3d 60 1c 3a bb bf ae f0 3d
       0.0410094 0.04239326 -0.002839826 0.1175208
000250 8f 36 a3 3d 8b 2d 49 be e9 80 d1 bd 5e 60 ce 3c
       0.079693906 -0.1964628 -0.10229666 0.025192436
000260 a9 b2 cc 3d 74 d8 d3 bc f8 5e b8 bc 87 09 d1 3d
       0.09995014 -0.025860049 -0.022506222 0.10206895
000270 6a 44 1f 3d 6c d5 b1 3c 18 27 32 3c 65 99 8d bd
       0.038883604 0.021708213 0.0108735785 -0.06914023
000280 00 de db 3a 3a 7a 13 3d 0a 99 17 3b ec f6 2c bd
       0.0016774535 0.036005236 0.002313199 -0.04222767
000290 12 3c 42 3d 66 cf 48 bc 64 89 18 bc fb 0b e6 3d
       0.04742057 -0.012256479 -0.0093101 0.11232754
0002a0 80 68 22 3e 0e 71 c5 3d db 0a ee bd 61 9b 32 bc
       0.15860176 0.09640704 -0.11623164 -0.010901303
0002b0 60 b0 a5 3c 60 13 47 3c 21 69 6b 3d 6f 90 08 3e
       0.020225704 0.012150615 0.057473306 0.13336347
0002c0 58 28 67 bc 73 42 30 bd 95 64 3a bd 04 f6 80 bb
       -0.01410874 -0.04303212 -0.04550608 -0.0039355773
0002d0 ba 48 a1 bd f7 cc d2 bd a2 5e d6 bd 2a da 63 bc
       -0.078751996 -0.10293 -0.104672685 -0.013906995
0002e0 61 a9 01 3b 12 73 e5 bb 63 8e 8e 3c 07 41 b8 bd
       0.0019784796 -0.007002243 0.01740188 -0.08996778
0002f0 ac b3 bc bd 89 1f 92 3d 60 ad ab 3d 97 57 10 3e
       -0.09213957 0.07134921 0.08382678 0.14095913
000300 3b ab 75 3c 83 db 20 3e a2 fe b2 3c e3 ae 68 bb
       0.014994438 0.15708737 0.021849934 -0.0035504631
000310 9d f5 e4 bc b3 85 8f bd cb ac 4c bd b7 35 ba bd
       -0.027949149 -0.07007923 -0.049969476 -0.090922765
000320 74 23 3a bd e0 fa 73 bc 06 72 42 bd d4 47 67 bd
       -0.045443967 -0.014891356 -0.047472022 -0.056464985
000330 f8 b0 43 3c a6 1d ad bd 27 9f 80 3d 50 7c c5 bc
       0.011944048 -0.084529206 0.06280356 -0.024107128
000340 51 e6 72 bd 80 c0 21 3e 27 54 93 bd 0d 6a f7 bd
       -0.059301678 0.15796089 -0.07193785 -0.120807745
000350 e7 5f b0 3d 51 3e 3f bc 9f 2c 45 bc 41 63 20 be
       0.08612042 -0.011672572 -0.012034564 -0.15662862
000360 71 56 d4 bd 6e b1 f5 3d 0e 04 24 3d d9 a0 96 bd
       -0.1036805 0.11996733 0.04004293 -0.07354898
000370 e5 84 0d 3e f1 59 9d 3c ac 10 23 3d b2 cf 12 be
       0.13820226 0.019207926 0.03981082 -0.14337042
000380 fb 4f 92 bd 4c 74 eb 3c 16 03 60 3d eb ef 93 3d
       -0.07144161 0.028741978 0.054690443 0.07223495
000390 a4 1e ad bc 37 9b a9 3d 2a 5e 3d bd 30 43 68 3c
       -0.021132775 0.08281558 -0.04623238 0.014176175
0003a0 31 68 ca 3d b6 93 62 bd 48 93 b4 bc f5 72 4d 3e
       0.09883154 -0.05531665 -0.022042885 0.20063384
0003b0 87 63 bc bd af c1 83 bd b5 69 34 bd a3 a3 87 3d
       -0.09198671 -0.064334266 -0.044046123 0.06623008
0003c0 23 53 8e 3d b9 51 47 bd e1 17 8c 3d 4c af b1 3c
       0.06949451 -0.04866192 0.06840492 0.021690033
0003d0 b7 b9 08 3c bd eb fb bc 30 09 a7 3b 94 d1 98 3d
       0.008345059 -0.030752057 0.005097531 0.07461849
0003e0 b5 57 20 3d c0 d4 89 3c 7a 50 63 3d 10 4c c9 3b
       0.039146144 0.01682508 0.05549667 0.0061431006
0003f0 71 e2 77 bd 36 9e 33 bd c9 e9 13 bb 84 3a 1d 3d
       -0.060518686 -0.043852054 -0.0022569767 0.038385883

conv_block2.2.bias f4 [10]
000000 8e 98 25 3e dd c4 94 bb f3 05 fb 3d a9 c7 0c 3d
       0.16171476 -0.0045400695 0.12256994 0.0343701
000010 77 fb a5 3d d0 a3 b6 bd fd f9 2f 3d 06 c5 d4 bd
       0.08104604 -0.089179635 0.042963017 -0.10389142
000020 59 dd 07 be 61 0b 92 3d
       -0.13268031 0.071310766

layer_stack.1.weight f4 [4, 10]
000000 a7 5b 83 3e 2b e2 51 3c d1 f4 9f 3e 24 cb 1b 3d
       0.25655863 0.01281027 0.31241468 0.038035527
000010 e9 7a 20 bc c5 05 1c be e3 30 a6 3e a8 78 01 3d
       -0.009794929 -0.15236576 0.32459173 0.031609207
000020 ae 67 2c bd 54 2e ca be d4 83 00 bf 21 0f d8 3e
       -0.042091064 -0.3948847 -0.50201154 0.42199042
000030 c2 41 41 3e a3 ed 3c 3e 61 f0 84 bd 78 e6 4c be
       0.18872741 0.18450026 -0.06491161 -0.20009792
000040 90 3b 7f be 16 c7 71 3e 85 f3 89 bc e6 6c 15 bd
       -0.24925065 0.23611102 -0.016839752 -0.036480807
000050 cd 94 00 3e 14 32 11 3e 3b c0 25 3e c1 a8 29 be
       0.12556763 0.1417926 0.16186611 -0.16568281
000060 e6 66 70 3e f0 6e 41 be 32 60 46 be 28 00 4e bd
       0.23476753 -0.18889976 -0.19372633 -0.050293118
000070 e0 c3 c1 3c 65 2c 0a 3e 24 8c 8a 3b 5e 52 70 3e
       0.02365297 0.13493498 0.004228132 0.2346892
000080 27 e0 12 bd 83 5c 6d 3e 5d d2 36 be 82 0b 1b 3e
       -0.0358583 0.23179822 -0.17853685 0.15141109
000090 d7 c2 7f be 72 53 87 3e 8a c9 2b 3e ce 53 86 3e
       -0.24976669 0.2643085 0.167761 0.26235813

layer_stack.1.bias f4 [4]
000000 b5 41 fe 3d 56 01 31 3e d9 42 6c be 0c 60 87 3e
       0.12414876 0.17285666 -0.23072375 0.26440465
