trained_agents/policy_net_CNN_800.pth (torch, 16210 bytes, 10 tensors)

conv_block1.0.weight f4 [10, 3, 3, 3]
000000 e0 64 66 3e 39 41 61 3e a4 e2 2e 3e 53 cf 33 be
       0.22499418 0.21997537 0.17078644 -0.17559557
000010 9a f4 4c 3e e8 98 c6 bd ec e2 8d bd 95 66 09 bb
       0.20015183 -0.09697133 -0.069280475 -0.0020965685
000020 ed b9 16 be 5b 1e 2c 3e 3f da 09 3d bc 08 7d 3e
       -0.14719363 0.16808455 0.0336554 0.24710363
000030 9c 29 2d 3d 73 af 02 3e 35 9f 04 be c0 3b 5d bc
       0.04227601 0.12762241 -0.12951358 -0.013503015
000040 f2 11 24 be 44 ce 48 bd c2 8e 81 3e d8 fb 4f 3e
       -0.1602247 -0.049024835 0.25304228 0.20310915
000050 5f 96 2e 3e 45 61 92 bd 1b 64 ba 3d 7b 47 af bc
       0.1704955 -0.07147459 0.09101125 -0.02139639
000060 a3 95 e9 bd 57 71 f0 3c f2 d3 a4 bd fa bf b2 3d
       -0.11405494 0.02935092 -0.08048238 0.08728023
000070 94 26 36 bc 10 17 e2 3c 59 19 a8 3d ab c6 a0 3d
       -0.011117596 0.027598888 0.0820796 0.07850393
000080 17 16 e0 bd 58 78 06 be 6a 6f e7 3d 28 d2 00 3d
       -0.10941713 -0.13131845 0.113005474 0.03145042
000090 d0 71 05 bd 4a b0 12 3d 70 7d 8d 3d ed 7a c6 bd
       -0.032579243 0.035812654 0.06908691 -0.09691415
0000a0 6c 75 d0 3b 05 ca 37 be 9f e4 dc bd d0 06 46 bd
       0.006361654 -0.17948158 -0.107857935 -0.04834634
0000b0 f4 8e 1a be e0 ca 23 bd 64 34 9d 3d e2 59 5f bc
       -0.15093595 -0.0399884 0.07676008 -0.01363227
0000c0 95 7e 69 bd 1b 32 34 3d e1 f6 0b 3e aa 3f a0 3d
       -0.057005484 0.043993097 0.13668396 0.07824643
0000d0 f5 44 0c be ac 48 13 be d0 eb 9a 3e 9a 01 06 3e
       -0.1369818 -0.14383191 0.30258036 0.13086548
0000e0 2b 8d c5 3e 4a a0 9f 3d 84 14 64 be 54 ea 00 be
       0.38584265 0.077942446 -0.22273451 -0.12589389
0000f0 5d 0d dd 3e b5 34 27 be ab ab 49 3e a4 c3 98 bc
       0.43174258 -0.163287 0.19694392 -0.018647976
000100 0b 8b f1 3d e5 a6 6b 3e ff 23 db bd 7f e8 c3 3d
       0.117940985 0.23012884 -0.10700225 0.095658295
000110 0e da 2b be 49 cc a9 3d fe 8d 83 ba 29 46 07 3e
       -0.167824 0.082909174 -0.0010036824 0.13210358
000120 18 79 85 3e 4d 66 44 3e a5 57 a3 3e 7c e4 a2 bd
       0.2606895 0.1917965 0.31902805 -0.07953736
000130 19 11 eb bd 04 ad 78 bd f2 11 4c 3e 29 a6 29 be
       -0.114778705 -0.060711876 0.1992872 -0.16567291
000140 fe bf ba bd e6 20 ff bd 3e 55 82 3e e5 a5 06 3e
       -0.09118651 -0.12457447 0.2545566 0.13149221
000150 8e f4 4d 3d a5 65 00 be 0c 9f 28 3e 29 d6 9c 3e
       0.050282054 -0.12538774 0.16466922 0.3063214
000160 b4 ac ff bd 9a 87 36 be a3 c7 29 3d 0f 48 59 3e
       -0.124841124 -0.17825165 0.041450154 0.21218894
000170 60 42 4e be 2e 40 11 be 47 bb bf bd 0f 22 3d bd
       -0.20142508 -0.14184639 -0.09361892 -0.04617506
000180 d7 ff 46 3c 5e 9d 6a 3d 9d a9 b0 3d c5 7b 3e be
       0.012145958 0.057278983 0.08626101 -0.18601902
000190 d3 f7 1d 3d 7d ec 20 3e 55 36 7a bd 9b 9e 86 bd
       0.03856642 0.15715213 -0.06108697 -0.0657322
0001a0 10 d6 e5 bb 21 b3 d3 3d 6a f9 50 be 76 c0 0d be
       -0.0070140436 0.103369005 -0.20407644 -0.1384295
0001b0 cc 5b 3a bd 4d f9 03 3e c1 31 66 be 99 a9 4d be
       -0.0454977 0.1288807 -0.22479917 -0.20084228
0001c0 8d b0 2c be 1d ef 7d be 47 ce 0c 3f 44 66 e7 3e
       -0.16864224 -0.24798246 0.55002254 0.4519521
0001d0 dc 01 7e be 95 b6 01 bd a6 56 d3 bd 31 00 bb bd
       -0.24805397 -0.031668264 -0.10319261 -0.09130896
0001e0 0f 44 1a 3d fa 46 86 3d eb a7 8c 3d a9 e6 a3 3e
       0.037662562 0.065565065 0.06867965 0.32011917
0001f0 72 ec 82 3e 50 ad 80 bd e4 61 0b be 8c 27 15 be
       0.25571018 -0.06283057 -0.13611561 -0.14565867
000200 20 9e 4a 3c e5 58 33 be 54 64 a6 ba d7 0f 89 bd
       0.0123668015 -0.1751438 -0.0012694695 -0.06692474
000210 6a dc 02 3f 22 f4 4f 3e ae 5b 43 bd 5a 56 34 3d
       0.51117575 0.20307973 -0.047694854 0.044027664
000220 c9 52 1e be 86 9b d3 3e 98 fe 98 3e 41 21 57 bd
       -0.15461268 0.41329592 0.2988174 -0.052521948
000230 79 3e d6 bc 5b 08 ac 3e 90 0e bb bd 0d a3 4d be
       -0.026152836 0.33600125 -0.09133637 -0.2008173
000240 bb 1a 41 3d eb 84 bc bd 08 08 ce 3e ed 21 b4 3d
       0.047144633 -0.092050396 0.40240502 0.08795533
000250 d2 4d 32 be a0 2c 17 be 0c d5 a5 3e 0b d4 00 3e
       -0.17412499 -0.14763117 0.32389104 0.12580888
000260 ba 2c b2 bc f7 6a 44 3e 52 17 43 3e ea 1b 52 3e
       -0.021749843 0.19181429 0.19051865 0.20518461
000270 bb 61 53 3e 37 2c 0a be b2 27 74 be 11 26 d1 3d
       0.2064275 -0.13493429 -0.23843268 0.10212339
000280 b4 f9 6b 3d b0 1d ce 3c 2b 79 1b 3b 64 36 24 be
       0.057611182 0.02516064 0.0023723345 -0.16036373
000290 c0 ca 1e be b1 a3 d0 bd 66 bc 00 be 21 65 dc bd
       -0.1550703 -0.10187472 -0.12571868 -0.10761476
0002a0 b2 f7 2e 3d 31 58 1f be 3d 87 36 be 6a 83 63 3d
       0.04271669 -0.15560986 -0.17825027 0.055545248
0002b0 5b 14 1b be 10 ef 8d 3c 18 55 2b be bf a0 ce 3d
       -0.15144484 0.017325908 -0.1673168 0.10089254
0002c0 80 1c 30 3e 0a 8f a6 3d bb da 33 3e 0f a1 cf 3d
       0.17198372 0.08132751 0.17563908 0.10138141
0002d0 3d 9c 89 3e 00 39 58 3a 14 65 4e bd ab d5 b7 bd
       0.26877013 0.000824824 -0.050389364 -0.08976301
0002e0 29 da e0 bd 3e d5 15 bc 5c f4 4d 3e 7e d5 a3 bd
       -0.10979111 -0.009145079 0.20112747 -0.07999705
0002f0 24 3c 81 bd b7 9a fa 3d 4f 76 16 be 9f e5 f4 3e
       -0.06310299 0.12236541 -0.14693569 0.47831437
000300 bd e7 ad 3e 43 57 cc bd 86 ed bf 3d c7 ed 81 be
       0.33965865 -0.09977581 0.09371476 -0.25376722
000310 4b 63 43 be a3 fe e3 bc 82 39 48 3e b4 06 ea bd
       -0.19080846 -0.027831381 0.19553187 -0.1142706
000320 b7 b5 bc 3e 22 a9 62 3e 59 54 f7 bd 42 5b 0e 3e
       0.36857387 0.22134832 -0.12076635 0.13902
000330 49 8e c9 3c fc 70 a0 be 65 e5 b4 bc 43 fd d9 3d
       0.02460398 -0.313362 -0.02208204 0.10644009
000340 bd 5e 85 be 45 de f5 3e ab e2 fb 3d f3 66 65 bd
       -0.26048842 0.4802114 0.12299093 -0.056006383
000350 bb a5 02 3e ef ef c1 bd 72 5d f8 bc 6d 3b 85 bc
       0.12758534 -0.09469592 -0.030317996 -0.016263688
000360 6a 33 19 be 1a 3d 1e be 71 46 45 3d a8 b1 ab 3e
       -0.14961019 -0.15452996 0.04816288 0.33533978
000370 d1 c9 43 be 74 50 8e 3e ee a4 80 3e d4 47 c5 3e
       -0.19119956 0.27795756 0.2512583 0.38531363
000380 0d 24 70 bd b1 a2 02 3e 82 3d cc 3d 42 6b 9f 3d
       -0.05862813 0.12757374 0.09972669 0.0778413
000390 96 a8 04 3e e8 c8 58 3d e2 c0 4a 3e aa b6 19 3e
       0.12954935 0.052925974 0.19800141 0.15011087
0003a0 b9 1b 8e 3e 6e 2f 7f bd 45 7d 18 3e 0f 7f 8c bd
       0.27755526 -0.06230109 0.14891537 -0.06860172
0003b0 35 a9 8f 3d ce be 85 3e 12 1a 87 bd 1c ef 53 3e
       0.070146956 0.26122135 -0.065967694 0.20696682
0003c0 7f a1 ed bd cb 36 7b 3e 39 d7 07 3d c2 cf be bd
       -0.116030686 0.2453262 0.033164237 -0.093169704
0003d0 7a 62 6b 3e 72 c4 3e be e9 94 a5 3c 50 c4 40 bd
       0.22986785 -0.18629625 0.020212607 -0.04706222
0003e0 df b7 fe bd af 35 ec 3e 20 3f 38 be 42 57 b2 3c
       -0.124374144 0.46134707 -0.1799283 0.021770123
0003f0 6a 2b b7 3d 1d ca 35 3d 39 01 b0 bd 62 16 d9 bd
       0.089438275 0.044382203 -0.08593983 -0.10599972

conv_block1.0.bias f4 [10]
000000 18 c9 eb 3d 1e 41 f6 bd 94 ee 3e 3e 42 7c 2a 3e
       0.11512965 -0.12024139 0.18645698 0.16648963
000010 cd d4 64 3e b7 2f 02 3e 25 c3 0b 3e 6d c1 7d 3e
       0.22346802 0.12713514 0.1364866 0.24780817
000020 5a 6c 02 3d e4 eb e5 3d
       0.031841613 0.11226633

conv_block1.2.weight f4 [10, 10, 3, 3]
000000 32 2c b8 3d 0a 8c 41 be fe 98 4d 3e 19 41 24 3d
       0.089928046 -0.18901077 0.20077893 0.040101144
000010 61 07 c8 3d b5 5e 91 3e d2 0d dd bd d8 0c aa 3b
       0.097670324 0.28392568 -0.10793652 0.0051895194
000020 48 c8 4f 3d d8 00 14 bd 4f a1 8f bd f8 4e b7 bc
       0.050728112 -0.036133617 -0.07013189 -0.022376522
000030 6b 42 a9 bd 43 79 ae bd 1b 66 be 3c c0 1f 47 bc
       -0.08264621 -0.085192226 0.023242047 -0.012153566
000040 30 fd f8 bc dd 15 88 bb 4c ad 03 be 3f 15 31 be
       -0.030394167 -0.004152997 -0.12859076 -0.17293261
000050 44 e8 1a 3d ba 14 27 3e 5a e8 08 3e 12 4a d1 3d
       0.037819162 0.163165 0.13369885 0.10219206
000060 29 9c cd bd 2d 2a 97 bc a4 77 3e 3c 68 2d 72 be
       -0.10039551 -0.018452728 0.011625204 -0.23650134
000070 44 39 9f 3b 04 6e ab 3c bd ab 7c 3e 43 46 a7 3c
       0.0048591215 0.020926483 0.24674888 0.020419246
000080 e9 14 8c 3e 1e 18 76 3d 15 14 79 3c 7d 0d 30 3e
       0.27359703 0.060081594 0.015202542 0.17192645
000090 89 11 12 3e 2a 98 20 be 4c 94 8e 3d 2b 42 05 3e
       0.14264502 -0.15683046 0.06961879 0.13013522
0000a0 0d 20 fd bd e8 84 9d 3d b1 6e e2 bd c0 6c a5 bd
       -0.12359629 0.076913655 -0.11056269 -0.08077383
0000b0 70 11 c4 bc bc 82 da bd ad 02 86 3d d1 42 94 3e
       -0.023934096 -0.10669467 0.06543479 0.28957227
0000c0 00 f0 91 bd 0b ec f3 3d 7e 75 30 bd a5 ae f3 3d
       -0.071258545 0.11910256 -0.0430808 0.11898545
0000d0 79 3f e5 3d eb bf 79 3d 0b 0b 4f 3e b8 29 98 bd
       0.11193747 0.060974043 0.20219056 -0.07429832
0000e0 69 5a f3 bd 30 8e bf 3d ff 42 0d be 12 63 52 bd
       -0.11882479 0.09353292 -0.13795088 -0.051364012
0000f0 e7 9f ff bd c6 bf 3d bc 43 55 74 bb 75 04 fa bd
       -0.12481671 -0.011581367 -0.0037282265 -0.12207881
000100 83 18 d4 3d 00 8e 58 3e ab 4f 89 be 11 36 0a 3e
       0.10356238 0.21147919 -0.26818594 0.13497187
000110 bf 20 92 bc 40 06 71 3e 82 7d b4 3a de 95 1a 3e
       -0.01783788 0.2353754 0.0013770314 0.15096232
000120 05 91 f5 bd 19 b0 00 3e 0a d2 fd 3d e0 99 ef bc
       -0.11990551 0.12567176 0.123935774 -0.029248178
000130 a8 2c 1d 3d c6 f8 97 bd 7c a2 04 3e 3e 94 b8 bd
       0.038372666 -0.07420497 0.12952608 -0.0901265
000140 90 1a f7 3b 4b 34 82 be b9 22 c1 bd 47 93 50 be
       0.0075410083 -0.2543052 -0.09430451 -0.20368682
000150 9c 80 1b 3e ae f2 0f be 42 21 85 3c e8 76 4b 3d
       0.1518578 -0.14057419 0.01625121 0.049673945
000160 6b 11 d0 bd a1 e8 d0 3d 38 0d ce bc c2 3c b3 3d
       -0.10159572 0.102006204 -0.025152788 0.08751823
000170 6b b1 b3 3c c7 41 58 3b b8 51 43 bd 8c b8 8a bd
       0.021935185 0.003299819 -0.047685355 -0.06773481
000180 27 7d e6 bd 2f f4 fd 3d ef 28 e7 bd 21 cf 08 be
       -0.1125434 0.1240009 -0.11287104 -0.13360263
000190 a3 80 c8 3d 21 c6 a9 3b c4 58 4f 3d f5 e3 6a bd
       0.097901605 0.0051810895 0.050621763 -0.057346303
0001a0 c6 9b 16 bd f5 5b b8 bc 6a f2 54 bc a2 5b 88 bd
       -0.03676965 -0.022504786 -0.012997249 -0.066581026
0001b0 6a 43 9d bd f8 1e b1 3c 3d e8 8a bd a3 8e cb 3d
       -0.07678874 0.021621212 -0.06782577 0.09939315
0001c0 4c 4f 67 bd 23 23 0e 3e b5 d5 3d be 92 8a ec bd
       -0.056472108 0.13880591 -0.18538554 -0.11549868
0001d0 e9 ca 87 3d 22 d2 d7 bc a3 6d 0c bd d7 1c bf 3c
       0.06630499 -0.026345316 -0.034284245 0.023329182
0001e0 52 9c cf bc ee e2 8d bd 8f 53 97 3c 31 ab 1e bd
       -0.025343094 -0.06928049 0.018472461 -0.03873748
0001f0 37 80 cc bd ce a1 f8 bc f0 04 ce 3d 90 20 9f 3d
       -0.099853925 -0.030350592 0.100595355 0.07769883
000200 eb c4 02 be a2 c8 37 3d 0e 2f 2a 3e 43 02 4b 3e
       -0.1277043 0.044869073 0.16619512 0.19825082
000210 30 3f 35 be c7 81 49 bd 55 82 b1 bc a5 23 18 3d
       -0.17699885 -0.04919603 -0.021668592 0.03714337
000220 14 a2 cc bd 40 65 b8 3d 84 f0 ce 3b aa 71 bb bd
       -0.099918514 0.09003687 0.006315293 -0.09152539
000230 f5 c1 37 3e f3 09 89 3c 45 5d 9e bd 73 11 22 3e
       0.17945082 0.016728377 -0.077326335 0.15826969
000240 ec c2 f3 3b a2 ff 8a 3c 1e ca d7 3d 29 27 b8 3d
       0.007439008 0.016967598 0.10536598 0.08991844
000250 d7 61 a4 bd 03 96 17 3e 9a c7 0a be 3b e2 c4 bd
       -0.08026474 0.14803319 -0.13552704 -0.096134625
000260 f1 49 f3 bd 68 61 90 3d 65 b6 e4 bd 62 12 d9 3d
       -0.118793376 0.07049829 -0.111676015 0.10599209
000270 3d c4 0e bc 6c 2f 05 be 14 a8 60 3d ae 97 32 bd
       -0.008713779 -0.13006371 0.05484779 -0.043601684
000280 7b 9a 28 bd 37 35 c1 3d ba 98 d4 3c 64 dd 29 be
       -0.04116295 0.09433978 0.025951732 -0.1658836
000290 44 da b6 3d a3 92 67 bd 31 26 5a 3e 12 9c 9b 3d
       0.089283496 -0.056536328 0.21303631 0.075981274
0002a0 20 55 76 3e 69 9c b8 bd 38 0c 5b 3e 2b 44 3b bd
       0.2405591 -0.09014208 0.2139138 -0.045719307
0002b0 82 ee 00 3e e0 78 4c 3e b1 34 21 3e 5a d8 05 be
       0.12590984 0.19967985 0.15742756 -0.13070813
0002c0 46 80 86 3e fd 75 90 bd 95 b3 07 be c3 0f 5d 3c
       0.2626974 -0.070537545 -0.13252099 0.013492527
0002d0 52 5a ae bd a6 2a 7f 3d 43 df ae 3c 47 cd a6 bd
       -0.08513321 0.062296532 0.021346694 -0.08144622
0002e0 6b d7 2c bc 6f 03 54 ba 12 03 d1 3c 2a 30 48 bd
       -0.0105494065 -0.000808767 0.02551416 -0.048874058
0002f0 2c 23 25 bc 63 8e 8e bc 90 70 ef bd 80 cc b6 3d
       -0.010079186 -0.01740188 -0.116913915 0.08925724
000300 d7 bb 1b bb b7 30 6a bd 1d 54 93 bd a0 c9 1e bd
       -0.0023763084 -0.057175364 -0.07193778 -0.038766503
000310 70 a1 aa 3d cc a4 1d bd a9 f5 c9 3c 40 0d 5a 3d
       0.08331573 -0.03848724 0.024653273 0.053235292
000320 c8 fb 66 3b 26 5e a3 bb e5 b0 c4 bc 7c b6 e6 3c
       0.0035245288 -0.0049855886 -0.024010131 0.028163187
000330 d3 ad 46 3e 7d cf 4c be 90 3c 83 3d f6 a4 01 3e
       0.19402246 -0.20001025 0.06408036 0.12660584
000340 23 fb 75 bb a3 c7 34 3e 5f db 4e 3d 59 3c 91 bd
       -0.0037533722 0.1765428 0.050502177 -0.070915885
000350 db 9b 7f 3d f2 aa f1 bd 33 a3 8b 3c d2 4a 15 3e
       0.062404495 -0.11800183 0.017045593 0.14579323
000360 10 2f 4f 3e 00 1f 51 be ad 4d 88 bd 2a a8 12 bc
       0.20232797 -0.20421982 -0.066554405 -0.008951226
000370 51 be 27 be 0f 36 ca ba 4e e3 92 bd 6e 4d 00 3e
       -0.16381194 -0.0015427488 -0.07172261 0.12529537
000380 49 cf 1d 3e 97 6d 9a 3c fa 9a 26 3e 6a 9c 14 bd
       0.15411104 0.018851085 0.16270056 -0.03628198
000390 4d a6 aa 3d aa 83 98 bd 94 c6 27 be ba 4d 40 3c
       0.083325006 -0.07446988 -0.16384345 0.011737281
0003a0 17 a4 86 bd 31 73 56 3e dc d8 e3 bb d6 3b 69 3d
       -0.065742664 0.2094238 -0.006953342 0.05694183
0003b0 9d 19 e3 bd b3 d0 36 be fb 59 e6 3d 94 5d 32 3c
       -0.1108887 -0.1785305 0.11247631 0.010886569
0003c0 72 c8 63 3e d5 58 b7 3c 21 04 e7 3d 42 27 35 be
       0.22244433 0.022381226 0.112800844 -0.17690757
0003d0 08 ec d1 3d 0e d7 17 3d 35 82 9a 3c 4a ea 05 3c
       0.102500975 0.037070327 0.018860916 0.008173535
0003e0 b6 df eb bb 69 48 2e bd ef d5 71 3d 75 8b 1f 3e
       -0.0071982993 -0.042549524 0.059041914 0.15580542
0003f0 fc 26 53 bd 97 a1 4b bc 3d cd 55 bd d4 c1 14 3d
       -0.05155085 -0.012428663 -0.052197684 0.03631766

conv_block1.2.bias f4 [10]
000000 e4 fb 57 3d 6f d2 ad 3d 16 3d 6c 3d 59 53 c2 bd
       0.052730456 0.08487403 0.057675444 -0.094885536
000010 a8 c5 fe 3d 4e 99 04 bd 3e 0b 54 bd 95 af f4 3d
       0.12440044 -0.032372765 -0.051768534 0.11947552
000020 0e da 3e 3d e3 b8 21 3e
       0.046594672 0.15793185

conv_block2.0.weight f4 [10, 10, 3, 3]
000000 85 0e 81 bd 81 f9 00 3e 7b e4 23 3b f2 82 5e 3d
       -0.063015975 0.12595178 0.002500801 0.054324098
000010 af a8 31 bc 84 77 11 3d 7c 04 11 3b 73 17 85 bd
       -0.01084344 0.03551437 0.0022127917 -0.06498613
000020 f4 b0 83 bd aa 27 d9 3d e2 cf 8c 3d 46 86 7b bd
       -0.064302355 0.106032684 0.06875588 -0.06140735
000030 96 a0 0b bc 9f 87 be bd be 9e 15 3e 77 11 6f bb
       -0.008522173 -0.093032114 0.14611337 -0.0036478916
000040 1d a7 bd 3d e6 77 ac bd fc f5 b6 3d 44 71 d4 3d
       0.0926039 -0.08421306 0.089336365 0.10373166
000050 d3 ce 7f bd 3b d6 e8 3c 62 3b cb bd a8 db 18 bd
       -0.062453102 0.028422466 -0.09923436 -0.037318856
000060 5f 3e 94 3d c5 50 52 3e 02 6f 12 be 77 e3 db bd
       0.07238459 0.20538624 -0.14300159 -0.10736745
000070 89 3c 24 be a9 bb 56 be db f8 11 3e 3d 09 12 3e
       -0.16038717 -0.20970024 0.14255087 0.14261337
000080 eb 18 89 3e 2a 71 20 3e 1e b4 36 3e 09 8a a2 3d
       0.26776823 0.15668169 0.17842147 0.07936484
000090 70 7f 46 3d aa 44 4c 3e 43 58 37 be 7c 0f 2c bd
       0.048461378 0.19948068 -0.17904763 -0.042006955
0000a0 bc 1a 9c bd 24 98 40 3d 49 df 10 3c dc cd 9e 3d
       -0.07622287 0.047020093 0.008842298 0.07754108
0000b0 d9 7b 2b be e1 86 f3 3d 79 fe 48 3d 86 e6 4f 3d
       -0.16746463 0.118909605 0.04907081 0.050756954
0000c0 a9 46 12 3e 5e 6c 28 3e b3 81 4d 3d db e8 7d bc
       0.14284767 0.16447589 0.05017252 -0.015497412
0000d0 cd 7c 22 3e dd ea f6 bd 42 73 8f 3d 06 ba bd 3d
       0.1586792 -0.12056515 0.070044056 0.09263997
0000e0 ac 0c e9 bc 17 f7 b0 bc 5e 2c ed bd 81 ed d4 3c
       -0.028448425 -0.021602197 -0.11580728 0.025992157
0000f0 ee 88 e8 3d fd 3f fc bc ac 24 a1 3b f3 fa d0 3d
       0.11354242 -0.03079223 0.0049177017 0.10204115
000100 ec 92 58 3d 4e 8a 25 bd dd fa 99 bd 8f eb 4a be
       0.05287449 -0.0404151 -0.075185515 -0.19816421
000110 81 42 50 3e 31 87 8f b9 80 71 21 3e f9 db df bd
       0.20337869 -0.0002737581 0.15765953 -0.10930628
000120 72 d8 3f bd 81 8b c0 3d df e1 55 3d b0 5b 2a 3d
       -0.046837278 0.09401608 0.05221736 0.041591346
000130 b0 13 88 3d b1 f3 30 3e 65 50 81 3c 4c 23 aa 3d
       0.0664438 0.17280461 0.015785405 0.083075136
000140 64 ea cf bd a9 99 4e 3e b9 1d f2 bd c2 35 54 be
       -0.10152128 0.20175804 -0.118220754 -0.20723632
000150 13 98 84 be c0 8e 05 bd 82 22 52 3e 07 b1 fb 3d
       -0.25897273 -0.03260684 0.20520976 0.12289625
000160 c8 94 e8 bd 66 66 0a 3d d0 88 90 bd 05 f8 91 bc
       -0.11356503 0.03378906 -0.07057345 -0.01781846
000170 cb bf b6 bd 6c b0 64 3d f6 78 39 3e 97 bb ff bd
       -0.089233 0.05583231 0.18112549 -0.12486952
000180 0a 68 88 3d 26 b0 69 3c 91 c1 03 bd 7d d9 74 bd
       0.06660469 0.0142631885 -0.03216702 -0.059777725
000190 6b d6 14 3e c5 d2 1b bb d7 51 c3 3d bd 5e b6 bd
       0.14534919 -0.0023776751 0.09537094 -0.08904789
0001a0 7f 19 00 be f7 1a b1 bd d5 f9 b3 bd 16 17 48 3d
       -0.12509726 -0.08647721 -0.08787886 0.04885014
0001b0 cc 8a 7f bb 3a ed 69 bd 2c 97 96 bd 3b d8 ae bd
       -0.0038992641 -0.057111003 -0.073530525 -0.085373364
0001c0 fe 83 e1 bc 3f 6f a3 3c 92 3f 35 3c 92 b5 ed 3c
       -0.02752876 0.019950507 0.01106252 0.029017244
0001d0 1f 1d e1 bd 78 85 bf 3d 79 3a ad 3d a0 b4 80 bb
       -0.109918825 0.09351629 0.084584184 -0.003927782
0001e0 98 52 1f bd cf 0a 3f be 3b 1e 7b 3d b5 29 4c 3e
       -0.038897127 -0.18656467 0.061308127 0.19937785
0001f0 24 90 b8 3e 77 0d f0 bd 72 68 b6 3d 5f ed f7 3c
       0.3604747 -0.11721318 0.0890664 0.030264555
000200 26 99 99 bc 19 0d ff 3d 89 0e ce bd 1d 04 fe bc
       -0.018749785 0.1245367 -0.10061366 -0.03100782
000210 9b db d5 bd df d6 a1 bd 78 0b 25 3d 12 5b bd 3d
       -0.10442277 -0.079023115 0.04029414 0.09245886
000220 96 8a e3 bd c4 3f 8b bd 13 6e 59 3d a2 2c fc 3c
       -0.111104175 -0.06799272 0.05308349 0.030783001
000230 ab b1 95 bc 9a 58 80 bd 9b c1 eb 3d 7e 20 b8 3c
       -0.018273195 -0.062668994 0.11511537 0.022476431
000240 97 1f 7b bd 22 1c 0a bd 02 08 29 bd f8 58 ce 3d
       -0.061309423 -0.033718236 -0.041267402 0.10075563
000250 62 21 96 bd 48 b5 e6 bd 73 b1 1a 3e 03 4d 5a be
       -0.07330586 -0.112650454 0.15106754 -0.2131844
000260 ce f6 e1 bd 2b 53 ff bc 16 03 41 3d 86 53 5c bd
       -0.110334024 -0.031167587 0.047122084 -0.05379059
000270 5d 8b 6b bd 33 9e 2b be 57 09 96 bd 21 63 29 3d
       -0.057505954 -0.16759567 -0.07326 0.041354302
000280 93 6d e2 3c 76 2e a4 bd 7e 79 dc bd 1d ae 0c 3e
       0.02764014 -0.08016674 -0.1076536 0.13738294
000290 ff 10 bf bd 5e 4b ec 3d 81 fb ac bb 24 db 08 be
       -0.093294136 0.11537813 -0.005279005 -0.13364846
0002a0 a5 d9 a5 bd b6 95 43 3d 98 46 70 3c 9c 7f 16 3e
       -0.08098153 0.047750197 0.014665268 0.14697117
0002b0 64 c9 13 3e 2b 8c ae bc 94 64 98 bd df 5a ba bd
       0.14432293 -0.021307072 -0.07441059 -0.090993635
0002c0 0c e7 52 bd fa 50 08 3e 87 e1 49 be fc d7 e6 bd
       -0.051489875 0.1331214 -0.19714938 -0.112716645
0002d0 e3 58 82 3d be 9d 03 3e 8f 52 41 3e 36 91 f3 bc
       0.0636461 0.12853143 0.1887915 -0.029732328
0002e0 90 05 30 be 5d 6d 3f 3d f9 c5 1b 3c 7a 41 06 3e
       -0.17189622 0.046735156 0.00950765 0.13110915
0002f0 9c 4d dd bd 9d 87 d0 bc 3e 35 00 bd 0f 1b 1e 3e
       -0.108058184 -0.02545529 -0.031300776 0.1544001
000300 52 c2 2c 3e 72 c5 c7 bc 6c 7a 01 3d a6 7e f6 3d
       0.16871002 -0.024386141 0.03161089 0.12035875
000310 d1 25 7b bd 67 d6 17 bc 60 63 90 3d dd 75 53 3d
       -0.06131536 -0.009267426 0.07050204 0.051626075
000320 85 99 94 bd 10 87 eb 3c be c8 ff bd b4 1a 0c 3e
       -0.07255844 0.028750926 -0.124894604 0.13682061
000330 32 91 1d be b3 cd f4 bc 68 22 16 be c5 d6 02 bd
       -0.15387419 -0.029883241 -0.14661562 -0.0319431
000340 42 2d 04 be ad 4d 4d 3e 27 50 58 3e 9b ef 30 3e
       -0.1290789 0.20049162 0.21124326 0.17278902
000350 a2 75 03 3e 4f 15 a3 be 7c f3 b1 be 08 bb b5 bd
       0.12837842 -0.31852195 -0.34756076 -0.08873564
000360 cc cf 85 3d 7d ff 91 3d 31 44 80 3e c2 4b f1 3d
       0.06533775 0.07128809 0.25052026 0.11782028
000370 bc b3 b6 3c de c0 e4 bd 1e 31 c0 3d 58 84 95 bd
       0.0223025 -0.11169599 0.09384368 -0.07300633
000380 35 27 db bd b8 76 58 bd 51 2d d5 3c 2e af 21 3e
       -0.107008375 -0.052847594 0.026022585 0.15789482
000390 5b 13 88 bd 9e a3 a1 3d ca f4 45 bd dc 7a f5 bd
       -0.06644317 0.078925356 -0.048329152 -0.11986324
0003a0 80 3a 3f be 6d e7 3e bd 1b 93 15 3d 85 cb c3 3d
       -0.1867466 -0.046607424 0.036517244 0.09560303
0003b0 f6 1b 8c 3c 6d 53 1f 3e cc 78 36 3c 93 24 e3 bd
       0.017103177 0.15559168 0.011137199 -0.1109096
0003c0 f2 01 bd bd 5d 14 07 bc 71 d4 f9 bc 9c 03 d4 3d
       -0.09228887 -0.008244601 -0.030496808 0.10352251
0003d0 d7 3a 1e be f9 44 69 3e 08 92 95 3d 30 22 31 3e
       -0.15452133 0.22780217 0.07303244 0.17298198
0003e0 f7 29 71 bd 9a 2c 22 3e 5c be 9b 3d 05 46 33 3c
       -0.05887791 0.15837327 0.076046675 0.010941987
0003f0 b3 71 cc 3d 06 af 9d 3d 9b c9 fb bd 26 ce a0 bc
       0.09982624 0.07699399 -0.122943126 -0.01962955

conv_block2.0.bias f4 [10]
000000 44 1a 29 3e cc 73 44 bc bc 01 d3 3d 27 7e 9f 3d
       0.16513926 -0.011990499 0.10303065 0.077877335
000010 02 e6 1a 3e 1b 5f a3 bc a0 62 af bd 0c 65 57 bc
       0.15126804 -0.01994281 -0.08563733 -0.01314665
000020 52 11 96 3c b0 21 fb bd
       0.018318806 -0.12262285

conv_block2.2.weight f4 [10, 10, 3, 3]
000000 78 c3 fa bd 8b 14 91 bd 58 cc 42 bc 3c 63 07 3e
       -0.12244314 -0.070839964 -0.01188954 0.13221449
000010 89 d5 0b be 47 39 d8 bd da 7a a1 3d 11 f0 fd 3d
       -0.13655676 -0.105578 0.0788476 0.12399305
000020 76 0c b0 3d 06 0e 95 bd 32 c6 07 be 48 71 d0 bc
       0.08596127 -0.072780654 -0.132592 -0.025444642
000030 03 f7 42 3d cc ca 0b be ac 77 67 3d 38 31 cd 3c
       0.04759885 -0.1365158 0.056510612 0.025047883
000040 f6 81 bb 3d ea a5 d4 bd a3 01 9c 3d 07 cd c1 bd
       0.091556475 -0.10383208 0.076175 -0.09462934
000050 d8 3d 29 bd f7 f2 02 bd b2 a6 11 3d 3f aa 8e bd
       -0.041318744 -0.03196999 0.035559364 -0.069660656
000060 15 30 9b 3d 9c 04 47 bc e1 de bb bc d1 d4 10 be
       0.0757753 -0.012147095 -0.022933425 -0.14143683
000070 e8 84 ae bd e1 be b7 3d 08 22 0b 3e 4a 4e 17 3e
       -0.085214436 0.08971954 0.135872 0.14775959
000080 b0 8c c7 bd 1f 3c 6c be a4 8e ff bd 7d 4e ac bd
       -0.09743631 -0.2306981 -0.124783784 -0.08413408
000090 f1 4a c7 3d 11 7c b5 3c 4a 23 8d bd 74 f3 5e 3e
       0.09731091 0.022153886 -0.068914965 0.21772557
0000a0 52 60 fa bc 94 0f b7 bd af 05 44 3e 69 86 86 bd
       -0.030563507 -0.08938518 0.19142793 -0.065686055
0000b0 99 f0 9e 3d 5d 4c a4 bd ba 74 04 bc bc 7b e1 3c
       0.07760734 -0.08022378 -0.00808447 0.027524821
0000c0 97 e8 a5 bb 01 d5 db 3d 50 d7 d9 3d d7 d7 20 bc
       -0.0050631273 0.10733987 0.10636771 -0.009817085
0000d0 69 67 20 3e 1c b0 1c bd f0 c9 d1 bc b8 93 14 bd
       0.15664448 -0.03825389 -0.025608987 -0.036273688
0000e0 62 47 50 3d d4 10 b8 3c a5 c0 77 bd 16 49 66 3d
       0.050849326 0.022468962 -0.060486455 0.056222044
0000f0 dd 5c e6 3c 26 49 57 3d 29 e7 b4 3d 2e 6e 19 3d
       0.028120453 0.052559994 0.08833153 0.03745859
000100 dd da 82 3d d6 e4 2c bd 47 6a 3f bd ed 8c 72 bc
       0.06389401 -0.042210422 -0.046732213 -0.014804107
000110 a8 0e 4f bd db 3e 84 3d 6f 2c ab 3d 4b 82 a0 bd
       -0.050551087 0.06457301 0.083580844 -0.078373514
000120 4f d7 29 3d 7c 2d 99 3b b5 47 bb bd 9d 55 9e bd
       0.0414651 0.0046746116 -0.091445364 -0.07731173
000130 db 3f de 3d 25 e9 80 3d be 13 83 bd fd b3 f0 3d
       0.10852023 0.06294469 -0.0640025 0.1175308
000140 46 6a 2b bd ed cc b9 3d f5 bd aa 3d 72 d2 7b bd
       -0.041849397 0.090722896 0.08337013 -0.061479993
000150 70 71 b0 bb 10 8b 3f bc dd f1 4d bd 05 16 db 3b
       -0.0053846166 -0.01169087 -0.050279487 0.0066859745
000160 14 43 e7 3c b1 7b b3 bd da 8c 5c bd 0b 26 2a bd
       0.028230228 -0.08763827 -0.053845264 -0.041540187
000170 2c 90 08 be df 06 a7 3b c8 5a cf bd de 35 02 3e
       -0.13336247 0.0050972546 -0.10124737 0.12715861
000180 ac 7f 88 3c 00 b5 3b 3e 69 7c 4a 3d d8 e4 dc bc
       0.016662441 0.18330765 0.049435053 -0.02696459
000190 3a 87 4b 3d c0 0b 82 3b 71 82 35 bd a8 ec 09 bd
       0.04968951 0.003968686 -0.04431385 -0.03367296
0001a0 a9 43 0a 3c 9c f7 cb 3c 0f 14 65 bd 51 a3 ae bd
       0.008438983 0.024898343 -0.055927332 -0.08527244
0001b0 80 3d 98 bd 2a 31 86 bb 7e ed 07 be d2 ca 41 bd
       -0.07433605 -0.0040952163 -0.1327419 -0.047312565
0001c0 d8 28 0e be 9b ea db 3d d3 1e 0f be b6 22 cc 3b
       -0.13882768 0.10738107 -0.13976602 0.006229724
0001d0 8d e5 87 3d f2 a4 28 3d 2d d8 2a 3d 0e 86 d9 bd
       0.0663558 0.04117293 0.041710068 -0.10621272
0001e0 59 bf 01 be e8 d1 43 3e 2f b4 93 bd 8d 81 e5 bc
       -0.1267065 0.19123042 -0.07212102 -0.028015876
0001f0 c2 57 0e be 9e 7f e0 3d f4 8e d1 3c ea 45 4a bc
       -0.13900664 0.10961841 0.02558086 -0.01234577
000200 24 72 11 3d 7d 2f 9c bd fe da 51 bc 81 30 09 3e
       0.035509244 -0.07626245 -0.012808559 0.13397409
000210 0d b4 80 bd e7 6c d5 bc 7e ea 13 3d cc 5c c9 bd
       -0.06284342 -0.026052905 0.0361123 -0.09832153
000220 37 85 e4 bc 2e 59 cd bc e3 10 85 bd c6 76 99 3c
       -0.027895553 -0.025066938 -0.064973615 0.018733393
000230 1b 9c 0d 3e f7 71 ed bd 62 2d c6 3c de 7c 26 bc
       0.13829081 -0.11594003 0.024191562 -0.010161607
000240 6c 4a bb bc 01 ca d3 bd 6e 2b 3e 3d fc 69 9b bc
       -0.022862636 -0.103412636 0.046428137 -0.018971436
000250 95 c3 a7 3d fe 6e 31 3d 90 51 3b 3c 48 69 2c bd
       0.08191601 0.04331874 0.01143302 -0.04209259
000260 0a e6 37 bd 28 42 eb 3c ee 1a a2 bd f8 fe 1c bd
       -0.044897117 0.02871807 -0.07915293 -0.038329095
000270 2c 9a 2f be 56 c6 6f 3d ee 10 1f 3d ec bb 49 3c
       -0.17148656 0.058538757 0.038834505 0.0123128705
000280 07 05 97 3e a7 02 fa bd 29 29 35 3d 2d 5e 65 bd
       0.29496023 -0.12207537 0.044228707 -0.055998016
000290 8c ff 0e be 63 8c 84 3d b9 d5 d2 ba ca f3 03 be
       -0.13964671 0.06472089 -0.0016085423 -0.12885967
0002a0 bc 41 1c be 20 96 99 3d ff 5a c0 3c c0 3e d1 bd
       -0.1525945 0.07499337 0.02348089 -0.10217047
0002b0 e2 01 c7 bd db 77 bc 3d 9e 51 b3 bd 95 f4 a4 3d
       -0.09717156 0.09202548 -0.087558016 0.08054463
0002c0 c1 ea ae 3d ff 93 ac bd 0c 94 9c 3d d0 1c d5 bd
       0.085408695 -0.084266655 0.07645425 -0.10405886
0002d0 8c a6 e7 bc f4 64 cf bd 12 f3 d4 bd bd 6c ab 3d
       -0.028277658 -0.10126677 -0.103979245 0.083703496
0002e0 c3 9a 54 3d 5f 26 d7 bd 6f 04 0f 3d 64 43 0e 3e
       0.051905405 -0.105053656 0.034916338 0.13892895
0002f0 48 a1 f7 bc 6a be 2e 3d 6d c2 ee bd c6 94 aa bd
       -0.030228272 0.04266206 -0.116581775 -0.083291575
000300 ce b5 99 bd 71 d2 89 3d 00 5b 93 b9 e1 14 ae bd
       -0.075053796 0.06729592 -0.00028105825 -0.08500076
000310 a9 3b 10 3e 67 2e c2 3d 89 ea 87 bd e8 28 8f 3b
       0.14085259 0.09481507 -0.06636531 0.00436889
000320 87 73 cd 3d d6 9e 0d 3d 9b 35 74 bd 40 ef f0 bc
       0.10031801 0.034575306 -0.059621435 -0.029410958
000330 0b 09 3f 3e a5 f4 a1 3d 6c 34 f3 3c 36 15 92 3c
       0.18655793 0.0790799 0.029688083 0.01783238
000340 46 20 24 be 30 b1 3f 3c 14 49 7d bd f7 57 d7 3d
       -0.16027936 0.01169996 -0.06183727 0.10514825
000350 14 a5 5f bd c0 5d f7 3d fb d3 3a bd d0 80 cc bd
       -0.05460079 0.12078428 -0.045612317 -0.099855065
000360 62 ac a7 bc 3d 09 31 be 8e 7d 91 bd bf 10 90 3c
       -0.02046794 -0.1728868 -0.07104026 0.01758611
000370 cf 28 a9 bd a6 18 d6 bd 75 14 8f bc 82 46 f6 bd
       -0.08259737 -0.1045392 -0.01746581 -0.12025167
000380 4f 96 aa 3d af 31 e6 bd 45 01 ba bd 22 21 18 3d
       0.0832945 -0.11239945 -0.090822734 0.037140973
000390 32 33 13 3e 88 9e 14 be ee d3 72 3d 42 54 b5 bc
       0.14374998 -0.145136 0.059284143 -0.022134904
0003a0 fe 8d ce bd 5a ad 7a bd e9 6b 8e 3d de 6f be bd
       -0.100856766 -0.061200477 0.06954176 -0.09298681
0003b0 8a 1b 8a bd 18 d3 4f bc 27 d6 a0 bd db 7b 55 bd
       -0.06743534 -0.012684606 -0.07853346 -0.05212007
0003c0 2c f5 4e 3d e4 2e c5 bd f8 b1 36 bd f8 f3 19 be
       0.050526783 -0.09628084 -0.044603318 -0.15034473
0003d0 53 af 90 3d a6 0c b1 bd 1f 99 38 3d 91 a8 6f be
       0.070646904 -0.086449906 0.045067903 -0.23404147
0003e0 29 2e b0 3d 9c 0c 53 be 48 c6 6c bd 27 12 95 3d
       0.08602554 -0.20610279 -0.057806283 0.07278853
0003f0 49 24 58 bd 48 98 13 3d 32 14 12 3d 5f ac 2e bd
       -0.05276898 0.0360339 0.03566379 -0.042644855

conv_block2.2.bias f4 [10]
000000 35 a7 bc 3d d8 79 3f 3a f0 48 e3 3d bb 25 f8 3c
       0.0921158 0.0007304228 0.11097896 0.030291429
000010 ed ab 29 bd d7 d2 58 bd 8f dd db bd e7 c8 e9 3d
       -0.041423727 -0.052935448 -0.10735618 0.11415272
000020 42 b3 be 3d c0 24 02 3d
       0.093115345 0.03177333

layer_stack.1.weight f4 [4, 10]
000000 ce e7 2b 3e ea 2e 5b 3e f9 50 98 3d dc 32 98 3d
       0.16787645 0.21404615 0.07437319 0.07431576
000010 b6 c6 13 be f6 3a d3 bd c5 53 22 3d 5c 77 a3 be
       -0.14431271 -0.1031398 0.03963067 -0.31927
000020 c8 77 6c be 6f 40 33 3e 0b 0d c5 3e c6 53 8d be
       -0.23092568 0.17505048 0.38486513 -0.27602977
000030 a8 32 71 3c 80 40 00 3e 3c 87 90 3e 81 6a a0 be
       0.01472155 0.12524605 0.28228176 -0.31331256
000040 ce 94 43 3e f2 1a 89 3e 67 c7 81 be 38 0e 8e 3e
       0.19099733 0.2677837 -0.25347444 0.27745223
000050 5e 20 65 ba 2e 8f 8b 3e 9f 4d 34 be 5b 02 8e be
       -0.000874048 0.27257675 -0.17607735 -0.27736172
000060 6e 30 8c 3d c9 cf 60 bd fa 9f 7f 3e f7 d3 2c 3d
       0.06845175 -0.05488566 0.2496337 0.042194333
000070 32 56 91 3e e9 95 4e 3e 68 80 04 3d 55 a4 65 be
       0.28386074 0.20174374 0.03234902 -0.22425969
000080 f6 1e 61 3e 99 06 80 3e 21 a3 5e bc e2 6d 9a bc
       0.21984467 0.25005034 -0.013588698 -0.018851224
000090 f8 d2 9e be 09 ee b1 bc 14 c3 dd 3d f9 ff 9f 3e
       -0.3102033 -0.02171995 0.10828224 0.3124998

layer_stack.1.bias f4 [4]
000000 f2 ce 9f 3e b7 42 b9 3d f5 3d 56 3e 35 0c 6d 3d
       0.31212574 0.09045928 0.20922072 0.05787297
