trained_agents/policy_net2600.pth (torch, 15822 bytes, 6 tensors)

fc1.weight f4 [64, 16]
00000000: 4220 a1bb fe55 e4bb 4873 58be 5fa3 3ebe
00000010: 4a93 5dbe 60ee 773e 7fad d23d 1034 9e3c
00000020: f5d2 d0bd 8b80 b33d e863 66be 5646 593e
00000030: e490 4cbe 7cf3 ac3e 8447 563d 5626 01be
00000040: 698c 053e c037 0dbe 115b 643e e6d7 ecbd
00000050: f746 d93d 00da 1e3b 96e0 603e e846 3abe
00000060: 4728 1dbd 0255 1e3c 5437 e73e f0c9 f4bd
00000070: cc88 1e3e 48b4 0fbe 16e0 12be b4e5 48be
00000080: 6ab1 11be f570 033e 0c9d ce3d 720f 80bc
00000090: dca5 4fbe 1cf9 1c3e 7270 433d cae8 333e
000000a0: ea9a c13c 4c3b 1fbe e681 05be c8db 1bbe
000000b0: 8c08 e0bd 66a2 c93e d92c 7c3e 90bf a83d
000000c0: 8f85 cfbd d7c3 b83e ba06 66be d160 0d3f
000000d0: f592 b9bd b066 ebbd 0830 47bd f85c 103e
000000e0: 0404 443e 82e5 56be 54b6 5dbc dab3 313e
000000f0: 9856 2dbd 5df3 8fbe 4101 93be 6065 3f3d
00000100: fe70 373e a8e2 0ebd 3070 2a3d e0a8 7a3c
00000110: b85c 58bd a03d d53c c44e 253e eccb 47be
00000120: cef9 433e 38d0 083e 80fe f1bd 08e6 f63d
00000130: 5c62 bd3d 3ec9 213e 1462 39be cc9b 123e
00000140: 4e54 79be a70a 243e 8d3f 5b3d ba23 1dbe
00000150: 400e e0bc 1ca8 24be c25b 4ebe 900e 303e
00000160: 308e 77be a13a 153e 00bd 86bb 0262 2a3e
00000170: 1a93 2dbe 8e18 133e 40cd d2bb 1094 4d3d
00000180: 2896 0bbe 7715 da3d 90da 4abe 80f7 47bd
00000190: 48c4 04be 3cf0 173e 8b61 fa3c b853 793d
000001a0: ccab 02be 1c7f f8bc 33ec 6e3e 92c0 0d3e
000001b0: 60c6 68bc 3c65 bdbd 1859 f0bd 44f1 2fbe
000001c0: 1477 06be e84c 02be 2c2e 61be 380f 12bd
000001d0: 203b 96bd 80ef e53b c812 b93d f038 7bbd
000001e0: 6a22 2abe 186e 2abd 5023 cf3d 04fb aabd
000001f0: 2c63 57be 80b9 1d3e f68d 2fbe 3076 74bd
00000200: 0408 643c 9946 e0bd 73a5 9dbb 8c18 25be
00000210: 41a9 89be f44d 58be ff36 8d3d 0002 acbc
00000220: 394c e9bd ded5 3dbe 84d9 59be 1657 073e
00000230: e213 483e b2a2 ac3e b185 8b3e 4ea1 273e
00000240: f57a 9cbd 58df 82be f01b 7abd 0735 7bbd
00000250: abf9 20be 48dd 1f3d 194a 00be 68fc 683d
00000260: 00be 0038 695f 80be d61b d8bd b4a1 1d3e
00000270: 6651 443e 5ef7 863e f512 503e 40df 6d3c
00000280: 11be a73d 2b5c 71be f77b ee3d 6e0a 6cbe
00000290: 6e10 7abe 605f 3bbe 9e73 363d 68eb 1cbd
000002a0: e8e9 27be bb37 d93e 6432 6bbe 2ed1 02be
000002b0: a059 19bd bf5a f73e 2bc5 1d3e ca64 5abe
000002c0: c19f 893c 8f05 86bc fcc7 0c3e 43c0 4dbe
000002d0: b243 66be fcba 9dbd a36e 023e fc2d ae3d
000002e0: 1a48 0fbe f683 5dbe b8b6 ec3d 804a 153c
000002f0: 8c20 c3bd 3261 da3e faa8 c13e 60e0 b73c
00000300: a4f9 ebbd a53e 543e 809e 473b 8cc0 9fbd
00000310: d8b1 ff3d 941b 05be 8045 47bb c04d 663c
00000320: 7ede 523e c0f2 e23c 462a 50be 1459 33be
00000330: 9a7c 6ebe a8e9 dbbd 0c35 f93d f4e1 593e
00000340: 5b03 a63c ead4 3bbd 455b d73d 7a2c 0ebd
00000350: 0131 0a3e 1433 02be c773 e03e d44b c93d
00000360: 2279 00be 8c3b 60be 5e2a 5e3e dcab 483e
00000370: 7013 d4bc 06d3 4bbe 96a7 3b3d 180a 6dbe
00000380: 0ea6 3d3e a7c1 95be 6c3b d03e cd57 90be
00000390: eee0 a93e a086 5e3c 32be 623e f07f bbbd
000003a0: 2ada 98be f417 943e d720 8f3e ded5 5dbe
000003b0: 8891 24bd db70 9dbe 2a4a b33e 6060 493d
000003c0: 80f5 16bd bc89 61be d046 d6bc 5432 ea3d
000003d0: 0093 47be 4c74 fd3d 882e 92bd cce0 aabd
000003e0: 4c95 243e 468b 093e c012 1a3c 0830 34bd
000003f0: 2021 7d3e 0041 583c 28c8 203d 4c27 26be
-0.0049171755 -0.006968259 -0.21137726 -0.18617009 -0.21638218 0.24212027 0.10286998 0.019311935
-0.10196487 0.08764752 -0.22499049 0.21218237 -0.19977146 0.33779514 0.052314296 -0.1261228
0.13041843 -0.13790798 0.22300364 -0.11564617 0.106092386 0.0024238825 0.21960673 -0.18191111
-0.03836849 0.009663822 0.451594 -0.11952579 0.15481871 -0.14033616 -0.14343295 -0.19618875
-0.14227834 0.12836058 0.10088548 -0.015632365 -0.20278114 0.15329403 0.047714658 0.1756927
0.02363344 -0.15549964 -0.13037834 -0.15220559 -0.1093913 0.39381713 0.24626483 0.08239663
-0.10132896 0.36086914 -0.22463503 0.55225855 -0.09061233 -0.114941955 -0.04862979 0.14097965
0.19142157 -0.20985988 -0.01353224 0.17353764 -0.04231891 -0.2811536 -0.28711894 0.046727538
0.17914197 -0.034884125 0.041610897 0.015299052 -0.0528228 0.026030362 0.16143328 -0.19511384
0.19138262 0.13360679 -0.1181612 0.12055594 0.09247276 0.15799424 -0.1810382 0.14317244
-0.24348566 0.16019689 0.053527404 -0.1534566 -0.027350545 -0.16079754 -0.2015219 0.17193055
-0.24175334 0.14573146 -0.004111886 0.1663895 -0.16950646 0.14364836 -0.006433159 0.05019003
-0.13631499 0.10648625 -0.19809937 -0.04882002 -0.129655 0.14837736 0.03056409 0.060870856
-0.12760848 -0.030334048 0.2333229 0.13842991 -0.014207453 -0.092478245 -0.11735743 -0.1718188
-0.13131362 -0.1272465 -0.2199027 -0.035659045 -0.07335496 0.007017076 0.09036785 -0.061333597
-0.1661469 -0.0416089 0.10114157 -0.08348659 -0.21033925 0.15402794 -0.17143998 -0.059683025
0.013917927 -0.109509654 -0.004810983 -0.16122645 -0.26886943 -0.21123487 0.06895255 -0.020997047
-0.113914914 -0.18538615 -0.21274382 0.13216814 0.19538835 0.33717877 0.27250436 0.16370127
-0.0764064 -0.25561023 -0.0610618 -0.061329868 -0.15720241 0.03902939 -0.12528266 0.05688134
3.069453e-05 -0.25072792 -0.10552184 0.15393716 0.19171676 0.263606 0.20319732 0.014518559
0.08190549 -0.23570316 0.11644738 -0.23050854 -0.2442033 -0.18298101 0.044543855 -0.03831044
-0.16397822 0.4242533 -0.22968441 -0.12775108 -0.03743899 0.4831142 0.15407245 -0.2132751
0.01679981 -0.016360072 0.13748163 -0.20092873 -0.22486761 -0.0770168 0.12737517 0.085048646
-0.13992348 -0.2163237 0.11558288 0.009112 -0.09527692 0.4265228 0.3782423 0.022445858
-0.115222245 0.20727022 0.0030459464 -0.07800397 0.12485093 -0.12998801 -0.0030406415 0.014056623
0.20592687 0.027703643 -0.20328626 -0.1751445 -0.23289719 -0.10737926 0.12168321 0.212776
0.020265272 -0.045857348 0.10515455 -0.034710385 0.13495256 -0.12714797 0.4383833 0.09828916
-0.12546209 -0.21897715 0.2169585 0.19596809 -0.025888175 -0.19904718 0.04581412 -0.23148382
0.18520376 -0.29249308 0.40670335 -0.28191987 0.3317942 0.013581902 0.22142866 -0.091552615
-0.29853946 0.28924525 0.27954742 -0.21663615 -0.040177852 -0.30750164 0.3501752 0.049164176
-0.03685522 -0.22025198 -0.026156813 0.114353806 -0.1948967 0.123756975 -0.071377814 -0.08343658
0.16072577 0.13432035 0.009403884 -0.04399112 0.24719667 0.013199091 0.039253384 -0.16225928

fc1.bias f4 [64]
00000000: 5a95 fb3d 541c 4b3d 6882 873d b729 273e
00000010: 72a6 64be b17c 2ebe 730c 28be 34a9 5bbe
00000020: e6bb a33e 0e1e 623e 64cf 603e fe59 3f3e
00000030: b767 69be 39d1 0e3e 81ea 8d3e be44 5fbe
00000040: 7ecb 40be df44 8c3e 53bc 82be 9ca8 66bd
00000050: 07d3 50be e6e7 79be 5349 963d c599 ee3d
00000060: 35ee 7bbe b76a ef3d 3907 6a3e 77f2 833e
00000070: 5dc1 ba3d 146c febd 41d5 9c3d 7f8a 8e3e
00000080: bf27 18be 6a8b 2cbd 0eb4 dcbc c4ee d3bd
00000090: 70a0 3dbd 6362 823d c35a 8ebe 8451 41be
000000a0: b350 4bbe 7dc1 b6bd 7a08 6ebe b8f5 16be
000000b0: 0423 6cbe 6893 6abe 3997 82be 6f75 6abc
000000c0: d375 33be 9e9e a03e ce61 e2bd 18ab 203e
000000d0: 91cb 68bc 4822 573e 1c36 89bc 0992 383e
000000e0: fc6a 4b3e 395a f9bd dd0a 653e 4313 d73d
000000f0: 5c88 7cbe 5776 12be 6dad aabc 0d27 7c3e
0.12284346 0.049587563 0.0661667 0.16324507 -0.22329119 -0.17039753 -0.16410999 -0.21451265
0.31979293 0.22081777 0.21954113 0.18686673 -0.2279347 0.13947 0.27717975 -0.21803567
-0.18827626 0.27396294 -0.25534305 -0.056313142 -0.20393 -0.24404868 0.07338204 0.11650423
-0.24602588 0.11690276 0.22854318 0.25770923 0.09118912 -0.12422958 0.076578625 0.2784004
-0.14858912 -0.042125143 -0.026941326 -0.10348275 -0.046295583 0.06366422 -0.2780362 -0.18878752
-0.19855003 -0.08923624 -0.23245421 -0.14742172 -0.23060232 -0.22907794 -0.25506 -0.014310225
-0.17525415 0.31371015 -0.11053811 0.15690267 -0.01420869 0.21009171 -0.016749434 0.18024458
0.1986503 -0.12175412 0.22367425 0.10501721 -0.24661392 -0.14302956 -0.020834649 0.24624272

fc2.weight f4 [32, 64]
00000000: 35a0 f93d 54eb 08bd d99a 703a c908 99bc
00000010: c0e2 993d 950a 723d f8e9 1ebd 7821 a53c
00000020: f059 193d 603a 03be 4865 393c 72dc dd3d
00000030: 8428 bb3c 658d 233e 954c 0c3e 9cc3 1fbd
00000040: 30e2 93bc 3631 dcbd 55ee 133e 8f5a 1d3e
00000050: eba7 8cbd ff21 5d3e 75f2 843e 6d01 933d
00000060: fc99 103e 95a4 0d3e 830f 0c3e ac23 02bc
00000070: f92b a03d bdf0 63bb 9f88 2a3e 07fd e93d
00000080: d9a5 e63d c16c b83d f38f 96bd b051 8cbd
00000090: 7f7c d4bd e1a1 28bc 2eaa fd3d 2cdc 663d
000000a0: 3b06 883d 421e 8bbd f03c b0bd b2d6 eabd
000000b0: f07d 15bd d673 e43d 6fe0 b1bd c413 793e
000000c0: fde2 e43d fa4c 2f3e 9cd3 a43e 9c60 20bd
000000d0: f877 553e bf59 483e b6ad 0f3e b168 0e3d
000000e0: 5e45 603d bd74 a3be 3925 863d 2355 023e
000000f0: 9602 f6bd c9f4 833c 54c9 983d d697 2c3c
00000100: 7b3a f43c f4e2 d9ba 8599 5c3d 03f4 883e
00000110: 000f ef3a 730f 91bd 8c6e d43d aa41 f1bd
00000120: 346b aa3d e25b fb3d b69a 82be 8ad7 b43d
00000130: 8299 223c f092 d9bd 0d3c 0c3c 924b ad3d
00000140: 207d 5abc 67bf 9dbd ae5a 01be 67ac 413d
00000150: d916 773d e9d4 02bd cec5 c6be 0877 85bd
00000160: 3db0 6d3d 4c26 8dbd 2a81 d43d 7b8d a23d
00000170: aa98 84bc 6212 99bd 263d 90be 2e5c 073d
00000180: ad1a 1dbe 64e5 10b9 6aa7 dfbd 97d6 bbbd
00000190: fb08 2d3e f4d1 0e3e a6a5 bebd 48b0 90bc
000001a0: 8709 243e 9f98 083d c854 bbbc 980e 0f3d
000001b0: 602c 6b3d 78ba ab3d 0d9e 0c3e b2e8 d4bd
000001c0: c654 8a3d ed65 1ebe 7ce0 0abe a6e5 263d
000001d0: 3386 cfbd 14c5 c6bd fed6 913d 7a6d 323e
000001e0: 9b41 003e f766 cd3e 5cf8 983c ffd7 f33c
000001f0: dc95 ac3d b72a 65bd 2638 28bd e1d9 2d3e
00000200: b576 eebd dc67 263e 1a23 0bbd d405 843d
00000210: 0aca dc3d cc67 52bc 62e6 df3d a2e6 8ebd
00000220: 9804 80bc 7d6e 903c f077 8e3a 299b 1d3e
00000230: 952b d6bd c366 26bb 6159 853d 80ee 033d
00000240: 2c20 92bd 2813 8d3d 4853 95bd 66d6 443d
00000250: 9f52 103e ff3b 68bd f673 e23d 6b37 c5bc
00000260: e1ca 473c e843 8bbd 0d60 f03c d504 e4bc
00000270: 54d5 863d 6e23 b63c a7fe bf3d e6f8 0a3e
00000280: 7499 673c 3546 ed3d 707b 8b3d 007a ebbc
00000290: 6739 28bd 870a 56be f54c 7ebd 8086 59bb
000002a0: 67b5 bd3d a918 06bd 7465 a6bd 50bf 98bd
000002b0: a416 fbbd e01d 4fbd 5c10 59bd abc1 12bd
000002c0: f114 043d 648b ba3c ca58 723b adc3 2dbe
000002d0: 8b51 393e 0b66 5f3e 1e52 76bd 239e 3c3e
000002e0: 1dbb c8bd 23ca 7abd 8ea7 e13d 34ed 28bc
000002f0: 14b9 5bbd fe2f 003b 674b df3d da28 7ebd
00000300: 783a 0b3e 3f51 9dbd 350a 7a3e c6e0 d4bd
00000310: 32f5 87bd 44b3 06be 478d d83c 08cf 9e3c
00000320: f7d2 3d3e 435f aa3d d717 9a3e ba0d 8f3e
00000330: 97e9 40bd aed6 3f3d e8e4 483d 84df eb3d
00000340: 0e43 bdbd a3bb 8d3c 58b2 473d 7c4b 023d
00000350: a0c1 93bd a5a2 1ebd 434c 08bd 1699 183d
00000360: e1a9 e83a 05e8 4c3d 7001 753d f2e8 283e
00000370: 126b 65bd 7cb7 fd3d ecb5 323e 5afa 313d
00000380: ada4 c23b 468d edbd a187 183e 0795 ee3d
00000390: 29d4 ffbc 3b04 4b3d 7162 fc3d 8001 08bd
000003a0: f99d b83d d48d e1bc 6636 e8bd 244d 933d
000003b0: 3ab6 8cbd 2099 f2bd cb51 24bd 9822 08be
000003c0: dc9f 63bd c8d3 e73d ba2a bf3d 6ab3 623e
000003d0: fbc1 7abe d9e7 febc dd80 453e 46d3 5d3e
000003e0: 3eb0 3c3e c0e2 0bbd cda4 18bd 010b 46bd
000003f0: 105a 4dbd 60c6 aebd 12ba cd39 c41e 033e
0.1218876 -0.03342755 0.00091783475 -0.018680947 0.07513952 0.059092123 -0.03879735 0.02015756
0.037439287 -0.12815237 0.011315651 0.10833062 0.022846468 0.15971906 0.13701089 -0.039004907
-0.01805219 -0.10751574 0.14446385 0.15366577 -0.06867965 0.21595 0.2596623 0.07178006
0.1412124 0.13832314 0.13677792 -0.007943075 0.07820887 -0.0034780942 0.1665368 0.11425214
0.11262102 0.09005118 -0.07351675 -0.06851518 -0.10375308 -0.010292501 0.12385975 0.056362316
0.06641813 -0.067928806 -0.08605373 -0.11466731 -0.036497056 0.111549065 -0.086853854 0.24323946
0.11176107 0.17119208 0.32192695 -0.039154634 0.20846546 0.19565485 0.14031109 0.03476781
0.054753654 -0.31925002 0.065500684 0.1272779 -0.12012212 0.016107934 0.07460275 0.010534247
0.029813042 -0.0016623423 0.053857345 0.26748666 0.0018238723 -0.07083025 0.10372648 -0.117801026
0.083212286 0.12273385 -0.2550866 0.08830173 0.009924294 -0.10623729 0.008559239 0.084616795
-0.013335496 -0.07702523 -0.12632248 0.047283556 0.060324524 -0.03194133 -0.38822788 -0.06516844
0.058029402 -0.0689207 0.103761986 0.079371415 -0.016186077 -0.07474209 -0.28171653 0.033046894
-0.15342207 -0.00013818365 -0.109206036 -0.09171789 0.16897957 0.13947278 -0.09308939 -0.017662182
0.1601926 0.033348676 -0.022867575 0.034926027 0.057415366 0.083851755 0.13732167 -0.103959456
0.067544505 -0.15468569 -0.13562196 0.040746354 -0.10133018 -0.097055584 0.07121085 0.17424574
0.12525027 0.40117618 0.018673114 0.02976608 0.08427021 -0.05594894 -0.041069172 0.16977645
-0.11643735 0.16250557 -0.033969022 0.06446424 0.107807234 -0.01284213 0.10932614 -0.069775835
-0.01562719 0.01763081 0.0010869484 0.1539122 -0.10457531 -0.002539084 0.06511188 0.032209873
-0.071350425 0.068884194 -0.07291275 0.04805603 0.14094017 -0.05669784 0.11057274 -0.024074277
0.012194366 -0.068000615 0.029342676 -0.027834335 0.06583658 0.022233691 0.09374743 0.1357151
0.014135707 0.115856566 0.06810653 -0.028744698 -0.04107037 -0.20902453 -0.06208511 -0.003319174
0.092631154 -0.03273836 -0.081248194 -0.07458365 -0.12260178 -0.0505656 -0.052994117 -0.035829227
0.032246534 0.022771545 0.0036979192 -0.16969176 0.18097512 0.2181627 -0.060136907 0.184197
-0.09801314 -0.06122793 0.11018287 -0.01031046 -0.0536433 0.0019559856 0.10903054 -0.062050678
0.13596523 -0.07681512 0.24417956 -0.10394435 -0.06638564 -0.13154322 0.026434554 0.01938583
0.18537508 0.08318951 0.30096313 0.2794016 -0.04709777 0.046835594 0.049046427 0.115172416
-0.09241305 0.017301386 0.048754066 0.03181027 -0.072146654 -0.03872933 -0.033275854 0.03725537
0.0017750823 0.05002596 0.059815824 0.16495112 -0.056010313 0.123885125 0.1745221 0.043451644
0.005940041 -0.115992114 0.14895488 0.116495185 -0.031229096 0.04956458 0.12323464 -0.033204556
0.09014506 -0.02753345 -0.11338501 0.07192448 -0.068706945 -0.118456125 -0.040117066 -0.13294446
-0.055572376 0.11319691 0.09334321 0.22138754 -0.2448806 -0.031116413 0.19287439 0.21662626
0.18426606 -0.034151793 -0.03726654 -0.048350338 -0.05013472 -0.08533931 0.0003923928 0.12804705

fc2.bias f4 [32]
00000000: 82ef 13bd 9697 973d f180 293e 99c3 843d
00000010: 4632 e9bb e3db ba3d 377e 453d b02f 8e3d
00000020: dafa eb3d 195b 7b3d 0056 5e3e b6f5 8dbd
00000030: a336 ae3d dc5c 783d b929 0ebd eb46 213e
00000040: 9734 3a3e acc9 fcbd 8bbc 3f3d 3081 4e3e
00000050: 94a6 84bd 109b a13c 5294 e4bd 9f38 023d
00000060: e3c7 413c 4678 cabd 62d5 e93d 157c 873d
00000070: 7427 9ebd 6e15 ecbd 39ac e63c b816 43bd
-0.036117084 0.074019596 0.16553093 0.0648262 -0.0071165888 0.09123971 0.04821607 0.069426894
0.115224555 0.061366174 0.21712494 -0.06931631 0.08506515 0.060635433 -0.03470776 0.1574971
0.18184124 -0.12343153 0.046810668 0.20166469 -0.06477085 0.01972726 -0.11161102 0.03179228
0.011827442 -0.098862216 0.11417653 0.06615464 -0.07722369 -0.11527525 0.028158294 -0.04762909

fc3.weight f4 [4, 32]
00000000: 02a4 f63b 2e2b 623e 36a4 073e 3a04 a8bd
00000010: 9d4f b0bd 4cc5 5c3d 1021 a43d b426 89bd
00000020: 4737 2f3e 44d4 25be b7d4 c03c ec0f 323d
00000030: 14be 43bd 3237 193d 0e90 2cbe 441e 963e
00000040: 3b28 683e 0064 e6bc 7257 cabb f296 81bd
00000050: 950f ac3d fb18 74be 88ac cfbd 7c55 c4bc
00000060: b318 6839 2453 4bbd 4ae3 25bc d082 793d
00000070: f0ae a3bd f81f a8bd 1e93 053e 034a 29be
00000080: a7f5 183e 5f48 f2bd 30f6 183e 7b6c 753d
00000090: f5b0 f7bd 9345 b23d 9cb1 093e 5323 72bd
000000a0: 76f5 cd3d 7767 02be 2e53 023e 87cb efbc
000000b0: 5a00 ca3d d418 10be 46a6 493d 854f f7bd
000000c0: dafa 793e 8da6 2c3e db7d 8a3c 5795 613d
000000d0: d3cd 25be c21a a13d 631a 13be d7b3 09be
000000e0: 5402 e8bc 1f53 bfbd 10db 07be 4f06 03bc
000000f0: 0d1d 31be 2651 89bc ca4b 5c3c 180b f3bd
00000100: 0d2d 1abe 8dc4 ab3c 3e6e 12bd fcf1 183e
00000110: 9eb6 04be 77b2 e83d 32b1 15bd f25e 07be
00000120: af40 14be f5a6 c53d 3189 323e 543d 253c
00000130: 62ca 23be bf9b 8fbb 6629 14bd 6613 133e
00000140: 7ea6 193e 42a9 843d 1517 a83c 647c 573e
00000150: c812 833c 4f27 afbb b88d b3bd d4ea 14bd
00000160: 6376 b0bc 79de e3bd 7828 003e 7cd4 77bd
00000170: 68e1 043d 8861 d0bc 285f 023e 96c4 bf3c
00000180: 0366 5abb 356d 923d df59 ed3d aa9c 8d3d
00000190: aae8 d9bb 0fda fbbe a00d ea3c 9135 f0bd
000001a0: a36a 333d 7fe1 153e 0c74 6dbd 6ec2 933d
000001b0: 05be 4c3e 919e 013e dc6d 04be e779 963d
000001c0: 94a3 8a3c 1d06 013e a6c3 21be 5d82 473e
000001d0: 7857 933d 4884 053e 85c8 2c3e 25fc 7e3d
000001e0: 1c7f e93d 95e7 dcbd 517b 6b3e c121 573d
000001f0: 5087 0bbc b109 89bc 9ec4 46bd c4eb 923d
0.0075268755 0.22086784 0.13246235 -0.08203931 -0.08608935 0.053899094 0.08014119 -0.06696835
0.1711093 -0.16194254 0.02353893 0.043472216 -0.047788695 0.037406154 -0.16851828 0.29319966
0.22671597 -0.028123856 -0.006174975 -0.06327619 0.084014095 -0.23837654 -0.101403296 -0.023966543
0.00022134445 -0.049639836 -0.010124991 0.06091577 -0.07992351 -0.082092226 0.13044402 -0.1653214
0.14937459 -0.1183021 0.14937663 0.05991791 -0.12094299 0.087046765 0.13446659 -0.05911572
0.100565836 -0.12734781 0.12727043 -0.029271854 0.09863348 -0.14071971 0.049230836 -0.12075714
0.24412099 0.16860409 0.016905716 0.055074062 -0.16191797 0.07866432 -0.14365534 -0.1344751
-0.028321423 -0.09342026 -0.1326716 -0.00799711 -0.17296238 -0.016762327 0.013445804 -0.1186735
-0.15056248 0.020967746 -0.035749666 0.1493606 -0.12960288 0.113621645 -0.03654594 -0.13219813
-0.144778 0.09650985 0.17435147 0.010085423 -0.15995172 -0.00438258 -0.036172293 0.14362869
0.15004918 0.06477596 0.020518819 0.21043545 0.016000167 -0.005345262 -0.08767265 -0.036356762
-0.021540826 -0.11126418 0.12515438 -0.060505375 0.032441527 -0.025437132 0.12731612 0.02340917
-0.0033324964 0.07149736 0.11589407 0.06914647 -0.00665005 -0.49189803 0.02857095 -0.11728967
0.04380287 0.14636801 -0.057972 0.07214819 0.19994362 0.12658145 -0.12932533 0.0734747
0.016923703 0.12599988 -0.1579729 0.19483323 0.07194418 0.13038743 0.16873367 0.062252183
0.11401197 -0.10786358 0.2299626 0.052522425 -0.008516148 -0.016728254 -0.048527353 0.07173875

fc3.bias f4 [4]
00000000: 514c 713e af19 913d 782e 7b3e 2306 583e
0.23564269 0.07084977 0.24529445 0.21096091
