trained_agents/policy_net4200.pth (torch, 15822 bytes, 6 tensors)

fc1.weight f4 [64, 16]
0	0xbc381868	-0.011236288
1	0xbc1349fb	-0.008989806
2	0xbe587348	-0.21137726
3	0xbe3ea35f	-0.18617009
4	0xbe5d934a	-0.21638218
5	0x3e77ee60	0.24212027
6	0x3dc414b8	0.09574264
7	0x3c9e3410	0.019311935
8	0xbdd8491f	-0.10560822
9	0x3d92d767	0.07169991
10	0xbe6663e8	-0.22499049
11	0x3e594656	0.21218237
12	0xbe4c90e4	-0.19977146
13	0x3eb2b4f2	0.34903675
14	0x3d31c231	0.043398086
15	0xbe012656	-0.1261228
16	0x3df6c499	0.12049217
17	0xbe0d37c0	-0.13790798
18	0x3e5fe609	0.21865095
19	0xbdecd7e6	-0.11564617
20	0x3dcd8b1d	0.100362994
21	0x3b1eda00	0.0024238825
22	0x3e5ee60c	0.21767443
23	0xbe3a46e8	-0.18191111
24	0xbd54b4ca	-0.051930226
25	0xbb3b1a54	-0.0028549628
26	0x3ee03385	0.43789306
27	0xbdf4c9f0	-0.11952579
28	0x3e1e88cc	0.15481871
29	0xbe0fb448	-0.14033616
30	0xbe12e016	-0.14343295
31	0xbe48e5b4	-0.19618875
32	0xbe11b16a	-0.14227834
33	0x3dfe4761	0.12415958
34	0x3dbcebf1	0.0922469
35	0xbc800f72	-0.015632365
36	0xbe4fa5dc	-0.20278114
37	0x3e1cf91c	0.15329403
38	0x3d11a432	0.03555698
39	0x3e33e8ca	0.1756927
40	0x3cda6112	0.026657615
41	0xbe1f3b4c	-0.15549964
42	0xbe0581e6	-0.13037834
43	0xbe1bdbc8	-0.15220559
44	0xbde0088c	-0.1093913
45	0x3ecf3976	0.40473527
46	0x3e6c09f8	0.23050678
47	0x3da8bf90	0.08239663
48	0xbddd7a09	-0.10814292
49	0x3eb70e69	0.35753182
50	0xbe6606ba	-0.22463503
51	0x3f0d60d1	0.55225855
52	0xbdb87304	-0.090063125
53	0xbdeb66b0	-0.114941955
54	0xbd2a0df7	-0.041517224
55	0x3e105cf8	0.14097965
56	0x3e3cd267	0.18439637
57	0xbe56e582	-0.20985988
58	0xbb418d7d	-0.0029533796
59	0x3e31b3da	0.17353764
60	0xbd2d5698	-0.04231891
61	0xbe8ff35d	-0.2811536
62	0xbe930141	-0.28711894
63	0x3d3f6560	0.046727538
64	0x3e3770fe	0.17914197
65	0xbd0ee2a8	-0.034884125
66	0x3d2a7030	0.041610897
67	0x3c7aa8e0	0.015299052
68	0xbd585cb8	-0.0528228
69	0x3cd53da0	0.026030362
70	0x3e254ec4	0.16143328
71	0xbe47cbec	-0.19511384
72	0x3e43f9ce	0.19138262
73	0x3e08d038	0.13360679
74	0xbdf1fe80	-0.1181612
75	0x3df6e608	0.12055594
76	0x3dbd625c	0.09247276
77	0x3e21c93e	0.15799424
78	0xbe396214	-0.1810382
79	0x3e129bcc	0.14317244
80	0xbe79544e	-0.24348566
81	0x3e240aa7	0.16019689
82	0x3d5b3f8d	0.053527404
83	0xbe1d23ba	-0.1534566
84	0xbce00e40	-0.027350545
85	0xbe24a81c	-0.16079754
86	0xbe4e5bc2	-0.2015219
87	0x3e300e90	0.17193055
88	0xbe778e30	-0.24175334
89	0x3e153aa1	0.14573146
90	0xbb86bd00	-0.004111886
91	0x3e2a6202	0.1663895
92	0xbe2d931a	-0.16950646
93	0x3e13188e	0.14364836
94	0xbbd2cd40	-0.006433159
95	0x3d4d9410	0.05019003
96	0xbe0b9628	-0.13631499
97	0x3dda1577	0.10648625
98	0xbe4ada90	-0.19809937
99	0xbd47f780	-0.04882002
100	0xbe04c448	-0.129655
101	0x3e17f03c	0.14837736
102	0x3cfa618b	0.03056409
103	0x3d7953b8	0.060870856
104	0xbe02abcc	-0.12760848
105	0xbcf87f1c	-0.030334048
106	0x3e7b73f9	0.24555959
107	0x3e0dc092	0.13842991
108	0xbc68c660	-0.014207453
109	0xbdbd653c	-0.092478245
110	0xbdf05918	-0.11735743
111	0xbe2ff144	-0.1718188
112	0xbe067714	-0.13131362
113	0xbe024ce8	-0.1272465
114	0xbe612e2c	-0.2199027
115	0xbd120f38	-0.035659045
116	0xbd963b20	-0.07335496
117	0x3be5ef80	0.007017076
118	0x3db912c8	0.09036785
119	0xbd7b38f0	-0.061333597
120	0xbe2a226a	-0.1661469
121	0xbd2a6e18	-0.0416089
122	0x3dcf2350	0.10114157
123	0xbdaafb04	-0.08348659
124	0xbe57632c	-0.21033925
125	0x3e1db980	0.15402794
126	0xbe2f8df6	-0.17143998
127	0xbd747630	-0.059683025
128	0x3c02014e	0.007934881
129	0xbdea3e76	-0.11437695
130	0xbc50cd96	-0.012744328
131	0xbe25188c	-0.16122645
132	0xbe9cf279	-0.30653742
133	0xbe584df4	-0.21123487
134	0x3d6f896c	0.058480665
135	0xbcac0200	-0.020997047
136	0xbde1f00c	-0.110321134
137	0xbe388072	-0.18017748
138	0xbe792b02	-0.24332812
139	0x3e075716	0.13216814
140	0x3e4813e2	0.19538835
141	0x3eb38550	0.35062647
142	0x3e86e107	0.26343557
143	0x3e27a14e	0.16370127
144	0xbda9af44	-0.082853824
145	0xbe82df58	-0.25561023
146	0xbd8dfa0c	-0.06932458
147	0xbd7b3507	-0.061329868
148	0xbe4d2fbf	-0.20037745
149	0x3d1fdd48	0.03902939
150	0xbe0f3261	-0.13984062
151	0x3d68fc68	0.05688134
152	0x3a65a53a	0.00087602774
153	0xbe805f69	-0.25072792
154	0xbe11d6fd	-0.14242168
155	0x3e1da1b4	0.15393716
156	0x3e445166	0.19171676
157	0x3e88cf16	0.26720494
158	0x3e3b6ad2	0.18302467
159	0x3c6ddf40	0.014518559
160	0x3da4cef7	0.08047288
161	0xbe715c2b	-0.23570316
162	0x3de33bbc	0.11095378
163	0xbe6c0a6e	-0.23050854
164	0xbe7a106e	-0.2442033
165	0xbe3b5f60	-0.18298101
166	0x3d02c294	0.031923845
167	0xbd1ceb68	-0.03831044
168	0xbe28b4ad	-0.16475172
169	0x3ed772db	0.42079815
170	0xbe6b3264	-0.22968441
171	0xbe02d12e	-0.12775108
172	0xbd1959a0	-0.03743899
173	0x3f004b44	0.50114846
174	0x3e27984e	0.16366693
175	0xbe5a64ca	-0.2132751
176	0x3c2f0af1	0.010683761
177	0xbc85c999	-0.01633148
178	0x3e059487	0.1304494
179	0xbe4dc043	-0.20092873
180	0xbe6643b2	-0.22486761
181	0xbd9dbafc	-0.0770168
182	0x3df7f191	0.12106622
183	0x3dae2dfc	0.085048646
184	0xbe0c81e4	-0.13721424
185	0xbe5d83f6	-0.2163237
186	0x3dbe1618	0.09281558
187	0x3c154a80	0.009112
188	0xbdc3208c	-0.09527692
189	0x3edfd111	0.43714193
190	0x3eba4d16	0.36386937
191	0x3cb7e060	0.022445858
192	0xbdebf9a4	-0.115222245
193	0x3e543ea5	0.20727022
194	0x3b479e80	0.0030459464
195	0xbd9fc08c	-0.07800397
196	0x3dffb1d8	0.12485093
197	0xbe051b94	-0.12998801
198	0xbb474580	-0.0030406415
199	0x3c664dc0	0.014056623
200	0x3e52de7e	0.20592687
201	0x3ce2f2c0	0.027703643
202	0xbe502a46	-0.20328626
203	0xbe335914	-0.1751445
204	0xbe6e7c9a	-0.23289719
205	0xbddbe9a8	-0.10737926
206	0x3df9350c	0.12168321
207	0x3e59e1f4	0.212776
208	0x3c050b04	0.008120302
209	0xbd30a48d	-0.043125678
210	0x3dd089c2	0.10182525
211	0xbd0e2c7a	-0.034710385
212	0x3e092597	0.13393246
213	0xbe023314	-0.12714797
214	0x3ee1632f	0.44020984
215	0x3dc94bd4	0.09828916
216	0xbde33e11	-0.110958226
217	0xbe603b8c	-0.21897715
218	0x3e614b36	0.22001347
219	0x3e48abdc	0.19596809
220	0xbcd41370	-0.025888175
221	0xbe4bd306	-0.19904718
222	0x3bee184f	0.0072660814
223	0xbe6d0a18	-0.23148382
224	0x3e3e570b	0.18587892
225	0xbe95c1a7	-0.29249308
226	0x3ecdc598	0.40189815
227	0xbe9057cd	-0.28191987
228	0x3ea6e9ba	0.32600194
229	0x3c5e86a0	0.013581902
230	0x3e5d5218	0.21613348
231	0xbdbb7ff0	-0.091552615
232	0xbe98da2a	-0.29853946
233	0x3e8911c6	0.26771373
234	0x3e8c1a53	0.27363834
235	0xbe5dd5de	-0.21663615
236	0xbd249188	-0.040177852
237	0xbe9d70db	-0.30750164
238	0x3eac66b7	0.33672115
239	0x3d496060	0.049164176
240	0xbd16f580	-0.03685522
241	0xbe6189bc	-0.22025198
242	0xbcd646d0	-0.026156813
243	0x3dea3254	0.114353806
244	0xbe479300	-0.1948967
245	0x3dfd744c	0.123756975
246	0xbd922e88	-0.071377814
247	0xbdaae0cc	-0.08343658
248	0x3e24954c	0.16072577
249	0x3e098b46	0.13432035
250	0x3c1a12c0	0.009403884
251	0xbd343008	-0.04399112
252	0x3e7d2120	0.24719667
253	0x3c584100	0.013199091
254	0x3d20c828	0.039253384
255	0xbe26274c	-0.16225928

fc1.bias f4 [64]
0	0x3de0133a	0.10941167
1	0x3cea665c	0.028613262
2	0x3d76dfe2	0.060272105
3	0x3e225de5	0.1585613
4	0xbe64a672	-0.22329119
5	0xbe2e7cb1	-0.17039753
6	0xbe1c7836	-0.15280232
7	0xbe5ba934	-0.21451265
8	0x3e9c0e20	0.30479527
9	0x3e48c479	0.19606198
10	0x3e621828	0.22079527
11	0x3e31cb30	0.17362666
12	0xbe6967b7	-0.2279347
13	0x3dfc414a	0.123171404
14	0x3e853a82	0.260212
15	0xbe5f44be	-0.21803567
16	0xbe40cb7e	-0.18827626
17	0x3e8b7041	0.2723408
18	0xbe82bc53	-0.25534305
19	0xbd6a5b6a	-0.057216085
20	0xbe50d307	-0.20393
21	0xbe731be5	-0.2374111
22	0x3da25986	0.079272315
23	0x3dbe1054	0.09280458
24	0xbe7bee35	-0.24602588
25	0x3dbca993	0.09212031
26	0x3e5546f2	0.20827845
27	0x3e80f263	0.25184926
28	0x3dbe26dd	0.09284756
29	0xbe17211d	-0.14758725
30	0x3d8d6bc5	0.06905321
31	0x3e899e3d	0.2687854
32	0xbe15564b	-0.145837
33	0xbd0dc29e	-0.03460943
34	0xbd382775	-0.044959504
35	0xbde6c0ca	-0.1126724
36	0xbd534c5c	-0.051586494
37	0x3d7f2290	0.06228882
38	0xbe8e5ac3	-0.2780362
39	0xbe415184	-0.18878752
40	0xbe5d05c0	-0.21584225
41	0xbdc9553d	-0.09830711
42	0xbe6e087a	-0.23245421
43	0xbe16f5b8	-0.14742172
44	0xbe6c2304	-0.23060232
45	0xbe6a9368	-0.22907794
46	0xbe829739	-0.25506
47	0xbbd2babe	-0.006430953
48	0xbe3375d3	-0.17525415
49	0x3e952f65	0.29137722
50	0xbdceff27	-0.1010726
51	0x3e231891	0.1592734
52	0x3c640817	0.013917944
53	0x3e48d413	0.1961215
54	0xbca4a137	-0.020096404
55	0x3e375b22	0.17905858
56	0x3e3ff81a	0.18746987
57	0xbe006030	-0.12536693
58	0x3e4962bf	0.19666575
59	0x3dc338df	0.09532332
60	0xbe7c885c	-0.24661392
61	0xbe2d564c	-0.16927451
62	0xbcd0152b	-0.025400719
63	0x3e68682c	0.22695988

fc2.weight f4 [32, 64]
0	0x3df12fda	0.11776705
1	0xbd345052	-0.044021912
2	0xbc13f79a	-0.009031201
3	0xbbd8ab0b	-0.006612187
4	0x3d99e2c0	0.07513952
5	0x3d720a95	0.059092123
6	0xbd3a0aae	-0.04542034
7	0x3ca52178	0.02015756
8	0x3d0b9d3e	0.034085505
9	0xbe069460	-0.13142538
10	0xba9f1cb8	-0.0012139296
11	0x3dcbb652	0.09946884
12	0x3cbb2884	0.022846468
13	0x3e1f8e1f	0.15581559
14	0x3e05dad6	0.1307176
15	0xbd1fc39c	-0.039004907
16	0xbc93e230	-0.01805219
17	0xbde2aa97	-0.11067694
18	0x3e13ee55	0.14446385
19	0x3e205787	0.15658389
20	0xbd8ca7eb	-0.06867965
21	0x3e5fa9d8	0.21842134
22	0x3e85c3d0	0.26125956
23	0x3d8a20d4	0.06744543
24	0x3e1099fc	0.1412124
25	0x3e041c5c	0.12901443
26	0x3e144853	0.14480714
27	0xbc4fd2b2	-0.012684511
28	0x3dadbf81	0.08483792
29	0xba35ceac	-0.00069353986
30	0x3e1fa303	0.15589528
31	0x3dda8dd9	0.106715865
32	0x3df1ddba	0.11809869
33	0x3dc5b740	0.09654093
34	0xbda1a8b9	-0.078935094
35	0xbd93bb95	-0.07213513
36	0xbdd538e0	-0.10411239
37	0xbb5ef9a6	-0.0034023314
38	0x3dfdaa2e	0.12385975
39	0x3d66dc2c	0.056362316
40	0x3d810eba	0.06301637
41	0xbd84d6b0	-0.06486261
42	0xbdb03cf0	-0.08605373
43	0xbdead6b2	-0.11466731
44	0xbd157df0	-0.036497056
45	0x3de473d6	0.111549065
46	0xbdb1e06f	-0.086853854
47	0x3e7a4fec	0.2444455
48	0x3de4e2fd	0.11176107
49	0x3e2b539a	0.1673111
50	0x3ea6f395	0.32607713
51	0xbd3d9f63	-0.04629458
52	0x3e5fde06	0.21862039
53	0x3e3fba06	0.18723306
54	0x3e06b944	0.1315661
55	0x3ce3434b	0.027742049
56	0x3d65228b	0.055941146
57	0xbea374bd	-0.31925002
58	0x3d783c8a	0.06060461
59	0x3dfddffe	0.12396239
60	0xbdf60296	-0.12012212
61	0x3c1e360b	0.00965644
62	0x3d9883c6	0.07447009
63	0x3c1a4fa0	0.009418398
64	0x3d1fe384	0.039035335
65	0xbc131cb3	-0.00897901
66	0x3d69a5bb	0.05704282
67	0x3e8543eb	0.2602838
68	0x3aef0f00	0.0018238723
69	0xbd910f73	-0.07083025
70	0x3dd46e8c	0.10372648
71	0xbdf141aa	-0.117801026
72	0x3da67534	0.081278235
73	0x3df7fd5e	0.12108873
74	0xbe829858	-0.25506854
75	0x3db0dc11	0.08635724
76	0x3c229982	0.009924294
77	0xbdeb73d9	-0.114967056
78	0x3b3fad47	0.0029247568
79	0x3dad4b92	0.084616795
80	0xbc5a7d20	-0.013335496
81	0xbd9f1e21	-0.077694185
82	0xbe015aae	-0.12632248
83	0x3d3e8149	0.046510015
84	0x3d7716d9	0.060324524
85	0xbd02d4e9	-0.03194133
86	0xbec6c5ce	-0.38822788
87	0xbd8cbd1b	-0.068720065
88	0x3d6db03d	0.058029402
89	0xbd966ae2	-0.07344605
90	0x3dce6dbb	0.10079523
91	0x3d9e27bd	0.07722423
92	0xbcc53092	-0.024071012
93	0xbd9d353b	-0.076761685
94	0xbe902bc0	-0.2815838
95	0x3cf95bf7	0.03043936
96	0xbe1d1aad	-0.15342207
97	0xbb121d4a	-0.002229529
98	0xbdd8575e	-0.10563539
99	0xbd9ee468	-0.07758409
100	0x3e27adfb	0.16374962
101	0x3e09d433	0.13459854
102	0xbdbea5a6	-0.09308939
103	0xbc90b048	-0.017662182
104	0x3e13185b	0.1436476
105	0x3ce22adf	0.027608333
106	0xbcbb54c8	-0.022867575
107	0x3d0f0e98	0.034926027
108	0x3d6b2c60	0.057415366
109	0x3dabba78	0.083851755
110	0x3e0c9e0d	0.13732167
111	0xbdd92ff9	-0.10604853
112	0x3d8a54c6	0.067544505
113	0xbe20f0e2	-0.1571689
114	0xbe0ae07c	-0.13562196
115	0x3d40555f	0.046956416
116	0xbdcf8633	-0.10133018
117	0xbdd1db7a	-0.1024694
118	0x3d9a664c	0.07539043
119	0x3e2cdb4b	0.16880529
120	0x3dfc1de3	0.12310388
121	0x3ecac911	0.39606526
122	0x3c5b1a75	0.013373007
123	0x3cbc0ca1	0.02295524
124	0x3dac95dc	0.08427021
125	0xbd652ab7	-0.05594894
126	0xbd295e38	-0.04134962
127	0x3e2a8fad	0.1665637
128	0xbdfc5eb3	-0.1232275
129	0x3e22cd44	0.15898615
130	0xbd27ca32	-0.040964313
131	0x3d7fb4c3	0.062428247
132	0x3ddcca0a	0.107807234
133	0xbc5267cc	-0.01284213
134	0x3ddf06e2	0.10889985
135	0xbd8ee6a2	-0.069775835
136	0xbc94f8b5	-0.018184999
137	0x3c53dcb6	0.01293104
138	0xbc222a66	-0.009897804
139	0x3e1bc6c3	0.1521254
140	0xbdd62b95	-0.10457531
141	0xbb56c155	-0.0032769043
142	0x3d83e7d1	0.064407
143	0x3d03ee80	0.032209873
144	0xbd92202c	-0.071350425
145	0x3d810fd0	0.06301844
146	0xbd955348	-0.07291275
147	0x3d301514	0.04298885
148	0x3e10529f	0.14094017
149	0xbd79fd28	-0.061032444
150	0x3dd5a53a	0.10431905
151	0xbd12933f	-0.035784956
152	0x3c47cae1	0.012194366
153	0xbd963ba8	-0.07335597
154	0x3cd2aa48	0.025715962
155	0xbd06df7c	-0.032927975
156	0x3d8d4584	0.06898025
157	0x3c9c53d6	0.019082945
158	0x3db501d4	0.08838239
159	0x3e0a36ca	0.13497463
160	0x3c293e02	0.010329725
161	0x3de82a33	0.11336174
162	0x3d81f661	0.06345821
163	0xbd25fca8	-0.040524155
164	0xbd1fe97d	-0.03904103
165	0xbe5d160f	-0.21590446
166	0xbd7e4cf5	-0.06208511
167	0xbb598680	-0.003319174
168	0x3db1ea09	0.08687217
169	0xbd0d16c6	-0.034445547
170	0xbda66574	-0.081248194
171	0xbd98bf50	-0.07458365
172	0xbdfb16a4	-0.12260178
173	0xbd4f1de0	-0.0505656
174	0xbd59105c	-0.052994117
175	0xbd18cacd	-0.03730278
176	0x3d0414f1	0.032246534
177	0x3c94bb88	0.018155828
178	0xbb1ede5f	-0.002424143
179	0xbe44a423	-0.19203238
180	0x3e3d04f4	0.1845892
181	0x3e5b573d	0.21419998
182	0xbd94a555	-0.07258097
183	0x3e40bb1e	0.1882138
184	0xbdd40f61	-0.10354496
185	0xbda536dd	-0.08067105
186	0x3ddee2e4	0.1088312
187	0xbc694512	-0.014237659
188	0xbd5bb914	-0.0536433
189	0xbc0d5e1b	-0.0086283935
190	0x3dd33c1c	0.10314199
191	0xbd82e265	-0.063908376
192	0x3e033826	0.12814388
193	0xbd928866	-0.07154922
194	0x3e7bb304	0.24580008
195	0xbdc5f68b	-0.09666165
196	0xbd87f532	-0.06638564
197	0xbe06b344	-0.13154322
198	0x3d18e855	0.037330944
199	0x3c9ecf08	0.01938583
200	0x3e397b5e	0.18113467
201	0x3da5a499	0.08088035
202	0x3e9b058a	0.30277663
203	0x3e8de2cc	0.27712095
204	0xbd40e997	-0.04709777
205	0x3d3c993a	0.046044566
206	0x3d3be480	0.04587221
207	0x3debdf84	0.115172416
208	0xbdbd430e	-0.09241305
209	0x3c5bd642	0.013417782
210	0x3d47b258	0.048754066
211	0x3cba3b04	0.022733219
212	0xbd93c1a0	-0.072146654
213	0xbd30ff43	-0.043212187
214	0xbd1c97ed	-0.038230825
215	0x3d1d6ef2	0.038435884
216	0x3ae8a9e1	0.0017750823
217	0x3d676ecc	0.05650215
218	0x3d521fdc	0.051299915
219	0x3e251a70	0.16123366
220	0xbd813a55	-0.06309954
221	0x3de986e0	0.114026785
222	0x3e2dcd62	0.16972879
223	0x3d221b09	0.039576564
224	0xbb853147	-0.004064712
225	0xbdf9d233	-0.121982954
226	0x3e1a4321	0.1506467
227	0x3df14d1f	0.11782288
228	0xbd02851b	-0.03186522
229	0x3d7b7737	0.06139299
230	0x3dfc6271	0.12323464
231	0xbd080180	-0.033204556
232	0x3db1d5bd	0.086833455
233	0xbce4198d	-0.027844215
234	0xbde83666	-0.11338501
235	0x3d934d24	0.07192448
236	0xbd8cb63a	-0.068706945
237	0xbdf29920	-0.118456125
238	0xbd2451cb	-0.040117066
239	0xbe100245	-0.14063366
240	0xbd639fdc	-0.055572376
241	0x3ddca87d	0.10774324
242	0x3daadefd	0.08343313
243	0x3e6ce205	0.23133095
244	0xbe872d9a	-0.2640198
245	0xbcf28c4c	-0.029607914
246	0x3e50b716	0.20382342
247	0x3e55b730	0.20870662
248	0x3e3879c6	0.18015203
249	0xbcc36b66	-0.023854923
250	0xbd1bf4b7	-0.038075175
251	0xbd4384e7	-0.047734167
252	0xbd4d5a10	-0.05013472
253	0xbdabcb6d	-0.0838841
254	0x3a93cbe3	0.0011275973
255	0x3e029136	0.12750706

fc2.bias f4 [32]
0	0xbd26624b	-0.040621083
1	0x3d910fcb	0.070830904
2	0x3e260f48	0.16216767
3	0x3d8a0976	0.06740086
4	0xbbe93246	-0.0071165888
5	0x3dcd6183	0.100283645
6	0x3d2ebb1c	0.04265891
7	0x3d8e2fb0	0.069426894
8	0x3deebb31	0.11656798
9	0x3d7b5b19	0.061366174
10	0x3e5f6566	0.21816024
11	0xbd8df5b6	-0.06931631
12	0x3db0497d	0.08607767
13	0x3d728e04	0.059217468
14	0xbd323f0d	-0.04351716
15	0x3e236c75	0.15959342
16	0x3e3ef3ff	0.18647765
17	0xbdfcc9ac	-0.12343153
18	0x3d3246d9	0.043524597
19	0x3e5076a3	0.20357756
20	0xbd84a694	-0.06477085
21	0x3c56764b	0.013089727
22	0xbde49452	-0.11161102
23	0x3d02389f	0.03179228
24	0x3c41c7e3	0.011827442
25	0xbdca7846	-0.098862216
26	0x3df036b6	0.11729185
27	0x3d877c15	0.06615464
28	0xbd9e2774	-0.07722369
29	0xbdec156e	-0.11527525
30	0x3ce6ac39	0.028158294
31	0xbd4316b8	-0.04762909

fc3.weight f4 [4, 32]
0	0x3b8f919c	0.0043813717
1	0x3e58a352	0.21156052
2	0x3e058e97	0.13042675
3	0xbda4c44d	-0.08045254
4	0xbdb04f9d	-0.08608935
5	0x3d827fd5	0.06372038
6	0x3d9a6cd6	0.0754029
7	0xbd8926b4	-0.06696835
8	0x3e2cd009	0.16876234
9	0xbe25d444	-0.16194254
10	0x3cdff6ed	0.027339423
11	0x3d320fec	0.043472216
12	0xbd409848	-0.047020227
13	0x3d1aa9da	0.03775964
14	0xbe2effdb	-0.17089789
15	0x3e96c3da	0.29446298
16	0x3e6b6bf2	0.22990397
17	0xbce66400	-0.028123856
18	0xbc052b69	-0.008128026
19	0xbd75c3da	-0.06000123
20	0x3dac0f95	0.084014095
21	0xbe71c161	-0.23608924
22	0xbdcfac88	-0.101403296
23	0xbcc4557c	-0.023966543
24	0x396818b3	0.00022134445
25	0xbd4b5324	-0.049639836
26	0xba9949e5	-0.0011694996
27	0x3d7982d0	0.06091577
28	0xbda3aef0	-0.07992351
29	0xbda81ff8	-0.082092226
30	0x3e05931e	0.13044402
31	0xbe294a03	-0.1653214
32	0x3e241523	0.16023688
33	0xbdfab0c4	-0.122407466
34	0x3e203e0f	0.15648673
35	0x3d849f1e	0.06475662
36	0xbdf7b0f5	-0.12094299
37	0x3dd7a715	0.10529915
38	0x3e104d84	0.1409207
39	0xbd722353	-0.05911572
40	0x3de1d2e4	0.11026552
41	0xbe026777	-0.12734781
42	0x3e0a0de2	0.13481858
43	0xbcefcb87	-0.029271854
44	0x3dd97f66	0.106200024
45	0xbe100f12	-0.14068249
46	0x3d7019f4	0.0586185
47	0xbdfd68f7	-0.12373536
48	0x3e809fc9	0.25121906
49	0x3e2ca68d	0.16860409
50	0x3c2104ea	0.009827832
51	0x3d6bd24b	0.057573598
52	0xbe25cdd3	-0.16191797
53	0x3db0c788	0.086318076
54	0xbe131a63	-0.14365534
55	0xbe09b3d7	-0.1344751
56	0xbce80254	-0.028321423
57	0xbdbf531f	-0.09342026
58	0xbe0e3d15	-0.13890488
59	0xbc03064f	-0.00799711
60	0xbe311d0d	-0.17296238
61	0xbc895126	-0.016762327
62	0x3c5c4bca	0.013445804
63	0xbdf30b18	-0.1186735
64	0xbe07c006	-0.13256845
65	0x3d32629e	0.04355108
66	0xbcec3de5	-0.028838107
67	0x3e11de6b	0.14245002
68	0xbe04b69e	-0.12960288
69	0x3debe992	0.115191594
70	0xbcdfe04b	-0.02732863
71	0xbe075ef2	-0.13219813
72	0xbdfe3c66	-0.12413864
73	0x3dc5a6f5	0.09650985
74	0x3e29d518	0.16585195
75	0x3c253d54	0.010085423
76	0xbe1a405b	-0.15063612
77	0xbbab3158	-0.005224388
78	0xbcde42b4	-0.027131416
79	0x3e1250c4	0.14288622
80	0x3e18b57c	0.14912981
81	0x3d84a942	0.06477596
82	0x3c05cda3	0.008166703
83	0x3e4fc10e	0.20288488
84	0x3c8312c8	0.016000167
85	0xbc7afd03	-0.015319112
86	0xbdb38db8	-0.08767265
87	0xbd14ead4	-0.036356762
88	0xbcb07663	-0.021540826
89	0xbde3de79	-0.11126418
90	0x3def6faf	0.11691224
91	0xbd77d47c	-0.060505375
92	0x3d04e168	0.032441527
93	0xbcd06188	-0.025437132
94	0x3e025f28	0.12731612
95	0x3cbfc496	0.02340917
96	0x3b0facfd	0.0021923177
97	0x3d9dc73d	0.07704017
98	0x3def4b75	0.11684314
99	0x3d910113	0.07080283
100	0xbbd9e8aa	-0.00665005
101	0xbf069870	-0.5257635
102	0x3d02edd8	0.031965107
103	0xbdf03591	-0.11728967
104	0x3d5252b8	0.051348418
105	0x3e15e17f	0.14636801
106	0xbd5b5c95	-0.05355509
107	0x3d93c26e	0.07214819
108	0x3e4f959d	0.20271917
109	0x3e00cbd3	0.12577753
110	0xbdeb423c	-0.114872426
111	0x3d9fdaf7	0.07805436
112	0x3caa7ef2	0.020812485
113	0x3e01061d	0.12599988
114	0xbd8ada98	-0.06779975
115	0x3e4c115b	0.19928496
116	0x3d935778	0.07194418
117	0x3df4b937	0.119493894
118	0x3e2cc885	0.16873367
119	0x3d7efc25	0.062252183
120	0x3de97f1c	0.11401197
121	0xbddce795	-0.10786358
122	0x3e5d14d7	0.21589981
123	0x3d5721c1	0.052522425
124	0xbc0b8750	-0.008516148
125	0xbc8909b1	-0.016728254
126	0xbd46c49e	-0.048527353
127	0x3d92ebc4	0.07173875

fc3.bias f4 [4]
0	0x3e762f9d	0.240416
1	0x3da71926	0.081590936
2	0x3e82f795	0.25579515
3	0x3e5a7acd	0.21335907
