trained_agents/policy_net_CNN_600.pth (torch, 16210 bytes, 10 tensors)

conv_block1.0.weight f4 [10, 3, 3, 3]
00000000: 291d 6e3e 5481 643e 0dce 2d3e 53cf 33be
00000010: 9f47 523e e898 c6bd ece2 8dbd d110 0b3b
00000020: edb9 16be 42d6 333e e4d9 163d 41f4 7b3e
00000030: 9c29 2d3d 2d02 083e 359f 04be c03b 5dbc
00000040: 9dc0 1fbe 44ce 48bd cc6a 853e e23b 533e
00000050: cd81 2d3e 4561 92bd ea09 c53d 7b47 afbc
00000060: a395 e9bd 527f 093d f2d3 a4bd fabf b23d
00000070: 9426 36bc 1017 e23c 5919 a83d abc6 a03d
00000080: 1716 e0bd 5878 06be 6a6f e73d 28d2 003d
00000090: d071 05bd 4ab0 123d 707d 8d3d ed7a c6bd
000000a0: 6c75 d03b 05ca 37be 9fe4 dcbd d006 46bd
000000b0: f48e 1abe e0ca 23bd 6434 9d3d e259 5fbc
000000c0: 957e 69bd 1b32 343d e1f6 0b3e aa3f a03d
000000d0: f544 0cbe ac48 13be b467 9b3e b7f3 0b3e
000000e0: 3e8d c43e 4a14 a23d 8414 64be 54ea 00be
000000f0: 7206 e13e b534 27be fd13 4e3e 9c05 91bc
00000100: 1b6e fd3d 38a7 693e 1fb0 d8bd 7fe8 c33d
00000110: 0eda 2bbe 9aaf b93d fe8d 83ba 20ae 0b3e
00000120: f9f4 853e 2e58 4a3e c557 a23e 8870 a0bd
00000130: 1911 ebbd 04ad 78bd f403 543e 29a6 29be
00000140: a2ef b1bd e620 ffbd 259c 843e 1e9e 0b3e
00000150: 7d5b 5d3d a565 00be e643 2d3e e004 9e3e
00000160: b4ac ffbd 9a87 36be a3c7 293d 90d5 5d3e
00000170: f94a 49be a066 0dbe 47bb bfbd a990 2abd
00000180: 02d5 6c3c 5e9d 6a3d 9da9 b03d c57b 3ebe
00000190: 8e2e 303d 60e4 253e b4cf 6abd 9b9e 86bd
000001a0: 3382 22bb f26d d83d 6af9 50be 76c0 0dbe
000001b0: c80a 2cbd d580 043e c131 66be 99a9 4dbe
000001c0: 8283 2cbe 1def 7dbe d241 0d3f 0ff1 e83e
000001d0: dc01 7ebe b6cc e6bc b247 d2bd 3100 bbbd
000001e0: 0f44 1a3d 15a1 863d eba7 8c3d c0cd a43e
000001f0: 3277 843e 50ad 80bd bacd 07be 0aa0 14be
00000200: 209e 4a3c e558 33be 53dd 8fba d70f 89bd
00000210: f84f 033f b709 533e ae5b 43bd e5b1 413d
00000220: 9fec 1bbe 5e47 d43e 199f 993e 4121 57bd
00000230: 793e d6bc df22 af3e e962 bcbd 0da3 4dbe
00000240: ac75 4e3d 0fb9 b7bd d9b3 ce3e c3a3 b63d
00000250: d24d 32be a02c 17be 6eef a83e f029 003e
00000260: ba2c b2bc cec1 473e 687d 453e 9a73 533e
00000270: a4a2 543e 372c 0abe b227 74be e28f dd3d
00000280: 1651 693d b01d ce3c e426 0b3b 6436 24be
00000290: c0ca 1ebe b1a3 d0bd 66bc 00be 3974 debd
000002a0: 03de 403d 3158 1fbe 3d87 36be 4d7e 623d
000002b0: 5b14 1bbe 10ef 8d3c 1855 2bbe bfa0 ce3d
000002c0: 1f15 2f3e a781 af3d bbda 333e 0fa1 cf3d
000002d0: 9a7b 893e 0039 583a 1465 4ebd abd5 b7bd
000002e0: 29da e0bd ef4c 26bc d76d 523e 7ed5 a3bd
000002f0: 243c 81bd ec42 f53d 4f76 16be 066b f43e
00000300: e43c af3e a00d c6bd 16c0 c03d c7ed 81be
00000310: 0a24 32be c02a a3bc b28d 453e b406 eabd
00000320: 1b3b bc3e 5053 653e 3b0b f1bd 7fc4 0e3e
00000330: 498e c93c 76d2 97be d73b 68bc 89a5 d43d
00000340: bd5e 85be a963 f53e 919b 003e 0ed4 58bd
00000350: fe0e 033e efef c1bd 68d4 5cbc a2d8 08bc
00000360: 6a33 19be 1a3d 1ebe 11b8 3b3d 919e ad3e
00000370: d1c9 43be d878 903e 3549 803e e354 c93e
00000380: 0d24 70bd b1a2 023e 823d cc3d 7ba4 9a3d
00000390: 4f82 083e e8c8 583d 6711 4f3e 4aff 183e
000003a0: 8428 923e 6e2f 7fbd 457d 183e 0f7f 8cbd
000003b0: 2be2 8a3d b9ab 873e 121a 87bd c33f 583e
000003c0: 5f10 efbd 54a8 813e 39d7 073d c2cf bebd
000003d0: b710 693e 72c4 3ebe 977e d13c 50c4 40bd
000003e0: dfb7 febd 4bc0 ee3e 203f 38be 293e a23c
000003f0: 6a2b b73d bd83 2c3d 3901 b0bd c01c cebd
0.23253311 0.2231496 0.16973133 -0.17559557 0.20535134 -0.09697133 -0.069280475 0.002121974
-0.14719363 0.17562202 0.03682889 0.24604894 0.04227601 0.1328208 -0.12951358 -0.013503015
-0.1560082 -0.049024835 0.26058042 0.20628312 0.16944046 -0.07147459 0.096210316 -0.02139639
-0.11405494 0.033568688 -0.08048238 0.08728023 -0.011117596 0.027598888 0.0820796 0.07850393
-0.10941713 -0.13131845 0.113005474 0.03145042 -0.032579243 0.035812654 0.06908691 -0.09691415
0.006361654 -0.17948158 -0.107857935 -0.04834634 -0.15093595 -0.0399884 0.07676008 -0.01363227
-0.057005484 0.043993097 0.13668396 0.07824643 -0.1369818 -0.14383191 0.30352557 0.13667189
0.3838901 0.07914026 -0.22273451 -0.12589389 0.4395023 -0.163287 0.20124812 -0.01770287
0.123745166 0.22817695 -0.105804674 0.095658295 -0.167824 0.090666965 -0.0010036824 0.13640642
0.26163462 0.197602 0.31707588 -0.07833964 -0.114778705 -0.060711876 0.20704633 -0.16567291
-0.086882845 -0.12457447 0.2590038 0.13634536 0.05404233 -0.12538774 0.16920432 0.30863094
-0.124841124 -0.17825165 0.041450154 0.21663499 -0.19657506 -0.1380868 -0.09361892 -0.041641865
0.014455082 0.057278983 0.08626101 -0.18601902 0.043013148 0.162004 -0.057326987 -0.0657322
-0.0024796843 0.105678454 -0.20407644 -0.1384295 -0.04200247 0.1293977 -0.22479917 -0.20084228
-0.16847041 -0.24798246 0.5517856 0.45496413 -0.24805397 -0.028173786 -0.10267581 -0.09130896
0.037662562 0.06573693 0.06867965 0.32188225 0.2587219 -0.06283057 -0.13262072 -0.14514175
0.0123668015 -0.1751438 -0.0010975994 -0.06692474 0.512939 0.20609175 -0.047694854 0.047288794
-0.15226983 0.414607 0.30004194 -0.052521948 -0.026152836 0.34206292 -0.09198553 -0.2008173
0.05040519 -0.08970844 0.40371588 0.08917954 -0.17412499 -0.14763117 0.3299517 0.12515998
-0.021749843 0.19507524 0.1928612 0.20649567 0.20765167 -0.13493429 -0.23843268 0.10818459
0.056962095 0.02516064 0.0021232897 -0.16036373 -0.1550703 -0.10187472 -0.12571868 -0.108620115
0.047086727 -0.15560986 -0.17825027 0.05529623 -0.15144484 0.017325908 -0.1673168 0.10089254
0.17097901 0.08569651 0.17563908 0.10138141 0.26852113 0.000824824 -0.050389364 -0.08976301
-0.10979111 -0.010150178 0.20549713 -0.07999705 -0.06310299 0.11975655 -0.14693569 0.47737902
0.34226143 -0.096705675 0.094116375 -0.25376722 -0.1739656 -0.019917846 0.19292334 -0.1142706
0.36763844 0.22395062 -0.1176972 0.13942145 0.02460398 -0.29652756 -0.014174423 0.10383136
-0.26048842 0.47927597 0.12559344 -0.052936606 0.12798688 -0.09469592 -0.013478376 -0.008352431
-0.14961019 -0.15452996 0.045829836 0.3391004 -0.19119956 0.28217196 0.25055853 0.39322576
-0.05862813 0.12757374 0.09972669 0.075509034 0.13330959 0.052925974 0.20221482 0.14941135
0.28546536 -0.06230109 0.14891537 -0.06860172 0.06781419 0.264982 -0.065967694 0.21118073
-0.116730444 0.25323737 0.033164237 -0.093169704 0.22760282 -0.18629625 0.025573058 -0.04706222
-0.124374144 0.46631083 -0.1799283 0.01980503 0.089438275 0.042117823 -0.08593983 -0.100640774

conv_block1.0.bias f4 [10]
00000000: f8a1 ed3d 1e41 f6bd 1730 413e af0b 2c3e
00000010: b135 663e a8f3 033e 9db9 0c3e 2d90 7f3e
00000020: f595 0c3d 28b9 e93d
0.11603159 -0.12024139 0.18866001 0.16801332 0.22481419 0.12885916 0.13742681 0.24957342
0.034322698 0.11412269

conv_block1.2.weight f4 [10, 10, 3, 3]
00000000: a9cf b13d f52c 3fbe c673 513e a6d4 1c3d
00000010: 0e16 c73d 14e8 913e 5363 e3bd 5d51 e73b
00000020: 1ec5 423d d800 14bd 4fa1 8fbd f84e b7bc
00000030: 6b42 a9bd 4379 aebd 1b66 be3c c01f 47bc
00000040: 30fd f8bc dd15 88bb c46e 04be dcd4 31be
00000050: 259c 243d d1ec 263e 77b9 093e fca1 d23d
00000060: 5f2f d3bd c742 91bc 3a7d 133c d39f 72be
00000070: 7b46 f43b a869 853c f095 7b3e b193 e23c
00000080: df6f 8c3e 4f3f 6c3d ce14 7c3c 959b 2d3e
00000090: 48e8 0f3e 3ce4 1bbe 9eb0 8a3d ce8d 053e
000000a0: 83bf f4bd 66a6 9e3d 8409 eabd 247d a5bd
000000b0: 1a7c e9bc 07d3 dbbd 6a3c 793d 2245 963e
000000c0: 2190 8fbd f098 f93d 4d7d 31bd d3f6 f13d
000000d0: fd10 e73d 1dc2 763d e7e6 4d3e 6eef 93bd
000000e0: 4969 f3bd d048 c33d 88c4 0cbe 7a1f 58bd
000000f0: a001 05be 8abe 45bc df64 15bc ec0b fdbd
00000100: 3a4b cc3d 8ccc 5b3e 89f7 87be fa88 0d3e
00000110: c0cd a8bc 95ff 6f3e cd52 1c3b 4334 193e
00000120: ffad f5bd 63c5 fb3d 9e7c 013e 6bb8 eabc
00000130: 0dcb 2a3d e2b0 96bd 01ed 043e db6f b8bd
00000140: 791a 0f3c ce63 82be 0963 b7bd ac2d 56be
00000150: 87c6 1a3e 71ff 09be 6bf7 8f3c 9650 3d3d
00000160: f69e d0bd 1ed9 ca3d c53f bfbc 4d67 b53d
00000170: eb95 bc3c 746d ec39 a9a0 3dbd 50cb 86bd
00000180: 908c e8bd 277f 023e 46e1 e3bd 21cf 08be
00000190: a380 c83d 21c6 a93b c458 4f3d f5e3 6abd
000001a0: c69b 16bd f55b b8bc 6af2 54bc a25b 88bd
000001b0: b687 9abd d192 b93c 92fb 88bd 9855 cd3d
000001c0: 52bd 62bd c1db 123e 357c 3dbe 1081 e8bd
000001d0: ee55 8c3d 1b39 d1bc 38b6 07bd a6ed d23c
000001e0: 4919 bbbc eed5 8bbd 4668 bb3c 1711 17bd
000001f0: 5a1e cabd 9a21 e4bc 0ee3 cf3d 0569 a03d
00000200: 684b 01be 75d3 473d f604 2e3e bebd 4e3e
00000210: 95ac 36be fdba 44bd 11e3 9fbc fec9 163d
00000220: 90f5 cabd 5337 b93d 56db e63b 3362 b9bd
00000230: ea89 3d3e 99e8 a13c c00d 9cbd f237 273e
00000240: 51fa 233c 005a 9c3c b3d6 db3d 021f bb3d
00000250: 3700 9fbd 4316 1a3e c5d6 0bbe 0bfb c1bd
00000260: 2a8a f0bd e81e 903d 71fb dfbd 27c2 db3d
00000270: 3af0 1fbc 5f0d 04be 9547 6d3d f856 26bd
00000280: da1c 21bd f146 c93d cfba bc3c 4be5 29be
00000290: 90ed ba3d 74f0 5cbd e267 5d3e 1c55 a63d
000002a0: a363 7b3e 4452 b9bd 665b 643e 0500 32bd
000002b0: ea44 013e 00bc 4d3e 67a4 263e e2be 04be
000002c0: a8f1 883e c747 91bd 1cea 05be 1014 6f3c
000002d0: b4b4 a5bd 78d0 873d 5551 bc3c 1f03 a3bd
000002e0: 4343 1fbc 7dcc 3f3b 87a5 af3c 560f 3fbd
000002f0: c5c7 23bc 638e 8ebc 9070 efbd 80cc b63d
00000300: d7bb 1bbb b730 6abd 1d54 93bd a0c9 1ebd
00000310: 70a1 aa3d cca4 1dbd 8f2a d23c 3a1c 633d
00000320: 9878 943b 415e 90bb 5859 b2bc dac1 013d
00000330: 3b3d 463e aadf 4abe 236a 893d 749d 013e
00000340: 650d 75bb 9537 353e 3391 4d3d 31e5 88bd
00000350: e066 853d 41fc e3bd ed3d 9b3c ac06 193e
00000360: 5d53 493e c2bd 4fbe 3d62 86bd daf3 6dbb
00000370: fc91 25be eec1 b73a 92bf 84bd 636a 063e
00000380: 1718 243e 0f9e 893c 9d5e 253e 0f95 0dbd
00000390: 737e a53d 39da 90bd 24c1 25be 452c 4b3c
000003a0: 70e2 80bd 0f64 593e de41 fcbb 92b8 7c3d
000003b0: 8b90 dfbd 04a5 2fbe 9d61 e63d eff3 5a3c
000003c0: 4053 633e e28d ce3c 4298 f03d bd6b 32be
000003d0: 4eaf d23d 5d7f 233d ff3c 903c 6577 3a3c
000003e0: 7740 bfbb c9ee 31bd 4022 7b3d 2144 1f3e
000003f0: 51fb 59bd 82f8 69bc 0166 4ebd 183f 023d
0.08682186 -0.18669493 0.2045432 0.038288735 0.097210035 0.28497374 -0.11102929 0.00705926
0.047551267 -0.036133617 -0.07013189 -0.022376522 -0.08264621 -0.085192226 0.023242047 -0.012153566
-0.030394167 -0.004152997 -0.12932879 -0.17366356 0.040187974 0.16301276 0.13449655 0.10284802
-0.1031177 -0.017732037 0.009002024 -0.2369378 0.007454691 0.016285732 0.24568915 0.027658315
0.274291 0.057677563 0.01538582 0.16953881 0.14053452 -0.15223783 0.06771968 0.13042375
-0.119505905 0.07746582 -0.11427596 -0.08080509 -0.028501559 -0.1073361 0.06084863 0.2934962
-0.07009912 0.12187374 -0.043332387 0.11814656 0.11282537 0.060243715 0.20107614 -0.07223402
-0.11885316 0.09535372 -0.13746846 -0.052764393 -0.12988901 -0.012069354 -0.009118288 -0.123557895
0.09975286 0.21464747 -0.26556042 0.13821784 -0.020605922 0.2343734 0.0023853064 0.14961343
-0.11996078 0.12293508 0.12645194 -0.02865239 0.04169755 -0.073579565 0.12981035 -0.0900571
0.008734339 -0.2546677 -0.08954436 -0.2091586 0.15114795 -0.1347635 0.017574033 0.04621943
-0.101865694 0.09904693 -0.023345837 0.08857594 0.023020705 0.00045094977 -0.046295796 -0.065817475
-0.11354935 0.12743817 -0.11126952 -0.13360263 0.097901605 0.0051810895 0.050621763 -0.057346303
-0.03676965 -0.022504786 -0.012997249 -0.066581026 -0.07545416 0.022653015 -0.06688608 0.10026091
-0.05535633 0.14341642 -0.18504412 -0.11352742 0.06852327 -0.025539925 -0.03313276 0.025748085
-0.022839205 -0.06827913 0.02287687 -0.036881533 -0.0986907 -0.027848054 0.10150729 0.07832531
-0.12626421 0.048785646 0.1699408 0.20189568 -0.17839272 -0.04802989 -0.019517453 0.03681373
-0.099101186 0.090437554 0.00704519 -0.09051933 0.18509641 0.019764232 -0.0761981 0.16329935
0.010008411 0.019085884 0.1073431 0.09136774 -0.07763713 0.15047555 -0.13656147 -0.09471711
-0.11745103 0.07037145 -0.109366305 0.10730391 -0.009761864 -0.12895726 0.057929594 -0.040610284
-0.039334156 0.09827984 0.023038296 -0.16591375 0.09127343 -0.05394025 0.2162166 0.08121702
0.24549727 -0.09048894 0.2230049 -0.04345705 0.12623945 0.20091248 0.16273652 -0.12963441
0.2674687 -0.070937686 -0.13077587 0.014592186 -0.08091107 0.06631559 0.022988 -0.0795958
-0.009720626 0.0029266172 0.021441234 -0.046645485 -0.009996359 -0.01740188 -0.116913915 0.08925724
-0.0023763084 -0.057175364 -0.07193778 -0.038766503 0.08331573 -0.03848724 0.02565506 0.05544684
0.0045309775 -0.004405767 -0.021771118 0.031679012 0.19359295 -0.19811884 0.06709697 0.1265772
-0.0037392017 0.17696984 0.0501873 -0.0668434 0.065137625 -0.11132098 0.018950427 0.14943951
0.19660707 -0.2028723 -0.06561706 -0.0036308677 -0.1616897 0.0014019588 -0.06481852 0.13126521
0.16024815 0.016799001 0.16149373 -0.03456598 0.08080759 -0.07072873 -0.16186959 0.012400691
-0.062931895 0.21229576 -0.0076982817 0.061699457 -0.10916241 -0.17152792 0.11249087 0.013363822
0.22199726 0.02521414 0.11747791 -0.17423911 0.10287343 0.039916385 0.01760721 0.011381005
-0.005836542 -0.043440614 0.06131196 0.15553333 -0.05321819 -0.01428044 -0.050390247 0.031798452

conv_block1.2.bias f4 [10]
00000000: 027e 6a3d 67a6 b13d 018d 753d 129d bebd
00000010: ae28 023e b0c0 f0bc af34 4fbd 53c2 f73d
00000020: a26e 473d fbe4 223e
0.057249077 0.08674317 0.059948925 -0.093073025 0.1271083 -0.029388756 -0.050587352 0.12097611
0.048689492 0.15907662

conv_block2.0.weight f4 [10, 10, 3, 3]
00000000: fb4b 80bd e4f5 033e 9056 6d3b 08c2 6f3d
00000010: f767 68bc 2165 0a3d 2d0d 1c3a 59fc 84bd
00000020: 35be 82bd 9aa3 df3d 96fb 8d3d 1cba 7bbd
00000030: e3c7 d5bb 3b43 bbbd 7fec 183e c1e6 aabb
00000040: f797 c23d 4bb8 acbd a2fb bb3d 0a47 d43d
00000050: 8153 72bd fd25 e43c f19c c1bd 3f4a 1cbd
00000060: 3757 9a3d 2eae 4b3e f8a4 13be 1f64 f1bd
00000070: 64dc 22be 506d 54be 69f6 1d3e 07e2 143e
00000080: f0fd 863e 9983 1b3e b7ed 333e 28ad a23d
00000090: 0027 533d 6735 4c3e e711 37be f163 2bbd
000000a0: 7e7d 97bd 42ef 503d 82e5 e63b e2af a43d
000000b0: aa95 2bbe e646 f83d e128 543d 828b 4e3d
000000c0: f31f 153e 10ac 293e 18d3 463d ae64 6dbc
000000d0: bf17 203e 82ab f8bd 24b1 963d 1248 c13d
000000e0: 26fa e8bc 5cfa 8fbc 1928 e9bd 3b37 d43c
000000f0: 4c19 ea3d 8e11 05bd 50a4 8b3b ea7c d53d
00000100: e6ef 573d 7124 22bd dbab 94bd 6c68 49be
00000110: 37b4 533e 1d6a 02bb 15c2 233e 1aec ddbd
00000120: a6d9 37bd 1fb3 c53d 613a 553d eed3 3a3d
00000130: bd87 893d 7604 313e 648c 823c c567 a93d
00000140: 450e d1bd d8b2 4e3e f353 f0bd 05ce 52be
00000150: f1e8 7dbe f0ba eebc 78c9 513e fb66 f43d
00000160: 75e0 ecbd 9f27 173d c187 92bd fecd 99bc
00000170: cbbf b6bd a2ff 683d ed1d 383e 97bb ffbd
00000180: 73a6 8d3d 5378 833c 91c1 03bd 2a77 79bd
00000190: 326f 163e c5d2 1bbb b678 c53d dfb1 aebd
000001a0: 7f19 00be dcaa b0bd d788 b3bd 1617 483d
000001b0: e711 95bb a25e 61bd 2c97 96bd 7d9a aabd
000001c0: 52a5 efbc 3f6f a33c 3856 493c 55e8 d53c
000001d0: 1f1d e1bd 1c2a a93d 405d a23d a0b4 80bb
000001e0: 7070 d4bc 2fb0 3bbe 3b1e 7b3d f339 4a3e
000001f0: d970 b83e 770d f0bd c1b2 b33d 9ebc 003d
00000200: 2699 99bc 1617 003e 9caa ccbd 1d04 febc
00000210: c140 d5bd e572 a1bd 780b 253d c248 be3d
00000220: 3c2d e4bd c43f 8bbd e0be 5e3d 75ea 003d
00000230: abb1 95bc 319b 79bd 8dfd ea3d 7e20 b83c
00000240: b8fc 79bd d791 09bd 0208 29bd e694 cf3d
00000250: e7a0 92bd 48b5 e6bd 2e23 193e 7840 57be
00000260: cef6 e1bd 784c 03bd ee09 433d 8653 5cbd
00000270: fcb5 5fbd 0ceb 21be 5709 96bd c6e3 293d
00000280: 43ee df3c 762e a4bd f8f7 dcbd 41f9 0c3e
00000290: ff10 bfbd 0312 e83d 0b5b e6b9 24db 08be
000002a0: 8565 a5bd 2f2b 453d 9846 703c 199b 173e
000002b0: 7d8c 123e 2b8c aebc 6a74 96bd 8301 b5bd
000002c0: 0ce7 52bd e59f 063e 78d6 48be fcd7 e6bd
000002d0: 7376 853d c1f6 043e 8158 423e 5344 d8bc
000002e0: 8c3c 27be 9c46 463d 3197 873c 9fd2 0b3e
000002f0: 64f3 dabd d8fb d1bc 68c0 d7bc 8e81 1e3e
00000300: 1ea5 2f3e 3fbf a2bc 8b9e 083d 9bf4 003e
00000310: 36a0 65bd 98fc 10bc 6371 8d3d c6bf 643d
00000320: 2aaf 93bd a47f 053d 7275 f9bd cd3c 0d3e
00000330: b19c 16be 56e0 c8bc ce22 16be ec0b 48bd
00000340: e03f 02be a0c6 503e 7816 5a3e 73d7 333e
00000350: af06 073e 245a a0be 7d55 acbe 3560 abbd
00000360: cf2e 853d bdf8 9c3d f8e1 7e3e c79b f23d
00000370: 1c29 c83c 65ca e0bd d812 ca3d 5e46 8cbd
00000380: e394 dbbd c893 58bd 579b da3c e3fd 233e
00000390: 698c 79bd 3a1b ac3d 59c7 3ebd 41f9 e5bd
000003a0: 8d17 37be 81f8 3bbd 6501 123d e80f ca3d
000003b0: 7476 983c a4c8 233e 0cc9 873c c421 dfbd
000003c0: 7869 aebd 32d4 8d3a 741e f3bc 2002 d33d
000003d0: 4d8b 17be 6db4 683e 5b9e 9e3d aa4d 353e
000003e0: 2cd6 69bd 954b 283e 5289 a73d 182d 333c
000003f0: f453 d03d 262b 9c3d 255c f6bd cc9b 84bc
-0.06264492 0.12886769 0.0036214925 0.058534652 -0.014184943 0.03378785 0.0005952891 -0.06493444
-0.06383935 0.109198764 0.06932752 -0.061456785 -0.0065240725 -0.091436826 0.14933966 -0.0052154963
0.09501641 -0.084335886 0.091788545 0.10365112 -0.059161667 0.027850145 -0.09453762 -0.038156744
0.07536166 0.19890663 -0.144184 -0.11786675 -0.15904385 -0.20744824 0.1542603 0.14539348
0.26365614 0.1518692 0.1757115 0.07943183 0.051550865 0.19942246 -0.17877923 -0.04184336
-0.073969826 0.051009424 0.0070464024 0.080413595 -0.16756311 0.12122898 0.051796798 0.050426014
0.14562969 0.16569543 0.04854116 -0.014489336 0.15634058 -0.121420875 0.07358006 0.094375744
-0.028439593 -0.017575435 -0.11384601 0.025905242 0.11430606 -0.032487445 0.004261531 0.10424216
0.05271902 -0.039585534 -0.07259341 -0.1966874 0.20674215 -0.0019899674 0.15992005 -0.108360484
-0.0448853 0.09653305 0.052057628 0.04561227 0.06715343 0.17286858 0.015936084 0.082717456
-0.102078 0.20185411 -0.11734762 -0.20586403 -0.24795891 -0.029141873 0.2048701 0.119337045
-0.11566249 0.03690302 -0.07154799 -0.018774983 -0.089233 0.056884415 0.17980166 -0.12486952
0.06916513 0.016048586 -0.03216702 -0.06090466 0.14690855 -0.0023776751 0.096421644 -0.0853002
-0.12509726 -0.08626339 -0.087663345 0.04885014 -0.0045492533 -0.05502189 -0.073530525 -0.083302476
-0.029253636 0.019950507 0.012288623 0.026111761 -0.109918825 0.08259985 0.07927942 -0.003927782
-0.02593252 -0.18328927 0.061308127 0.19748668 0.36023596 -0.11721318 0.08774329 0.03142988
-0.018749785 0.12508807 -0.09993479 -0.03100782 -0.104127415 -0.078832425 0.04029414 0.09291221
-0.1114144 -0.06799272 0.05438125 0.031473596 -0.018273195 -0.060939018 0.11474142 0.022476431
-0.061032027 -0.03358635 -0.041267402 0.10135822 -0.07159596 -0.112650454 0.14954826 -0.21020687
-0.110334024 -0.03205535 0.04761689 -0.05379059 -0.054616913 -0.1581232 -0.07326 0.041476987
0.027335292 -0.08016674 -0.10789484 0.13766958 -0.093294136 0.113315605 -0.0004393685 -0.13364846
-0.08076004 0.048136886 0.014665268 0.14805259 0.14311405 -0.021307072 -0.07346423 -0.08838179
-0.051489875 0.13146932 -0.19613063 -0.112716645 0.06516733 0.12984754 0.18979074 -0.026399767
-0.1633169 0.048407182 0.016551586 0.13654564 -0.10690954 -0.025632784 -0.026336864 0.15479109
0.17152831 -0.019866584 0.033354323 0.1259331 -0.056060992 -0.008849286 0.069063924 0.055846952
-0.07211144 0.03259243 -0.12180604 0.13792725 -0.1470821 -0.024521034 -0.14661714 -0.048839495
-0.12719679 0.2038827 0.21297634 0.17562656 0.13186143 -0.31318772 -0.33658972 -0.083679594
0.06503069 0.076646306 0.24890888 0.118461184 0.024433665 -0.10976104 0.098668754 -0.06849359
-0.10721757 -0.05287531 0.0266854 0.16014819 -0.06092492 0.084036306 -0.04657683 -0.11229182
-0.17880078 -0.04589129 0.03564586 0.09866315 0.01861117 0.15994507 0.016575359 -0.10895112
-0.0851621 0.0010820685 -0.029677607 0.1030314 -0.14799233 0.22725077 0.07745048 0.17705408
-0.057089016 0.16435082 0.08180489 0.010936044 0.10172263 0.076254174 -0.12029294 -0.016187571

conv_block2.0.bias f4 [10]
00000000: 48be 293e 5235 38bc c1ec de3d cdb7 aa3d
00000010: d80f 1b3e c2e8 a5bc a062 afbd f231 4cbc
00000020: 28a9 9c3c b021 fbbd
0.16576493 -0.011243181 0.10885001 0.083358385 0.15142763 -0.02025259 -0.08563733 -0.01246308
0.019123629 -0.12262285

conv_block2.2.weight f4 [10, 10, 3, 3]
00000000: 672b ffbd 1df1 91bd 58cc 42bc a103 083e
00000010: b91b 09be 122d d7bd 903e a43d 1a1b 003e
00000020: e55d ad3d 060e 95bd 32c6 07be 4871 d0bc
00000030: 03f7 423d c305 00be 38db 5a3d 3831 cd3c
00000040: f215 bf3d eaa5 d4bd a301 9c3d 3629 cfbd
00000050: d83d 29bd c722 1cbd ad78 123d cc06 95bd
00000060: ccc9 9d3d d273 38bc 88ef c9bc 9ec6 1cbe
00000070: ff95 b3bd e1be b73d ddcd 0a3e 64db 163e
00000080: 4e61 cdbd c4c2 69be a648 f7bd 121f b0bd
00000090: 19f5 c43d dc15 ad3c 4a23 8dbd aacc 603e
000000a0: 09f3 e7bc 482a b7bd 3d37 463e 9575 84bd
000000b0: 99f0 9e3d 2149 a2bd 4a3c 18bc bc7b e13c
000000c0: ccb3 21bb 2b6f dd3d 6213 dc3d f353 00bc
000000d0: 1920 223e 1cb0 1cbd f0c9 d1bc b893 14bd
000000e0: 6247 503d d410 b83c a5c0 77bd 1649 663d
000000f0: dd5c e63c 2649 573d 29e7 b43d 57da 183d
00000100: d2fe 863d d6e4 2cbd bb88 38bd 8daa 44bc
00000110: a80e 4fbd 88c3 803d a147 a73d 4b82 a0bd
00000120: 4fd7 293d 7c2d 993b b547 bbbd 4bad 9ebd
00000130: b7ef e43d 25e9 803d 3e0e 80bd 0710 f33d
00000140: d1e7 2bbd edcc b93d f5bd aa3d 72d2 7bbd
00000150: 7071 b0bb 108b 3fbc ddf1 4dbd 0516 db3b
00000160: 1443 e73c b17b b3bd da8c 5cbd 0b26 2abd
00000170: 2c90 08be df06 a73b eafd cfbd 00bf 003e
00000180: ac7f 883c aad6 393e fa03 3e3d d8e4 dcbc
00000190: 3a87 4b3d c00b 823b 7182 35bd a8ec 09bd
000001a0: 082d 8c3a 9cf7 cb3c 0f14 65bd 376a b1bd
000001b0: 803d 98bd 2a31 86bb 7eed 07be d2ca 41bd
000001c0: 1c6b 09be ad37 db3d d31e 0fbe 9c1c bd3b
000001d0: 08c5 853d f2a4 283d 2dd8 2a3d 0e86 d9bd
000001e0: 59bf 01be e56a 403e d218 94bd 8d81 e5bc
000001f0: 0886 10be aa78 dd3d f48e d13c ea45 4abc
00000200: 2472 113d 7d2f 9cbd 3f7f 64bc ec00 083e
00000210: 0db4 80bd 12b2 e1bc 0c96 ec3c cc5c c9bd
00000220: 3785 e4bc 2e59 cdbc e310 85bd 4498 7f3c
00000230: 721a 0b3e f771 edbd 5467 b83c 9f45 47bc
00000240: 6c4a bbbc 01ca d3bd 6e2b 3e3d fc69 9bbc
00000250: 95c3 a73d fe6e 313d 9051 3b3c 4869 2cbd
00000260: 0ae6 37bd 2842 eb3c ee1a a2bd f8fe 1cbd
00000270: 2c9a 2fbe a6ca 6d3d 1846 273d ecbb 493c
00000280: 071c 963e a702 fabd 2929 353d 2d5e 65bd
00000290: 8cff 0ebe 638c 843d b9d5 d2ba 031d 07be
000002a0: bc41 1cbe c0d8 943d b080 bd3c c03e d1bd
000002b0: e201 c7bd db77 bc3d 9e51 b3bd 95f4 a43d
000002c0: c1ea ae3d ff93 acbd 0c94 9c3d d01c d5bd
000002d0: 8ca6 e7bc f464 cfbd 12f3 d4bd af8d a83d
000002e0: 3d31 653d 5f26 d7bd 5f63 183d 715e 0e3e
000002f0: 48a1 f7bc 6abe 2e3d 6dc2 eebd c694 aabd
00000300: ceb5 99bd 676c 9a3d 005b 93b9 e114 aebd
00000310: cc02 0e3e 672e c23d 89ea 87bd e828 8f3b
00000320: 8773 cd3d 5ed2 f63c e825 7abd 40ef f0bc
00000330: f4fa 3e3e 284f a53d 6c34 f33c 3615 923c
00000340: 4620 24be 30b1 3f3c 5ea3 71bd a997 d43d
00000350: 14a5 5fbd 252a f43d b5b3 29bd d080 ccbd
00000360: 62ac a7bc 3d09 31be 8e7d 91bd 28a7 8e3c
00000370: 6438 a4bd a618 d6bd 3f8b 78bc 6d40 f4bd
00000380: 4f96 aa3d af31 e6bd 4501 babd 2221 183d
00000390: 9159 153e 9195 12be eed3 723d ca7e 9abc
000003a0: ca09 d1bd 5aad 7abd e96b 8e3d de6f bebd
000003b0: 8a1b 8abd 18d3 4fbc 27d6 a0bd db7b 55bd
000003c0: 2cf5 4e3d e42e c5bd f8b1 36bd f8f3 19be
000003d0: 53af 903d a60c b1bd df65 3f3d 91a8 6fbe
000003e0: 292e b03d 6814 53be c3d0 78bd 2712 953d
000003f0: 4924 58bd 4898 133d 3214 123d 5fac 2ebd
-0.1245945 -0.07126067 -0.01188954 0.13282634 -0.13389482 -0.10506643 0.08019745 0.12510338
0.084651746 -0.072780654 -0.132592 -0.025444642 0.04759885 -0.12502198 0.05343172 0.025047883
0.093303576 -0.10383208 0.076175 -0.10115282 -0.041318744 -0.038119104 0.035759617 -0.07276687
0.07704505 -0.011258082 -0.02465035 -0.15310141 -0.08768844 0.08971954 0.13555093 0.14732128
-0.10028325 -0.22828203 -0.120744035 -0.08599676 0.09617061 0.021128587 -0.068914965 0.21953073
-0.02831413 -0.089436114 0.19357009 -0.064677395 0.07760734 -0.079241045 -0.009291718 0.027524821
-0.0024673818 0.10812219 0.107458845 -0.007832515 0.15832557 -0.03825389 -0.025608987 -0.036273688
0.050849326 0.022468962 -0.060486455 0.056222044 0.028120453 0.052559994 0.08833153 0.0373176
0.06591572 -0.042210422 -0.04505227 -0.012003553 -0.050551087 0.062872946 0.08167959 -0.078373514
0.0414651 0.0046746116 -0.091445364 -0.07747897 0.111785345 0.06294469 -0.062527165 0.11868291
-0.041969124 0.090722896 0.08337013 -0.061479993 -0.0053846166 -0.01169087 -0.050279487 0.0066859745
0.028230228 -0.08763827 -0.053845264 -0.041540187 -0.13336247 0.0050972546 -0.10155852 0.1257286
0.016662441 0.18148294 0.04639051 -0.02696459 0.04968951 0.003968686 -0.04431385 -0.03367296
0.0010694573 0.024898343 -0.055927332 -0.08662837 -0.07433605 -0.0040952163 -0.1327419 -0.047312565
-0.13419765 0.10703979 -0.13976602 0.005771233 0.06531721 0.04117293 0.041710068 -0.10621272
-0.1267065 0.18790777 -0.072312966 -0.028015876 -0.14113629 0.108140305 0.02558086 -0.01234577
0.035509244 -0.07626245 -0.013946353 0.13281602 -0.06284342 -0.02755073 0.028880142 -0.09832153
-0.027895553 -0.025066938 -0.064973615 0.015600268 0.13584307 -0.11594003 0.022510208 -0.012162595
-0.022862636 -0.103412636 0.046428137 -0.018971436 0.08191601 0.04331874 0.01143302 -0.04209259
-0.044897117 0.02871807 -0.07915293 -0.038329095 -0.17148656 0.05805459 0.04083833 0.0123128705
0.29318258 -0.12207537 0.044228707 -0.055998016 -0.13964671 0.06472089 -0.0016085423 -0.13194661
-0.1525945 0.07267904 0.023132652 -0.10217047 -0.09717156 0.09202548 -0.087558016 0.08054463
0.085408695 -0.084266655 0.07645425 -0.10405886 -0.028277658 -0.10126677 -0.103979245 0.08230149
0.05595516 -0.105053656 0.037204143 0.13903214 -0.030228272 0.04266206 -0.116581775 -0.083291575
-0.075053796 0.07540207 -0.00028105825 -0.08500076 0.13868254 0.09481507 -0.06636531 0.00436889
0.10031801 0.030129608 -0.061071306 -0.029410958 0.18650419 0.080717385 0.029688083 0.01783238
-0.16027936 0.01169996 -0.05899369 0.103804894 -0.05460079 0.11922101 -0.041431148 -0.099855065
-0.02046794 -0.1728868 -0.07104026 0.01741369 -0.08018568 -0.1045392 -0.015169918 -0.11926351
0.0832945 -0.11239945 -0.090822734 0.037140973 0.14584948 -0.14314868 0.059284143 -0.018859286
-0.10206945 -0.061200477 0.06954176 -0.09298681 -0.06743534 -0.012684606 -0.07853346 -0.05212007
0.050526783 -0.09628084 -0.044603318 -0.15034473 0.070646904 -0.086449906 0.04672801 -0.23404147
0.08602554 -0.20613253 -0.060745966 0.07278853 -0.05276898 0.0360339 0.03566379 -0.042644855

conv_block2.2.bias f4 [10]
00000000: b063 bb3d 73c8 4b3a 56a3 e23d d328 fb3c
00000010: 75f7 2ebd 65fc 5dbd 8fdd dbbd fb74 e73d
00000020: 9200 bf3d 2b10 fc3c
0.09149873 0.0007773705 0.1106631 0.030659115 -0.042716462 -0.05419578 -0.10735618 0.11301609
0.09326281 0.030769428

layer_stack.1.weight f4 [4, 10]
00000000: a164 2b3e b71a 593e 273d 9a3d 156c 9c3d
00000010: bacc 11be aa45 cfbd c553 223d 995e a3be
00000020: 17a9 6abe 1a40 343e 6c2b c63e d962 8dbe
00000030: 78fa 883c d231 033e 6653 923e 1e95 a0be
00000040: ce94 433e b095 893e 32b7 82be 7417 8f3e
00000050: 986a 1eba 5c87 8a3e 1285 35be eaee 8dbe
00000060: 9224 8b3d d354 6cbd fa9f 7f3e 4591 313d
00000070: be02 913e 16f3 4d3e 2c94 003d 5a2a 66be
00000080: 3626 603e 8201 7f3e 5cb7 57bc d115 9ebc
00000090: f8d2 9ebe 4001 c4bc cb55 d93d 5168 a03e
0.16737606 0.21201597 0.07531195 0.076378025 -0.14238253 -0.10120709 0.03963067 -0.3190811
-0.22916065 0.17602578 0.38705003 -0.27614477 0.016720995 0.12811974 0.28579253 -0.31363767
0.19099733 0.26872015 -0.25530392 0.2794758 -0.00060431054 0.27056396 -0.17726544 -0.2772134
0.067940846 -0.057698082 0.2496337 0.04335143 0.28322405 0.20112261 0.031391308 -0.22477093
0.21889576 0.24902919 -0.013166275 -0.019297512 -0.3102033 -0.023926377 0.10612067 0.31329587

layer_stack.1.bias f4 [4]
00000000: f346 9f3e f3f4 b73d dde5 553e 668c 673d
0.31108817 0.08982267 0.20888467 0.05653038
