trained_agents/policy_net200.pth (torch, 15812 bytes, 6 tensors)

fc1.weight f4 [64, 16]
0.014216434 0.13435404 -0.11163503 0.20999098 0.07024377 0.18030816 -0.036447387 -0.1517742
0.24384575 -0.25585353 -0.1585283 -0.22584775 -0.109903276 -0.22329484 0.15704885 -0.03259036
0.037024762 -0.23615761 0.22722304 -0.2697582 0.094973326 -0.0065438747 0.2207555 0.11556181
-0.21793717 0.40772697 0.1956196 0.0986619 0.14602968 0.23515108 0.008756306 0.22466427
0.11435304 0.13489865 0.21318394 -0.15402469 -0.16021161 0.046352416 0.009361251 -0.15875694
-0.21279757 0.19129659 0.03699748 0.2412523 -0.18811962 -0.22784483 0.059932556 0.1504367
-0.116995186 0.1698903 0.19078337 0.07991016 0.14140046 -0.10756275 0.1275352 0.10105595
0.039016157 -0.18964544 -0.06762016 0.1874533 -0.13474536 0.070112556 -0.22093374 -0.18351355
0.268353 -0.027904548 0.2711264 -0.07244037 0.22125627 -0.2173022 -0.22306147 -0.09559077
-0.20525579 0.068459325 -0.015206872 0.050788075 -0.22711724 0.12185634 0.31098726 0.14584392
0.1596701 -0.05741635 0.32938677 0.055797547 -0.08861449 0.09864667 -0.11671743 0.20306408
0.06346881 -0.10738179 -0.09484768 0.17946568 0.17700154 -0.18486753 0.03490773 -0.19886601
0.06499803 0.23668642 0.046433073 -0.21348935 -0.12591958 -0.008031577 -0.18332419 0.24993864
-0.04764995 0.47712877 -0.120640576 0.11638576 0.1965464 -0.10294832 0.07615194 -0.023150206
0.12520371 0.17309996 0.15805513 0.35796872 -0.082743146 -0.07594547 -0.106116824 0.063534886
-0.21224377 -0.10743028 -0.11524841 -0.13679299 0.19700822 -0.13925512 0.055231962 0.073851734
0.10579145 -0.08103071 0.08032733 0.15025568 -0.07203883 -0.15625682 -0.03961069 -0.076668024
0.15711987 -0.0948845 0.007958166 0.08296487 0.22261503 0.06482057 0.1843448 0.04075107
0.2217783 -0.19857168 0.15483658 -0.1125595 0.1936364 -0.07507536 0.24162412 0.16219017
-0.056731332 -0.18261878 0.1120327 -7.70092e-05 0.084364474 0.2591406 0.20443912 0.21694198
-0.119726405 0.04195741 -0.033175737 -0.01050016 0.3069948 -0.15877026 0.2955296 0.12297326
-0.17719318 -0.1839581 0.18487465 0.016624779 -0.1996921 -0.0855186 -0.19853055 -0.005329877
0.035306502 -0.24933185 -0.2714508 -0.099202335 -0.033385992 0.24350065 0.40575308 -0.20872372
-0.24969003 -0.25526315 -0.076756135 -0.09599471 -0.03251195 0.33449116 -0.2397798 -0.21382141
0.058356423 -0.18068427 0.040664665 -0.22256157 -0.214717 0.11781815 0.1249773 -0.027966142
0.07888084 -0.18802804 -0.12136236 0.17992225 0.24719185 0.43554443 -0.076752186 -0.11328077
0.18772665 -0.22672139 0.058252607 0.0513955 -0.104893744 -0.12280944 -0.298677 0.020381898
0.031429518 0.14690036 -0.29770485 0.07817373 -0.17693684 -0.058760107 0.36921942 -0.07375568
-0.21054691 0.046736903 0.08231681 0.19334872 0.1487869 0.22892252 -0.18982887 -0.04825774
0.1265352 0.17692704 -0.23687488 -0.07319519 -0.08485609 -0.09839278 -0.20642471 -0.197983
-0.012593359 0.06720963 -0.19734246 0.062054724 -0.24183348 -0.16588491 -0.0077539384 -0.10936591
0.08700544 -0.034653306 0.15453818 -0.17841282 0.1238012 -0.14243358 -0.14870882 -0.111454636
00000000: 0cec 683c 1b94 093e e8a0 e4bd e007 573e
00000010: f7db 8f3d b4a2 383e db49 15bd b26a 1bbe
00000020: b3b2 793e 3cff 82be 3e55 22be a244 67be
00000030: f814 e1bd 67a7 64be 6ad1 203e 787d 05bd
00000040: 47a7 173d 4dd3 71be 28ad 683e bf1d 8abe
00000050: 6081 c23d 006e d6bb bb0d 623e acab ec3d
00000060: ec2a 5fbe 97c1 d03e 8150 483e 400f ca3d
00000070: ce88 153e 72cb 703e 9c76 0f3c 640e 663e
00000080: ed31 ea3d df22 0a3e e44c 5a3e a6b8 1dbe
00000090: 830e 24be 08dc 3d3d ef5f 193c 2e91 22be
000000a0: 9be7 59be 41e3 433e ab8a 173d d80a 773e
000000b0: 6ea2 40be 2850 69be d77b 753d 140c 1a3e
000000c0: 2c9b efbd b9f7 2d3e b75c 433e f0a7 a33d
000000d0: 48cb 103e dc49 dcbd 9698 023e 6cf6 ce3d
000000e0: 68cf 1f3d 6a32 42be 707c 8abd c2f3 3f3e
000000f0: b0fa 09be 2c97 8f3d 743c 62be faea 3bbe
00000100: 9065 893e 1498 e4bc 14d1 8a3e 9e5b 94bd
00000110: 0191 623e 7884 5ebe 3a6a 64be 18c5 c3bd
00000120: 932e 52be 6734 8c3d 3e26 79bc 2807 503d
00000130: 6c91 68be d18f f93d b939 9f3e 1c58 153e
00000140: 8f80 233e 682d 6bbd 62a5 a83e f88b 643d
00000150: 847b b5bd 4407 ca3d 8c09 efbd 08f0 4f3e
00000160: effb 813d fcea dbbd 803f c2bd dac5 373e
00000170: e43f 353e ea4d 3dbe 68fb 0e3d 88a3 4bbe
00000180: b01d 853d ed5d 723e 9b30 3e3d f49c 5abe
00000190: 10f1 00be e096 03bc 56b9 3bbe eaef 7f3e
000001a0: 982c 43bd 394a f43e 6812 f7bd a85b ee3d
000001b0: 7643 493e 92d6 d2bd 8cf5 9b3d 80a5 bdbc
000001c0: 6735 003e 1e41 313e 34d9 213e ad47 b73e
000001d0: 3d75 a9bd 4c89 9bbd c753 d9bd 941e 823d
000001e0: 6e56 59be 6804 dcbd 5c07 ecbd 7613 0cbe
000001f0: 86bc 493e e598 0ebe e93a 623d 943f 973d
00000200: 30a9 d83d 6ef3 a5bd a882 a43d a0dc 193e
00000210: 1889 93bd ca01 20be d23e 22bd 2004 9dbd
00000220: 08e4 203e ce52 c2bd f862 023c 7ce9 a93d
00000230: 32f5 633e a6c0 843d e2c4 3c3e 98ea 263d
00000240: da19 633e 6056 4bbe 7b8d 1e3e 9885 e6bd
00000250: 9f48 463e 1cc1 99bd 506c 773e 2e15 263e
00000260: 1d5f 68bd 6b00 3bbe 6671 e53d 0080 a1b8
00000270: 48c7 ac3d 14ae 843e 7d58 513e 0a26 5e3e
00000280: 1e33 f5bd 88db 2b3d 48e3 07bd dd08 2cbc
00000290: 6c2e 9d3e ac94 22be a84f 973e 68d9 fb3d
000002a0: 2172 35be 835f 3cbe c84f 3d3e b030 883c
000002b0: 167c 4cbe 6024 afbd 984b 4bbe 40a6 aebb
000002c0: 8d9d 103d d950 7fbe 99fb 8abe 982a cbbd
000002d0: c0bf 08bd 3c58 793e debe cf3e acbb 55be
000002e0: beae 7fbe dab1 82be 5232 9dbd e098 c4bd
000002f0: 402b 05bd 6d42 ab3e d688 75be 00f4 5abe
00000300: 2507 6f3d 4c05 39be fe8f 263d 2ee7 63be
00000310: c6de 5bbe a44a f13d 19f4 ff3d 4019 e5bc
00000320: 478c a13d 6c8a 40be d48c f8bd 8a3d 383e
00000330: dc1f 7d3e aeff de3e 4030 9dbd c0ff e7bd
00000340: 6a3b 403e a729 68be 499a 6e3d 1684 523d
00000350: 88d2 d6bd 8483 fbbd 31ec 98be f0f7 a63c
00000360: 3dbc 003d 0c6d 163e c56c 98be 8c19 a03d
00000370: ee2e 35be 70ae 70bd 540a bd3e 380d 97bd
00000380: 9c99 57be 326f 3f3d b795 a83d 35fd 453e
00000390: 985b 183e aa6a 6a3e 8062 42be e8a9 45bd
000003a0: 7292 013e 5d2c 353e 548f 72be 5ce7 95bd
000003b0: 08c9 adbd 2782 c9bd 0061 53be 0ebc 4abe
000003c0: 6054 4ebc 34a5 893d 2414 4abe 182d 7e3d
000003d0: 32a3 77be bcdd 29be c014 febb 3cfb dfbd
000003e0: e82f b23d a0f0 0dbd 423f 1e3e dab1 36be
000003f0: 7c8b fd3d 1cda 11be 2047 18be 5442 e4bd

fc1.bias f4 [64]
0.24322417 0.21455342 0.19324353 -0.21690245 0.31876266 -0.081400454 0.08957283 0.09836509
0.3150634 0.16829367 0.14370508 0.22637449 0.017467642 0.28213736 0.0530171 -0.20487979
0.2436453 -0.090547286 -0.09513502 -0.2381008 -0.017676333 0.12547655 0.32978436 -0.20141116
0.020384299 -0.021399742 0.07889496 -0.014240202 0.2824135 -0.0281156 0.25575262 0.08226836
0.030758647 0.024668623 0.1554085 0.15632778 0.26157936 0.09939955 0.29505503 0.03738015
0.19991355 0.2587692 -0.2451737 0.07337466 0.20275787 0.065189764 0.035186216 0.18063755
0.0627853 -0.21718262 -0.11498515 0.053026874 -0.015431213 0.119729966 0.13100332 -0.17732194
-0.030765366 -0.23121214 0.08394752 0.08462694 0.08364528 -0.121779114 0.01840985 0.0800419
00000000: c20f 793e e4b3 5b3e a2e1 453e ad1b 5ebe
00000010: dc34 a33e 48b5 a6bd f671 b73d a373 c93d
00000020: fd4f a13e 2d55 2c3e 6d27 133e b7ce 673e
00000030: 4d18 8f3c 4f74 903e 7528 593d 02cc 51be
00000040: 277e 793e db70 b9bd 26d6 c2bd b2d0 73be
00000050: f5cd 90bc ed7c 003e 7fd9 a83e ba3e 4ebe
00000060: f9fc a63c 834e afbc ae93 a13d bc4f 69bc
00000070: 8198 903e b052 e6bc 02f2 823e 507c a83d
00000080: 8ff9 fb3c da15 ca3c 6823 1f3e 6414 203e
00000090: bbed 853e fe91 cb3d 7411 973e ee1b 193d
000000a0: 23b6 4c3e 667d 843e d00e 7bbe 7445 963d
000000b0: c29f 4f3e 3682 853d 6c1f 103d 0df9 383e
000000c0: 9495 803d 1f65 5ebe 567d ebbd b532 593d
000000d0: 33d3 7cbc fc34 f53d bc25 063e e293 35be
000000e0: a607 fcbc e0c2 6cbe adec ab3d e450 ad3d
000000f0: 374e ab3d 5467 f9bd 41d0 963c 02ed a33d

fc2.weight f4 [32, 64]
-0.0077727675 0.04505958 0.02282516 0.063070096 0.009247825 0.11076455 0.0027412386 -0.08950572
-0.054627266 0.032992903 0.064777024 0.0128938565 -0.3679639 -0.06146666 0.009535435 -0.054151088
0.14500722 0.02287014 0.051088996 -0.05610215 -0.15411311 -0.071462 0.23543175 0.2341268
0.06603666 -0.039083388 -0.090249516 -0.076955594 0.11865834 0.03403728 0.02978751 0.07278995
0.09261224 0.20156656 -0.042964317 -0.021241482 0.09578458 0.08192833 0.06671614 -0.03430826
0.13927442 0.08154911 -0.018478438 0.28041932 0.13690072 0.2216844 0.09280956 0.16966853
0.19130822 0.049078763 0.049294338 -0.10907208 0.19058363 -0.011648899 -0.08250715 0.039319545
0.05659247 0.055082515 0.23818016 0.006863049 0.03769455 0.2021253 0.015129795 0.14818925
-0.060764372 0.030222002 -0.04884462 0.027672201 0.07023766 -0.030547783 -0.03268038 -0.08377169
-0.046911087 -0.10831646 -0.14219145 0.06638608 -0.012848215 -0.08973663 0.053548597 -0.108391955
-0.0053802934 -0.094996005 0.10916628 0.014504209 0.056224685 0.04254225 -0.070308045 0.06677054
-0.061344653 -0.064835906 0.0881031 -0.068460196 -0.053414803 0.037052885 -0.04849983 -0.14935954
0.020437159 -0.016548663 -0.08657644 -0.027438011 -0.12610112 -0.053505 0.0041649817 -0.08454452
0.012586029 -0.011738166 -0.08542882 -0.01728342 -0.10206364 0.09367637 -0.08646037 -0.0784526
-0.023193346 0.036084175 -0.10474701 0.01807267 0.07423501 0.09192054 0.050168335 -0.02931714
-0.03381312 -0.092791304 -0.052353054 0.005516425 -0.08889594 -0.11374928 -0.15602136 -0.07822542
0.08920208 0.06314467 0.15558183 0.03335049 0.045177076 0.035161663 -0.06372228 -0.03360067
0.17358182 0.12599929 0.06504237 -0.043092676 0.19676961 0.08544751 -0.068855196 0.08273117
0.033437476 0.08339147 -0.05739572 -0.023999099 0.119082786 0.010735687 0.122285195 -0.0025712447
0.16142665 0.22130825 0.13111389 0.14845002 0.09985935 -0.08294549 0.1558486 0.21654128
0.07345616 -0.07355563 0.066318214 0.056331027 0.107412875 0.08220601 0.1069292 0.17067562
0.20153649 0.046540603 0.044316426 0.06554606 -0.0030068937 0.008413872 -0.13986924 0.013060265
-0.018628374 -0.0760615 0.10524226 0.08895225 -0.081730224 -0.054396316 -0.04454903 0.07576
0.050912503 -0.0021321177 -0.005645229 -0.016279323 0.022795202 -0.035295952 0.07847569 0.08399195
0.13122265 -0.16239242 0.0039085527 0.027813757 -0.016544752 0.026516562 0.07091877 0.25339955
0.17008197 -0.029398242 0.06118306 -0.035896815 -0.21237107 0.1845205 0.060200214 0.10646495
0.14278872 0.016064418 0.03755779 0.08414081 0.04337381 0.24670365 -0.08970268 0.19896992
0.12115799 0.21496989 0.17263912 0.12399393 0.098324746 -0.111977324 0.30362356 0.0834697
-0.082406245 0.09968434 0.10953411 0.076423615 0.011786699 0.03555165 -0.0330363 -0.0468173
0.116382554 0.07440775 -0.120334804 -0.14237083 -0.004318913 0.13788262 0.123946846 0.25362417
0.10593246 -0.02694343 0.05331643 0.08366376 -0.05035478 0.11729191 -0.024464231 -0.014761998
-0.06722454 -0.099113 0.028476153 0.04979273 -0.0035395161 0.07749714 0.027597928 0.15769126
00000000: b3b2 febb 6590 383d d4fb ba3c e52a 813d
00000010: 3084 173c 86d8 e23d 5aa6 333b c64e b7bd
00000020: d7c0 5fbd 9123 073d d1a9 843d c140 533c
00000030: c465 bcbe 77c4 7bbd 833a 1c3c 88cd 5dbd
00000040: c67c 143e 295a bb3c b242 513d 5ecb 65bd
00000050: d4cf 1dbe ab5a 92bd 0515 713e f0be 6f3e
00000060: 3a3e 873d e715 20bd bdd4 b8bd e59a 9dbd
00000070: 2503 f33d ad6a 0b3d f004 f43c e612 953d
00000080: 7cab bd3d 7767 4e3e 5afb 2fbd 9e02 aebc
00000090: b52a c43d 0aca a73d 79a2 883d d186 0cbd
000000a0: f49d 0e3e 3803 a73d 1860 97bc 1f93 8f3e
000000b0: b42f 0c3e 3c01 633e f012 be3d 96bd 2d3e
000000c0: 4de6 433e d006 493d dce8 493d 2f61 dfbd
000000d0: 5b28 433e 06db 3ebc 82f9 a8bd 880d 213d
000000e0: 81cd 673d 349e 613d 80e5 733e 6ee3 e03b
000000f0: 9a65 1a3d eff9 4e3e f6e2 773c ecbe 173e
00000100: 10e4 78bd 2294 f73c 4c11 48bd d0b0 e23c
00000110: c3d8 8f3d 583f fabc dddb 05bd 7e90 abbd
00000120: d725 40bd 05d5 ddbd a39a 11be 6df5 873d
00000130: 5281 52bc d7c7 b7bd c655 5b3d 9afc ddbd
00000140: 2c4d b0bb 448d c2bd 9292 df3d 10a3 6d3c
00000150: db4b 663d c840 2e3d aafd 8fbd febe 883d
00000160: 8844 7bbd b0c8 84bd 666f b43d dc34 8cbd
00000170: 7bc9 5abd c4c4 173d c2a7 46bd b5f1 18be
00000180: d46b a73c 1091 87bc fd4e b1bd aec5 e0bc
00000190: a720 01be 0f28 5bbd 667a 883b ad25 adbd
000001a0: a235 4e3c 7051 40bc 4ef5 aebd f595 8dbc
000001b0: be06 d1bd 66d9 bf3d 2212 b1bd c2ab a0bd
000001c0: f9ff bdbc 00cd 133d 9a85 d6bd 230d 943c
000001d0: 8608 983d d640 bc3d 507d 4d3d 802a f0bc
000001e0: a07f 0abd 5e09 bebd 2870 56bd 20c3 b43b
000001f0: 130f b6bd 62f5 e8bd 10c4 1fbe a634 a0bd
00000200: 95af b63d fe51 813d d850 1f3e 869a 083d
00000210: 990b 393d ad05 103d d480 82bd dba0 09bd
00000220: 6fbf 313e f505 013e ef34 853d f281 30bd
00000230: f97d 493e 1bff ae3d f403 8dbd f66e a93d
00000240: bcf5 083d 26c9 aa3d c617 6bbd c299 c4bc
00000250: ade1 f33d bce4 2f3c a970 fa3d 5482 28bb
00000260: 074d 253e a19e 623e b842 063e 4803 183e
00000270: 0f83 cc3d 53df a9bd c796 1f3e ffbc 5d3e
00000280: 2f70 963d 56a4 96bd d8d1 873d 5dbb 663d
00000290: 48fb db3d a05b a83d b2fd da3d 97c5 2e3e
000002a0: 955f 4e3e 5ca1 3e3d 2485 353d 033d 863d
000002b0: 4e0f 45bb 56da 093c e239 0fbe b9fa 553c
000002c0: 889a 98bc 22c6 9bbd 4189 d73d 992c b63d
000002d0: 2d62 a7bd acce 5ebd 0b79 36bd 0f28 9b3d
000002e0: a189 503d 00bb 0bbb 9dfb b8bb 375c 85bc
000002f0: 01bd ba3c 7d92 10bd ddb7 a03d f903 ac3d
00000300: 3b5f 063e 334a 26be 5113 803b add9 e33c
00000310: dc88 87bc 4339 d93c dc3d 913d 96bd 813e
00000320: f829 2e3e 95d4 f0bc 179b 7a3d 8a08 13bd
00000330: cd77 59be f1f2 3c3e 8094 763d 4c0a da3d
00000340: 3537 123e 8799 833c 32d6 193d 0452 ac3d
00000350: bca8 313d e29f 7c3e 0ab6 b7bd c5be 4b3e
00000360: ae21 f83d 1121 5c3e 4fc8 303e 88f0 fd3d
00000370: 7c5e c93d 5e54 e5bd 8c74 9b3e 29f2 aa3d
00000380: 9bc4 a8bd 4e27 cc3d 6b53 e03d fc83 9c3d
00000390: 001d 413c 9b9e 113d 1251 07bd 7fc3 3fbd
000003a0: fa59 ee3d 1763 983d 1872 f6bd a9c9 11be
000003b0: ab85 8dbb 1a31 0d3e d8d7 fd3d 07db 813e
000003c0: 1ef3 d83d 78b8 dcbc 5462 5a3d e857 ab3d
000003d0: d040 4ebd be36 f03d 3669 c8bc 4fdc 71bc
000003e0: 05ad 89bd c2fb cabd d246 e93c 76f3 4b3d
000003f0: 3af7 67bb d2b6 9e3d 0d15 e23c d179 213e

fc2.bias f4 [32]
-0.033759966 -0.096896686 0.070316106 0.013837791 -0.048089758 -0.11703169 -0.004297913 -0.07198961
0.045310233 -0.030350333 0.042502586 0.10825462 -0.06133674 -0.12223098 -0.043200485 0.03983002
0.120047495 -0.09247941 -0.1502763 -0.021438038 0.13190028 -0.06480034 0.04800604 0.003029079
-0.04241642 -0.08704598 -0.0410263 0.063365705 -0.1092677 0.14361206 -0.008504659 0.0039964253
00000000: e447 0abd c571 c6bd e401 903d e7b7 623c
00000010: c4f9 44bd 50ae efbd 82d5 8cbb 4a6f 93bd
00000020: 3997 393d 43a1 f8bc 3117 2e3d 99b4 dd3d
00000030: 3c3c 7bbd 3c54 fabd fef2 30bd ce24 233d
00000040: 76db f53d d865 bdbd 08e2 19be d39e afbc
00000050: de10 073e 0ab6 84bd fba1 443d 8383 463b
00000060: d7bc 2dbd 2a45 b2bd 320b 28bd e1c5 813d
00000070: bec7 dfbd 0a0f 133e 2057 0bbc 72f4 823b

fc3.weight f4 [4, 32]
0.14119221 0.1259892 0.019306399 0.22557095 0.14995436 -0.072663546 0.10618907 -0.16013187
0.031488348 -0.07750704 -0.012234775 0.16829981 0.0009123087 0.07652625 -0.0072245053 0.11046991
0.19408567 0.00037541986 0.05125913 0.2113408 -0.023633434 0.043576866 -0.0046659647 -0.043888733
-0.05034574 0.061836556 -0.37920335 0.06459299 -0.0673878 0.0774182 -0.06749284 -0.12258504
0.067085624 0.013814908 0.20736097 -0.1922318 0.15804993 -0.13463809 -0.046898402 0.009288549
-0.045828212 0.041261844 0.07818612 0.08140302 0.09723692 0.03909985 0.050079793 0.28523633
-0.12008986 0.029492483 0.071199074 0.16732444 0.17943157 -0.15004162 0.01712637 -0.026427452
-0.21696514 -0.06804967 0.10171628 0.12411758 -0.14267892 0.23941812 0.10418232 0.0856182
-0.20032889 0.026703345 0.21847607 0.10143483 -0.009175271 0.13049297 0.25795388 0.11328797
-0.055699315 -0.041331273 0.17944247 -0.07889929 0.14932127 -0.10051595 -0.12539165 -0.14790322
-0.10458206 0.0011653006 -0.16618769 0.14671026 0.15452784 0.07712692 -0.011119535 0.12651612
0.18461163 -0.16036956 0.10048298 0.22768542 -0.04686795 0.15416062 0.096303746 0.08580769
0.07012756 -0.06388508 0.15307795 0.077038385 0.11371042 0.104256645 -0.038841017 0.1720729
0.0844427 -0.1394655 -0.3408573 0.048202343 0.09295921 0.1166867 0.09525699 0.10829274
-0.036110707 -0.1422942 -0.10971266 -0.047628835 -0.06996925 0.16226093 -0.12875839 0.22436722
0.1579292 -0.0016774386 0.23636349 -0.08176578 -0.08620997 0.1497919 -0.050585702 -0.1180917
00000000: b194 103e 5003 013e 7428 9e3c 12fc 663e
00000010: a38d 193e a0d0 94bd a879 d93d 9cf9 23be
00000020: edf9 003d 03bc 9ebd 5e74 48bc c956 2c3e
00000030: 0028 6f3a cbb9 9c3d 8bbb ecbb 0c3e e23d
00000040: 65be 463e 00d4 c439 18f5 513d b969 583e
00000050: e79a c1bc a87d 323d f3e4 98bb acc4 33bd
00000060: 5637 4ebd 5448 7d3d f126 c2be 5449 843d
00000070: 9d02 8abd 6f8d 9e3d b039 8abd de0d fbbd
00000080: 3064 893d ed57 623c 6f56 543e 6ad8 44be
00000090: d7d7 213e 91de 09be 8a18 40bd 002f 183c
000000a0: 5db6 3bbd 2e02 293d 0b20 a03d a0b6 a63d
000000b0: 2624 c73d 2a27 203d 7820 4d3d 7f0a 923e
000000c0: acf1 f5bd 389a f13c d2d0 913d 1957 2b3e
000000d0: e9bc 373e 83a4 19be 9a4c 8c3c 627e d8bc
000000e0: 1c2c 5ebe a05d 8bbd a050 d03d 5c31 fe3d
000000f0: 6c1a 12be 062a 753e 8a5d d53d 9858 af3d
00000100: 0423 4dbe f9c0 da3c 31b8 5f3e 10bd cf3d
00000110: e053 16bc f39f 053e 8812 843e 8603 e83d
00000120: f724 64bd fb4a 29bd c4bf 373e f395 a1bd
00000130: ade7 183e 4edb cdbd ab66 00be f173 17be
00000140: 1e2f d6bd 00bd 983a 1b2d 2abe 373b 163e
00000150: 8c3c 1e3e b8f4 9d3d b62e 36bc 718d 013e
00000160: d50a 3d3e eb37 24be 05ca cd3d 5e26 693e
00000170: 9cf8 3fbd 48dc 1d3e e63a c53d f1bb af3d
00000180: 0a9f 8f3d 2ed6 82bd 77c0 1c3e 4dc6 9d3d
00000190: 02e1 e83d 8284 d53d c217 1fbd e133 303e
000001a0: 4bf0 ac3d 0bd0 0ebe d984 aebe d26f 453d
000001b0: 6661 be3d 70f9 ee3d 1916 c33d 96c8 dd3d
000001c0: d2e8 13bd 92b5 11be 08b1 e0bd 7416 43bd
000001d0: 0a4c 8fbd bb27 263e 3dd9 03be 85c0 653e
000001e0: 31b8 213e 80dd dbba 4509 723e d174 a7bd
000001f0: da8e b0bd 0c63 193e f432 4fbd 10da f1bd

fc3.bias f4 [4]
-0.057730816 -0.036304105 -0.071564235 0.14819428
00000000: 2677 6cbd 9db3 14bd 4590 92bd 3ec0 173e
