trained_agents/policy_net3200.pth (torch, 15822 bytes, 6 tensors)

fc1.weight f4 [64, 16]
000000 3e 6b b7 bb 11 98 5e bc 48 73 58 be 5f a3 3e be
       -0.005597501 -0.01358606 -0.21137726 -0.18617009
000010 4a 93 5d be 60 ee 77 3e 6c 1c d0 3d 10 34 9e 3c
       -0.21638218 0.24212027 0.10161671 0.019311935
000020 dc 61 ce bd 97 bd a1 3d e8 63 66 be 56 46 59 3e
       -0.10077259 0.078974895 -0.22499049 0.21218237
000030 e4 90 4c be 2d ee af 3e eb 2a 4d 3d 56 26 01 be
       -0.19977146 0.343614 0.050089758 -0.1261228
000040 0f 63 01 3e c0 37 0d be 96 3b 62 3e e6 d7 ec bd
       0.12635444 -0.13790798 0.22093043 -0.11564617
000050 77 f3 d7 3d 00 da 1e 3b a7 ae 60 3e e8 46 3a be
       0.10544484 0.0024238825 0.21941625 -0.18191111
000060 ca b4 54 bd a5 ef 9b 3b 21 8a e4 3e f0 c9 f4 bd
       -0.051930226 0.0047587925 0.44636634 -0.11952579
000070 cc 88 1e 3e 48 b4 0f be 16 e0 12 be b4 e5 48 be
       0.15481871 -0.14033616 -0.14343295 -0.19618875
000080 6a b1 11 be 70 c1 01 3e 75 46 c7 3d 72 0f 80 bc
       -0.14227834 0.12671447 0.097302355 -0.015632365
000090 dc a5 4f be 1c f9 1c 3e 9d b2 35 3d ca e8 33 3e
       -0.20278114 0.15329403 0.044359792 0.1756927
0000a0 b1 76 c9 3c 4c 3b 1f be e6 81 05 be c8 db 1b be
       0.02459273 -0.15549964 -0.13037834 -0.15220559
0000b0 8c 08 e0 bd 3b 96 cb 3e b4 55 78 3e 90 bf a8 3d
       -0.1093913 0.39763054 0.24251443 0.08239663
0000c0 71 2a d6 bd e5 2c ba 3e ba 06 66 be d1 60 0d 3f
       -0.10457314 0.36362377 -0.22463503 0.55225855
0000d0 5e d1 b8 bd b0 66 eb bd 32 80 40 bd f8 5c 10 3e
       -0.090243086 -0.114941955 -0.046997257 0.14097965
0000e0 63 ef 41 3e 82 e5 56 be ef 8e 07 bc da b3 31 3e
       0.18938975 -0.20985988 -0.008273824 0.17353764
0000f0 98 56 2d bd 5d f3 8f be 41 01 93 be 60 65 3f 3d
       -0.04231891 -0.2811536 -0.28711894 0.046727538
000100 fe 70 37 3e a8 e2 0e bd 30 70 2a 3d e0 a8 7a 3c
       0.17914197 -0.034884125 0.041610897 0.015299052
000110 b8 5c 58 bd a0 3d d5 3c c4 4e 25 3e ec cb 47 be
       -0.0528228 0.026030362 0.16143328 -0.19511384
000120 ce f9 43 3e 38 d0 08 3e 80 fe f1 bd 08 e6 f6 3d
       0.19138262 0.13360679 -0.1181612 0.12055594
000130 5c 62 bd 3d 3e c9 21 3e 14 62 39 be cc 9b 12 3e
       0.09247276 0.15799424 -0.1810382 0.14317244
000140 4e 54 79 be a7 0a 24 3e 8d 3f 5b 3d ba 23 1d be
       -0.24348566 0.16019689 0.053527404 -0.1534566
000150 40 0e e0 bc 1c a8 24 be c2 5b 4e be 90 0e 30 3e
       -0.027350545 -0.16079754 -0.2015219 0.17193055
000160 30 8e 77 be a1 3a 15 3e 00 bd 86 bb 02 62 2a 3e
       -0.24175334 0.14573146 -0.004111886 0.1663895
000170 1a 93 2d be 8e 18 13 3e 40 cd d2 bb 10 94 4d 3d
       -0.16950646 0.14364836 -0.006433159 0.05019003
000180 28 96 0b be 77 15 da 3d 90 da 4a be 80 f7 47 bd
       -0.13631499 0.10648625 -0.19809937 -0.04882002
000190 48 c4 04 be 3c f0 17 3e 8b 61 fa 3c b8 53 79 3d
       -0.129655 0.14837736 0.03056409 0.060870856
0001a0 cc ab 02 be 1c 7f f8 bc d0 bc 74 3e 92 c0 0d 3e
       -0.12760848 -0.030334048 0.23900151 0.13842991
0001b0 60 c6 68 bc 3c 65 bd bd 18 59 f0 bd 44 f1 2f be
       -0.014207453 -0.092478245 -0.11735743 -0.1718188
0001c0 14 77 06 be e8 4c 02 be 2c 2e 61 be 38 0f 12 bd
       -0.13131362 -0.1272465 -0.2199027 -0.035659045
0001d0 20 3b 96 bd 80 ef e5 3b c8 12 b9 3d f0 38 7b bd
       -0.07335496 0.007017076 0.09036785 -0.061333597
0001e0 6a 22 2a be 18 6e 2a bd 50 23 cf 3d 04 fb aa bd
       -0.1661469 -0.0416089 0.10114157 -0.08348659
0001f0 2c 63 57 be 80 b9 1d 3e f6 8d 2f be 30 76 74 bd
       -0.21033925 0.15402794 -0.17143998 -0.059683025
000200 e0 05 54 3c ac e1 ea bd 9a 5f 09 bc 8c 18 25 be
       0.012940854 -0.11468825 -0.00838461 -0.16122645
000210 fc 52 90 be f4 4d 58 be 53 a9 87 3d 00 02 ac bc
       -0.28188312 -0.21123487 0.06624093 -0.020997047
000220 f6 97 e5 bd 49 fe 3d be ce cd 65 be 16 57 07 3e
       -0.11210625 -0.18554033 -0.2244179 0.13216814
000230 e2 13 48 3e 3e 32 af 3e dc ed 8a 3e 4e a1 27 3e
       0.19538835 0.3421802 0.27134597 0.16370127
000240 48 dd 9f bd 58 df 82 be 6d 50 82 bd 07 35 7b bd
       -0.07805878 -0.25561023 -0.06362996 -0.061329868
000250 27 13 32 be 48 dd 1f 3d 31 cb 04 be 68 fc 68 3d
       -0.17390119 0.03902939 -0.12968136 0.05688134
000260 de fe a2 39 69 5f 80 be 1b 36 f3 bd b4 a1 1d 3e
       0.0003108894 -0.25072792 -0.11875554 0.15393716
000270 66 51 44 3e 44 44 87 3e 96 31 4b 3e 40 df 6d 3c
       0.19171676 0.2641927 0.19843134 0.014518559
000280 0a 34 aa 3d 2b 5c 71 be b8 7f e7 3d 6e 0a 6c be
       0.08310707 -0.23570316 0.11303657 -0.23050854
000290 6e 10 7a be 60 5f 3b be 2d 17 2a 3d 68 eb 1c bd
       -0.2442033 -0.18298101 0.04152601 -0.03831044
0002a0 26 a8 27 be 4c 18 d7 3e 64 32 6b be 2e d1 02 be
       -0.16372737 0.42010725 -0.22968441 -0.12775108
0002b0 a0 59 19 bd 44 33 fb 3e f1 f3 23 3e ca 64 5a be
       -0.03743899 0.4906255 0.16011025 -0.2132751
0002c0 c8 3a 82 3c e7 62 9e bc f8 10 09 3e 43 c0 4d be
       0.01589717 -0.01933427 0.1338538 -0.20092873
0002d0 b2 43 66 be fc ba 9d bd ab d6 00 3e fc 2d ae 3d
       -0.22486761 -0.0770168 0.1258189 0.085048646
0002e0 32 72 0f be f6 83 5d be 4c 62 db 3d 80 4a 15 3c
       -0.14008406 -0.2163237 0.10712108 0.009112
0002f0 8c 20 c3 bd 7d 43 dc 3e 18 c2 bf 3e 60 e0 b7 3c
       -0.09527692 0.4302024 0.3745277 0.022445858
000300 a4 f9 eb bd a5 3e 54 3e 80 9e 47 3b 8c c0 9f bd
       -0.115222245 0.20727022 0.0030459464 -0.07800397
000310 d8 b1 ff 3d 94 1b 05 be 80 45 47 bb c0 4d 66 3c
       0.12485093 -0.12998801 -0.0030406415 0.014056623
000320 7e de 52 3e c0 f2 e2 3c 46 2a 50 be 14 59 33 be
       0.20592687 0.027703643 -0.20328626 -0.1751445
000330 9a 7c 6e be a8 e9 db bd 0c 35 f9 3d f4 e1 59 3e
       -0.23289719 -0.10737926 0.12168321 0.212776
000340 39 e8 5b 3c 93 44 22 bd c5 fd d2 3d 7a 2c 0e bd
       0.013422065 -0.03961618 0.10302309 -0.034710385
000350 c4 af 06 3e 14 33 02 be b1 d2 e0 3e d4 4b c9 3d
       0.13152987 -0.12714797 0.43910745 0.09828916
000360 f9 5a f7 bd 8c 3b 60 be a1 61 5d 3e dc ab 48 3e
       -0.120778985 -0.21897715 0.21619274 0.19596809
000370 70 13 d4 bc 06 d3 4b be 50 48 e9 3c 18 0a 6d be
       -0.025888175 -0.19904718 0.028476864 -0.23148382
000380 a2 bc 3d 3e a7 c1 95 be f6 a7 ce 3e cd 57 90 be
       0.18528989 -0.29249308 0.4036252 -0.28191987
000390 8f 09 a9 3e a0 86 5e 3c 2c ad 61 3e f0 7f bb bd
       0.33015105 0.013581902 0.22038716 -0.091552615
0003a0 2a da 98 be 12 8f 90 3e e3 6e 8d 3e de d5 5d be
       -0.29853946 0.28234154 0.27623662 -0.21663615
0003b0 88 91 24 bd db 70 9d be de 8a b0 3e 60 60 49 3d
       -0.040177852 -0.30750164 0.34480947 0.049164176
0003c0 80 f5 16 bd bc 89 61 be d0 46 d6 bc 54 32 ea 3d
       -0.03685522 -0.22025198 -0.026156813 0.114353806
0003d0 00 93 47 be 4c 74 fd 3d 88 2e 92 bd cc e0 aa bd
       -0.1948967 0.123756975 -0.071377814 -0.08343658
0003e0 4c 95 24 3e 46 8b 09 3e c0 12 1a 3c 08 30 34 bd
       0.16072577 0.13432035 0.009403884 -0.04399112
0003f0 20 21 7d 3e 00 41 58 3c 28 c8 20 3d 4c 27 26 be
       0.24719667 0.013199091 0.039253384 -0.16225928

fc1.bias f4 [64]
000000 40 25 f1 3d 88 c9 1f 3d b8 91 84 3d cc 05 26 3e
       0.11774683 0.039010555 0.06473106 0.16213149
000010 72 a6 64 be b1 7c 2e be 0b d0 22 be 34 a9 5b be
       -0.22329119 -0.17039753 -0.15899675 -0.21451265
000020 38 6d a0 3e 89 2f 59 3e 0b 22 61 3e a8 da 39 3e
       0.31333327 0.2120954 0.21985643 0.18149817
000030 b7 67 69 be de a4 04 3e 75 70 8a 3e be 44 5f be
       -0.2279347 0.12953517 0.27038923 -0.21803567
000040 7e cb 40 be 17 ad 8b 3e 53 bc 82 be d2 bb 6b bd
       -0.18827626 0.27280495 -0.25534305 -0.057552166
000050 07 d3 50 be bc 64 77 be 92 1a 9a 3d 10 8a dc 3d
       -0.20393 -0.24159521 0.07524599 0.10768521
000060 35 ee 7b be 5a da da 3d 69 8c 61 3e f7 7a 82 3e
       -0.24602588 0.106861785 0.22026218 0.2548444
000070 b3 84 b8 3d 76 e7 06 be 10 f8 95 3d 77 f7 8c 3e
       0.09009685 -0.13174233 0.07322705 0.2753255
000080 ab fc 16 be 11 57 1c bd 03 6b 0f bd 7e ae d6 bd
       -0.14744823 -0.03816897 -0.035014164 -0.104825005
000090 ca 0b 3d bd 00 3f 89 3d c3 5a 8e be 84 51 41 be
       -0.04615382 0.067014694 -0.2780362 -0.18878752
0000a0 c4 81 51 be 10 bb ba bd 7a 08 6e be b8 f5 16 be
       -0.20459658 -0.091177106 -0.23245421 -0.14742172
0000b0 04 23 6c be 68 93 6a be 39 97 82 be 27 20 52 bc
       -0.23060232 -0.22907794 -0.25506 -0.0128250485
0000c0 d3 75 33 be 64 e2 9b 3e 79 40 db bd 6d 90 22 3e
       -0.17525415 0.3044616 -0.107056566 0.15875407
0000d0 ae 52 6b bb 9b ea 51 3e 1c e8 86 bc e1 b6 38 3e
       -0.0035907435 0.20499651 -0.0164681 0.18038513
0000e0 d9 41 47 3e 29 0b fb bd 8e 24 5a 3e 81 f0 cf 3d
       0.19458713 -0.12257988 0.21303007 0.10153294
0000f0 5c 88 7c be 38 57 1e be 64 d6 cc bc 24 0e 76 3e
       -0.24661392 -0.15462959 -0.025004573 0.24028832

fc2.weight f4 [32, 64]
000000 cf 7b f5 3d f4 8b 19 bd 9b 4f 8b bb 22 ac 88 bc
       0.11986505 -0.037486985 -0.004251433 -0.016683642
000010 c0 e2 99 3d 95 0a 72 3d a7 38 2c bd 78 21 a5 3c
       0.07513952 0.059092123 -0.042046215 0.02015756
000020 0d e8 0e 3d f6 b9 05 be d9 3c e6 3b 4f 01 d3 3d
       0.03488927 -0.1305922 0.0070262966 0.10302984
000030 84 28 bb 3c 6f 20 21 3e a4 98 09 3e 9c c3 1f bd
       0.022846468 0.15735029 0.13437134 -0.039004907
000040 30 e2 93 bc 44 a7 df bd 55 ee 13 3e 5a 4a 1e 3e
       -0.01805219 -0.10920575 0.14446385 0.1545805
000050 eb a7 8c bd 52 66 5e 3e 3d f5 84 3e 53 44 92 3d
       -0.06867965 0.2171872 0.25968352 0.07141938
000060 fc 99 10 3e 53 85 0a 3e 1a fa 0d 3e 96 93 1c bc
       0.1412124 0.13527422 0.13864937 -0.009556672
000070 74 d6 a2 3d 6b d5 1b bb d3 27 26 3e c0 59 e2 3d
       0.0795106 -0.002377833 0.16226129 0.11052275
000080 4b 58 eb 3d 9f 3e bb 3d 6a ca 98 bd 42 3b 91 bd
       0.1149145 0.091428034 -0.074604824 -0.07091381
000090 88 18 da bd 42 25 1c bc 2e aa fd 3d 2c dc 66 3d
       -0.1064921 -0.009530367 0.12385975 0.056362316
0000a0 3e 13 82 3d 20 4b 8a bd f0 3c b0 bd b2 d6 ea bd
       0.063513264 -0.0675261 -0.08605373 -0.11466731
0000b0 f0 7d 15 bd d6 73 e4 3d 6f e0 b1 bd 0d 37 79 3e
       -0.036497056 0.111549065 -0.086853854 0.24337406
0000c0 fd e2 e4 3d 77 13 2d 3e eb de a5 3e 36 94 2c bd
       0.11176107 0.16901956 0.32396635 -0.042133532
0000d0 e6 ae 57 3e 2d 86 44 3e 99 6e 0c 3e b0 78 fe 3c
       0.21062812 0.19191809 0.13714065 0.031063408
0000e0 ba 4b 5d 3d bd 74 a3 be 1c f6 7d 3d 0c 04 01 3e
       0.054027297 -0.31925002 0.062002286 0.125992
0000f0 96 02 f6 bd 03 92 7c 3c 39 8f 94 3d 90 ea 06 3c
       -0.12012212 0.015415671 0.0725388 0.008234635
000100 69 72 05 3d a8 7b 80 bb 8b 8c 64 3d eb 65 88 3e
       0.032579813 -0.003920991 0.055798095 0.26640257
000110 00 0f ef 3a 73 0f 91 bd 8c 6e d4 3d aa 41 f1 bd
       0.0018238723 -0.07083025 0.10372648 -0.117801026
000120 8c 4a a9 3d 87 79 fa 3d 54 a5 82 be ae 8b b3 3d
       0.08266172 0.12230211 -0.2551676 0.08766876
000130 82 99 22 3c f3 1f de bd e5 33 d6 3b 92 4b ad 3d
       0.009924294 -0.108459376 0.006536948 0.084616795
000140 20 7d 5a bc 20 50 9d bd ae 5a 01 be ff 2d 46 3d
       -0.013335496 -0.07681298 -0.12632248 0.04838371
000150 d9 16 77 3d e9 d4 02 bd ce c5 c6 be d4 d8 87 bd
       0.060324524 -0.03194133 -0.38822788 -0.066331536
000160 3d b0 6d 3d 0c e7 90 bd ce 98 d3 3d 62 8b a1 3d
       0.058029402 -0.07075319 0.103318796 0.07887913
000170 a1 20 97 bc 54 5f 9b bd 59 b6 90 be 1d f0 01 3d
       -0.018448176 -0.07586542 -0.2826412 0.03172313
000180 ad 1a 1d be ef fc 09 ba 4c 4a dd bd d2 70 b1 bd
       -0.15342207 -0.00052638253 -0.10805187 -0.08664097
000190 7b 4e 2b 3e 00 93 0f 3e a6 a5 be bd 48 b0 90 bc
       0.16729157 0.1402092 -0.09308939 -0.017662182
0001a0 81 e1 1c 3e 78 86 03 3d c8 54 bb bc 98 0e 0f 3d
       0.15320398 0.03211066 -0.022867575 0.034926027
0001b0 60 2c 6b 3d 78 ba ab 3d 0d 9e 0c 3e 91 a3 d6 bd
       0.057415366 0.083851755 0.13732167 -0.104804166
0001c0 c6 54 8a 3d 78 07 1f be 7c e0 0a be f4 0c 39 3d
       0.067544505 -0.15530193 -0.13562196 0.04517837
0001d0 33 86 cf bd 21 a9 ca bd cf bd 94 3d ed 24 30 3e
       -0.10133018 -0.0989554 0.072627656 0.17201586
0001e0 21 18 00 3e 46 bb cd 3e 9f 0e 8d 3c 05 a8 de 3c
       0.12509204 0.4018194 0.017218886 0.027179727
0001f0 dc 95 ac 3d b7 2a 65 bd ce d7 27 bd 8a 48 2d 3e
       0.08427021 -0.05594894 -0.04097729 0.16922203
000200 84 06 f5 bd 66 6b 24 3e 9e 54 22 bd b4 ee 62 3d
       -0.119641334 0.16056594 -0.03963148 0.055403426
000210 0a ca dc 3d cc 67 52 bc 45 c6 dd 3d a2 e6 8e bd
       0.107807234 -0.01284213 0.108288325 -0.069775835
000220 1d 1a 9d bc d3 8e 4f 3c 93 78 60 bb 70 f0 1a 3e
       -0.01917749 0.012668329 -0.0034251555 0.15130782
000230 95 2b d6 bd 80 0b 69 bb 28 9b 84 3d 80 ee 03 3d
       -0.10457531 -0.0035559833 0.06474906 0.032209873
000240 2c 20 92 bd 2b 3e 80 3d 48 53 95 bd b1 75 3d 3d
       -0.071350425 0.062618576 -0.07291275 0.046254817
000250 9f 52 10 3e fc 6d 6d bd a2 63 dd 3d 91 33 e2 bc
       0.14094017 -0.057966217 0.10810019 -0.02761248
000260 e1 ca 47 3c fd 8d 8e bd fd 41 bb 3c 14 9c 06 bd
       0.012194366 -0.06960676 0.022858614 -0.03286369
000270 bd bf 86 3d 02 ec af 3c 89 f8 bb 3d e8 50 09 3e
       0.0657954 0.021474842 0.09178264 0.1340977
000280 e8 94 54 3c cc e5 e9 3d 63 dd 88 3d 2a a5 09 bd
       0.012974955 0.114207834 0.06682851 -0.03360478
000290 9e 0a 46 bd 24 27 63 be f5 4c 7e bd 80 86 59 bb
       -0.04834997 -0.221829 -0.06208511 -0.003319174
0002a0 d5 5e b8 3d 9a c4 10 bd 74 65 a6 bd 50 bf 98 bd
       0.09002463 -0.035343744 -0.081248194 -0.07458365
0002b0 a4 16 fb bd e0 1d 4f bd 5c 10 59 bd 32 17 16 bd
       -0.12260178 -0.0505656 -0.052994117 -0.036643215
0002c0 f1 14 04 3d 4d be 9f 3c a4 4e fb 3a 55 63 3e be
       0.032246534 0.019499922 0.0019173217 -0.1859258
0002d0 4d e5 39 3e 6e 6e 5d 3e a5 38 84 bd bd d6 3d 3e
       0.18153878 0.21624157 -0.064561166 0.18538947
0002e0 d8 0f d7 bd d2 36 a5 bd e5 16 de 3d 59 60 74 bc
       -0.10501069 -0.08067097 0.108442105 -0.014915549
0002f0 14 b9 5b bd 98 10 c0 b9 16 62 db 3d 7a de 8b bd
       -0.0536433 -0.00036633457 0.10712068 -0.068295434
000300 6d 76 09 3e 8c 04 9f bd d5 12 7c 3e 45 e9 d3 bd
       0.13424082 -0.07764539 0.24616559 -0.10347227
000310 32 f5 87 bd 44 b3 06 be d5 b6 02 3d 08 cf 9e 3c
       -0.06638564 -0.13154322 0.031912643 0.01938583
000320 a2 59 3d 3e 0d 02 ab 3d 8d 67 9a 3e 2e c0 8f 3e
       0.18491223 0.083500005 0.30157128 0.2807631
000330 97 e9 40 bd 90 bd 31 3d 7d f2 38 3d 84 df eb 3d
       -0.04709777 0.04339367 0.04515313 0.115172416
000340 0e 43 bd bd 62 0e 82 3c 58 b2 47 3d b1 16 eb 3c
       -0.09241305 0.015875999 0.048754066 0.028697344
000350 a0 c1 93 bd 18 f3 23 bd 71 91 1e bd 83 7f 08 3d
       -0.072146654 -0.040026754 -0.038712922 0.03332473
000360 e1 a9 e8 3a cd 12 47 3d cb cf 66 3d f7 1b 27 3e
       0.0017750823 0.048601914 0.05635051 0.16319261
000370 26 5a 7f bd 96 a5 f6 3d d9 8d 31 3e 76 8b 2c 3d
       -0.06234183 0.12043302 0.17339267 0.042125188
000380 80 f7 41 3b aa 51 f8 bd 0e cc 18 3e d6 38 f3 3d
       0.0029596984 -0.12124951 0.1492159 0.11876075
000390 7e bb f1 bc da a1 53 3d 71 62 fc 3d 80 01 08 bd
       -0.029508349 0.051668026 0.12323464 -0.033204556
0003a0 d2 17 bc 3d f7 c3 de bc 66 36 e8 bd 24 4d 93 3d
       0.09184231 -0.027193053 -0.11338501 0.07192448
0003b0 3a b6 8c bd 20 99 f2 bd cb 51 24 bd c7 ab 0f be
       -0.068706945 -0.118456125 -0.040117066 -0.14030372
0003c0 dc 9f 63 bd 7d 3f e0 3d 2c 27 b9 3d 73 4d 65 3e
       -0.055572376 0.109496094 0.090406746 0.22392826
0003d0 d3 fd 82 be df 62 0b bd 12 d3 4a 3e 10 3f 5c 3e
       -0.25584278 -0.034029838 0.1980708 0.21508431
0003e0 12 d2 3b 3e 46 20 01 bd 1c 23 22 bd b8 5c 50 bd
       0.18341854 -0.03152492 -0.039584264 -0.050869673
0003f0 10 5a 4d bd 2b 59 b1 bd 04 a6 77 ba 18 11 03 3e
       -0.05013472 -0.086595856 -0.00094470405 0.1279949

fc2.bias f4 [32]
000000 af 63 1d bd ce a3 96 3d 37 ed 24 3e cc a0 81 3d
       -0.038425144 0.07355462 0.16106115 0.06329498
000010 46 32 e9 bb 3f a2 c0 3d 52 aa 3c 3d b0 2f 8e 3d
       -0.0071165888 0.09405946 0.046060868 0.069426894
000020 00 0c ec 3d 19 5b 7b 3d a2 be 5e 3e b6 f5 8d bd
       0.11525726 0.061366174 0.21752408 -0.06931631
000030 46 d7 ad 3d 04 8e 72 3d a4 8c 2c bd eb 5c 21 3e
       0.08488326 0.059217468 -0.042126313 0.15758102
000040 a4 f2 3b 3e ac c9 fc bd 41 d5 35 3d 2f 34 4f 3e
       0.18354279 -0.12343153 0.044392828 0.2023475
000050 94 a6 84 bd 0c 18 80 3c 52 94 e4 bd 9f 38 02 3d
       -0.06477085 0.015636466 -0.11161102 0.03179228
000060 e3 c7 41 3c 46 78 ca bd 13 db ec 3d 15 7c 87 3d
       0.011827442 -0.098862216 0.115652226 0.06615464
000070 74 27 9e bd 6e 15 ec bd 39 ac e6 3c b8 16 43 bd
       -0.07722369 -0.11527525 0.028158294 -0.04762909

fc3.weight f4 [4, 32]
000000 c9 39 b9 3b 73 d2 5e 3e 59 7b 05 3e 90 d2 a7 bd
       0.0056526405 0.21759968 0.13035335 -0.081944585
000010 9d 4f b0 bd f1 e0 72 3d 61 8d 9e 3d b4 26 89 bd
       -0.08608935 0.059296552 0.0774181 -0.06696835
000020 44 84 2d 3e 44 d4 25 be 2a a6 c8 3c ec 0f 32 3d
       0.16944987 -0.16194254 0.024493296 0.043472216
000030 9f 85 46 bd da a9 1a 3d 13 07 2b be 8b 1a 96 3e
       -0.048467275 0.03775964 -0.16701917 0.29317126
000040 0f b1 68 3e 00 64 e6 bc 8c ff b0 bb 9f 5a 80 bd
       0.22723792 -0.028123856 -0.0054015573 -0.062672846
000050 95 0f ac 3d b8 fb 72 be 88 ac cf bd 7c 55 c4 bc
       0.084014095 -0.23728836 -0.101403296 -0.023966543
000060 b3 18 68 39 24 53 4b bd 2c 66 e2 bb d0 82 79 3d
       0.00022134445 -0.049639836 -0.0069091525 0.06091577
000070 f0 ae a3 bd f8 1f a8 bd 1e 93 05 3e 03 4a 29 be
       -0.07992351 -0.082092226 0.13044402 -0.1653214
000080 25 5e 1d 3e 92 0b f6 bd a8 5f 1b 3e 21 9d 80 3d
       0.15367945 -0.120139256 0.15173209 0.0627997
000090 f5 b0 f7 bd 08 f6 bd 3d a0 95 0c 3e 53 23 72 bd
       -0.12094299 0.09275442 0.13728952 -0.05911572
0000a0 34 c7 d4 3d 77 67 02 be 4d 94 06 3e 87 cb ef bc
       0.103895575 -0.12734781 0.1314251 -0.029271854
0000b0 4e 86 cf 3d 12 0f 10 be af cf 57 3d 8a 02 f9 bd
       0.101330385 -0.14068249 0.052688297 -0.121586874
0000c0 1b 95 7d 3e 8d a6 2c 3e b5 bf 72 3c 90 fe 69 3d
       0.2476391 0.16860409 0.014816214 0.057127535
0000d0 d3 cd 25 be d7 85 a7 3d 63 1a 13 be d7 b3 09 be
       -0.16191797 0.08179825 -0.14365534 -0.1344751
0000e0 54 02 e8 bc 1f 53 bf bd af b5 09 be 4f 06 03 bc
       -0.028321423 -0.09342026 -0.13448213 -0.00799711
0000f0 0d 1d 31 be 26 51 89 bc ca 4b 5c 3c 18 0b f3 bd
       -0.17296238 -0.016762327 0.013445804 -0.1186735
000100 05 53 12 be 31 9e eb 3c 2f 41 04 bd 9a d6 16 3e
       -0.14289482 0.028761955 -0.032288726 0.14730301
000110 9e b6 04 be c9 43 e6 3d f8 89 04 bd f2 5e 07 be
       -0.12960288 0.11243398 -0.03235814 -0.13219813
000120 98 5f 0b be f5 a6 c5 3d f0 f7 2f 3e 54 3d 25 3c
       -0.13610685 0.09650985 0.17184424 0.010085423
000130 59 d3 1e be 58 31 ab bb de 33 02 bd 21 41 12 3e
       -0.1551031 -0.005224388 -0.031787746 0.14282657
000140 f2 ec 19 3e 42 a9 84 3d b6 4a 8e 3c 0b 84 55 3e
       0.15031794 0.06477596 0.01736961 0.20851152
000150 c8 12 83 3c 8f 4b eb bb b8 8d b3 bd d4 ea 14 bd
       0.016000167 -0.007180638 -0.08767265 -0.036356762
000160 63 76 b0 bc 79 de e3 bd 70 7f f9 3d 7c d4 77 bd
       -0.021540826 -0.11126418 0.1218251 -0.060505375
000170 68 e1 04 3d 88 61 d0 bc 28 5f 02 3e 96 c4 bf 3c
       0.032441527 -0.025437132 0.12731612 0.02340917
000180 e7 21 7e ba 4c 8b 98 3d 36 89 ed 3d c6 0d 8f 3d
       -0.0009694383 0.07448444 0.115984365 0.06985049
000190 aa e8 d9 bb 07 94 00 bf ed 0c f5 3c 91 35 f0 bd
       -0.00665005 -0.5022587 0.02991339 -0.11728967
0001a0 30 42 3f 3d 7f e1 15 3e a4 25 68 bd 6e c2 93 3d
       0.04669398 0.14636801 -0.056676522 0.07214819
0001b0 c5 ac 4d 3e d3 cb 00 3e e6 70 f9 bd f3 2e 9a 3d
       0.20085438 0.12577753 -0.12179737 0.07528486
0001c0 e6 4c 96 3c 1d 06 01 3e 50 fa 01 be c3 0b 49 3e
       0.018347215 0.12599988 -0.12693143 0.19633393
0001d0 78 57 93 3d fc 40 01 3e 85 c8 2c 3e 25 fc 7e 3d
       0.07194418 0.12622446 0.16873367 0.062252183
0001e0 1c 7f e9 3d 95 e7 dc bd 5f 3d 66 3e c1 21 57 3d
       0.11401197 -0.10786358 0.22484349 0.052522425
0001f0 50 87 0b bc b1 09 89 bc 9e c4 46 bd c4 eb 92 3d
       -0.008516148 -0.016728254 -0.048527353 0.07173875

fc3.bias f4 [4]
000000 a9 dd 72 3e 94 65 99 3d 87 38 7f 3e a8 3b 59 3e
       0.23717369 0.074900776 0.24923907 0.21214163
