trained_agents/policy_net1600.pth (torch, 15822 bytes, 6 tensors)

fc1.weight f4 [64, 16]
000000 95 e8 d8 3d c4 59 9e 3c bf 30 ec 3c 72 11 b1 bd
       0.105912365 0.019329913 0.028831838 -0.086459056
000010 a6 58 46 3d d4 39 05 3e 9e b0 f1 bd ea 13 1a be
       0.048424385 0.13010341 -0.11801265 -0.15046659
000020 5f b8 66 3d 66 10 29 3e 46 1c 35 be e0 59 64 bc
       0.056328174 0.16510162 -0.17686567 -0.0139374435
000030 9c 25 77 3e ec a3 c9 bd 7e fc e6 3e 14 2b b7 3d
       0.2413544 -0.09845719 0.4511451 0.089437634
000040 2a 9d 24 3e b2 7d fd 3d 1a 92 f1 3d e0 5d 64 3d
       0.16075578 0.1237749 0.11795445 0.05575359
000050 6d 92 01 be 2a ca 45 be 86 19 1d be 1a ba 78 3e
       -0.12653513 -0.193154 -0.15341768 0.24289742
000060 eb 06 ba 3d 20 c5 bb 3e c4 b6 0f be 7c cb ec 3d
       0.09083351 0.36673832 -0.14034563 0.11562249
000070 5e 84 32 be 88 a9 01 3f 3b 77 4e 3e 08 1e e7 3d
       -0.17433307 0.5064931 0.2016267 0.11285025
000080 84 fc f7 3d d4 69 84 3e 6a 1b 56 be aa d6 9c bd
       0.121087104 0.2586199 -0.20908895 -0.076581314
000090 6e 5e 0b bd f2 cc 5d be 95 14 87 bc 94 9c bb 3d
       -0.034025602 -0.21660212 -0.016489306 0.09160724
0000a0 75 94 9c 3e d0 23 56 be 06 d7 61 be 94 4b 39 3e
       0.30582014 -0.20912099 -0.22054681 0.18095237
0000b0 14 f2 06 be 50 4d 0b bd 16 a2 a1 3e a0 b2 12 3d
       -0.13178283 -0.034009278 0.31568974 0.03581488
0000c0 4b ac 3d bd 67 5c 24 be 5a ef 4d be 04 b7 2a be
       -0.04630689 -0.16050874 -0.20110837 -0.16671377
0000d0 c6 6e 33 be 2e b8 5a 3e 9e 13 35 3e 2e ce 3d be
       -0.17522725 0.21359321 0.17683265 -0.18535683
0000e0 84 f4 21 be b6 0f 06 be 0a 99 32 3d 40 6e e8 3c
       -0.15815932 -0.13091931 0.04360298 0.028372884
0000f0 d0 0f 2f bd ee fc 82 3e 68 7d 7e 3e 7c 5d bc bd
       -0.04273969 0.25583595 0.24852526 -0.09197518
000100 83 89 5d be 52 be 60 be a7 9c 17 bc 44 b2 76 be
       -0.21634488 -0.21947601 -0.009253657 -0.2409144
000110 32 c0 6d be 32 ca 66 be 2f 44 59 be 50 d4 a3 bc
       -0.23217848 -0.22538069 -0.21217416 -0.0199987
000120 2f 51 7b bd 39 2b 2f 3d cc dc 60 be 90 36 c5 bc
       -0.06135672 0.04276583 -0.21959227 -0.024073869
000130 e4 9c 7b 3e bc 4f e5 3e 9d b1 56 be 50 8f 0b be
       0.24571568 0.44787395 -0.20966192 -0.13628888
000140 03 b1 94 3d 1a 61 09 be 4c d3 5b bc 8c 79 b7 bd
       0.07260325 -0.13415948 -0.013417076 -0.0895873
000150 53 a0 de bc 58 74 0f be b1 86 56 3d 2e fb 04 be
       -0.027176058 -0.14009225 0.052374545 -0.12986442
000160 21 e8 22 3e 93 f4 5d 3c f2 9a 54 be 00 89 ee 3d
       0.15908863 0.013547081 -0.20762232 0.116472244
000170 e8 1d 07 bd a0 26 f7 bc b9 07 43 3e da ec 5b be
       -0.032987505 -0.030169785 0.19045915 -0.2147707
000180 e1 ee 80 3e 6b b4 a4 be 1f c5 80 3e 84 19 04 be
       0.2518225 -0.32168898 0.2515039 -0.12900358
000190 e7 c5 72 3e c0 e8 cf 3c af ee 5c 3e e4 b6 fc 3d
       0.23708306 0.025379539 0.21575426 0.12339571
0001a0 3d 0e 49 be 57 35 2c 3e 8a 94 48 3e 98 53 fc bd
       -0.19634338 0.16817223 0.19587913 -0.12320632
0001b0 70 a6 e2 bc b2 11 6f bb c6 6a 95 3e f8 af 00 bd
       -0.027667254 -0.0036479053 0.29183024 -0.031417817
0001c0 45 4b 45 3b 5c 94 f1 bd 62 d0 75 be 6e 44 12 3e
       0.0030104679 -0.117958754 -0.24005273 0.14283916
0001d0 ac a4 55 be 20 7b 3c 3d 87 df 68 bd 0e 39 09 3e
       -0.20863599 0.04601586 -0.056853797 0.13400671
0001e0 2a 1e 4d be d8 32 8b bd 5c 95 57 be ee 77 67 3e
       -0.20031038 -0.06796807 -0.2105307 0.22604343
0001f0 28 51 e1 bd e8 64 b6 bd 34 2c 8e 3e 20 8f 64 be
       -0.110018075 -0.08905965 0.277681 -0.22320223
000200 3a 9f aa 3d e4 c4 05 be a8 d3 67 3c 18 fe 18 3e
       0.08331151 -0.13063389 0.014149584 0.14940679
000210 38 c8 e3 bd 80 69 78 3d c6 6e 29 3d dc df 2c be
       -0.11122173 0.060647488 0.041365407 -0.1688227
000220 a7 7b ed bd 2f dc c8 3e 42 05 6f be e2 fe 1b 3e
       -0.115958504 0.39230487 -0.2334185 0.15233949
000230 38 a8 44 be 88 65 d5 bd 52 b4 40 be 1a 15 65 3e
       -0.19204795 -0.10419756 -0.18818787 0.22371331
000240 01 98 8f 3d 9a 7b 15 3e f4 a7 c7 bd 79 e9 1a 3e
       0.07011414 0.14597932 -0.097488314 0.15128125
000250 5c cd d4 bd c8 c3 81 bd e0 18 ee 3d fa b5 4f 3e
       -0.10390732 -0.063361704 0.11625838 0.20284262
000260 35 11 56 bd 43 66 c4 3d f0 f0 2a be a6 aa 76 be
       -0.052262504 0.095898174 -0.16693473 -0.24088535
000270 58 d5 6c bd 4f 83 d0 3e 04 4a a4 bd 5e 98 45 3e
       -0.057820648 0.4072518 -0.0802193 0.19296405
000280 ac d8 be bd 58 a4 50 3d ea 60 53 be 1a 5c 15 be
       -0.09318671 0.05093798 -0.20642439 -0.14585915
000290 10 af 9b bd 66 4b 43 3e 64 6e c5 3d 3e 2d 6c 3e
       -0.0760175 0.19071731 0.09640196 0.23064134
0002a0 94 11 40 be 74 74 25 be 00 52 43 bd 50 94 f6 bc
       -0.18756706 -0.16157705 -0.047685623 -0.030100018
0002b0 90 ca 3d 3e 4c 1a 1b be 40 9a de bb f0 1e 92 3d
       0.18534303 -0.1514675 -0.0067932904 0.07134807
0002c0 d0 10 ee bd 1e d0 37 3e 98 b0 85 bd 88 2d 4e be
       -0.116243005 0.17950484 -0.06527823 -0.20134556
0002d0 64 a7 f4 bd ba 03 19 be 88 d5 49 3d 82 a8 43 3e
       -0.1194599 -0.14942828 0.049275905 0.1910725
0002e0 44 79 65 be 6e 24 74 3e e0 d5 db 3c 94 a0 97 bd
       -0.2240954 0.23842022 0.026835382 -0.07403675
0002f0 80 e7 de bd 60 e9 0c bd 88 fc 39 be a0 ec 0c 3c
       -0.10883999 -0.03440225 -0.1816274 0.008601338
000300 34 32 75 be e1 10 5b 3e 46 89 05 be 10 7f a3 bd
       -0.23944932 0.21393158 -0.13040647 -0.079832196
000310 26 08 f4 3c 1c 56 f9 3d 4c f5 a9 bd f8 da 8b bd
       0.029789042 0.12174627 -0.0829874 -0.06828874
000320 78 0c ba 3c fa 7d a4 3e 8c 88 6e be 5c 87 62 3e
       0.022711024 0.32127362 -0.23294276 0.22121948
000330 f0 38 3b 3d c4 22 c7 bd 7b f6 ce bd 68 e1 84 bd
       0.045708597 -0.09723428 -0.10105606 -0.06488305
000340 76 3c 08 be 68 1e 56 be f9 18 59 3c d1 80 ab 3e
       -0.13304314 -0.20910037 0.013250583 0.33496717
000350 94 c5 93 bd 40 e2 80 3c 33 ca 14 3d 50 1d c0 bd
       -0.072154194 0.015732884 0.036325645 -0.09380591
000360 ed 46 3e 3e 27 2c 12 3e 77 f7 82 3b 90 7a bb 3d
       0.18581744 0.14274655 0.0039967853 0.09154236
000370 46 61 4f be 17 7b a7 bd a0 fb b6 bd c0 93 d5 3c
       -0.2025195 -0.081777744 -0.089347124 0.02607143
000380 df e6 59 bd e7 df 15 3e 52 4e fc bd 0d 1f de bd
       -0.05319869 0.14636193 -0.12319626 -0.10845766
000390 0c da 48 be a0 03 0c bc 50 43 9b be b0 4a 51 be
       -0.19614428 -0.008545786 -0.30324793 -0.20438647
0003a0 b6 ac 2f 3d d8 89 a5 3d 18 ed a0 be a8 1a 2e be
       0.04288932 0.08082932 -0.31430888 -0.17002356
0003b0 88 59 51 be a8 85 8d 3e c9 27 ab 3e ca 40 52 be
       -0.2044431 0.27641034 0.3342879 -0.20532528
0003c0 a0 e3 86 bd f5 b0 3a bd b0 75 bd bd 28 5d 37 3e
       -0.06586385 -0.045578916 -0.09250963 0.1790663
0003d0 9b b3 74 be ae 19 66 be 91 05 f0 3d 2c 32 43 3e
       -0.23896639 -0.22470734 0.11719812 0.19062108
0003e0 6f e4 a9 bd 62 2f 2e be 4e 29 9a be 50 27 c5 bc
       -0.082955234 -0.17010263 -0.30109638 -0.024066597
0003f0 20 87 62 be b2 b1 97 3e da d6 0c be 68 ff 35 3d
       -0.22121859 0.29627758 -0.13753834 0.044433028

fc1.bias f4 [64]
000000 17 00 6e 3d 81 43 f3 3d b1 19 a8 bc 22 b4 ba 3d
       0.058105554 0.1187811 -0.020520063 0.09116389
000010 61 44 2c 3e 4d 9a b5 bd c7 06 ac 3e 18 fb bd bb
       0.1682296 -0.08867321 0.3359892 -0.005797755
000020 ba 92 f1 3c ec 61 43 bd f6 14 22 be b8 a3 76 be
       0.02948891 -0.047700807 -0.15828308 -0.24085891
000030 69 68 fc 3c 09 b9 ad bd 6b 8c 9c 3e 72 57 81 3e
       0.030811505 -0.08482558 0.3057588 0.25262028
000040 ae f3 b6 bd 39 38 a9 3d f0 1b c3 bb da 56 e7 bd
       -0.08933197 0.08262677 -0.005954258 -0.112958625
000050 9e 34 53 be c3 9e 98 3d c5 32 88 3e 90 ae 6a 3e
       -0.2062554 0.074521564 0.26601234 0.22918153
000060 27 d6 11 3e 9b 60 2f be 23 bc de 3d b8 66 ac 3e
       0.14241849 -0.17126696 0.10875728 0.33672118
000070 de 71 bf 3e 3f 18 17 3e bc 63 ff bd a0 9e 6e be
       0.3739156 0.14755343 -0.12470195 -0.23302698
000080 e4 bb e8 3d 16 5d 4f 3d 4d 04 67 3e 51 85 37 be
       0.11363962 0.050625883 0.22560234 -0.1792195
000090 a8 1d 02 be b0 49 04 be aa 16 13 be e6 c0 89 bd
       -0.12706625 -0.12918735 -0.14364114 -0.067262456
0000a0 6b 8b 29 bd 4a 0e a3 3e 56 03 0b be b0 47 52 be
       -0.041392725 0.3184684 -0.13575491 -0.20535159
0000b0 88 2e a1 3e 49 2c 1d 3e b0 54 c6 3d 35 ff 74 3e
       0.31480813 0.15348925 0.096841216 0.23925479
0000c0 2b d6 a7 bd 90 65 7a 3d e3 26 49 3e e4 c0 94 be
       -0.08195146 0.061132014 0.1964374 -0.29053414
0000d0 24 8e 09 bc cf 48 1c 3d 10 a4 5e 3e 2f ee aa bb
       -0.008395705 0.038155373 0.21742272 -0.005216382
0000e0 8a 7a cb 3e 01 97 32 3d c3 9c 95 3e a9 0c 40 3e
       0.39741927 0.04360104 0.29221162 0.1875483
0000f0 ba d6 a3 3e ae f9 c7 3d 2f 6d 95 3d 19 a8 00 3e
       0.3199976 0.097644195 0.07296216 0.12564124

fc2.weight f4 [32, 64]
000000 be ac b3 3d be f6 3a 3a be 4f 8a 3d 10 a3 3f bd
       0.08773182 0.00071321044 0.06753491 -0.046786368
000010 84 cf ca bd c4 04 05 be 8c 79 2f 3e aa 43 cb 3d
       -0.09902862 -0.12990099 0.1713621 0.09925015
000020 08 23 66 3d 1b f0 e5 bd 38 ef d4 3d 16 5e 83 bd
       0.056185752 -0.11227437 0.1039719 -0.0641443
000030 41 d7 31 3e db 4a 99 3c 23 f1 cc 3c a9 b5 07 be
       0.17367269 0.018712452 0.025017327 -0.13252892
000040 e0 f0 6f bd ec 53 52 be c4 f8 15 3e e0 9d f6 3d
       -0.058579326 -0.20539826 0.14645678 0.12041831
000050 2b 1c 89 3d 12 e4 69 3d cc 4f b6 3d 7a be 3a 3e
       0.06694826 0.05710227 0.08901939 0.18236724
000060 90 64 ad bd fc 75 32 3c d6 f9 93 3e 48 1a 11 3e
       -0.084664464 0.0108923875 0.28901547 0.14170182
000070 6b 2f 19 3e fd c0 88 3d dd 62 8b 3d 44 67 c8 3d
       0.14959495 0.066774346 0.06805966 0.09785321
000080 31 f0 7b 3e a8 f3 28 3e 11 26 6c 3d a7 49 17 be
       0.24603345 0.16499197 0.05765349 -0.1477419
000090 9e 6e 83 bd 1f 26 1f be ec af 00 3e 4b 92 b0 be
       -0.06417583 -0.15541886 0.12567109 -0.34486613
0000a0 10 f4 c3 bd d1 87 11 3e 10 da 79 bc af 11 dc bd
       -0.095680356 0.14211966 -0.015249744 -0.107455604
0000b0 4e dd 18 bd 41 85 29 3e 46 38 11 be 1e c0 02 bd
       -0.037320428 0.16554739 -0.14181623 -0.0319215
0000c0 ac 78 18 bc c2 55 75 3d ed 19 81 3e 7b 1b 67 be
       -0.009306114 0.05989624 0.25215092 -0.22569077
0000d0 40 2b aa 3d 50 82 51 be 0d 48 2d 3e cc 9e 92 be
       0.083090305 -0.20459867 0.16922016 -0.28636777
0000e0 54 8c b2 3e a3 fc 78 3b 2f 74 c2 bd e9 fe b3 bc
       0.34872687 0.003799238 -0.094948165 -0.021972137
0000f0 74 95 88 3d e6 ee d4 3d 60 19 cd bd 20 6d ba bd
       0.06669131 0.10397129 -0.100146055 -0.09102845
000100 08 b2 74 bd 74 e3 db 3d 60 04 7e bc 90 80 6e 3d
       -0.059740096 0.107367426 -0.015503973 0.058228076
000110 a8 f5 a2 3c e8 fc e1 bc a8 24 c6 3c fc 99 cc bd
       0.019892529 -0.027586415 0.024187401 -0.09990308
000120 b0 f8 36 3c 08 99 ca bd 8a 84 e3 bd a0 a0 0a 3d
       0.01116769 -0.0989247 -0.11109264 0.03384459
000130 b4 cb b3 3d 30 66 87 bc 40 84 e4 bc f6 17 c4 bd
       0.08779088 -0.016528219 -0.027895093 -0.09574883
000140 9c 18 16 bd 4e 69 83 3d 5c 07 6c 3d 64 49 35 3d
       -0.036644563 0.0641657 0.057624206 0.044259444
000150 f6 3b bc 3d 7a 56 f8 bd 90 1e 42 bd 00 ea a8 bb
       0.09191124 -0.12125869 -0.047392428 -0.005154848
000160 5c 6f 18 bd fa d8 95 3d f8 38 8a bc 56 55 b4 bd
       -0.037215576 0.073167756 -0.016872868 -0.08805339
000170 5c c9 75 3d 64 a3 d7 3d 00 85 54 3b 08 55 05 3d
       0.060006484 0.10529211 0.0032427907 0.032551795
000180 5c 91 5a bd 40 ca cd bc d4 64 20 3d 6e f0 e2 bd
       -0.05336128 -0.025120854 0.039158657 -0.110810146
000190 8c 70 c4 3d fc 7e 80 bd d2 82 9f 3d 10 7b e7 bc
       0.09591779 -0.0627422 0.07788624 -0.028256923
0001a0 ce 0b f3 3d 26 2d 9e bd d0 33 b0 bd 94 20 5b bd
       0.11867486 -0.07723455 -0.086036325 -0.053497866
0001b0 c8 f1 3a 3d d0 a7 b2 bd 52 fa 85 3d 7a be 85 bd
       0.045640737 -0.08723414 0.065418854 -0.06530471
0001c0 48 df 12 bd 88 94 88 3c c8 fa ec 3d f4 06 d1 3d
       -0.03585747 0.016672388 0.1157127 0.10206404
0001d0 90 e3 cd 3d f0 eb 5c bc 8c 85 38 3d cc f5 22 3d
       0.1005317 -0.013483986 0.045049235 0.03978519
0001e0 78 53 aa bd 84 b0 95 bd b8 cc 6a 3d 34 2f 6b bd
       -0.08316702 -0.07309058 0.05732414 -0.057418063
0001f0 ac 6b 34 bd 90 31 6b bd 22 f2 87 3d 14 10 ca 3d
       -0.044047996 -0.057420313 0.0663798 0.09866348
000200 9b cd 5a be b5 a1 37 be 91 90 f3 bc 65 fe 2d bd
       -0.21367495 -0.1793278 -0.02973202 -0.042478938
000210 1e f2 f4 bd 1b b8 60 bb 86 14 58 be cc a2 13 3d
       -0.11960243 -0.0034289423 -0.21101579 0.036043927
000220 ee 61 aa bc 74 26 07 bd 60 90 18 bd f0 d9 6e 3d
       -0.02079865 -0.032995656 -0.03724706 0.05831331
000230 fb f1 94 3c 4b ef 04 3e a6 a7 aa bd 0b 47 a1 bc
       0.018181792 0.12981908 -0.08332758 -0.019687196
000240 ff 17 eb 3c 00 57 d6 3d 80 67 0a be a6 69 17 bd
       0.028697966 0.10465813 -0.13516045 -0.03696599
000250 01 4f ef 3c 0d d1 73 3c c4 ac aa bd 13 b1 f6 bd
       0.029212477 0.014881385 -0.08333734 -0.12045493
000260 31 46 35 be 01 7c 9b 3d d9 19 05 be f5 a3 3e be
       -0.17702557 0.07592011 -0.12998141 -0.18617232
000270 f0 77 bc bc fd 66 1e 3d 71 44 04 3c 80 10 f8 3c
       -0.02300641 0.038672436 0.008072958 0.030281305
000280 de f1 f6 3d af 0b 50 be 5e 05 99 bc f0 76 db 3d
       0.12057851 -0.20316957 -0.018679317 0.10716045
000290 c8 07 f1 3c 84 c0 53 be ac 97 50 3d 63 a0 0a 3d
       0.029422656 -0.20678908 0.050925896 0.033844363
0002a0 af dc c4 ba fe 5a e6 bd a4 e7 9a bd aa e8 28 3c
       -0.0015019382 -0.11247824 -0.07563713 0.010309378
0002b0 ce 75 a8 3d 04 e3 69 3d e5 70 17 3e b6 04 f5 bc
       0.082255945 0.057101265 0.1478916 -0.029909473
0002c0 3b 3b 94 be 98 51 ec 3c 92 08 1d be a6 07 3d bd
       -0.2895144 0.0288475 -0.153353 -0.046149872
0002d0 ae e8 03 be a9 33 04 3e 81 1a 23 be 67 1d 81 bc
       -0.12881729 0.12910332 -0.15928079 -0.01576109
0002e0 9a 8b 2e be bf b0 04 3c d1 04 bc bd 47 ea b1 3c
       -0.17045441 0.00809878 -0.09180606 0.021718157
0002f0 66 b2 0b bc 5a c8 27 be 68 64 84 bd 9d b4 57 ba
       -0.00852642 -0.16385022 -0.064644635 -0.00082285126
000300 00 8f b9 3b 8c da 26 3d 74 21 90 bd 63 37 bc 3d
       0.005662799 0.040735766 -0.07037631 0.09190252
000310 54 58 10 3d d2 7b df bd 7c b4 10 be e9 ad c4 3d
       0.035240486 -0.10912289 -0.1413135 0.09603483
000320 5e 4a b0 3d 72 ba 12 be 1c 90 42 3d ce 86 91 3d
       0.086079344 -0.14328936 0.047500715 0.0710579
000330 b4 85 fb bd 37 02 ef bd fe ed b3 3d 91 ec ca bd
       -0.12281361 -0.11670344 0.08785628 -0.09908403
000340 81 cc 50 bd 26 e4 bd 3d 54 6d 25 3d 6c e1 57 3d
       -0.05097628 0.092720315 0.040387467 0.052705213
000350 a1 d4 ad 3d 1e e6 bf 3d 6b e7 9e bc 1d bf 16 be
       0.08487821 0.09370063 -0.019397458 -0.14721341
000360 2c 9f bb 3d 98 bf ab bd b8 81 c4 bc 20 5f 0b 3d
       0.09161219 -0.08386153 -0.023987636 0.034026265
000370 ce 79 d5 bd 78 52 92 3c 60 6b e5 bd b4 79 b0 bd
       -0.10423623 0.01786159 -0.11202121 -0.08616963
000380 94 ca aa bd b8 99 83 bc 24 a9 e1 bd 86 a5 fd bd
       -0.0833942 -0.01606451 -0.11018589 -0.12385087
000390 48 da 9e bc 45 43 76 3d f8 61 85 bc 68 19 19 bd
       -0.019391194 0.060122747 -0.016282067 -0.037377745
0003a0 3c 56 07 3d b4 af 54 3d 38 ec d0 3d 00 13 a9 bc
       0.033041224 0.051925376 0.10201305 -0.020638943
0003b0 8d 67 e5 bd 00 57 1b bd ae 26 52 3d be e3 ac bd
       -0.11201391 -0.037924767 0.05130642 -0.08441876
0003c0 70 a6 5f bd 79 c7 21 bc 91 7b a8 bc 18 46 ff 3d
       -0.054602087 -0.009874218 -0.020566734 0.12464541
0003d0 c8 6d 37 bd e9 e8 c7 3d a5 23 e4 3c e8 99 b5 bd
       -0.04478243 0.09761221 0.027849028 -0.08867246
0003e0 77 fb 8e 3d e2 e7 9f 3d 7d 4d 18 bd c5 74 c3 3b
       0.06981557 0.078079 -0.037183274 0.0059648477
0003f0 3e bf c2 bd db 88 cb 3d 53 e8 75 3d 44 30 20 bd
       -0.09509133 0.099382125 0.060036015 -0.03910853

fc2.bias f4 [32]
000000 51 8c 52 3e ee d1 b5 bd 3c d0 bb 3c 53 4f a9 bd
       0.20561339 -0.088779315 0.022926442 -0.08267083
000010 b4 b4 f7 3d 27 f7 ee bb 24 69 ae bd 3c 4e 85 3d
       0.12095013 -0.0072926464 -0.08516148 0.06509063
000020 fa 74 ff 3d 0c bf 2e 3e 57 5e 3b bb 70 04 c9 3d
       0.124734834 0.17065066 -0.0028590166 0.098152995
000030 a5 10 0d be 6f be 4d 3e 70 a1 a9 3d c6 db dc bd
       -0.1377588 0.20092176 0.08282745 -0.10784106
000040 67 5d 16 3e f6 f8 83 bd 48 0c 3e bd 06 80 82 3c
       0.14684068 -0.0644397 -0.04639843 0.015930187
000050 84 8e 93 bd 3b cd cc bd 43 bc f2 bc 6a ae 9f bd
       -0.07204917 -0.10000082 -0.029630786 -0.07796939
000060 26 06 a7 bd 9c 81 90 bd 1f 7f a7 3d 28 ca d9 3c
       -0.081554696 -0.07055971 0.08178543 0.026585653
000070 d4 07 a2 bd a3 4f 40 3e f4 de e3 3d 09 83 0b 3d
       -0.07911649 0.18780379 0.11126509 0.03406051

fc3.weight f4 [4, 32]
000000 80 af 51 3e 0f d4 99 bd 19 a8 09 3e a3 8a 44 3c
       0.20477104 -0.0751115 0.1344303 0.011995944
000010 0f 9b 0a 3e a8 7c 2b 3d 30 36 55 3d ce 45 c7 bc
       0.13535713 0.04186693 0.05205363 -0.024325278
000020 ac 04 1b be 96 41 1f be 16 26 0b bd d6 1e 4f 3e
       -0.15138501 -0.15552363 -0.03397187 0.20226607
000030 36 79 d8 3d 67 1d 36 3e c6 7f 37 3d bd ea b2 3c
       0.10569994 0.17784654 0.04479959 0.021840448
000040 17 3b e6 3d 7e 80 ec bc d7 2f 17 3e 55 e3 5c 3c
       0.11241739 -0.028869864 0.14764343 0.013481935
000050 bc 4f 2a 3e 51 33 dd 3d 6f c6 62 3b 07 71 25 be
       0.16631979 0.108008035 0.003460314 -0.16156398
000060 8a 97 d2 3d 5f 24 0f 3e 36 b5 92 3c ac 44 2e be
       0.1028281 0.13978718 0.017908674 -0.17018384
000070 a3 75 26 be 9a 75 d3 bc ea 6a 24 3d 09 59 bc bd
       -0.16255812 -0.025812913 0.040141024 -0.091966696
000080 92 c3 4c 3e 2c 2a 89 bd cb 36 1b be d9 dc 7e 3b
       0.19996479 -0.06697497 -0.1515762 0.003888896
000090 83 5f 77 3d 2d cb a7 3b cc e2 93 3c e8 8e ee 3c
       0.06039382 0.005120656 0.018052481 0.029120877
0000a0 0d 97 a3 3d 86 04 4f 3e 02 27 fb 3c cc b5 39 3d
       0.07987795 0.2021657 0.030658249 0.04533939
0000b0 01 18 48 be 8e 3d 26 3e 48 05 5a bd 0b c1 17 be
       -0.19540407 0.16234419 -0.053227693 -0.14819734
0000c0 91 c3 16 3e e1 f7 17 be 24 ec 50 3d 01 f3 4b 3d
       0.1472304 -0.14840652 0.05100645 0.049792293
0000d0 af 60 d9 bd 2c ba 06 be e5 b2 12 be 94 96 f0 bd
       -0.10614144 -0.13156956 -0.14326055 -0.117474705
0000e0 50 f9 84 3d 82 e8 f7 bd c8 62 87 bc 8f d3 95 39
       0.06492865 -0.12104894 -0.016526595 0.00028577118
0000f0 a1 d7 21 3e 1c ee fa bd c6 b1 2b be f6 ed dc 3d
       0.15804912 -0.12252447 -0.16767034 0.10787575
000100 3c 4f 95 3c b2 a6 a2 3d fd 79 aa 3d 38 b3 3a 3d
       0.018226258 0.07941951 0.08324049 0.045581073
000110 e4 73 b8 3d a0 85 d2 bd e6 b6 c0 bd 12 95 a9 3c
       0.090064794 -0.10279393 -0.09409885 0.020700965
000120 d8 1f 0e 3e 7d 37 b5 bd 2a ff 6b bc cb 77 f2 3d
       0.13879335 -0.08848474 -0.014404098 0.11839255
000130 08 94 7c bd 26 88 6b bd ac 70 5e 3e 82 01 c4 3d
       -0.06166461 -0.05750289 0.21722668 0.095706
000140 af 23 a1 3c 0d c4 33 bd 35 5f 29 be 40 32 6e 3d
       0.019670336 -0.04388814 -0.16540225 0.05815339
000150 ad f7 4c 3d 70 40 c8 bc 78 e9 25 3d f0 b4 56 3c
       0.05004089 -0.024444789 0.040505856 0.013104662
000160 80 da 4f bc ca 2a f3 3c b3 a3 be 3d ef 3c f0 bd
       -0.012686372 0.02968349 0.09308567 -0.11730372
000170 12 86 1e 3e 6b 4c 54 3e e9 e1 27 3e a9 40 5f 3e
       0.15480831 0.20732276 0.16394772 0.2180201
000180 94 3c 06 be 8e 86 66 bd eb 21 1d bd 94 83 7a bd
       -0.13109046 -0.056280665 -0.038362425 -0.06116064
000190 fa a3 db 3d b2 ba d1 3b b0 64 20 3e 0e 56 0c be
       0.107246354 0.0064004296 0.15663409 -0.13704702
0001a0 fa 7b 8a 3d 63 ec d2 3c f7 91 4e 3e d3 69 00 3d
       0.06761928 0.025747484 0.20172869 0.03135092
0001b0 e1 5f 56 3e 97 fb 3a 3e ca 44 a0 bd 2a 05 e1 3d
       0.20935012 0.18260036 -0.078256205 0.10987313
0001c0 06 8e 39 3e 27 b6 bd 3d 38 45 ff bc 3c 08 07 3e
       0.18120584 0.092632584 -0.031160936 0.13186735
0001d0 a8 40 da bd 43 39 15 3e bb 97 76 bd 80 32 e6 3c
       -0.106568635 0.14572625 -0.060203295 0.028100252
0001e0 17 35 0f 3e cb 14 4b 3d 48 1d 9e bb 43 ef cd 3d
       0.13985096 0.049580377 -0.004825268 0.10055401
0001f0 56 a8 bd 3c 83 96 e6 3d c9 ec 5e 3e ad 36 d9 bd
       0.023151558 0.112591766 0.21770014 -0.10606132

fc3.bias f4 [4]
000000 00 a5 66 3e 19 5d 24 3d cd 67 2a bd 06 37 5f 3e
       0.2252388 0.040127847 -0.0416029 0.21798334
