trained_agents/policy_net2400.pth (torch, 15822 bytes, 6 tensors)

fc1.weight f4 [64, 16]
-0.0043155886 -0.009440827 -0.21137726 -0.18617009 -0.21638218 0.24212027 0.10529838 0.019311935
-0.1011347 0.090532646 -0.22499049 0.21218237 -0.19977146 0.3358939 0.05410401 -0.1261228
0.13179196 -0.13790798 0.2230141 -0.11564617 0.10534474 0.0024238825 0.21960835 -0.18191111
-0.037107572 0.0095193805 0.4539662 -0.11952579 0.15481871 -0.14033616 -0.14343295 -0.19618875
-0.14227834 0.12641524 0.10134199 -0.015632365 -0.20278114 0.15329403 0.049275894 0.1756927
0.023641562 -0.15549964 -0.13037834 -0.15220559 -0.1093913 0.39313194 0.24859793 0.08239663
-0.100965135 0.3644577 -0.22463503 0.55225855 -0.090467505 -0.114941955 -0.050581243 0.14097965
0.18968903 -0.20985988 -0.013222495 0.17353764 -0.04231891 -0.2811536 -0.28711894 0.046727538
0.17914197 -0.034884125 0.041610897 0.015299052 -0.0528228 0.026030362 0.16143328 -0.19511384
0.19138262 0.13360679 -0.1181612 0.12055594 0.09247276 0.15799424 -0.1810382 0.14317244
-0.24348566 0.16019689 0.053527404 -0.1534566 -0.027350545 -0.16079754 -0.2015219 0.17193055
-0.24175334 0.14573146 -0.004111886 0.1663895 -0.16950646 0.14364836 -0.006433159 0.05019003
-0.13631499 0.10648625 -0.19809937 -0.04882002 -0.129655 0.14837736 0.03056409 0.060870856
-0.12760848 -0.030334048 0.23335515 0.13842991 -0.014207453 -0.092478245 -0.11735743 -0.1718188
-0.13131362 -0.1272465 -0.2199027 -0.035659045 -0.07335496 0.007017076 0.09036785 -0.061333597
-0.1661469 -0.0416089 0.10114157 -0.08348659 -0.21033925 0.15402794 -0.17143998 -0.059683025
0.012616855 -0.11103471 -0.004246726 -0.16122645 -0.2650765 -0.21123487 0.07038001 -0.020997047
-0.11395407 -0.18424726 -0.21137655 0.13216814 0.19538835 0.33585215 0.27382654 0.16370127
-0.07883125 -0.25561023 -0.06090395 -0.061329868 -0.15228298 0.03902939 -0.12426954 0.05688134
4.148674e-05 -0.25072792 -0.10216553 0.15393716 0.19171676 0.26393467 0.20574194 0.014518559
0.08246347 -0.23570316 0.11731112 -0.23050854 -0.2442033 -0.18298101 0.047049463 -0.03831044
-0.16285393 0.42612016 -0.22968441 -0.12775108 -0.03743899 0.48085004 0.15333496 -0.2132751
0.016790865 -0.019023139 0.1378425 -0.20092873 -0.22486761 -0.0770168 0.1276777 0.085048646
-0.13898484 -0.2163237 0.11615829 0.009112 -0.09527692 0.425604 0.38036972 0.022445858
-0.115222245 0.20727022 0.0030459464 -0.07800397 0.12485093 -0.12998801 -0.0030406415 0.014056623
0.20592687 0.027703643 -0.20328626 -0.1751445 -0.23289719 -0.10737926 0.12168321 0.212776
0.02053202 -0.047720004 0.10494694 -0.034710385 0.13472556 -0.12714797 0.43789938 0.09828916
-0.12731352 -0.21897715 0.21753423 0.19596809 -0.025888175 -0.19904718 0.049480107 -0.23148382
0.1859088 -0.29249308 0.40715593 -0.28191987 0.33112273 0.013581902 0.2223468 -0.091552615
-0.29853946 0.29100743 0.2803242 -0.21663615 -0.040177852 -0.30750164 0.35161722 0.049164176
-0.03685522 -0.22025198 -0.026156813 0.114353806 -0.1948967 0.123756975 -0.071377814 -0.08343658
0.16072577 0.13432035 0.009403884 -0.04399112 0.24719667 0.013199091 0.039253384 -0.16225928
00000000: c869 8dbb b3ad 1abc 4873 58be 5fa3 3ebe
00000010: 4a93 5dbe 60ee 773e ada6 d73d 1034 9e3c
00000020: b61f cfbd 2e69 b93d e863 66be 5646 593e
00000030: e490 4cbe 49fa ab3e 2b9c 5d3d 5626 01be
00000040: 79f4 063e c037 0dbe cf5d 643e e6d7 ecbd
00000050: fcbe d73d 00da 1e3b 03e1 603e e846 3abe
00000060: 1cfe 17bd 2df7 1b3c 426e e83e f0c9 f4bd
00000070: cc88 1e3e 48b4 0fbe 16e0 12be b4e5 48be
00000080: 6ab1 11be ff72 013e 648c cf3d 720f 80bc
00000090: dca5 4fbe 1cf9 1c3e 85d5 493d cae8 333e
000000a0: f3ab c13c 4c3b 1fbe e681 05be c8db 1bbe
000000b0: 8c08 e0bd 9748 c93e 7590 7e3e 90bf a83d
000000c0: cfc6 cebd 339a ba3e ba06 66be d160 0d3f
000000d0: 0747 b9bd b066 ebbd 472e 4fbd f85c 103e
000000e0: d73d 423e 82e5 56be 2aa3 58bc dab3 313e
000000f0: 9856 2dbd 5df3 8fbe 4101 93be 6065 3f3d
00000100: fe70 373e a8e2 0ebd 3070 2a3d e0a8 7a3c
00000110: b85c 58bd a03d d53c c44e 253e eccb 47be
00000120: cef9 433e 38d0 083e 80fe f1bd 08e6 f63d
00000130: 5c62 bd3d 3ec9 213e 1462 39be cc9b 123e
00000140: 4e54 79be a70a 243e 8d3f 5b3d ba23 1dbe
00000150: 400e e0bc 1ca8 24be c25b 4ebe 900e 303e
00000160: 308e 77be a13a 153e 00bd 86bb 0262 2a3e
00000170: 1a93 2dbe 8e18 133e 40cd d2bb 1094 4d3d
00000180: 2896 0bbe 7715 da3d 90da 4abe 80f7 47bd
00000190: 48c4 04be 3cf0 173e 8b61 fa3c b853 793d
000001a0: ccab 02be 1c7f f8bc a7f4 6e3e 92c0 0d3e
000001b0: 60c6 68bc 3c65 bdbd 1859 f0bd 44f1 2fbe
000001c0: 1477 06be e84c 02be 2c2e 61be 380f 12bd
000001d0: 203b 96bd 80ef e53b c812 b93d f038 7bbd
000001e0: 6a22 2abe 186e 2abd 5023 cf3d 04fb aabd
000001f0: 2c63 57be 80b9 1d3e f68d 2fbe 3076 74bd
00000200: edb6 4e3c 2b66 e3bd 1f28 8bbb 8c18 25be
00000210: 1bb8 87be f44d 58be 6523 903d 0002 acbc
00000220: c060 e9bd 50ab 3cbe 1873 58be 1657 073e
00000230: e213 483e d0f4 ab3e fe32 8c3e 4ea1 273e
00000240: 4772 a1bd 58df 82be 6c76 79bd 0735 7bbd
00000250: 12f0 1bbe 48dd 1f3d 0781 febd 68fc 683d
00000260: 0c02 2e38 695f 80be 293c d1bd b4a1 1d3e
00000270: 6651 443e 7222 873e 04ae 523e 40df 6d3c
00000280: 9ce2 a83d 2b5c 71be d040 f03d 6e0a 6cbe
00000290: 6e10 7abe 605f 3bbe f0b6 403d 68eb 1cbd
000002a0: 2ec3 26be 6c2c da3e 6432 6bbe 2ed1 02be
000002b0: a059 19bd fa31 f63e d703 1d3e ca64 5abe
000002c0: ff8c 893c 6ad6 9bbc 9626 0d3e 43c0 4dbe
000002d0: b243 66be fcba 9dbd f1bd 023e fc2d ae3d
000002e0: 0b52 0ebe f683 5dbe 66e4 ed3d 804a 153c
000002f0: 8c20 c3bd c4e8 d93e d2bf c23e 60e0 b73c
00000300: a4f9 ebbd a53e 543e 809e 473b 8cc0 9fbd
00000310: d8b1 ff3d 941b 05be 8045 47bb c04d 663c
00000320: 7ede 523e c0f2 e23c 462a 50be 1459 33be
00000330: 9a7c 6ebe a8e9 dbbd 0c35 f93d f4e1 593e
00000340: c432 a83c 0d76 43bd 6cee d63d 7a2c 0ebd
00000350: 7ff5 093e 1433 02be 5934 e03e d44b c93d
00000360: 7a5e 02be 8c3b 60be 4bc1 5e3e dcab 483e
00000370: 7013 d4bc 06d3 4bbe a7ab 4a3d 180a 6dbe
00000380: e05e 3e3e a7c1 95be be76 d03e cd57 90be
00000390: eb88 a93e a086 5e3c e1ae 633e f07f bbbd
000003a0: 2ada 98be edfe 943e a786 8f3e ded5 5dbe
000003b0: 8891 24bd db70 9dbe 2c07 b43e 6060 493d
000003c0: 80f5 16bd bc89 61be d046 d6bc 5432 ea3d
000003d0: 0093 47be 4c74 fd3d 882e 92bd cce0 aabd
000003e0: 4c95 243e 468b 093e c012 1a3c 0830 34bd
000003f0: 2021 7d3e 0041 583c 28c8 203d 4c27 26be

fc1.bias f4 [64]
0.12495795 0.05099529 0.0667278 0.16348971 -0.22329119 -0.17039753 -0.16406341 -0.21451265
0.32124612 0.22242896 0.22087508 0.1874442 -0.2279347 0.14043055 0.27881634 -0.21803567
-0.18827626 0.2750209 -0.25534305 -0.05713267 -0.20393 -0.24513708 0.07208585 0.1195141
-0.24602588 0.11997288 0.23064438 0.25932258 0.09095948 -0.12130531 0.07731957 0.27987933
-0.14949168 -0.043441698 -0.02516606 -0.10379622 -0.047047712 0.0614079 -0.2780362 -0.18878752
-0.19690505 -0.09193231 -0.23245421 -0.14742172 -0.23060232 -0.22907794 -0.25506 -0.014409387
-0.17525415 0.31637737 -0.111586176 0.15559417 -0.017476313 0.21112055 -0.018887484 0.18089905
0.2027151 -0.12331052 0.2251113 0.106655404 -0.24661392 -0.1394339 -0.020890327 0.2471319
00000000: f4e9 ff3d 70e0 503d 96a8 883d d969 273e
00000010: 72a6 64be b17c 2ebe 3d00 28be 34a9 5bbe
00000020: 5f7a a43e 6bc4 633e 142d 623e 5ff1 3f3e
00000030: b767 69be 07cd 0f3e 04c1 8e3e be44 5fbe
00000040: 7ecb 40be 8acf 8c3e 53bc 82be f203 6abd
00000050: 07d3 50be 3705 7bbe bfa1 933d cfc3 f43d
00000060: 35ee 7bbe 57b4 f53d 0a2e 6c3e eec5 843e
00000070: f748 ba3d eb6e f8bd b959 9e3d 584c 8f3e
00000080: 5914 19be ecef 31bd 0e29 cebc 1d93 d4bd
00000090: 1ab5 40bd da86 7b3d c35a 8ebe 8451 41be
000000a0: 7aa1 49be 0247 bcbd 7a08 6ebe b8f5 16be
000000b0: 0423 6cbe 6893 6abe 3997 82be 5915 6cbc
000000c0: d375 33be 37fc a13e 4b87 e4bd 1454 1f3e
000000d0: 7c2a 8fbc fc2f 583e edb9 9abc 9a3d 393e
000000e0: 8c94 4f3e 3a8a fcbd 9483 663e 266e da3d
000000f0: 5c88 7cbe c3c7 0ebe 3122 abbc 2510 7d3e

fc2.weight f4 [32, 64]
0.12150542 -0.03200644 0.0013490567 -0.01989791 0.07513952 0.059092123 -0.037585944 0.02015756
0.037813947 -0.12772188 0.011755383 0.10975366 0.022846468 0.16042033 0.13703515 -0.039004907
-0.01805219 -0.10844782 0.14446385 0.1542125 -0.06867965 0.21661232 0.25948015 0.07076762
0.1412124 0.13836472 0.13566664 -0.008579896 0.07749938 -0.004399169 0.1666253 0.114412546
0.11340558 0.08910426 -0.07294533 -0.06825955 -0.10357306 -0.011636285 0.12385975 0.056362316
0.06702126 -0.06786734 -0.08605373 -0.11466731 -0.036497056 0.111549065 -0.086853854 0.24336864
0.11176107 0.17106684 0.32274318 -0.039131317 0.20720676 0.19592665 0.14204913 0.0351197
0.05431976 -0.31925002 0.06616841 0.12669961 -0.12012212 0.01573156 0.07461512 0.01040742
0.02889175 -0.0014443466 0.052987125 0.26811123 0.0018238723 -0.07083025 0.10372648 -0.117801026
0.08260614 0.121638775 -0.25591207 0.08793801 0.009924294 -0.10594939 0.008403475 0.084616795
-0.013335496 -0.07733754 -0.12632248 0.046897728 0.060324524 -0.03194133 -0.38822788 -0.06525542
0.058029402 -0.06845017 0.10296532 0.0789544 -0.016055364 -0.07457473 -0.28238034 0.03246246
-0.15342207 0.00076088856 -0.10979844 -0.093440376 0.16864865 0.13951567 -0.09308939 -0.017662182
0.16177791 0.033221956 -0.022867575 0.034926027 0.057415366 0.083851755 0.13732167 -0.10426166
0.067544505 -0.15541655 -0.13562196 0.039597265 -0.10133018 -0.097167544 0.07060461 0.17407423
0.12441217 0.39832234 0.018972777 0.029943714 0.08427021 -0.05594894 -0.040828884 0.16930434
-0.11607555 0.16304003 -0.033640627 0.0662547 0.107807234 -0.01284213 0.10948779 -0.069775835
-0.014971224 0.018961877 0.0022459626 0.15394248 -0.10457531 -0.0027564648 0.064808436 0.032209873
-0.071350425 0.070175394 -0.07291275 0.04807671 0.14094017 -0.056781534 0.11060145 -0.023460658
0.012194366 -0.06815382 0.031028138 -0.0265157 0.065936886 0.022640806 0.09370167 0.13585225
0.014048285 0.11557323 0.06845643 -0.027848981 -0.039327923 -0.2064316 -0.06208511 -0.003319174
0.09262994 -0.03187931 -0.081248194 -0.07458365 -0.12260178 -0.0505656 -0.052994117 -0.03595926
0.032246534 0.023457164 0.003618149 -0.16575748 0.18056713 0.21815948 -0.05919698 0.18341838
-0.09609659 -0.054542623 0.11017459 -0.00911533 -0.0536433 0.0023655226 0.10904993 -0.06091301
0.13733083 -0.07795 0.24376127 -0.105026156 -0.06638564 -0.13154322 0.023044381 0.01938583
0.1859383 0.08341817 0.30188876 0.27863133 -0.04709777 0.047008686 0.05056968 0.115172416
-0.09241305 0.018406115 0.048754066 0.032609865 -0.072146654 -0.03816287 -0.032754138 0.03935678
0.0017750823 0.05081806 0.06142124 0.16637826 -0.055126928 0.12572743 0.17544411 0.044447582
0.0068913363 -0.1154698 0.14910658 0.11569065 -0.031614687 0.048414983 0.12323464 -0.033204556
0.08973373 -0.027655613 -0.11338501 0.07192448 -0.068706945 -0.118456125 -0.040117066 -0.13196158
-0.055572376 0.1145173 0.09432593 0.22008246 -0.24329361 -0.030610995 0.1912012 0.21810353
0.1851278 -0.03425772 -0.037592106 -0.047582615 -0.05013472 -0.08436669 0.00092593225 0.12796696
00000000: d5d7 f83d 2f19 03bd d5d2 b03a f100 a3bc
00000010: c0e2 993d 950a 723d b8f3 19bd 7821 a53c
00000020: cce2 1a3d 86c9 02be a699 403c 87c6 e03d
00000030: 8428 bb3c 3a45 243e f152 0c3e 9cc3 1fbd
00000040: 30e2 93bc e419 debd 55ee 133e e2e9 1d3e
00000050: eba7 8cbd 9fcf 5d3e 95da 843e 9dee 903d
00000060: fc99 103e 7baf 0d3e 32ec 0a3e b192 0cbc
00000070: ffb7 9e3d e726 90bb d39f 2a3e 2051 ea3d
00000080: 2f41 e83d 4b7c b63d 5c64 95bd aacb 8bbd
00000090: 1d1e d4bd 1ea6 3ebc 2eaa fd3d 2cdc 663d
000000a0: 7142 893d 08fe 8abd f03c b0bd b2d6 eabd
000000b0: f07d 15bd d673 e43d 6fe0 b1bd a135 793e
000000c0: fde2 e43d 252c 2f3e 983e a53e 2948 20bd
000000d0: 022e 543e ffa0 483e 5475 113e add9 0f3d
000000e0: 667e 5e3d bd74 a3be 4e83 873d 8bbd 013e
000000f0: 9602 f6bd 79df 803c d0cf 983d e283 2a3c
00000100: 64ae ec3c 3b50 bdba 0709 593d e045 893e
00000110: 000f ef3a 730f 91bd 8c6e d43d aa41 f1bd
00000120: 682d a93d c01d f93d e806 83be d818 b43d
00000130: 8299 223c fefb d8bd bbae 093c 924b ad3d
00000140: 207d 5abc 2563 9ebd ae5a 01be d517 403d
00000150: d916 773d e9d4 02bd cec5 c6be a2a4 85bd
00000160: 3db0 6d3d 9a2f 8cbd 7bdf d23d d8b2 a13d
00000170: 8a86 83bc a3ba 98bd 2894 90be 5bf7 043d
00000180: ad1a 1dbe 5e76 473a 01de e0bd ab5d bfbd
00000190: 3bb2 2c3e 32dd 0e3e a6a5 bebd 48b0 90bc
000001a0: 1ca9 253e bf13 083d c854 bbbc 980e 0f3d
000001b0: 602c 6b3d 78ba ab3d 0d9e 0c3e 2387 d5bd
000001c0: c654 8a3d 8425 1fbe 7ce0 0abe be30 223d
000001d0: 3386 cfbd c7ff c6bd 2699 903d 8440 323e
000001e0: cfcb fe3d e8f0 cb3e cc6c 9b3c 854c f53c
000001f0: dc95 ac3d b72a 65bd 303c 27bd 1e5e 2d3e
00000200: 05b9 edbd f7f3 263e c1ca 09bd 8bb0 873d
00000210: 0aca dc3d cc67 52bc 223b e03d a2e6 8ebd
00000220: dd49 75bc f055 9b3c 0031 133b 19a3 1d3e
00000230: 952b d6bd cea5 34bb 49ba 843d 80ee 033d
00000240: 2c20 92bd 1eb8 8f3d 4853 95bd 16ec 443d
00000250: 9f52 103e c193 68bd 0383 e23d 9130 c0bc
00000260: e1ca 473c 3b94 8bbd b92e fe3c 7437 d9bc
00000270: eb09 873d 3679 b93c a9e6 bf3d da1c 0b3e
00000280: c72a 663c a8b1 ec3d e332 8c3d 8c23 e4bc
00000290: 5116 21bd ce62 53be f54c 7ebd 8086 59bb
000002a0: c4b4 bd3d e193 02bd 7465 a6bd 50bf 98bd
000002b0: a416 fbbd e01d 4fbd 5c10 59bd 044a 13bd
000002c0: f114 043d 3d29 c03c 781e 6d3b 54bc 29be
000002d0: 97e6 383e 3365 5f3e 8878 72bd 07d2 3b3e
000002e0: 4ace c4bd 1668 5fbd 37a3 e13d 7758 15bc
000002f0: 14b9 5bbd e206 1b3b 9255 df3d ec7f 79bd
00000300: 74a0 0c3e 40a4 9fbd 8e9c 793e f417 d7bd
00000310: 32f5 87bd 44b3 06be 92c7 bc3c 08cf 9e3c
00000320: 9c66 3e3e 25d7 aa3d 2a91 9a3e c4a8 8e3e
00000330: 97e9 40bd 2e8c 403d 2722 4f3d 84df eb3d
00000340: 0e43 bdbd 6cc8 963c 58b2 473d ec91 053d
00000350: a0c1 93bd ab50 1cbd 3429 06bd 9334 213d
00000360: e1a9 e83a 9926 503d d794 7b3d 105f 2a3e
00000370: c6cc 61bd b1be 003e 9fa7 333e ab0e 363d
00000380: b8d0 e13b 6e7b ecbd 65af 183e 38ef ec3d
00000390: 677e 01bd ca4e 463d 7162 fc3d 8001 08bd
000003a0: 51c6 b73d 068e e2bc 6636 e8bd 244d 933d
000003b0: 3ab6 8cbd 2099 f2bd cb51 24bd f020 07be
000003c0: dc9f 63bd 0c88 ea3d f42d c13d 4c5d 613e
000003d0: f621 79be e9c3 fabc 3fca 433e 8856 5f3e
000003e0: 2492 3d3e d351 0cbd 2efa 19bd fde5 42bd
000003f0: 105a 4dbd 71c8 acbd 43ba 723a c509 033e

fc2.bias f4 [32]
-0.03622687 0.07356627 0.1664994 0.06525364 -0.0071165888 0.091925845 0.048502386 0.069426894
0.11461339 0.061366174 0.21711637 -0.06931631 0.08477803 0.060635433 -0.033678867 0.15742421
0.18155587 -0.12343153 0.04659127 0.20175447 -0.06477085 0.019594759 -0.11161102 0.03179228
0.011827442 -0.098862216 0.11378432 0.06615464 -0.07722369 -0.11527525 0.028158294 -0.04762909
00000000: a062 14bd eaa9 963d d27e 2a3e b3a3 853d
00000010: 4632 e9bb 9e43 bc3d 70aa 463d b02f 8e3d
00000020: 6dba ea3d 195b 7b3d c153 5e3e b6f5 8dbd
00000030: 1ba0 ad3d dc5c 783d daf2 09bd d033 213e
00000040: c8e9 393e acc9 fcbd 7dd6 3e3d b998 4e3e
00000050: 94a6 84bd 3085 a03c 5294 e4bd 9f38 023d
00000060: e3c7 413c 4678 cabd c107 e93d 157c 873d
00000070: 7427 9ebd 6e15 ecbd 39ac e63c b816 43bd

fc3.weight f4 [4, 32]
0.008054782 0.22260758 0.13363434 -0.08243148 -0.08608935 0.05045566 0.081051506 -0.06696835
0.17204294 -0.16194254 0.022621961 0.043472216 -0.047129855 0.037406154 -0.1709469 0.29391348
0.22643282 -0.028123856 -0.005316226 -0.063243926 0.084014095 -0.2392381 -0.101403296 -0.023966543
0.00022134445 -0.049639836 -0.010229667 0.06091577 -0.07992351 -0.082092226 0.13044402 -0.1653214
0.14779375 -0.116160296 0.14815538 0.059818782 -0.12094299 0.08528314 0.13297196 -0.05911572
0.09905627 -0.12734781 0.12645888 -0.029271854 0.09766503 -0.14071971 0.048436407 -0.11959208
0.24308139 0.16860409 0.017209906 0.055204667 -0.16191797 0.078071535 -0.14365534 -0.1344751
-0.028321423 -0.09342026 -0.1305701 -0.00799711 -0.17296238 -0.016762327 0.013445804 -0.1186735
-0.15249206 0.01882793 -0.036361814 0.15089713 -0.12960288 0.11523711 -0.03720606 -0.13219813
-0.1476113 0.09650985 0.1761162 0.010085423 -0.16155069 -0.00438258 -0.037184726 0.14398985
0.15069057 0.06477596 0.020640165 0.21175717 0.016000167 -0.0043037357 -0.08767265 -0.036356762
-0.021540826 -0.11126418 0.1263472 -0.060505375 0.032441527 -0.025437132 0.12731612 0.02340917
-0.0046496917 0.070264205 0.115518816 0.06861946 -0.00665005 -0.4855479 0.02814221 -0.11728967
0.042844232 0.14636801 -0.057790164 0.07214819 0.19819374 0.12658145 -0.13254073 0.073354006
0.017048268 0.12599988 -0.16854408 0.19379964 0.07194418 0.1294541 0.16873367 0.062252183
0.11401197 -0.10786358 0.23134501 0.052522425 -0.008516148 -0.016728254 -0.048527353 0.07173875
00000000: 34f8 033c 3ef3 633e 71d7 083e d6d1 a8bd
00000010: 9d4f b0bd 98aa 4e3d 55fe a53d b426 89bd
00000020: 062c 303e 44d4 25be b151 b93c ec0f 323d
00000030: 3c0b 41bd 3237 193d b40c 2fbe d47b 963e
00000040: 01de 673e 0064 e6bc bc33 aebb 0886 81bd
00000050: 950f ac3d d5fa 74be 88ac cfbd 7c55 c4bc
00000060: b318 6839 2453 4bbd 559a 27bc d082 793d
00000070: f0ae a3bd f81f a8bd 1e93 053e 034a 29be
00000080: 3f57 173e 73e5 edbd 0bb6 173e 8a04 753d
00000090: f5b0 f7bd eda8 ae3d cd29 083e 5323 72bd
000000a0: 04de ca3d 7767 02be 707e 013e 87cb efbc
000000b0: 9a04 c83d d418 10be 4165 463d b1ec f4bd
000000c0: 54ea 783e 8da6 2c3e cafb 8c3c 4a1e 623d
000000d0: d3cd 25be f8e3 9f3d 631a 13be d7b3 09be
000000e0: 5402 e8bc 1f53 bfbd 2bb4 05be 4f06 03bc
000000f0: 0d1d 31be 2651 89bc ca4b 5c3c 180b f3bd
00000100: e126 1cbe 083d 9a3c 20f0 14bd c784 1a3e
00000110: 9eb6 04be 6f01 ec3d 6265 18bd f25e 07be
00000120: 6b27 17be f5a6 c53d ce57 343e 543d 253c
00000130: 8b6d 25be bf9b 8fbb 034f 18bd 1372 133e
00000140: a14e 1a3e 42a9 843d 9015 a93c dfd6 583e
00000150: c812 833c 5a06 8dbb b88d b3bd d4ea 14bd
00000160: 6376 b0bc 79de e3bd 2961 013e 7cd4 77bd
00000170: 68e1 043d 8861 d0bc 285f 023e 96c4 bf3c
00000180: 715c 98bb aee6 8f3d 2195 ec3d 5c88 8c3d
00000190: aae8 d9bb bc99 f8be 7e8a e63c 9135 f0bd
000001a0: 6f7d 2f3d 7fe1 153e 61b5 6cbd 6ec2 933d
000001b0: 4df3 4a3e 919e 013e c2b8 07be a03a 963d
000001c0: cfa8 8b3c 1d06 013e d296 2cbe 6a73 463e
000001d0: 7857 933d 9e8f 043e 85c8 2c3e 25fc 7e3d
000001e0: 1c7f e93d 95e7 dcbd b5e5 6c3e c121 573d
000001f0: 5087 0bbc b109 89bc 9ec4 46bd c4eb 923d

fc3.bias f4 [4]
0.23528568 0.06989746 0.24427144 0.21112455
00000000: bbee 703e 6626 8f3d 4b22 7a3e 0931 583e
