trained_agents/policy_net5000.pth (torch, 15822 bytes, 6 tensors)

fc1.weight f4 [64, 16]
0	0xbc529205	-0.012852197
1	0xbc1b27ba	-0.009469921
2	0xbe587348	-0.21137726
3	0xbe3ea35f	-0.18617009
4	0xbe5d934a	-0.21638218
5	0x3e77ee60	0.24212027
6	0x3dc7e7bc	0.09760997
7	0x3c9e3410	0.019311935
8	0xbdeca559	-0.11554975
9	0x3d8066d3	0.06269612
10	0xbe6663e8	-0.22499049
11	0x3e594656	0.21218237
12	0xbe4c90e4	-0.19977146
13	0x3eb37e06	0.35057086
14	0x3d23b953	0.03997166
15	0xbe012656	-0.1261228
16	0x3de4f25a	0.111790374
17	0xbe0d37c0	-0.13790798
18	0x3e5d2361	0.21595527
19	0xbdecd7e6	-0.11564617
20	0x3dbb2085	0.09137062
21	0x3b1eda00	0.0024238825
22	0x3e5cec2a	0.21574464
23	0xbe3a46e8	-0.18191111
24	0xbd54b4ca	-0.051930226
25	0xbb874474	-0.0041280333
26	0x3edad62f	0.42741534
27	0xbdf4c9f0	-0.11952579
28	0x3e1e88cc	0.15481871
29	0xbe0fb448	-0.14033616
30	0xbe12e016	-0.14343295
31	0xbe48e5b4	-0.19618875
32	0xbe11b16a	-0.14227834
33	0x3df5c6e8	0.12000829
34	0x3db387a0	0.08766103
35	0xbc800f72	-0.015632365
36	0xbe4fa5dc	-0.20278114
37	0x3e1cf91c	0.15329403
38	0x3d25857c	0.040410504
39	0x3e33e8ca	0.1756927
40	0x3cd7e2bd	0.026353234
41	0xbe1f3b4c	-0.15549964
42	0xbe0581e6	-0.13037834
43	0xbe1bdbc8	-0.15220559
44	0xbde0088c	-0.1093913
45	0x3ed1c0cf	0.40967414
46	0x3e65cb7e	0.22440907
47	0x3da8bf90	0.08239663
48	0xbde8dfb8	-0.11370796
49	0x3ebaa737	0.364557
50	0xbe6606ba	-0.22463503
51	0x3f0d60d1	0.55225855
52	0xbdb2f399	-0.08737869
53	0xbdeb66b0	-0.114941955
54	0xbd0e63eb	-0.034763258
55	0x3e105cf8	0.14097965
56	0x3e3b6bbb	0.18302815
57	0xbe56e582	-0.20985988
58	0xbaacd610	-0.0013186354
59	0x3e31b3da	0.17353764
60	0xbd2d5698	-0.04231891
61	0xbe8ff35d	-0.2811536
62	0xbe930141	-0.28711894
63	0x3d3f6560	0.046727538
64	0x3e3770fe	0.17914197
65	0xbd0ee2a8	-0.034884125
66	0x3d2a7030	0.041610897
67	0x3c7aa8e0	0.015299052
68	0xbd585cb8	-0.0528228
69	0x3cd53da0	0.026030362
70	0x3e254ec4	0.16143328
71	0xbe47cbec	-0.19511384
72	0x3e43f9ce	0.19138262
73	0x3e08d038	0.13360679
74	0xbdf1fe80	-0.1181612
75	0x3df6e608	0.12055594
76	0x3dbd625c	0.09247276
77	0x3e21c93e	0.15799424
78	0xbe396214	-0.1810382
79	0x3e129bcc	0.14317244
80	0xbe79544e	-0.24348566
81	0x3e240aa7	0.16019689
82	0x3d5b3f8d	0.053527404
83	0xbe1d23ba	-0.1534566
84	0xbce00e40	-0.027350545
85	0xbe24a81c	-0.16079754
86	0xbe4e5bc2	-0.2015219
87	0x3e300e90	0.17193055
88	0xbe778e30	-0.24175334
89	0x3e153aa1	0.14573146
90	0xbb86bd00	-0.004111886
91	0x3e2a6202	0.1663895
92	0xbe2d931a	-0.16950646
93	0x3e13188e	0.14364836
94	0xbbd2cd40	-0.006433159
95	0x3d4d9410	0.05019003
96	0xbe0b9628	-0.13631499
97	0x3dda1577	0.10648625
98	0xbe4ada90	-0.19809937
99	0xbd47f780	-0.04882002
100	0xbe04c448	-0.129655
101	0x3e17f03c	0.14837736
102	0x3cfa618b	0.03056409
103	0x3d7953b8	0.060870856
104	0xbe02abcc	-0.12760848
105	0xbcf87f1c	-0.030334048
106	0x3e7bfa2b	0.2460715
107	0x3e0dc092	0.13842991
108	0xbc68c660	-0.014207453
109	0xbdbd653c	-0.092478245
110	0xbdf05918	-0.11735743
111	0xbe2ff144	-0.1718188
112	0xbe067714	-0.13131362
113	0xbe024ce8	-0.1272465
114	0xbe612e2c	-0.2199027
115	0xbd120f38	-0.035659045
116	0xbd963b20	-0.07335496
117	0x3be5ef80	0.007017076
118	0x3db912c8	0.09036785
119	0xbd7b38f0	-0.061333597
120	0xbe2a226a	-0.1661469
121	0xbd2a6e18	-0.0416089
122	0x3dcf2350	0.10114157
123	0xbdaafb04	-0.08348659
124	0xbe57632c	-0.21033925
125	0x3e1db980	0.15402794
126	0xbe2f8df6	-0.17143998
127	0xbd747630	-0.059683025
128	0x3bba0049	0.0056763035
129	0xbdf47b07	-0.11937528
130	0xbc8df372	-0.017327998
131	0xbe25188c	-0.16122645
132	0xbe9cf279	-0.30653742
133	0xbe584df4	-0.21123487
134	0x3d6bea1e	0.05759632
135	0xbcac0200	-0.020997047
136	0xbde1a8a5	-0.110184945
137	0xbe3860e1	-0.18005706
138	0xbe82adc5	-0.255232
139	0x3e075716	0.13216814
140	0x3e4813e2	0.19538835
141	0x3eb6e4eb	0.35721526
142	0x3e858a7b	0.26082215
143	0x3e27a14e	0.16370127
144	0xbdb24593	-0.087046765
145	0xbe82df58	-0.25561023
146	0xbd96e09e	-0.07367061
147	0xbd7b3507	-0.061329868
148	0xbe4d2fbf	-0.20037745
149	0x3d1fdd48	0.03902939
150	0xbe139953	-0.14413957
151	0x3d68fc68	0.05688134
152	0x399d1bb7	0.00029966023
153	0xbe805f69	-0.25072792
154	0xbe222cba	-0.15837374
155	0x3e1da1b4	0.15393716
156	0x3e445166	0.19171676
157	0x3e89a0fd	0.26880637
158	0x3e328fe7	0.17437707
159	0x3c6ddf40	0.014518559
160	0x3da86e3d	0.08224151
161	0xbe715c2b	-0.23570316
162	0x3ddbfb06	0.10741238
163	0xbe6c0a6e	-0.23050854
164	0xbe7a106e	-0.2442033
165	0xbe3b5f60	-0.18298101
166	0x3cd015b0	0.025400966
167	0xbd1ceb68	-0.03831044
168	0xbe2b9a2e	-0.16758034
169	0x3ed60541	0.41800883
170	0xbe6b3264	-0.22968441
171	0xbe02d12e	-0.12775108
172	0xbd1959a0	-0.03743899
173	0x3f023814	0.5086682
174	0x3e2dcb08	0.16971982
175	0xbe5a64ca	-0.2132751
176	0x3c03cafe	0.008044003
177	0xbc59f8fa	-0.01330399
178	0x3e01a37d	0.12660022
179	0xbe4dc043	-0.20092873
180	0xbe6643b2	-0.22486761
181	0xbd9dbafc	-0.0770168
182	0x3dff9dfa	0.124813035
183	0x3dae2dfc	0.085048646
184	0xbe0beded	-0.1366498
185	0xbe5d83f6	-0.2163237
186	0x3dac4926	0.084123895
187	0x3c154a80	0.009112
188	0xbdc3208c	-0.09527692
189	0x3ee28e41	0.44249156
190	0x3eb8246d	0.3596529
191	0x3cb7e060	0.022445858
192	0xbdebf9a4	-0.115222245
193	0x3e543ea5	0.20727022
194	0x3b479e80	0.0030459464
195	0xbd9fc08c	-0.07800397
196	0x3dffb1d8	0.12485093
197	0xbe051b94	-0.12998801
198	0xbb474580	-0.0030406415
199	0x3c664dc0	0.014056623
200	0x3e52de7e	0.20592687
201	0x3ce2f2c0	0.027703643
202	0xbe502a46	-0.20328626
203	0xbe335914	-0.1751445
204	0xbe6e7c9a	-0.23289719
205	0xbddbe9a8	-0.10737926
206	0x3df9350c	0.12168321
207	0x3e59e1f4	0.212776
208	0xbab9fb7e	-0.001418933
209	0xbceba06e	-0.028763022
210	0x3dcd293f	0.10017633
211	0xbd0e2c7a	-0.034710385
212	0x3e1150d8	0.14190996
213	0xbe023314	-0.12714797
214	0x3ee2533b	0.44204125
215	0x3dc94bd4	0.09828916
216	0xbdd2b63a	-0.10288663
217	0xbe603b8c	-0.21897715
218	0x3e62b5a9	0.2213961
219	0x3e48abdc	0.19596809
220	0xbcd41370	-0.025888175
221	0xbe4bd306	-0.19904718
222	0xbc33e307	-0.0109794205
223	0xbe6d0a18	-0.23148382
224	0x3e3e6d2b	0.18596332
225	0xbe95c1a7	-0.29249308
226	0x3ecc3191	0.39881566
227	0xbe9057cd	-0.28191987
228	0x3ea49108	0.321419
229	0x3c5e86a0	0.013581902
230	0x3e59024f	0.21192287
231	0xbdbb7ff0	-0.091552615
232	0xbe98da2a	-0.29853946
233	0x3e83dfba	0.25756627
234	0x3e8baa94	0.27278578
235	0xbe5dd5de	-0.21663615
236	0xbd249188	-0.040177852
237	0xbe9d70db	-0.30750164
238	0x3ea9a306	0.3313219
239	0x3d496060	0.049164176
240	0xbd16f580	-0.03685522
241	0xbe6189bc	-0.22025198
242	0xbcd646d0	-0.026156813
243	0x3dea3254	0.114353806
244	0xbe479300	-0.1948967
245	0x3dfd744c	0.123756975
246	0xbd922e88	-0.071377814
247	0xbdaae0cc	-0.08343658
248	0x3e24954c	0.16072577
249	0x3e098b46	0.13432035
250	0x3c1a12c0	0.009403884
251	0xbd343008	-0.04399112
252	0x3e7d2120	0.24719667
253	0x3c584100	0.013199091
254	0x3d20c828	0.039253384
255	0xbe26274c	-0.16225928

fc1.bias f4 [64]
0	0x3dcf1b60	0.10112643
1	0x3c9c98f0	0.019115895
2	0x3d6c912e	0.05775564
3	0x3e20c326	0.15699443
4	0xbe64a672	-0.22329119
5	0xbe2e7cb1	-0.17039753
6	0xbe1bf302	-0.15229419
7	0xbe5ba934	-0.21451265
8	0x3e9a976c	0.3019365
9	0x3e4165bf	0.1888647
10	0x3e6294f3	0.22127132
11	0x3e2eba4f	0.17063259
12	0xbe6967b7	-0.2279347
13	0x3df1ea7e	0.11812304
14	0x3e814f98	0.25256038
15	0xbe5f44be	-0.21803567
16	0xbe40cb7e	-0.18827626
17	0x3e8b1669	0.27165535
18	0xbe82bc53	-0.25534305
19	0xbd7c084b	-0.061531346
20	0xbe50d307	-0.20393
21	0xbe766509	-0.2406198
22	0x3da6d918	0.08146876
23	0x3d9ed042	0.07754566
24	0xbe7bee35	-0.24602588
25	0x3da2d183	0.079501174
26	0x3e4d8858	0.20071542
27	0x3e7fddc5	0.24986942
28	0x3dbf2716	0.09333627
29	0xbe23c16e	-0.15991756
30	0x3d8708f1	0.06593502
31	0x3e87e5d9	0.26542547
32	0xbe1ce160	-0.15320349
33	0xbcfcbbb0	-0.030851215
34	0xbd51ba80	-0.05120325
35	0xbdefabb4	-0.11702672
36	0xbd5c1ea1	-0.053740148
37	0x3d829e8b	0.06377896
38	0xbe8e5ac3	-0.2780362
39	0xbe415184	-0.18878752
40	0xbe633bb9	-0.22190751
41	0xbdd8d086	-0.10586648
42	0xbe6e087a	-0.23245421
43	0xbe16f5b8	-0.14742172
44	0xbe6c2304	-0.23060232
45	0xbe6a9368	-0.22907794
46	0xbe829739	-0.25506
47	0xbb5da385	-0.003381939
48	0xbe3375d3	-0.17525415
49	0x3e90b6c8	0.2826445
50	0xbdd15948	-0.10222107
51	0x3e2606a2	0.16213468
52	0x3ce96fff	0.028495787
53	0x3e428ca4	0.18998963
54	0xbcae8ea4	-0.02130825
55	0x3e36da6a	0.17856756
56	0x3e3a9fc0	0.18225002
57	0xbdff07bf	-0.12452649
58	0x3e407aa6	0.18796787
59	0x3dba3519	0.09092159
60	0xbe7c885c	-0.24661392
61	0xbe36fd91	-0.17870165
62	0xbcbf8441	-0.023378493
63	0x3e6108d3	0.21976022

fc2.weight f4 [32, 64]
0	0x3def3d76	0.116816446
1	0xbd4d7b12	-0.050166197
2	0xbc7c7364	-0.015408371
3	0xbaea1a1c	-0.0017860564
4	0x3d99e2c0	0.07513952
5	0x3d720a95	0.059092123
6	0xbd4e860d	-0.05042081
7	0x3ca52178	0.02015756
8	0x3cfd3299	0.030907916
9	0xbe09fcd9	-0.1347536
10	0xbbc6c986	-0.006066504
11	0x3dbfe79f	0.0937035
12	0x3cbb2884	0.022846468
13	0x3e1e5904	0.15463644
14	0x3e0407e4	0.12893635
15	0xbd1fc39c	-0.039004907
16	0xbc93e230	-0.01805219
17	0xbde5dfa2	-0.11224295
18	0x3e13ee55	0.14446385
19	0x3e23504d	0.15948601
20	0xbd8ca7eb	-0.06867965
21	0x3e60aad2	0.21940163
22	0x3e8776d7	0.26457855
23	0x3d8a52ae	0.06754051
24	0x3e1099fc	0.1412124
25	0x3e01bfb6	0.12670788
26	0x3e17e393	0.14832906
27	0xbc676c1f	-0.014124899
28	0x3db8c05d	0.090210654
29	0x3acf2c8e	0.0015806125
30	0x3e19cb57	0.15018974
31	0x3dd26fbd	0.10275219
32	0x3dfcb207	0.123386435
33	0x3dd1a5c3	0.10236695
34	0xbda0f3ee	-0.07859026
35	0xbd9777d1	-0.073959
36	0xbdd99f78	-0.106261194
37	0xbb942e99	-0.0045221564
38	0x3dfdaa2e	0.12385975
39	0x3d66dc2c	0.056362316
40	0x3d7afb0d	0.061274577
41	0xbd80231c	-0.062566966
42	0xbdb03cf0	-0.08605373
43	0xbdead6b2	-0.11466731
44	0xbd157df0	-0.036497056
45	0x3de473d6	0.111549065
46	0xbdb1e06f	-0.086853854
47	0x3e7e49fb	0.24832909
48	0x3de4e2fd	0.11176107
49	0x3e2a00d7	0.16601883
50	0x3ea86b3a	0.32894307
51	0xbd53eb5f	-0.05173814
52	0x3e6a4639	0.2287835
53	0x3e3c4ed1	0.18389441
54	0x3e025b5c	0.12730163
55	0x3cc2edb6	0.02379499
56	0x3d64c563	0.055852305
57	0xbea374bd	-0.31925002
58	0x3d734ea1	0.05940116
59	0x3dfcf3db	0.12351199
60	0xbdf60296	-0.12012212
61	0x3ba145d1	0.004921653
62	0x3da7b1cf	0.08188211
63	0x3bcd3507	0.006262425
64	0x3d2a3d07	0.041562106
65	0xbc5fdd77	-0.013663641
66	0x3d695d2c	0.05697362
67	0x3e8301b2	0.2558723
68	0x3aef0f00	0.0018238723
69	0xbd910f73	-0.07083025
70	0x3dd46e8c	0.10372648
71	0xbdf141aa	-0.117801026
72	0x3da3e984	0.08003524
73	0x3df5802c	0.119873375
74	0xbe82f35a	-0.25576288
75	0x3dad3306	0.084569976
76	0x3c229982	0.009924294
77	0xbdf54544	-0.11976102
78	0x39622297	0.00021565925
79	0x3dad4b92	0.084616795
80	0xbc5a7d20	-0.013335496
81	0xbda1646d	-0.07880483
82	0xbe015aae	-0.12632248
83	0x3d40000c	0.046875045
84	0x3d7716d9	0.060324524
85	0xbd02d4e9	-0.03194133
86	0xbec6c5ce	-0.38822788
87	0xbd909fc4	-0.07061723
88	0x3d6db03d	0.058029402
89	0xbd9b5487	-0.07584482
90	0x3dcaf817	0.09910601
91	0x3d9aba5f	0.07555079
92	0xbce86899	-0.028370189
93	0xbd9de66c	-0.07709965
94	0xbe901755	-0.281428
95	0x3cf006f6	0.029300194
96	0xbe1d1aad	-0.15342207
97	0xbbbea4e1	-0.005817995
98	0xbdcde57b	-0.100535356
99	0xbd8c0ef8	-0.068387926
100	0x3e249685	0.16073044
101	0x3e067bcf	0.13133167
102	0xbdbea5a6	-0.09308939
103	0xbc90b048	-0.017662182
104	0x3e05d46c	0.13069314
105	0x3ca03445	0.019556174
106	0xbcbb54c8	-0.022867575
107	0x3d0f0e98	0.034926027
108	0x3d6b2c60	0.057415366
109	0x3dabba78	0.083851755
110	0x3e0c9e0d	0.13732167
111	0xbdda58c7	-0.10661464
112	0x3d8a54c6	0.067544505
113	0xbe224e9f	-0.15850304
114	0xbe0ae07c	-0.13562196
115	0x3d49bbcf	0.049251374
116	0xbdcf8633	-0.10133018
117	0xbdd6b33d	-0.10483406
118	0x3da0e735	0.07856599
119	0x3e2a5dfa	0.16637412
120	0x3df9b78f	0.12193214
121	0x3ec9256c	0.39286363
122	0x3c2297d1	0.009923891
123	0x3ca11f1f	0.01966816
124	0x3dac95dc	0.08427021
125	0xbd652ab7	-0.05594894
126	0xbd2968ea	-0.04135982
127	0x3e28bdf7	0.16478716
128	0xbe00d084	-0.12579542
129	0x3e1f3601	0.15547945
130	0xbd31fa4a	-0.043451585
131	0x3d80cf31	0.062895186
132	0x3ddcca0a	0.107807234
133	0xbc5267cc	-0.01284213
134	0x3ddc5175	0.10757724
135	0xbd8ee6a2	-0.069775835
136	0xbc9417f6	-0.018077832
137	0x3c544d4a	0.01295788
138	0xbc62181f	-0.013799696
139	0x3e1b9879	0.15194882
140	0xbdd62b95	-0.10457531
141	0xbb8c0b0c	-0.004273778
142	0x3d8432c2	0.06454994
143	0x3d03ee80	0.032209873
144	0xbd92202c	-0.071350425
145	0x3d7eff25	0.062255044
146	0xbd955348	-0.07291275
147	0x3d2388ec	0.0399255
148	0x3e10529f	0.14094017
149	0xbd85a646	-0.06525855
150	0x3dd08537	0.10181659
151	0xbd2ba7c3	-0.041908037
152	0x3c47cae1	0.012194366
153	0xbd9f1d43	-0.07769253
154	0x3cdf1b45	0.027234683
155	0xbd07ec7c	-0.033184513
156	0x3d92d6cd	0.07169876
157	0x3c8a4b4f	0.016881613
158	0x3db08923	0.08619907
159	0x3e0b6358	0.13612115
160	0x3c1ff1b0	0.009762213
161	0x3dde2a7c	0.10847947
162	0x3d7fbc8e	0.06243568
163	0xbd3b4cd6	-0.045727573
164	0xbd08a18f	-0.0333572
165	0xbe5e6bfa	-0.21720877
166	0xbd7e4cf5	-0.06208511
167	0xbb598680	-0.003319174
168	0x3d9f7d7e	0.077876076
169	0xbd0a22fd	-0.033724774
170	0xbda66574	-0.081248194
171	0xbd98bf50	-0.07458365
172	0xbdfb16a4	-0.12260178
173	0xbd4f1de0	-0.0505656
174	0xbd59105c	-0.052994117
175	0xbd1b3e1b	-0.037901025
176	0x3d0414f1	0.032246534
177	0x3c8e26b9	0.017352449
178	0xbbfb8db3	-0.007676804
179	0xbe4cf30b	-0.20014589
180	0x3e41045c	0.18849319
181	0x3e59921c	0.21247143
182	0xbda3d58c	-0.07999715
183	0x3e437e3c	0.19091123
184	0xbdd3862c	-0.10328326
185	0xbda536dd	-0.08067105
186	0x3dde2a3e	0.10847901
187	0xbc6b7719	-0.014371657
188	0xbd5bb914	-0.0536433
189	0xbc96abb6	-0.018392425
190	0x3dcb2099	0.09918327
191	0xbd808433	-0.06275215
192	0x3e003075	0.12518485
193	0xbd80e3bb	-0.06293436
194	0x3e7d98bb	0.24765293
195	0xbdb69f9f	-0.08917164
196	0xbd87f532	-0.06638564
197	0xbe06b344	-0.13154322
198	0x3d429ff6	0.047515832
199	0x3c9ecf08	0.01938583
200	0x3e39454c	0.18092841
201	0x3da52689	0.080639906
202	0x3e9b2da8	0.3030827
203	0x3e8e8173	0.27833137
204	0xbd40e997	-0.04709777
205	0x3d5ac294	0.05340822
206	0x3d4445b4	0.047918037
207	0x3debdf84	0.115172416
208	0xbdbd430e	-0.09241305
209	0x3c382afa	0.011240715
210	0x3d47b258	0.048754066
211	0x3cb79053	0.022407686
212	0xbd93c1a0	-0.072146654
213	0xbd224165	-0.039613146
214	0xbd068cf3	-0.032849263
215	0x3d2665a1	0.040624265
216	0x3ae8a9e1	0.0017750823
217	0x3d805c4d	0.06267605
218	0x3d44429d	0.04791509
219	0x3e222d6a	0.15837637
220	0xbd791f74	-0.06082101
221	0x3ddc68e8	0.10762197
222	0x3e2c0b05	0.16801079
223	0x3d222e9e	0.03959524
224	0xbb1e801b	-0.0024185244
225	0xbdee4a74	-0.116352946
226	0x3e1a382a	0.15060487
227	0x3df1fe7f	0.118161194
228	0xbd02c350	-0.031924546
229	0x3d8b8e40	0.068142414
230	0x3dfc6271	0.12323464
231	0xbd080180	-0.033204556
232	0x3da90979	0.0825376
233	0xbcdfcee2	-0.02732033
234	0xbde83666	-0.11338501
235	0x3d934d24	0.07192448
236	0xbd8cb63a	-0.068706945
237	0xbdf29920	-0.118456125
238	0xbd2451cb	-0.040117066
239	0xbe0b4562	-0.13600686
240	0xbd639fdc	-0.055572376
241	0x3ddd9fd1	0.10821498
242	0x3db01071	0.08596886
243	0x3e72e7b3	0.23721199
244	0xbe89e572	-0.26932865
245	0xbcbcf28d	-0.023064876
246	0x3e57f03d	0.21087737
247	0x3e52e173	0.20593815
248	0x3e36f6de	0.1786761
249	0xbcb4fad9	-0.02209227
250	0xbd0beeb6	-0.0341632
251	0xbd3a6dff	-0.045515057
252	0xbd4d5a10	-0.05013472
253	0xbdaa0b0a	-0.08302887
254	0x3b1d8d40	0.002404049
255	0x3e047bae	0.12937805

fc2.bias f4 [32]
0	0xbd2ae20b	-0.041719478
1	0x3d8e9ac2	0.069631115
2	0x3e26dc9e	0.16295096
3	0x3d92c4d1	0.07166446
4	0xbbe93246	-0.0071165888
5	0x3dd67306	0.10471158
6	0x3d2a33ca	0.041553296
7	0x3d8e2fb0	0.069426894
8	0x3df327ce	0.118728265
9	0x3d7b5b19	0.061366174
10	0x3e5b6cd2	0.2142823
11	0xbd8df5b6	-0.06931631
12	0x3daf2170	0.085512996
13	0x3d728e04	0.059217468
14	0xbd38bc7e	-0.045101635
15	0x3e2625e1	0.16225387
16	0x3e41e6d1	0.18935706
17	0xbdfcc9ac	-0.12343153
18	0x3d24d543	0.040242445
19	0x3e55a0a1	0.20862056
20	0xbd84a694	-0.06477085
21	0x3c142e7a	0.009044284
22	0xbde49452	-0.11161102
23	0x3d02389f	0.03179228
24	0x3c41c7e3	0.011827442
25	0xbdca7846	-0.098862216
26	0x3df37afd	0.118886925
27	0x3d877c15	0.06615464
28	0xbd9e2774	-0.07722369
29	0xbdec156e	-0.11527525
30	0x3ce6ac39	0.028158294
31	0xbd4316b8	-0.04762909

fc3.weight f4 [4, 32]
0	0x3b5a090b	0.003326955
1	0x3e518d87	0.20464145
2	0x3e04bf9a	0.12963715
3	0xbda2dde9	-0.07952482
4	0xbdb04f9d	-0.08608935
5	0x3d8c1af5	0.06841079
6	0x3d9508de	0.07277082
7	0xbd8926b4	-0.06696835
8	0x3e2cdc59	0.16880931
9	0xbe25d444	-0.16194254
10	0x3cf1c7b8	0.029514179
11	0x3d320fec	0.043472216
12	0xbd3a65a7	-0.0455071
13	0x3d1aa9da	0.03775964
14	0xbe2e882b	-0.17044131
15	0x3e96c75b	0.2944897
16	0x3e6d9151	0.23199965
17	0xbce66400	-0.028123856
18	0xbbb1832c	-0.0054172482
19	0xbd6f7eec	-0.05847065
20	0x3dac0f95	0.084014095
21	0xbe715a8a	-0.23569694
22	0xbdcfac88	-0.101403296
23	0xbcc4557c	-0.023966543
24	0x396818b3	0.00022134445
25	0xbd4b5324	-0.049639836
26	0x3b731580	0.0037091672
27	0x3d7982d0	0.06091577
28	0xbda3aef0	-0.07992351
29	0xbda81ff8	-0.082092226
30	0x3e05931e	0.13044402
31	0xbe294a03	-0.1653214
32	0x3e284d59	0.16435756
33	0xbe01fd94	-0.12694389
34	0x3e22c84e	0.15896723
35	0x3d8ade23	0.067806505
36	0xbdf7b0f5	-0.12094299
37	0x3de7a83f	0.11311387
38	0x3e111da8	0.14171469
39	0xbd722353	-0.05911572
40	0x3de955b7	0.11393302
41	0xbe026777	-0.12734781
42	0x3e0e2ab6	0.1388348
43	0xbcefcb87	-0.029271854
44	0x3de16d51	0.110071786
45	0xbe100f12	-0.14068249
46	0x3d83bfa6	0.064330384
47	0xbe0130d6	-0.12616286
48	0x3e820e76	0.25401658
49	0x3e2ca68d	0.16860409
50	0x3beb3d51	0.0071789403
51	0x3d7533c3	0.059863817
52	0xbe25cdd3	-0.16191797
53	0x3dbdaaf4	0.09261122
54	0xbe131a63	-0.14365534
55	0xbe09b3d7	-0.1344751
56	0xbce80254	-0.028321423
57	0xbdbf531f	-0.09342026
58	0xbe10e98b	-0.1415159
59	0xbc03064f	-0.00799711
60	0xbe311d0d	-0.17296238
61	0xbc895126	-0.016762327
62	0x3c5c4bca	0.013445804
63	0xbdf30b18	-0.1186735
64	0xbe0097c1	-0.1255789
65	0x3d5753d5	0.052570183
66	0xbcd7f0ac	-0.026359878
67	0x3e0f1c4c	0.13975638
68	0xbe04b69e	-0.12960288
69	0x3de9f0bc	0.114228696
70	0xbcc1ccc3	-0.023657208
71	0xbe075ef2	-0.13219813
72	0xbdf08b7e	-0.11745356
73	0x3dc5a6f5	0.09650985
74	0x3e26a800	0.16275024
75	0x3c253d54	0.010085423
76	0xbe17e89f	-0.14834832
77	0xbbab3158	-0.005224388
78	0xbcd78ccd	-0.026312256
79	0x3e129a8e	0.1431677
80	0x3e17cb67	0.14823686
81	0x3d84a942	0.06477596
82	0x3b64e53f	0.003492668
83	0x3e4e5850	0.20150876
84	0x3c8312c8	0.016000167
85	0xbc9de8ae	-0.01927599
86	0xbdb38db8	-0.08767265
87	0xbd14ead4	-0.036356762
88	0xbcb07663	-0.021540826
89	0xbde3de79	-0.11126418
90	0x3de6ca4c	0.11269054
91	0xbd77d47c	-0.060505375
92	0x3d04e168	0.032441527
93	0xbcd06188	-0.025437132
94	0x3e025f28	0.12731612
95	0x3cbfc496	0.02340917
96	0x3b5ea50a	0.0033972883
97	0x3d9cd8d4	0.07658544
98	0x3dede5d1	0.116160996
99	0x3d9504f6	0.07276337
100	0xbbd9e8aa	-0.00665005
101	0xbf0b2538	-0.54353666
102	0x3d04dbd2	0.0324362
103	0xbdf03591	-0.11728967
104	0x3d573b54	0.052546814
105	0x3e15e17f	0.14636801
106	0xbd4cc353	-0.049990963
107	0x3d93c26e	0.07214819
108	0x3e4f69b6	0.2025517
109	0x3e00cbd3	0.12577753
110	0xbdd4528a	-0.103673056
111	0x3da1a3e3	0.07892587
112	0x3cbc0988	0.022953764
113	0x3e01061d	0.12599988
114	0xbceab05c	-0.028648548
115	0x3e4f9faa	0.20275751
116	0x3d935778	0.07194418
117	0x3de94e00	0.113918304
118	0x3e2cc885	0.16873367
119	0x3d7efc25	0.062252183
120	0x3de97f1c	0.11401197
121	0xbddce795	-0.10786358
122	0x3e5586bb	0.20852177
123	0x3d5721c1	0.052522425
124	0xbc0b8750	-0.008516148
125	0xbc8909b1	-0.016728254
126	0xbd46c49e	-0.048527353
127	0x3d92ebc4	0.07173875

fc3.bias f4 [4]
0	0x3e7a7f83	0.24462704
1	0x3db36f06	0.087614104
2	0x3e850178	0.25977683
3	0x3e5add91	0.21373583
