trained_agents/policy_net4000.pth (torch, 15822 bytes, 6 tensors)

fc1.weight f4 [64, 16]
0	0xbc24866d	-0.010041815
1	0xbc281364	-0.010258529
2	0xbe587348	-0.21137726
3	0xbe3ea35f	-0.18617009
4	0xbe5d934a	-0.21638218
5	0x3e77ee60	0.24212027
6	0x3dc2d265	0.09512786
7	0x3c9e3410	0.019311935
8	0xbdd68928	-0.10475379
9	0x3d98cf5e	0.07461427
10	0xbe6663e8	-0.22499049
11	0x3e594656	0.21218237
12	0xbe4c90e4	-0.19977146
13	0x3eb2a990	0.3489499
14	0x3d36a9a8	0.04459539
15	0xbe012656	-0.1261228
16	0x3df8ac2b	0.121422134
17	0xbe0d37c0	-0.13790798
18	0x3e611548	0.21980774
19	0xbdecd7e6	-0.11564617
20	0x3dd3b260	0.10336757
21	0x3b1eda00	0.0024238825
22	0x3e5fc256	0.21851477
23	0xbe3a46e8	-0.18191111
24	0xbd54b4ca	-0.051930226
25	0xbb424f5d	-0.0029649355
26	0x3ee070f3	0.43836173
27	0xbdf4c9f0	-0.11952579
28	0x3e1e88cc	0.15481871
29	0xbe0fb448	-0.14033616
30	0xbe12e016	-0.14343295
31	0xbe48e5b4	-0.19618875
32	0xbe11b16a	-0.14227834
33	0x3dfe8d2b	0.124292694
34	0x3dbe4e1e	0.092922434
35	0xbc800f72	-0.015632365
36	0xbe4fa5dc	-0.20278114
37	0x3e1cf91c	0.15329403
38	0x3d11c8b5	0.0355918
39	0x3e33e8ca	0.1756927
40	0x3cd875b1	0.026423307
41	0xbe1f3b4c	-0.15549964
42	0xbe0581e6	-0.13037834
43	0xbe1bdbc8	-0.15220559
44	0xbde0088c	-0.1093913
45	0x3ecf0044	0.4042989
46	0x3e6e974f	0.23299907
47	0x3da8bf90	0.08239663
48	0xbddccaa1	-0.10780836
49	0x3eb77fb3	0.35839614
50	0xbe6606ba	-0.22463503
51	0x3f0d60d1	0.55225855
52	0xbdb4487e	-0.08802889
53	0xbdeb66b0	-0.114941955
54	0xbd28419c	-0.041078195
55	0x3e105cf8	0.14097965
56	0x3e3d91ce	0.18512651
57	0xbe56e582	-0.20985988
58	0xbbb3a85e	-0.0054827174
59	0x3e31b3da	0.17353764
60	0xbd2d5698	-0.04231891
61	0xbe8ff35d	-0.2811536
62	0xbe930141	-0.28711894
63	0x3d3f6560	0.046727538
64	0x3e3770fe	0.17914197
65	0xbd0ee2a8	-0.034884125
66	0x3d2a7030	0.041610897
67	0x3c7aa8e0	0.015299052
68	0xbd585cb8	-0.0528228
69	0x3cd53da0	0.026030362
70	0x3e254ec4	0.16143328
71	0xbe47cbec	-0.19511384
72	0x3e43f9ce	0.19138262
73	0x3e08d038	0.13360679
74	0xbdf1fe80	-0.1181612
75	0x3df6e608	0.12055594
76	0x3dbd625c	0.09247276
77	0x3e21c93e	0.15799424
78	0xbe396214	-0.1810382
79	0x3e129bcc	0.14317244
80	0xbe79544e	-0.24348566
81	0x3e240aa7	0.16019689
82	0x3d5b3f8d	0.053527404
83	0xbe1d23ba	-0.1534566
84	0xbce00e40	-0.027350545
85	0xbe24a81c	-0.16079754
86	0xbe4e5bc2	-0.2015219
87	0x3e300e90	0.17193055
88	0xbe778e30	-0.24175334
89	0x3e153aa1	0.14573146
90	0xbb86bd00	-0.004111886
91	0x3e2a6202	0.1663895
92	0xbe2d931a	-0.16950646
93	0x3e13188e	0.14364836
94	0xbbd2cd40	-0.006433159
95	0x3d4d9410	0.05019003
96	0xbe0b9628	-0.13631499
97	0x3dda1577	0.10648625
98	0xbe4ada90	-0.19809937
99	0xbd47f780	-0.04882002
100	0xbe04c448	-0.129655
101	0x3e17f03c	0.14837736
102	0x3cfa618b	0.03056409
103	0x3d7953b8	0.060870856
104	0xbe02abcc	-0.12760848
105	0xbcf87f1c	-0.030334048
106	0x3e7899c8	0.24277413
107	0x3e0dc092	0.13842991
108	0xbc68c660	-0.014207453
109	0xbdbd653c	-0.092478245
110	0xbdf05918	-0.11735743
111	0xbe2ff144	-0.1718188
112	0xbe067714	-0.13131362
113	0xbe024ce8	-0.1272465
114	0xbe612e2c	-0.2199027
115	0xbd120f38	-0.035659045
116	0xbd963b20	-0.07335496
117	0x3be5ef80	0.007017076
118	0x3db912c8	0.09036785
119	0xbd7b38f0	-0.061333597
120	0xbe2a226a	-0.1661469
121	0xbd2a6e18	-0.0416089
122	0x3dcf2350	0.10114157
123	0xbdaafb04	-0.08348659
124	0xbe57632c	-0.21033925
125	0x3e1db980	0.15402794
126	0xbe2f8df6	-0.17143998
127	0xbd747630	-0.059683025
128	0x3c0bf274	0.008541692
129	0xbdea56a5	-0.114423074
130	0xbc4caf49	-0.012492963
131	0xbe25188c	-0.16122645
132	0xbe9b23a5	-0.30300632
133	0xbe584df4	-0.21123487
134	0x3d7022c7	0.058626916
135	0xbcac0200	-0.020997047
136	0xbde24591	-0.11048425
137	0xbe38d10a	-0.18048492
138	0xbe7410f5	-0.23834594
139	0x3e075716	0.13216814
140	0x3e4813e2	0.19538835
141	0x3eb33399	0.35000303
142	0x3e87bf44	0.26513112
143	0x3e27a14e	0.16370127
144	0xbda8b937	-0.08238452
145	0xbe82df58	-0.25561023
146	0xbd8b5915	-0.068041004
147	0xbd7b3507	-0.061329868
148	0xbe4bd7ea	-0.19906583
149	0x3d1fdd48	0.03902939
150	0xbe0e5399	-0.13899077
151	0x3d68fc68	0.05688134
152	0x3a6a4e75	0.00089380826
153	0xbe805f69	-0.25072792
154	0xbe0c1038	-0.13678062
155	0x3e1da1b4	0.15393716
156	0x3e445166	0.19171676
157	0x3e88d725	0.26726642
158	0x3e3ec6ce	0.18630525
159	0x3c6ddf40	0.014518559
160	0x3da5758a	0.080790594
161	0xbe715c2b	-0.23570316
162	0x3de0ec21	0.10982538
163	0xbe6c0a6e	-0.23050854
164	0xbe7a106e	-0.2442033
165	0xbe3b5f60	-0.18298101
166	0x3d03b366	0.03215351
167	0xbd1ceb68	-0.03831044
168	0xbe28926d	-0.16462107
169	0x3ed7c826	0.4214489
170	0xbe6b3264	-0.22968441
171	0xbe02d12e	-0.12775108
172	0xbd1959a0	-0.03743899
173	0x3effd7f8	0.4996946
174	0x3e270b28	0.1631285
175	0xbe5a64ca	-0.2132751
176	0x3c30001a	0.010742212
177	0xbc8a7d35	-0.016905406
178	0x3e067a1d	0.1313252
179	0xbe4dc043	-0.20092873
180	0xbe6643b2	-0.22486761
181	0xbd9dbafc	-0.0770168
182	0x3df8bdbf	0.12145566
183	0x3dae2dfc	0.085048646
184	0xbe0cb271	-0.13739945
185	0xbe5d83f6	-0.2163237
186	0x3dc5c831	0.09657324
187	0x3c154a80	0.009112
188	0xbdc3208c	-0.09527692
189	0x3edfd7f5	0.4371945
190	0x3ebb7f97	0.3662078
191	0x3cb7e060	0.022445858
192	0xbdebf9a4	-0.115222245
193	0x3e543ea5	0.20727022
194	0x3b479e80	0.0030459464
195	0xbd9fc08c	-0.07800397
196	0x3dffb1d8	0.12485093
197	0xbe051b94	-0.12998801
198	0xbb474580	-0.0030406415
199	0x3c664dc0	0.014056623
200	0x3e52de7e	0.20592687
201	0x3ce2f2c0	0.027703643
202	0xbe502a46	-0.20328626
203	0xbe335914	-0.1751445
204	0xbe6e7c9a	-0.23289719
205	0xbddbe9a8	-0.10737926
206	0x3df9350c	0.12168321
207	0x3e59e1f4	0.212776
208	0x3c06ce29	0.008227863
209	0xbd2ec4f2	-0.04266829
210	0x3dd45024	0.10366848
211	0xbd0e2c7a	-0.034710385
212	0x3e085fc2	0.13317779
213	0xbe023314	-0.12714797
214	0x3ee1b81c	0.44085777
215	0x3dc94bd4	0.09828916
216	0xbde50b1d	-0.1118376
217	0xbe603b8c	-0.21897715
218	0x3e5f573a	0.21810618
219	0x3e48abdc	0.19596809
220	0xbcd41370	-0.025888175
221	0xbe4bd306	-0.19904718
222	0x3c34ac04	0.01102734
223	0xbe6d0a18	-0.23148382
224	0x3e3da3b0	0.18519473
225	0xbe95c1a7	-0.29249308
226	0x3ecdca45	0.40193382
227	0xbe9057cd	-0.28191987
228	0x3ea74221	0.3266764
229	0x3c5e86a0	0.013581902
230	0x3e5e0fdd	0.21685739
231	0xbdbb7ff0	-0.091552615
232	0xbe98da2a	-0.29853946
233	0x3e8a884d	0.27057114
234	0x3e8cc5a8	0.2749455
235	0xbe5dd5de	-0.21663615
236	0xbd249188	-0.040177852
237	0xbe9d70db	-0.30750164
238	0x3ead63e7	0.33865282
239	0x3d496060	0.049164176
240	0xbd16f580	-0.03685522
241	0xbe6189bc	-0.22025198
242	0xbcd646d0	-0.026156813
243	0x3dea3254	0.114353806
244	0xbe479300	-0.1948967
245	0x3dfd744c	0.123756975
246	0xbd922e88	-0.071377814
247	0xbdaae0cc	-0.08343658
248	0x3e24954c	0.16072577
249	0x3e098b46	0.13432035
250	0x3c1a12c0	0.009403884
251	0xbd343008	-0.04399112
252	0x3e7d2120	0.24719667
253	0x3c584100	0.013199091
254	0x3d20c828	0.039253384
255	0xbe26274c	-0.16225928

fc1.bias f4 [64]
0	0x3de4bed3	0.11169209
1	0x3cf8712c	0.030327402
2	0x3d7b6da1	0.061383847
3	0x3e231a0b	0.15927903
4	0xbe64a672	-0.22329119
5	0xbe2e7cb1	-0.17039753
6	0xbe1f3541	-0.15547659
7	0xbe5ba934	-0.21451265
8	0x3e9cff13	0.30663356
9	0x3e4b615d	0.1986136
10	0x3e62141d	0.22077985
11	0x3e33a6b6	0.17544064
12	0xbe6967b7	-0.2279347
13	0x3dfdfb81	0.12401486
14	0x3e86300b	0.2620853
15	0xbe5f44be	-0.21803567
16	0xbe40cb7e	-0.18827626
17	0x3e8b759a	0.2723816
18	0xbe82bc53	-0.25534305
19	0xbd64df47	-0.055876996
20	0xbe50d307	-0.20393
21	0xbe72f299	-0.23725356
22	0x3da05220	0.07828164
23	0x3dc46b0b	0.09590729
24	0xbe7bee35	-0.24602588
25	0x3dc2e12c	0.095156044
26	0x3e5717f5	0.21005233
27	0x3e814403	0.252472
28	0x3dbd81d9	0.09253282
29	0xbe1327af	-0.14370607
30	0x3d90c7d9	0.07069368
31	0x3e8a18e0	0.26972103
32	0xbe152257	-0.14563881
33	0xbd0a67f5	-0.033790547
34	0xbd335045	-0.043777723
35	0xbde3783a	-0.11106916
36	0xbd4e3567	-0.050343897
37	0x3d7f247a	0.062290646
38	0xbe8e5ac3	-0.2780362
39	0xbe415184	-0.18878752
40	0xbe5ad117	-0.21368824
41	0xbdc6caa3	-0.09706619
42	0xbe6e087a	-0.23245421
43	0xbe16f5b8	-0.14742172
44	0xbe6c2304	-0.23060232
45	0xbe6a9368	-0.22907794
46	0xbe829739	-0.25506
47	0xbbff3b53	-0.0077890544
48	0xbe3375d3	-0.17525415
49	0x3e964ab1	0.2935386
50	0xbdcf1acc	-0.10112533
51	0x3e223baf	0.1584308
52	0x3c2dbe51	0.010604457
53	0x3e4a4852	0.1975415
54	0xbc9d8566	-0.019228648
55	0x3e37b6f8	0.17940891
56	0x3e4173d3	0.1889184
57	0xbe003fe1	-0.12524368
58	0x3e4b2c89	0.19841208
59	0x3dc6761e	0.09690498
60	0xbe7c885c	-0.24661392
61	0xbe2b28d3	-0.16714792
62	0xbcd9e667	-0.026599122
63	0x3e6aed30	0.22942042

fc2.weight f4 [32, 64]
0	0x3df0853c	0.117441624
1	0xbd2df687	-0.042471435
2	0xbbff8493	-0.0077977865
3	0xbc0a753b	-0.0084508015
4	0x3d99e2c0	0.07513952
5	0x3d720a95	0.059092123
6	0xbd38e50e	-0.04514032
7	0x3ca52178	0.02015756
8	0x3d0bec40	0.034160852
9	0xbe061628	-0.1309439
10	0xb9d7bec9	-0.00041150142
11	0x3dcd8079	0.1003427
12	0x3cbb2884	0.022846468
13	0x3e1fb692	0.15596989
14	0x3e06066b	0.13088386
15	0xbd1fc39c	-0.039004907
16	0xbc93e230	-0.01805219
17	0xbde3921d	-0.11111853
18	0x3e13ee55	0.14446385
19	0x3e2046cf	0.15652011
20	0xbd8ca7eb	-0.06867965
21	0x3e5f93e3	0.21833758
22	0x3e856c80	0.2605934
23	0x3d89d017	0.06729143
24	0x3e1099fc	0.1412124
25	0x3e049bd3	0.12950067
26	0x3e12b070	0.14325118
27	0xbc54d100	-0.012989283
28	0x3daa95d5	0.083293594
29	0xbb109e00	-0.0022066832
30	0x3e205992	0.15659168
31	0x3ddb5841	0.107101925
32	0x3df18598	0.11793059
33	0x3dc213a6	0.09476404
34	0xbda0cac0	-0.078511715
35	0xbd937b5c	-0.07201263
36	0xbdd5dcd7	-0.104425125
37	0xbb838146	-0.0040132133
38	0x3dfdaa2e	0.12385975
39	0x3d66dc2c	0.056362316
40	0x3d8174cf	0.063211076
41	0xbd85c6d8	-0.06532067
42	0xbdb03cf0	-0.08605373
43	0xbdead6b2	-0.11466731
44	0xbd157df0	-0.036497056
45	0x3de473d6	0.111549065
46	0xbdb1e06f	-0.086853854
47	0x3e79805d	0.24365373
48	0x3de4e2fd	0.11176107
49	0x3e2b2d1e	0.1671643
50	0x3ea6ed10	0.3260274
51	0xbd374924	-0.044747487
52	0x3e5d78f2	0.21628168
53	0x3e4069b9	0.1879033
54	0x3e07f7e8	0.13278162
55	0x3ce48321	0.027894558
56	0x3d62410a	0.055237807
57	0xbea374bd	-0.31925002
58	0x3d774c9a	0.060375787
59	0x3dfd5b48	0.12370926
60	0xbdf60296	-0.12012212
61	0x3c2730ba	0.010204488
62	0x3d955d36	0.07293169
63	0x3c1b07dc	0.009462323
64	0x3d1b514d	0.03791933
65	0xbc00a230	-0.0078511685
66	0x3d6a8a0e	0.057260565
67	0x3e85e432	0.26150662
68	0x3aef0f00	0.0018238723
69	0xbd910f73	-0.07083025
70	0x3dd46e8c	0.10372648
71	0xbdf141aa	-0.117801026
72	0x3da7218a	0.08160694
73	0x3df8cfec	0.12149033
74	0xbe82865e	-0.2549314
75	0x3db1b3e6	0.08676891
76	0x3c229982	0.009924294
77	0xbde8e8fe	-0.11372565
78	0x3b6dc953	0.0036283329
79	0x3dad4b92	0.084616795
80	0xbc5a7d20	-0.013335496
81	0xbd9e6d86	-0.07735734
82	0xbe015aae	-0.12632248
83	0x3d4240cd	0.04742508
84	0x3d7716d9	0.060324524
85	0xbd02d4e9	-0.03194133
86	0xbec6c5ce	-0.38822788
87	0xbd8bc4a6	-0.06824617
88	0x3d6db03d	0.058029402
89	0xbd953f37	-0.07287448
90	0x3dcfb85a	0.10142584
91	0x3d9f0438	0.077644765
92	0xbcbd9b1f	-0.023145257
93	0xbd9d0512	-0.07666983
94	0xbe9033db	-0.28164563
95	0x3cfc0f45	0.030769
96	0xbe1d1aad	-0.15342207
97	0xbadbe614	-0.0016776943
98	0xbdd99918	-0.106249034
99	0xbda2b971	-0.079455264
100	0x3e2883b9	0.16456498
101	0x3e0b0b2c	0.1357848
102	0xbdbea5a6	-0.09308939
103	0xbc90b048	-0.017662182
104	0x3e1604ca	0.14650264
105	0x3ce877e9	0.02837749
106	0xbcbb54c8	-0.022867575
107	0x3d0f0e98	0.034926027
108	0x3d6b2c60	0.057415366
109	0x3dabba78	0.083851755
110	0x3e0c9e0d	0.13732167
111	0xbdd9379d	-0.106063105
112	0x3d8a54c6	0.067544505
113	0xbe206a21	-0.15665485
114	0xbe0ae07c	-0.13562196
115	0x3d41496a	0.047189154
116	0xbdcf8633	-0.10133018
117	0xbdd05cdd	-0.10173962
118	0x3d989c5a	0.07451697
119	0x3e2d94c1	0.16951276
120	0x3dfd1c27	0.12358885
121	0x3ecb5866	0.3971588
122	0x3c667515	0.0140660005
123	0x3cc2e5df	0.023791252
124	0x3dac95dc	0.08427021
125	0xbd652ab7	-0.05594894
126	0xbd295e38	-0.04134962
127	0x3e2b4399	0.16725005
128	0xbdfbec93	-0.12300982
129	0x3e233cfd	0.15941234
130	0xbd24be2d	-0.04022043
131	0x3d7b74c0	0.06139064
132	0x3ddcca0a	0.107807234
133	0xbc5267cc	-0.01284213
134	0x3dde5c8e	0.10857497
135	0xbd8ee6a2	-0.069775835
136	0xbc974843	-0.018467074
137	0x3c572fb4	0.013133932
138	0xbc189fc5	-0.009315436
139	0x3e1be36b	0.15223472
140	0xbdd62b95	-0.10457531
141	0xbb557c2c	-0.0032575233
142	0x3d836046	0.06414847
143	0x3d03ee80	0.032209873
144	0xbd92202c	-0.071350425
145	0x3d802ea8	0.06258899
146	0xbd955348	-0.07291275
147	0x3d34129b	0.043963056
148	0x3e10529f	0.14094017
149	0xbd76f122	-0.060288556
150	0x3dd781be	0.10522793
151	0xbd0e7219	-0.03477678
152	0x3c47cae1	0.012194366
153	0xbd951761	-0.0727985
154	0x3ccc9c58	0.024976894
155	0xbd098d0d	-0.033581782
156	0x3d8b6381	0.06806088
157	0x3c98bd46	0.01864494
158	0x3db5e302	0.08881189
159	0x3e09e601	0.13466646
160	0x3c37926d	0.011204344
161	0x3de93011	0.11386121
162	0x3d8332c6	0.06406169
163	0xbd20bf96	-0.03924521
164	0xbd25c878	-0.040474385
165	0xbe5d9586	-0.2163907
166	0xbd7e4cf5	-0.06208511
167	0xbb598680	-0.003319174
168	0x3db4f93d	0.08836601
169	0xbd0de212	-0.034639426
170	0xbda66574	-0.081248194
171	0xbd98bf50	-0.07458365
172	0xbdfb16a4	-0.12260178
173	0xbd4f1de0	-0.0505656
174	0xbd59105c	-0.052994117
175	0xbd19741c	-0.037464246
176	0x3d0414f1	0.032246534
177	0x3c949ae0	0.018140256
178	0xbaad2d17	-0.001321229
179	0xbe427796	-0.18990931
180	0x3e3c6246	0.18396863
181	0x3e5bb75c	0.21456665
182	0xbd913a48	-0.070911944
183	0x3e3ff033	0.18743972
184	0xbdd500f0	-0.104005694
185	0xbda536dd	-0.08067105
186	0x3dde6867	0.10859757
187	0xbc6eacdf	-0.014567583
188	0xbd5bb914	-0.0536433
189	0xbbe8fd1b	-0.0071102506
190	0x3dd4af0f	0.10384952
191	0xbd83db9a	-0.0643837
192	0x3e054a7b	0.13016693
193	0xbd959397	-0.07303541
194	0x3e7bede1	0.24602462
195	0xbdc7e67e	-0.0976076
196	0xbd87f532	-0.06638564
197	0xbe06b344	-0.13154322
198	0x3d1c6ccf	0.038189705
199	0x3c9ecf08	0.01938583
200	0x3e3a8e42	0.1821833
201	0x3da743dd	0.08167241
202	0x3e9b482d	0.30328503
203	0x3e8e55f1	0.27799943
204	0xbd40e997	-0.04709777
205	0x3d39bf17	0.045348253
206	0x3d3c9e1b	0.04604922
207	0x3debdf84	0.115172416
208	0xbdbd430e	-0.09241305
209	0x3c71737e	0.014737008
210	0x3d47b258	0.048754066
211	0x3cb9f992	0.022702012
212	0xbd93c1a0	-0.072146654
213	0xbd3295ed	-0.04360001
214	0xbd1a25c3	-0.03763367
215	0x3d1c1896	0.038109384
216	0x3ae8a9e1	0.0017750823
217	0x3d620e53	0.055189442
218	0x3d57ff8f	0.052733954
219	0x3e264b29	0.16239609
220	0xbd7f5c96	-0.062344156
221	0x3dedfcf6	0.11620514
222	0x3e2fb48b	0.17158715
223	0x3d26c6a0	0.040716767
224	0xbb88c4da	-0.004173857
225	0xbdfa0405	-0.12207798
226	0x3e1a89f7	0.15091692
227	0x3df3666c	0.1188477
228	0xbcffb373	-0.031213498
229	0x3d74f102	0.059800155
230	0x3dfc6271	0.12323464
231	0xbd080180	-0.033204556
232	0x3db3c45d	0.08777688
233	0xbce2fa77	-0.027707322
234	0xbde83666	-0.11338501
235	0x3d934d24	0.07192448
236	0xbd8cb63a	-0.068706945
237	0xbdf29920	-0.118456125
238	0xbd2451cb	-0.040117066
239	0xbe0fdd86	-0.14049348
240	0xbd639fdc	-0.055572376
241	0x3dde6266	0.10858612
242	0x3daa9de0	0.083308935
243	0x3e6b91bf	0.23004816
244	0xbe85b10f	-0.26111647
245	0xbcf75ace	-0.030194666
246	0x3e50046e	0.2031419
247	0x3e5789c2	0.21048644
248	0x3e39a0e9	0.18127789
249	0xbccd7562	-0.025080387
250	0xbd1a681b	-0.03769694
251	0xbd425cd1	-0.047451798
252	0xbd4d5a10	-0.05013472
253	0xbdab7fad	-0.083739616
254	0x3a8d9eda	0.0010804788
255	0x3e02d5bb	0.12776844

fc2.bias f4 [32]
0	0xbd267b9e	-0.040645234
1	0x3d922ed0	0.07137835
2	0x3e25a115	0.16174729
3	0x3d898600	0.067150116
4	0xbbe93246	-0.0071165888
5	0x3dcad0ea	0.099031284
6	0x3d2fc60d	0.042913485
7	0x3d8e2fb0	0.069426894
8	0x3ded42a4	0.11584976
9	0x3d7b5b19	0.061366174
10	0x3e5fa96b	0.21841972
11	0xbd8df5b6	-0.06931631
12	0x3db19981	0.08671857
13	0x3d728e04	0.059217468
14	0xbd31494d	-0.043282796
15	0x3e23346f	0.1593797
16	0x3e3eae01	0.18621065
17	0xbdfcc9ac	-0.12343153
18	0x3d334810	0.043769896
19	0x3e4f90bb	0.20270054
20	0xbd84a694	-0.06477085
21	0x3c5bab4d	0.0134075405
22	0xbde49452	-0.11161102
23	0x3d02389f	0.03179228
24	0x3c41c7e3	0.011827442
25	0xbdca7846	-0.098862216
26	0x3defa5c6	0.11701541
27	0x3d877c15	0.06615464
28	0xbd9e2774	-0.07722369
29	0xbdec156e	-0.11527525
30	0x3ce6ac39	0.028158294
31	0xbd4316b8	-0.04762909

fc3.weight f4 [4, 32]
0	0x3b988cd6	0.004655461
1	0x3e5a8dc6	0.21343145
2	0x3e05d2ff	0.1306877
3	0xbda6516d	-0.081209995
4	0xbdb04f9d	-0.08608935
5	0x3d7a3152	0.06108219
6	0x3d9b51d5	0.075839676
7	0xbd8926b4	-0.06696835
8	0x3e2d3122	0.16913274
9	0xbe25d444	-0.16194254
10	0x3cd6a513	0.02620176
11	0x3d320fec	0.043472216
12	0xbd404578	-0.04694125
13	0x3d1aa9da	0.03775964
14	0xbe2ffe6a	-0.17186895
15	0x3e96d0c2	0.29456145
16	0x3e6a9afa	0.22910681
17	0xbce66400	-0.028123856
18	0xbc0b00a6	-0.008484041
19	0xbd78714b	-0.06065492
20	0x3dac0f95	0.084014095
21	0xbe723a88	-0.2365514
22	0xbdcfac88	-0.101403296
23	0xbcc4557c	-0.023966543
24	0x396818b3	0.00022134445
25	0xbd4b5324	-0.049639836
26	0xbafee94c	-0.001944819
27	0x3d7982d0	0.06091577
28	0xbda3aef0	-0.07992351
29	0xbda81ff8	-0.082092226
30	0x3e05931e	0.13044402
31	0xbe294a03	-0.1653214
32	0x3e22ffb9	0.15917863
33	0xbdf6e37a	-0.120551065
34	0x3e1f8499	0.15577926
35	0x3d844951	0.064592965
36	0xbdf7b0f5	-0.12094299
37	0x3dd127bf	0.10212659
38	0x3e0fc07b	0.14038269
39	0xbd722353	-0.05911572
40	0x3ddfff62	0.10937382
41	0xbe026777	-0.12734781
42	0x3e09624c	0.13416404
43	0xbcefcb87	-0.029271854
44	0x3dd7eee2	0.1054361
45	0xbe100f12	-0.14068249
46	0x3d6b1e5f	0.05740201
47	0xbdfaf29f	-0.122533076
48	0x3e8063d3	0.2507616
49	0x3e2ca68d	0.16860409
50	0x3c30ae58	0.010783754
51	0x3d6d00dc	0.057862148
52	0xbe25cdd3	-0.16191797
53	0x3dae80e0	0.08520675
54	0xbe131a63	-0.14365534
55	0xbe09b3d7	-0.1344751
56	0xbce80254	-0.028321423
57	0xbdbf531f	-0.09342026
58	0xbe0cc6e5	-0.13747747
59	0xbc03064f	-0.00799711
60	0xbe311d0d	-0.17296238
61	0xbc895126	-0.016762327
62	0x3c5c4bca	0.013445804
63	0xbdf30b18	-0.1186735
64	0xbe096640	-0.13417912
65	0x3d2a22cb	0.041537087
66	0xbcee6eaa	-0.029105503
67	0x3e135577	0.14388071
68	0xbe04b69e	-0.12960288
69	0x3ded66a1	0.115918405
70	0xbce4e806	-0.027942669
71	0xbe075ef2	-0.13219813
72	0xbe00eb90	-0.1258986
73	0x3dc5a6f5	0.09650985
74	0x3e2b5cc7	0.1673461
75	0x3c253d54	0.010085423
76	0xbe1ac491	-0.15114047
77	0xbbab3158	-0.005224388
78	0xbce19e51	-0.027541311
79	0x3e132143	0.14368157
80	0x3e198ef9	0.14995946
81	0x3d84a942	0.06477596
82	0x3c2c53c4	0.010518018
83	0x3e510d9c	0.20415348
84	0x3c8312c8	0.016000167
85	0xbc63a37a	-0.013893956
86	0xbdb38db8	-0.08767265
87	0xbd14ead4	-0.036356762
88	0xbcb07663	-0.021540826
89	0xbde3de79	-0.11126418
90	0x3df30646	0.11866431
91	0xbd77d47c	-0.060505375
92	0x3d04e168	0.032441527
93	0xbcd06188	-0.025437132
94	0x3e025f28	0.12731612
95	0x3cbfc496	0.02340917
96	0x3acbddf1	0.0015553815
97	0x3d9dde9a	0.077084735
98	0x3dee2696	0.116284534
99	0x3d90904a	0.07058771
100	0xbbd9e8aa	-0.00665005
101	0xbf050716	-0.5196394
102	0x3d00afed	0.031417776
103	0xbdf03591	-0.11728967
104	0x3d4de585	0.050267715
105	0x3e15e17f	0.14636801
106	0xbd5d80c6	-0.054077886
107	0x3d93c26e	0.07214819
108	0x3e4ec878	0.2019366
109	0x3e00cbd3	0.12577753
110	0xbdec795f	-0.11546587
111	0x3d9f0f4f	0.07766592
112	0x3ca6b9a7	0.020352198
113	0x3e01061d	0.12599988
114	0xbd98e070	-0.07464683
115	0x3e4b4764	0.19851452
116	0x3d935778	0.07194418
117	0x3df675a7	0.12034159
118	0x3e2cc885	0.16873367
119	0x3d7efc25	0.062252183
120	0x3de97f1c	0.11401197
121	0xbddce795	-0.10786358
122	0x3e5e55c2	0.21712402
123	0x3d5721c1	0.052522425
124	0xbc0b8750	-0.008516148
125	0xbc8909b1	-0.016728254
126	0xbd46c49e	-0.048527353
127	0x3d92ebc4	0.07173875

fc3.bias f4 [4]
0	0x3e756742	0.23965171
1	0x3da5169e	0.080609545
2	0x3e829a10	0.25508165
3	0x3e5a674a	0.21328464
