trained_agents/policy_net400.pth (torch, 15812 bytes, 6 tensors)

fc1.weight f4 [64, 16]
0	0x3cbf363c	0.02334129
1	0x3e0f639f	0.14002846
2	0xbdcba4f2	-0.0994357
3	0x3e666336	0.22498783
4	0x3ce140a0	0.027496636
5	0x3e38a2b4	0.18030816
6	0xbdb98298	-0.09058112
7	0xbe1b6ab2	-0.1517742
8	0x3e7b556e	0.24544308
9	0xbe830cbe	-0.2559566
10	0xbe41d4ad	-0.18928786
11	0xbe6744a2	-0.22584775
12	0xbde114f8	-0.109903276
13	0xbe4e9600	-0.20174408
14	0x3e242b03	0.16032033
15	0xbd057d78	-0.03259036
16	0x3d5ffbc0	0.054683447
17	0xbe71e568	-0.23622668
18	0x3e67c732	0.2263458
19	0xbe8aad10	-0.2708516
20	0x3db12e89	0.08651454
21	0xbbd66e00	-0.0065438747
22	0x3e685070	0.22686934
23	0x3decabac	0.11556181
24	0xbe74a186	-0.23889741
25	0x3ed7e67a	0.42168027
26	0x3e6a5a2f	0.22885965
27	0x3dca0f40	0.0986619
28	0x3e1588ce	0.14602968
29	0x3e6c190c	0.2305643
30	0x3cfbb355	0.03072516
31	0x3e660e64	0.22466427
32	0x3de69c55	0.11260287
33	0x3dfa0c55	0.122093834
34	0x3e5769b9	0.21036424
35	0xbde3d48b	-0.11124524
36	0xbe3764bb	-0.1790952
37	0x3d3ddc08	0.046352416
38	0x3b63b222	0.0034743627
39	0xbe22912e	-0.15875694
40	0xbe5a23dd	-0.21302743
41	0x3e53c817	0.20681797
42	0x3d987229	0.07443649
43	0x3e770ad8	0.2412523
44	0xbe40a26e	-0.18811962
45	0xbe698628	-0.22805083
46	0x3de13647	0.10996681
47	0x3e1a0c14	0.1504367
48	0xbdef9b2c	-0.116995186
49	0x3e2df7b9	0.1698903
50	0x3e40d228	0.18830168
51	0x3da3a7f0	0.07991016
52	0x3e10cb48	0.14140046
53	0xbddc49dc	-0.10756275
54	0x3e029896	0.1275352
55	0x3dcef66c	0.10105595
56	0x3d1fcf68	0.039016157
57	0xbe42326a	-0.18964544
58	0xbd8a7c70	-0.06762016
59	0x3e3ff3c2	0.1874533
60	0xbe09fab0	-0.13474536
61	0x3d8f972c	0.070112556
62	0xbe623c74	-0.22093374
63	0xbe3beafa	-0.18351355
64	0x3e8a6d15	0.27036348
65	0xbd36cbe6	-0.044628046
66	0x3e8d54fc	0.276039
67	0xbdc80d01	-0.09768105
68	0x3e4e9fc8	0.20178139
69	0xbe5e8478	-0.2173022
70	0xbe687872	-0.22702196
71	0xbdc3c518	-0.09559077
72	0xbe57ca42	-0.21073249
73	0x3d9c0a57	0.0761916
74	0x3d243211	0.04008681
75	0x3d500728	0.050788075
76	0xbe68916c	-0.22711724
77	0x3e1e2d33	0.1544693
78	0x3eb98741	0.36236003
79	0x3e15581c	0.14584392
80	0x3e23cba1	0.15995647
81	0xbd6b2d68	-0.05741635
82	0x3e83ee1a	0.25767595
83	0x3d648bf8	0.055797547
84	0xbdb57b84	-0.08861449
85	0x3dca0744	0.09864667
86	0xbdef098c	-0.11671743
87	0x3e4ff008	0.20306408
88	0x3d716d25	0.05894198
89	0xbddbeafc	-0.10738179
90	0xbdc23f80	-0.09484768
91	0x3e37c5da	0.17946568
92	0x3e353fe4	0.17700154
93	0xbe3d4dea	-0.18486753
94	0x3d0efb68	0.03490773
95	0xbe4ba388	-0.19886601
96	0x3de3403e	0.110962376
97	0x3e655f27	0.22399579
98	0x3ba78a00	0.0051128864
99	0xbe5a9cf4	-0.21348935
100	0xbe00f110	-0.12591958
101	0xbc0396e0	-0.008031577
102	0xbe3bb956	-0.18332419
103	0x3e7fefea	0.24993864
104	0xbc90e706	-0.017688286
105	0x3efd2679	0.49443415
106	0xbdf76dd9	-0.12081499
107	0x3dee5ba8	0.11638576
108	0x3e494376	0.1965464
109	0xbe1215ee	-0.14266178
110	0x3dc96832	0.09834327
111	0xbcbda580	-0.023150206
112	0x3ddf2828	0.10896331
113	0x3e2adbd0	0.16685414
114	0x3e07cacf	0.13260959
115	0x3ec2bcfc	0.3803481
116	0xbe060be3	-0.13090472
117	0xbd9b894c	-0.07594547
118	0xbdd9a88c	-0.10627851
119	0x3d821e94	0.063534886
120	0xbe59566e	-0.21224377
121	0xbddc197b	-0.107470475
122	0xbdf4b911	-0.11949361
123	0xbe0c1376	-0.13679299
124	0x3e49bc86	0.19700822
125	0xbe0f51df	-0.13996075
126	0x3da820ec	0.08209404
127	0x3d973f94	0.073851734
128	0x3dde57d6	0.10856597
129	0xbd976a97	-0.07393377
130	0x3df02571	0.117258914
131	0x3e12179e	0.14266822
132	0xbda90abb	-0.08254
133	0xbe2001ca	-0.15625682
134	0xbd832051	-0.06402648
135	0xbd9d0420	-0.076668024
136	0x3e1c4c96	0.1526359
137	0xbdfbfb33	-0.12303772
138	0x3d102c52	0.035198517
139	0x3da9e97c	0.08296487
140	0x3e63f532	0.22261503
141	0x3db3e3b1	0.08783663
142	0x3e543a4e	0.20725366
143	0x3d26ea98	0.04075107
144	0x3e4b67e5	0.19863851
145	0xbe4b5660	-0.19857168
146	0x3e350b95	0.176802
147	0xbe46bc28	-0.19407713
148	0x3e38e14f	0.18054698
149	0xbd99c11c	-0.07507536
150	0x3e853ccf	0.26022956
151	0x3e26152e	0.16219017
152	0xbdf37b30	-0.118887305
153	0xbe3b08f3	-0.18265133
154	0x3e2dc11c	0.16968197
155	0xb8a18000	-7.70092e-05
156	0x3dacc748	0.084364474
157	0x3ea0c2e7	0.313987
158	0x3e74df2d	0.2391326
159	0x3e5e260a	0.21694198
160	0xbe23876b	-0.15969627
161	0x3c098f70	0.008396015
162	0xbbbea5c3	-0.0058181
163	0xbd2aca6c	-0.04169695
164	0x3ea4f4b2	0.32217938
165	0xbe2294ac	-0.15877026
166	0x3e9c2359	0.30495718
167	0x3dfbd968	0.12297326
168	0xbe35c7d7	-0.17752014
169	0xbe3d7cab	-0.18504588
170	0x3e5aba9d	0.2136025
171	0x3c8830b0	0.016624779
172	0xbe4c7c16	-0.1996921
173	0xbd9b7ab9	-0.07591767
174	0xbe4b4b98	-0.19853055
175	0xbbaea640	-0.005329877
176	0x3b1a08a5	0.0023503688
177	0xbe800947	-0.25007078
178	0xbe8e86da	-0.2783726
179	0xbe2dffe5	-0.16992147
180	0xbd505f24	-0.050871983
181	0x3e79583c	0.24350065
182	0x3ed67ea5	0.41893497
183	0xbe55bbac	-0.20872372
184	0xbe7fe30d	-0.24988957
185	0xbe82d0de	-0.25549978
186	0xbd1f65a4	-0.03891529
187	0xbdc498e0	-0.09599471
188	0xbd052b40	-0.03251195
189	0x3ec2727d	0.37977973
190	0xbe7588d6	-0.2397798
191	0xbe5af400	-0.21382141
192	0x3db19b21	0.086721666
193	0xbe39054c	-0.18068427
194	0x3d410944	0.047127977
195	0xbe63e72e	-0.22256157
196	0xbe5bdec6	-0.214717
197	0x3df14aa4	0.11781815
198	0x3deec6ab	0.11658987
199	0xbce51940	-0.027966142
200	0x3d48b72b	0.049002808
201	0xbe408a6c	-0.18802804
202	0xbdf88cd4	-0.12136236
203	0x3e383d8a	0.17992225
204	0x3e7d1fdc	0.24719185
205	0x3eea0029	0.45703247
206	0xbd9d3040	-0.076752186
207	0xbde7ffc0	-0.11328077
208	0x3e4573c5	0.19282444
209	0xbe60c98b	-0.21951883
210	0x3d661e14	0.05618103
211	0x3d8f8364	0.07007483
212	0xbe07b00e	-0.13250753
213	0xbdfb8384	-0.12280944
214	0xbe98edab	-0.29868826
215	0x3ca6f7f0	0.020381898
216	0x3d53c2d0	0.05169946
217	0x3e28a7e4	0.16470295
218	0xbe987898	-0.29779506
219	0x3da0198c	0.07817373
220	0xbe352eee	-0.17693684
221	0xbd4455b0	-0.04793328
222	0x3ec9be26	0.39402884
223	0xbd970d38	-0.07375568
224	0xbe57999c	-0.21054691
225	0x3d750144	0.05981566
226	0xbc716c53	-0.014735299
227	0x3e0f4ef1	0.13994958
228	0x3dac2f5e	0.08407472
229	0x3e6a6aaa	0.22892252
230	0xbe426280	-0.18982887
231	0xbd45a9e8	-0.04825774
232	0x3dcd7dd4	0.100337654
233	0x3dfa5aa1	0.12224317
234	0xbe728f54	-0.23687488
235	0xbd95e75c	-0.07319519
236	0xbdadc908	-0.08485609
237	0xbdcad783	-0.09904387
238	0xbe536100	-0.20642471
239	0xbe4abc0e	-0.197983
240	0xbc4e5460	-0.012593359
241	0x3d89a534	0.06720963
242	0xbe4a1424	-0.19734246
243	0x3d7e2d18	0.062054724
244	0xbe77a332	-0.24183348
245	0xbe29ddbc	-0.16588491
246	0xbbfe14c0	-0.0077539384
247	0xbddffb3c	-0.10936591
248	0x3db22fe8	0.08700544
249	0xbd0df0a0	-0.034653306
250	0x3e1e3f42	0.15453818
251	0xbe36b1da	-0.17841282
252	0x3dfd8b7c	0.1238012
253	0xbe11da1c	-0.14243358
254	0xbe184720	-0.14870882
255	0xbde44254	-0.111454636

fc1.bias f4 [64]
0	0x3e770408	0.24122632
1	0x3e6b62b2	0.22986868
2	0x3e4e0fca	0.2012321
3	0xbe605864	-0.21908718
4	0x3ea6cb8f	0.32577178
5	0xbdce57bf	-0.1007533
6	0x3df1aada	0.118001655
7	0x3db9c1f9	0.090702005
8	0x3ea46671	0.32109407
9	0x3e2cd181	0.16876794
10	0x3e076a12	0.13224056
11	0x3e58879e	0.21145484
12	0x3d0451d9	0.03230462
13	0x3e95b24b	0.2923759
14	0xbd2169a3	-0.039407384
15	0xbe51cc02	-0.20487979
16	0x3e68db4e	0.22739908
17	0xbe0c568c	-0.1370489
18	0xbe0ce35f	-0.1375861
19	0xbe73d0b2	-0.2381008
20	0xbd0f0acb	-0.034922402
21	0x3dd4ed69	0.10396845
22	0x3eacf1ff	0.33778378
23	0xbe71a23e	-0.23597047
24	0x3b82e24e	0.003994263
25	0x3c68eb06	0.01421619
26	0x3db39a34	0.08769646
27	0xbc39a8ea	-0.011331776
28	0x3e92fd3e	0.28708833
29	0xbc22623f	-0.009911119
30	0x3e84ca12	0.25935417
31	0x3dbdea81	0.09273244
32	0x3d183d35	0.037167747
33	0x3cb80f73	0.022468304
34	0x3e1e78d6	0.15475783
35	0x3e1d43e2	0.15357926
36	0x3e877e72	0.26463658
37	0x3dd7627b	0.105168305
38	0x3e9b4124	0.30323136
39	0x3d2db38d	0.04240756
40	0x3e4de43f	0.201066
41	0x3e71c592	0.23610523
42	0xbe7b0ed0	-0.2451737
43	0x3da71f22	0.08160235
44	0x3e425118	0.18976247
45	0x3d6fbcf0	0.058529794
46	0xbd79038e	-0.060794406
47	0x3e3b0a84	0.1826573
48	0x3d695ac1	0.056971315
49	0xbe5e651f	-0.21718262
50	0xbdf5527c	-0.11978623
51	0x3d7a0f9e	0.06105005
52	0xbd2b64d7	-0.041844215
53	0x3dd70100	0.104982376
54	0x3deb9731	0.11503447
55	0xbe3593e2	-0.17732194
56	0xbd982d3c	-0.07430503
57	0xbe6cc2e0	-0.23121214
58	0x3db9d703	0.09074213
59	0x3d9c77fa	0.07640071
60	0x3d92d7fc	0.07170102
61	0xbde64d47	-0.11245208
62	0x3c2f50c7	0.010700411
63	0x3da8b4bf	0.082375996

fc2.weight f4 [32, 64]
0	0xbc28877e	-0.01028621
1	0x3d5849c9	0.052804742
2	0x3c4b3761	0.01240334
3	0x3d8063bb	0.06269022
4	0x3ba0cf39	0.0049075154
5	0x3e12ca05	0.14334877
6	0xbb378b60	-0.0028006658
7	0xbd9d3cd3	-0.07677617
8	0xbd5d1c12	-0.053981848
9	0x3d195667	0.037435915
10	0x3d9eee07	0.07760244
11	0x3d1b6666	0.03793945
12	0xbe996602	-0.29960638
13	0xbd97ddce	-0.07415353
14	0x3cc5969c	0.024119668
15	0xbd5dcd88	-0.054151088
16	0x3e2b327c	0.16718477
17	0x3d01b6cd	0.031668473
18	0x3d5ed464	0.05440177
19	0xbd65cb5e	-0.05610215
20	0xbe2180af	-0.15771745
21	0xbd808c28	-0.06276733
22	0x3e7045f0	0.23464179
23	0x3e6d64d6	0.23182997
24	0x3d8cdb95	0.068778194
25	0xbc5b19e5	-0.013372873
26	0xbdc681f0	-0.09692752
27	0xbd9666c9	-0.073438235
28	0x3df77e74	0.12084666
29	0x3cc02238	0.023453817
30	0x3ca46fe6	0.020072889
31	0x3da5e846	0.08100943
32	0x3df58b58	0.11989468
33	0x3e41285a	0.18863049
34	0xbd0b7676	-0.03404852
35	0xbcad9e34	-0.021193601
36	0x3dcc10f8	0.09964174
37	0x3dbea985	0.09309677
38	0x3d9347a5	0.071913995
39	0xbc239afa	-0.00998568
40	0x3e138619	0.14406623
41	0x3da6d7ac	0.08146605
42	0xbc976018	-0.018478438
43	0x3ea2d401	0.3180237
44	0x3e02f629	0.12789215
45	0x3e5a5a14	0.21323425
46	0x3de09a19	0.10966892
47	0x3e1b51ed	0.15167971
48	0x3e3da883	0.18521313
49	0x3d4906d0	0.049078763
50	0x3d5eb0d8	0.05436787
51	0xbd906ffb	-0.070526086
52	0x3e4b8b41	0.1987734
53	0xbc96bb82	-0.018399958
54	0xbda0d0cd	-0.078523256
55	0x3d210d88	0.039319545
56	0x3db03436	0.086037084
57	0x3d619e34	0.055082515
58	0x3e7e4070	0.24829268
59	0x3b9f5cd6	0.004863362
60	0x3ceab3b4	0.028650142
61	0x3e75a19f	0.23987435
62	0x3d0ef74b	0.034903806
63	0x3e18f444	0.1493693
64	0xbd78e410	-0.060764372
65	0x3cf6f92f	0.030148117
66	0xbd48114c	-0.04884462
67	0x3ce2b0d0	0.027672201
68	0x3d8fb206	0.07016377
69	0xbcfa3f58	-0.030547783
70	0xbd05e600	-0.03269005
71	0xbdab907e	-0.08377169
72	0xbd4072ed	-0.0469846
73	0xbdddfba2	-0.10839011
74	0xbe11a999	-0.14224853
75	0x3d87ce99	0.06631202
76	0xbc53b628	-0.012921847
77	0xbdb7edeb	-0.08980926
78	0x3d5b184e	0.053489976
79	0xbdddfc9a	-0.108391955
80	0xbbb2a32d	-0.005451581
81	0xbdc28d44	-0.094996005
82	0x3ddf9292	0.10916628
83	0x3c6da310	0.014504209
84	0x3d65ff5c	0.056151733
85	0x3d2e40c8	0.04254225
86	0xbd902332	-0.07037963
87	0x3d88befe	0.06677054
88	0xbd7b8fb6	-0.06141635
89	0xbd84c8b0	-0.064835906
90	0x3db44a24	0.08803204
91	0xbd8c34dc	-0.068460196
92	0xbd5b164d	-0.053488065
93	0x3d17c4c4	0.037052885
94	0xbd46f142	-0.048569925
95	0xbe19031b	-0.14942591
96	0x3ca6d461	0.020364942
97	0xbc879110	-0.016548663
98	0xbdb175d0	-0.08665049
99	0xbce15fe1	-0.027511539
100	0xbe0133b1	-0.12617375
101	0xbd5b7253	-0.053575825
102	0x3b860f33	0.0040911674
103	0xbdad4c1e	-0.08461784
104	0x3c4d04ad	0.012513322
105	0xbc4158b7	-0.011800936
106	0xbdaef54e	-0.08542882
107	0xbc8db2b6	-0.01729713
108	0xbdd1143c	-0.102089375
109	0x3dbfd966	0.09367637
110	0xbdb11222	-0.08646037
111	0xbda0abc2	-0.0784526
112	0xbcbe8d0d	-0.023260618
113	0x3d13cd00	0.036084175
114	0xbdd6859a	-0.10474701
115	0x3c9373c9	0.017999547
116	0x3d980886	0.07423501
117	0x3dbc40d6	0.09192054
118	0x3d4d7d50	0.050168335
119	0xbcf02a80	-0.02931714
120	0xbd0a7fa0	-0.03381312
121	0xbdbe095e	-0.092791304
122	0xbd567028	-0.052353054
123	0x3bb4c320	0.005516425
124	0xbdb63437	-0.08896678
125	0xbde8f562	-0.11374928
126	0xbe1fd70d	-0.15609379
127	0xbda034a6	-0.07822542
128	0x3db62ff0	0.08895862
129	0x3d9d3ec3	0.076779865
130	0x3e253f0b	0.1613733
131	0x3d08263c	0.03323959
132	0x3d5f2195	0.054475386
133	0x3bfe8d49	0.0077683073
134	0xbd82ff5b	-0.063963614
135	0xbd2223ef	-0.03958505
136	0x3e36fb01	0.17869188
137	0x3e0c1ab1	0.13682057
138	0x3d89e746	0.06733565
139	0xbd2dd7e2	-0.04244221
140	0x3e473d1e	0.19456908
141	0x3db80f46	0.08987288
142	0xbd735f54	-0.059417084
143	0x3da96ef6	0.08273117
144	0x3d291928	0.041283756
145	0x3d473795	0.04863699
146	0xbd5db15f	-0.054124232
147	0xbcc499c7	-0.023999108
148	0x3de59218	0.11209506
149	0x3c637b63	0.013884398
150	0x3e03b739	0.12862863
151	0x3a9f8bc7	0.0012172394
152	0x3e20c302	0.1569939
153	0x3e53a23e	0.20667359
154	0x3e0aad23	0.13542609
155	0x3e1dd479	0.15413083
156	0x3dd1cdde	0.10244344
157	0xbdbc2693	-0.09187045
158	0x3e1b589a	0.15170518
159	0x3e73d155	0.23810323
160	0x3dd4b7a0	0.10386586
161	0xbda5c863	-0.08094861
162	0x3d88bf67	0.06677132
163	0x3d650561	0.055913333
164	0x3dd50181	0.104006775
165	0x3d9e6457	0.07733982
166	0x3de24acc	0.110494226
167	0x3e561cdd	0.20909448
168	0x3e52d724	0.20589882
169	0x3d70ad5d	0.058759082
170	0x3d358524	0.044316426
171	0x3d739765	0.059470553
172	0xbaded60e	-0.0017001049
173	0x3c951844	0.018200047
174	0xbde5274c	-0.11189136
175	0x3c8e2ebf	0.017356275
176	0xbc92c57a	-0.01791643
177	0xbd9bc622	-0.0760615
178	0x3e0a2c93	0.13493566
179	0x3da9a122	0.08282687
180	0xbdcfb304	-0.101415664
181	0xbd8783ca	-0.06616934
182	0xbd30df5d	-0.043181766
183	0x3d9b280f	0.07576
184	0x3d2a2e33	0.041547965
185	0xbb0bbb00	-0.0021321177
186	0xbaed56de	-0.0018107553
187	0xbc98c67c	-0.018649332
188	0x3ce4b5b0	0.027918667
189	0xbc967020	-0.018364012
190	0x3d985c80	0.07439518
191	0x3da06664	0.078320295
192	0x3e0a86f3	0.13528042
193	0xbe23d56a	-0.1599938
194	0x3b572beb	0.0032832574
195	0x3ce86727	0.0283695
196	0xbc18072d	-0.009279055
197	0x3d800ee6	0.06252842
198	0x3d5c0926	0.053719662
199	0x3e7c1018	0.24615514
200	0x3e396ab3	0.18107109
201	0xbc8bda3f	-0.017071841
202	0x3da811ad	0.082064964
203	0xbd3ee7e7	-0.046607878
204	0xbe2843cf	-0.16432117
205	0x3e435058	0.19073617
206	0x3d5b48cb	0.053536218
207	0x3dda0a4c	0.10646495
208	0x3e1d8c09	0.1538545
209	0xbc4acc1e	-0.012377767
210	0x3ca1fdaa	0.019774277
211	0x3dac5204	0.08414081
212	0x3d12dede	0.035857074
213	0x3e81a660	0.25322247
214	0xbdb35c2b	-0.08757814
215	0x3e2f6be4	0.17131001
216	0x3dd2341b	0.102638446
217	0x3e7b22a4	0.24524933
218	0x3e2ab6a9	0.16671242
219	0x3e0a804b	0.13525502
220	0x3ddea314	0.108709484
221	0xbda98e51	-0.08279098
222	0x3e9fb2c0	0.31191063
223	0x3da2c24c	0.079472154
224	0xbd4c08f6	-0.049813233
225	0x3e08a172	0.13342836
226	0x3de99870	0.11406028
227	0x3da6a59e	0.08137058
228	0x3cfae4c2	0.030626658
229	0x3d4bfb19	0.049800012
230	0xbcb49b66	-0.022046756
231	0xbd087f12	-0.03332431
232	0x3e00f316	0.1259273
233	0x3d9aadcb	0.0755268
234	0xbdf67218	-0.120334804
235	0xbe104675	-0.14089377
236	0x3afc6338	0.0019255644
237	0x3e011156	0.1260427
238	0x3e03e028	0.12878478
239	0x3e830cae	0.2559561
240	0x3dbfd6c9	0.09367139
241	0xbcdcb878	-0.02694343
242	0x3d2aa130	0.041657627
243	0x3daef11d	0.085420825
244	0xbc501f8c	-0.012702834
245	0x3de93cb2	0.1138853
246	0xb99f67d0	-0.0003040419
247	0xbc71dc4f	-0.014761998
248	0xbd473393	-0.04863317
249	0xbdcafbc2	-0.099113
250	0x3d4bea63	0.049784075
251	0x3dafbe30	0.08581197
252	0xbc9a2e00	-0.018820763
253	0x3d3cb0e5	0.046067137
254	0x3ca0a426	0.019609522
255	0x3e2408ba	0.16018954

fc2.bias f4 [32]
0	0xbd11f32c	-0.035632297
1	0xbdc698f1	-0.0969714
2	0x3daa70ad	0.083222724
3	0x3c9b2d90	0.018942624
4	0xbd44f9c4	-0.048089758
5	0xbdefae50	-0.11703169
6	0x3c3ac3da	0.011399234
7	0xbd936f4a	-0.07198961
8	0x3d399739	0.045310233
9	0xbcf8a143	-0.030350333
10	0x3d143dd5	0.03619178
11	0x3de3e300	0.11127281
12	0xbd7b3c3c	-0.06133674
13	0xbdfa543c	-0.12223098
14	0xbd30f2fe	-0.043200485
15	0x3d3fe94a	0.04685334
16	0x3dcec5b6	0.10096304
17	0xbdbd65d8	-0.09247941
18	0xbe1d793f	-0.15378283
19	0xbc1e3677	-0.00965654
20	0x3e1afc83	0.15135388
21	0xbd6879fd	-0.056756962
22	0x3d44a1fb	0.04800604
23	0x3c5c4d1a	0.013446117
24	0xbd44fb31	-0.048091117
25	0xbdb2452a	-0.08704598
26	0xbd2227ca	-0.039588727
27	0x3da05fd2	0.07830776
28	0xbddfc7be	-0.1092677
29	0x3e1fd175	0.15607245
30	0xbc0b5720	-0.008504659
31	0x3b82f472	0.0039964253

fc3.weight f4 [4, 32]
0	0x3e05b830	0.13058543
1	0x3e01084f	0.12600826
2	0x3cebc0bc	0.028778426
3	0x3e625fe1	0.22106887
4	0x3e198da3	0.14995436
5	0xbd94d0a0	-0.072663546
6	0x3de84dcd	0.11342964
7	0xbe23f99c	-0.16013187
8	0x3d00f9ed	0.031488348
9	0xbd9ebc03	-0.07750704
10	0xbbcf915e	-0.006334468
11	0x3e2064a0	0.15663385
12	0x3a6f2800	0.0009123087
13	0x3d9cb9cb	0.07652625
14	0xbbecbb8b	-0.0072245053
15	0x3ddea55c	0.108713835
16	0x3e354200	0.17700958
17	0x39c4d400	0.00037541986
18	0x3d401af4	0.046900705
19	0x3e5e605d	0.21716447
20	0xbc4f5422	-0.012654336
21	0x3c896b05	0.016774664
22	0xbb98e4f3	-0.0046659647
23	0xbd2e4e4d	-0.042555142
24	0xbd430b88	-0.04761842
25	0x3d7d4854	0.061836556
26	0xbeb61dab	-0.3556951
27	0x3da08c57	0.07839268
28	0xbd8a029d	-0.0673878
29	0x3dadb79c	0.08482286
30	0xbd8a39b0	-0.06749284
31	0xbdfb0dde	-0.12258504
32	0x3d797453	0.06090195
33	0x3c634a57	0.0138727045
34	0x3e5026b8	0.2032727
35	0xbe414121	-0.18872501
36	0x3e21d7d7	0.15804993
37	0xbe09de91	-0.13463809
38	0xbd5b6433	-0.053562354
39	0x3c182f00	0.009288549
40	0xbd3bb65d	-0.045828212
41	0x3d29022e	0.041261844
42	0x3dca063a	0.09864469
43	0x3d9701df	0.07373404
44	0x3dc72426	0.09723692
45	0x3d20272a	0.03909985
46	0x3d4d2078	0.050079793
47	0x3e91f330	0.2850585
48	0xbdd4277f	-0.10359096
49	0x3cf19a38	0.029492483
50	0x3d915a99	0.07097358
51	0x3e1dfbf1	0.1542814
52	0x3e283170	0.16425109
53	0xbe012fb4	-0.12615854
54	0x3c8c4c9a	0.01712637
55	0xbcd65804	-0.026165016
56	0xbe675282	-0.22590068
57	0xbd8b5da0	-0.06804967
58	0x3e004b48	0.12528718
59	0x3ded9495	0.116006054
60	0xbe121a6c	-0.14267892
61	0x3e749506	0.23884973
62	0x3dd55d8a	0.10418232
63	0x3daf5898	0.0856182
64	0xbe3e9b1f	-0.18613862
65	0x3cda6099	0.02665739
66	0x3e5d3aa7	0.21604405
67	0x3dc57955	0.09642283
68	0xbc1653e0	-0.009175271
69	0x3e059ff3	0.13049297
70	0x3e7a7278	0.24457729
71	0x3de80386	0.11328797
72	0xbd6424f7	-0.055699315
73	0xbd294afb	-0.041331273
74	0x3e4d5914	0.20053512
75	0xbd85c5a7	-0.0653184
76	0x3e18e7ad	0.14932127
77	0xbdcddb4e	-0.10051595
78	0xbe0066ab	-0.12539165
79	0xbe100fdd	-0.14068551
80	0xbdad6148	-0.084658206
81	0x3a98bd00	0.0011653006
82	0xbe29414e	-0.16528818
83	0x3e0f7c46	0.1401225
84	0x3e140d43	0.14458184
85	0x3bd7f0a6	0.006589967
86	0xbc362eb6	-0.011119535
87	0x3dde2365	0.10846595
88	0x3e2ce016	0.16882357
89	0xbe2437eb	-0.16036956
90	0x3e0943f7	0.13404833
91	0x3e63daa8	0.2225138
92	0xbd3ff89c	-0.04686795
93	0x3e1edbab	0.15513484
94	0x3dc53ae6	0.096303746
95	0x3dafbbf1	0.08580769
96	0x3da291d2	0.07937969
97	0xbd82ddcb	-0.0638996
98	0x3e2303db	0.1591944
99	0x3d93178e	0.07182227
100	0x3de8e102	0.11371042
101	0x3dd58482	0.104256645
102	0xbcf6b23d	-0.030114288
103	0x3e3033e1	0.1720729
104	0x3dacf04b	0.0844427
105	0xbe0ed00b	-0.1394655
106	0xbebf06b6	-0.37309808
107	0x3d381c4c	0.04494886
108	0x3dbe6166	0.09295921
109	0x3deef970	0.1166867
110	0x3dc31619	0.09525699
111	0x3dedb86e	0.11607443
112	0xbd12b2e3	-0.03581513
113	0xbe11b592	-0.1422942
114	0xbde37631	-0.111065276
115	0xbd09110b	-0.03346352
116	0xbd48a55b	-0.04898582
117	0x3e37a91c	0.17935604
118	0xbe03d93d	-0.12875839
119	0x3e42872d	0.18996878
120	0x3e1a2c02	0.1505585
121	0xbadbdd80	-0.0016774386
122	0x3e543679	0.20723905
123	0xbd946356	-0.07245509
124	0xbdb08eda	-0.08620997
125	0x3e220d20	0.1582532
126	0xbd4f32f4	-0.050585702
127	0xbdf1da10	-0.1180917

fc3.bias f4 [4]
0	0xbd587da6	-0.052854203
1	0xbcb25066	-0.021766853
2	0xbd7303a2	-0.059329636
3	0x3e1d8790	0.15383744
