trained_agents/policy_net_CNN_1000.pth (torch, 16224 bytes, 10 tensors)

conv_block1.0.weight f4 [10, 3, 3, 3]
000000 68 73 41 bc 86 7d 83 be 92 77 15 3e 25 55 06 be
       -0.0118073 -0.25681704 0.14596394 -0.13118418
000010 25 5f 65 3c ad 1a 12 3e f4 d5 28 bc 9c 28 fb 3d
       0.013999735 0.14267989 -0.010304917 0.12263605
000020 ff bc 90 3c ff 93 29 3e 34 2d 0f bd 33 97 ab bd
       0.017668245 0.16560362 -0.03495522 -0.08378448
000030 81 3f e8 bd b5 f5 20 3e 88 14 3a 3e e8 83 20 be
       -0.113402374 0.1571873 0.18171895 -0.15675318
000040 0a 3b 90 3e 84 93 8b 3e 57 4f 1c 3e 05 3f cc 3d
       0.28170043 0.27260983 0.15264641 0.099729575
000050 c6 2b 33 3d ba 63 c3 bd 1d d7 58 3e bf 04 ad 3d
       0.043742917 -0.09540506 0.21175809 0.08448171
000060 f3 fd df 3b 32 db 7f bd 99 b6 38 3d 08 02 2c bd
       0.006835693 -0.0624649 0.045096014 -0.041994125
000070 b9 02 1d 3f 92 e0 23 be 00 1f 6a ba 6f 1d ca bd
       0.6133228 -0.16003636 -0.0008931011 -0.09868895
000080 2d d1 2a be 81 44 8e bc c2 b7 2b bd 64 ac 2f bc
       -0.16681357 -0.01736665 -0.041923292 -0.0107222535
000090 b2 fe 42 be 86 f4 18 3f a3 4c 8c bd c0 cd 5d bb
       -0.19042471 0.59748113 -0.06850555 -0.003384456
0000a0 6b 1a 40 be f0 45 8e bc 24 c9 83 3b 7e d7 02 bd
       -0.18760078 -0.017367333 0.0040217806 -0.03194379
0000b0 78 fc 94 bd a0 98 af bb 0c 12 c8 3e b8 3a 2e 3d
       -0.07274717 -0.0053587705 0.3907627 0.042536467
0000c0 bc 5b 23 be e4 88 dd bd f7 59 03 3e 30 69 b4 bd
       -0.15952963 -0.108171254 0.12827288 -0.088091254
0000d0 ca bc 62 bd 7c c0 28 3d af 74 34 3e 8b 04 3b bc
       -0.055355825 0.041199192 0.17622636 -0.011414657
0000e0 62 09 d9 bd 39 f2 1a be 22 1b 52 3e 9e 23 a6 3e
       -0.10597493 -0.15131463 0.20518163 0.3244905
0000f0 47 44 48 be 04 b6 0b be b9 4f c4 3c 31 9c d0 3c
       -0.19557296 -0.13643652 0.023963796 0.025465103
000100 c6 17 7e be e0 13 7d bc 1f 06 ca bd 6c 6d 59 3e
       -0.24813756 -0.015446633 -0.09864449 0.21233147
000110 74 09 2b 3e 3c 5a b2 bd 1c f8 82 bd 30 f2 90 3b
       0.16702825 -0.08708617 -0.06394979 0.0044234022
000120 cf c0 71 3e ac 97 0a be 5a b9 6c bd f3 19 72 be
       0.23608707 -0.1353442 -0.057793953 -0.23642711
000130 27 a5 c7 3e 69 e4 9d 3e 96 fe 9c bc 90 ac 4d be
       0.3899319 0.30838326 -0.019164365 -0.20085359
000140 61 ef cc bd ca a4 a5 bd 08 b1 2b be b8 9d 93 bd
       -0.100065954 -0.08088072 -0.16766751 -0.07207817
000150 09 b2 13 be b6 d0 e1 bd b0 49 20 be 52 2c d6 bd
       -0.14423384 -0.110261366 -0.1565311 -0.10457672
000160 75 d8 26 3e 79 7f cb 3e 0c 2c a3 bd f1 9a 06 bd
       0.1629351 0.3974569 -0.07967386 -0.032862607
000170 68 31 f9 bd 0c 97 e6 bd f3 3a d5 bd a0 d4 ae bd
       -0.121676266 -0.11259279 -0.10411634 -0.08536649
000180 f9 5e 24 3e 84 34 e9 3e 98 4f 92 3e e9 c6 2c be
       0.16051854 0.4554788 0.2857635 -0.16872753
000190 9e 94 8a 3b 4b b1 76 bd 8a 7c c6 3d 28 61 32 bd
       0.0042291423 -0.060227674 0.09691723 -0.043549687
0001a0 2c 26 4a bd 42 98 39 be 4a f4 d8 3e 14 c2 c8 3e
       -0.04935281 -0.18124488 0.42373878 0.3921057
0001b0 12 cc 1b 3e 6e c0 60 be bd 57 3d be b1 37 81 3d
       0.15214565 -0.21948406 -0.18490501 0.063094504
0001c0 84 0b 97 bd dc 23 2c be fe 66 81 3e fb a4 61 3e
       -0.07375243 -0.16810554 0.2527389 0.22035591
0001d0 d3 54 9d 3e 91 5c 59 3e 77 02 7f bd 0e 2b 0a be
       0.30728778 0.21226718 -0.06225821 -0.13492987
0001e0 47 a6 60 bd d2 13 e6 bd 35 c0 46 be 5b fd d6 3d
       -0.054846074 -0.11234249 -0.19409259 0.104975425
0001f0 29 84 e1 3d 4c eb ad 3c 4c 25 2d 3d 9f 90 95 bd
       0.11011536 0.021230362 0.042271897 -0.07302975
000200 46 b3 92 bd c2 b8 f4 3d 63 c2 3e be 3f 44 43 be
       -0.071631 0.11949302 -0.1862884 -0.19069003
000210 4b b2 5e 3e 7f d8 80 bd 79 2a 3b 3d 9b 40 43 3d
       0.21747701 -0.06291293 0.045694802 0.047669034
000220 d6 5f 28 be 36 5f 3b 3d 02 41 b7 3e af bb 84 3e
       -0.16442809 0.045745097 0.35791785 0.2592444
000230 66 63 2d be 8e 4a c0 bd 50 b8 22 be ed 1a d3 3e
       -0.16932449 -0.0938922 -0.15890622 0.4123148
000240 9c e2 60 3d 27 68 0a 3e 0e 47 64 be c5 5e ed 3e
       0.05490361 0.13516293 -0.2229273 0.46361366
000250 8c 4b b5 3e 02 60 00 be e7 4d a2 bd 88 a0 2f be
       0.354092 -0.12536624 -0.07925015 -0.17151082
000260 c5 1c e7 3e 44 90 13 3e 20 99 62 bd 49 8f 74 be
       0.45139137 0.14410502 -0.055321813 -0.23882784
000270 09 f5 a7 3e f0 42 ec 3d a3 45 01 3e 0b 12 39 be
       0.32804134 0.11536205 0.1262422 -0.18073289
000280 69 98 09 bd 80 e4 98 3e b4 30 d2 bd 1e 1e 76 3e
       -0.033592615 0.29861832 -0.10263196 0.24034926
000290 b0 b0 2e be 55 c5 0a be e5 ac 39 be b0 4b 42 be
       -0.17059588 -0.13551839 -0.1813236 -0.18974185
0002a0 98 c9 ce bd e9 d6 33 be f1 d9 d6 3e a9 b9 53 3d
       -0.10097045 -0.1756245 0.4196315 0.05169073
0002b0 59 98 63 3e 83 a0 00 be c3 91 5c be 82 3c e7 bd
       0.22226085 -0.1256123 -0.21539979 -0.11290838
0002c0 6b e1 37 be 3b 5f 72 be b0 af ae bd 0b 64 80 3e
       -0.17957084 -0.2366914 -0.085296035 0.25076327
0002d0 de c5 6b be 90 cc ab 3d 3a a1 81 bd c2 c9 c2 bd
       -0.23024699 0.083886266 -0.0632958 -0.095111385
0002e0 52 8b ed bd f6 f3 ad 3d 22 dd f8 bd 64 9c c3 bd
       -0.11598839 0.084937975 -0.12151553 -0.095513135
0002f0 d5 79 e0 3e 60 b5 44 be 56 31 56 bd 66 7f a0 bd
       0.4384295 -0.19209814 -0.052293144 -0.07836799
000300 ef 5c 19 be d9 6f 35 3e 81 cf a6 3d 80 f1 a0 3e
       -0.14976858 0.17718448 0.08145047 0.3143425
000310 f0 af b7 3e 5f 09 4c 3e 0e 2c fb bd 5b 3a 1c be
       0.35876417 0.1992545 -0.12264262 -0.15256636
000320 ac c6 b3 bd d5 ba 70 3d a1 66 46 3e 8f 6d a2 bd
       -0.08778128 0.058771927 0.19375087 -0.07931053
000330 03 60 03 3e 07 d9 11 3e be 58 8d 3e 9d 61 a5 bd
       0.12829594 0.14242946 0.27606767 -0.08075259
000340 e6 eb b4 bc 98 2e a1 be 0b f8 30 be 31 67 86 bb
       -0.022085141 -0.3148086 -0.17282121 -0.004101657
000350 7f d6 72 be 90 de 78 3e 4c 71 b6 3e 66 bd 87 3e
       -0.23714636 0.24303651 0.35633314 0.26511687
000360 92 f5 cc bd 84 d1 f5 bd 42 08 21 be f0 5f 19 bd
       -0.10007776 -0.120028526 -0.15725806 -0.03744501
000370 e8 9f ca bc 23 8c d1 3e 18 54 f3 3d 83 7c e0 bd
       -0.024734452 0.40927228 0.11881274 -0.10961249
000380 cc 89 c1 3e 70 26 79 bd 5d 29 3d be 4f 0e 44 3e
       0.37800443 -0.060827672 -0.1847281 0.19146083
000390 90 fd e0 bd 0a 81 2c be 7c 09 c0 3e 7b f4 03 3e
       -0.10985863 -0.168461 0.37507236 0.1288623
0003a0 2c 2b 6e bc e6 32 36 3e 40 93 4b bd ea 95 ca 3d
       -0.01453666 0.17792854 -0.049700975 0.09891875
0003b0 b8 93 17 bd 39 f7 04 be cf cc 68 be 73 13 4d 3e
       -0.03700611 -0.12984933 -0.22734378 0.2002695
0003c0 23 c5 a8 3d cd 8c 3d be 40 00 d4 3d 02 71 29 be
       0.08240726 -0.18510742 0.1035161 -0.16547015
0003d0 16 aa ca 3d 00 82 27 3c b6 4f 88 bd a3 ab eb bd
       0.098957226 0.0102238655 -0.06655829 -0.115073465
0003e0 5f 0e ef bd 78 cf c3 3c a8 0b 8b bc a2 85 fd 3d
       -0.11672663 0.02390264 -0.016973332 0.12379004
0003f0 30 6b 6b bd 00 34 d5 bc 76 cb d2 3d 6b 20 18 3e
       -0.05747527 -0.026025772 0.10292713 0.14856116

conv_block1.0.bias f4 [10]
000000 0e 29 3b 3e 15 6f af bb bd 95 3e 3e 14 bb d3 3d
       0.1827738 -0.005353818 0.18611808 0.10338417
000010 7b ce 62 3e 5d a3 d1 3d 5a a2 36 3e 8b 63 68 3e
       0.22149079 0.10236237 0.1783537 0.22694223
000020 a1 f5 d7 3d b6 f0 36 be
       0.10544897 -0.17865261

conv_block1.2.weight f4 [10, 10, 3, 3]
000000 1b a7 25 3e c7 7c a4 bc e3 9b 06 bb b6 95 c7 3d
       0.16177027 -0.02007903 -0.0020539693 0.09745352
000010 2e 6c 04 bd 33 a6 97 3d f2 26 0b be e9 1f 58 3d
       -0.03232973 0.07404747 -0.13589075 0.052764807
000020 25 e2 76 3e 37 9a 44 be 8f 75 64 3d 95 27 bc be
       0.24109705 -0.19199453 0.055776175 -0.3674895
000030 1e e9 b6 be ae ec 3c bd 0a a2 ea 3c ea 60 4e 3e
       -0.3572473 -0.046124153 0.02864172 0.20154157
000040 a1 12 cd bd e5 f9 ee bc d7 d8 c0 3d 8b 82 78 3c
       -0.10013319 -0.029171893 0.09416359 0.015167843
000050 80 9a ca 3d 3b f3 36 3e 61 fc 86 bd b3 5b 68 3c
       0.0989275 0.17866223 -0.06591106 0.014182019
000060 c6 fa 3a 3c c2 0a 37 3e b6 4b 40 3e 80 c3 91 3e
       0.011412328 0.17875198 0.18778881 0.28469467
000070 e1 5b 53 3d 2b 0b a9 bd 3a d1 8c 3c de aa 96 bc
       0.051601294 -0.08254083 0.01718961 -0.018392023
000080 60 c9 e0 3d bb 6c 29 bd 4a b2 f7 3d 25 a8 0d 3e
       0.10975909 -0.04136346 0.12094553 0.13833673
000090 c9 7b ea 3d 60 1b 58 3d c2 8a 6a 3d f5 3e 06 3d
       0.114493914 0.05276048 0.057261236 0.032774884
0000a0 84 2f a4 3d ef b9 27 3d b6 72 82 3b 18 90 ea 3d
       0.080168754 0.040948804 0.0039809598 0.11453265
0000b0 22 47 4a 3e f6 ce cc bd 1d f9 b4 be ec fb 3f be
       0.19753698 -0.10000412 -0.35346308 -0.18748444
0000c0 c4 de 4a 3e 7c 2e 6f 3e d9 c3 7a be 99 47 88 3e
       0.19811541 0.23357576 -0.24488772 0.26617125
0000d0 cb 92 8c 3e b3 ef 91 bb 2b c5 7c 3d 5f ec 99 3c
       0.27455744 -0.004453623 0.06171147 0.018789468
0000e0 a8 d2 da 3c ee 65 3e bd 81 e8 1d 3d b8 dc a8 3d
       0.026711777 -0.046483926 0.03855181 0.08245224
0000f0 82 11 5b 3e a1 4f b0 3d 53 ac e5 3b 85 07 86 3d
       0.21393397 0.08608938 0.007009068 0.06544403
000100 2a c8 28 3e 1d d4 cb 3d b5 35 81 3e 66 bf 33 3d
       0.16482607 0.09952567 0.25236288 0.043883704
000110 be 04 bb b9 45 7f 38 bd 23 17 53 3d 1a 17 e9 3d
       -0.00035670953 -0.04504325 0.051535737 0.113813594
000120 59 da b0 3d 3b 6a 5e 3d 83 60 a7 bd 89 e2 2e 3e
       0.086353965 0.054300528 -0.08172705 0.17078604
000130 0c 71 f8 3d 32 c9 86 bd d3 d2 9f bc 9b 1b 86 3b
       0.12130937 -0.06581344 -0.019509709 0.0040926463
000140 ff b4 14 3e e0 b1 cf bc b2 0a 77 bd 3e f7 d1 bd
       0.1452217 -0.025353372 -0.060312934 -0.10252236
000150 80 a8 82 ba f7 71 46 bd fc fd 1b bd 71 91 9a bd
       -0.000996843 -0.04844853 -0.038084015 -0.07547272
000160 b8 e1 73 bd c0 37 b2 3a 1e fd 40 3d 9c f8 20 3e
       -0.059541434 0.0013596937 0.04711639 0.15719837
000170 da 58 96 bc 43 c5 4d 3e 1b db 47 3d 15 db 8b bd
       -0.018352915 0.2009478 0.04879294 -0.06828896
000180 7d 52 4d 3d ce dc f3 bd 19 9c 1b 3e c1 b9 82 3e
       0.050127495 -0.119073495 0.15196265 0.25532344
000190 4a 71 95 3d 7e 4c 1c 3f de 59 8e bd aa 55 fd 3d
       0.07296999 0.6105422 -0.069507346 0.12369855
0001a0 d0 af bd be 69 e2 3e be ae 78 df bd 0a 60 f8 be
       -0.37048197 -0.18641056 -0.1091169 -0.48510772
0001b0 59 fd 33 3e 04 1e 60 bd 80 7f 3a b7 a2 68 15 3e
       0.17577113 -0.054716125 -1.111615e-05 0.14590696
0001c0 de e2 a8 3d 1a 57 36 3d 57 94 94 3d 73 08 cd 3b
       0.082463965 0.04451666 0.07254856 0.0062571107
0001d0 0f 36 03 bc 29 00 32 3e 94 bc 08 3e f5 ed ed bd
       -0.008008494 0.17382874 0.13353187 -0.11617652
0001e0 bb e6 0a 3e 98 d2 a8 bc a3 af 8a bc 52 72 16 3c
       0.13564579 -0.020608231 -0.016929453 0.0091825295
0001f0 26 c2 0b 3d 9c 7e 56 3e 4e 87 e9 3d 90 b8 d2 3d
       0.0341207 0.20946735 0.114027604 0.10289109
000200 13 14 2f 3e da b3 8c 3d f4 e8 24 bd e3 91 8f 3d
       0.17097501 0.068702415 -0.040261224 0.070102476
000210 9e e3 9a 3d 1a 90 0d 3e 74 d3 80 3c 39 45 88 3e
       0.07562946 0.13824502 0.015725829 0.26615313
000220 2f 35 a8 3d 67 eb e5 bc 02 41 32 3c 31 fc 07 be
       0.08213269 -0.02806635 0.010879757 -0.13279797
000230 e9 5e 17 3e fb f9 fa 3d 42 c1 4d 3e 24 0d 58 bd
       0.14782299 0.12254711 0.20093253 -0.052746907
000240 4e 39 ac 3e bf 1b 3c bd 38 a5 24 3e 49 ac 45 3d
       0.3363747 -0.0459249 0.16078651 0.048260007
000250 1a 7b 10 bd 1f 4f f9 bd 1c 69 ef bd c3 c2 d3 3d
       -0.03527365 -0.12173294 -0.1168997 0.10339882
000260 69 11 12 3e 04 8f 1f 3e 46 bb 0e 3d a6 9f 21 3e
       0.14264454 0.155819 0.034846567 0.15783557
000270 68 7b 31 3e 59 90 97 3d 1d 9c 80 bd 24 5d 30 3d
       0.17332232 0.07400579 -0.06279776 0.043057576
000280 c6 57 f4 ba ae 71 bb 3d b3 35 89 3e ac cd 4c be
       -0.0018641881 0.09152542 0.26798782 -0.20000333
000290 90 5a 8d 3e c9 14 a7 3e c0 f6 1c 3d 6a 41 a4 bc
       0.27608156 0.32633045 0.038321257 -0.020050723
0002a0 f9 02 24 bd 05 25 37 3e 41 59 55 3b 33 6b c4 3d
       -0.040041897 0.17885216 0.003255442 0.09590759
0002b0 42 2b a5 bd 58 b9 42 bd ec 7d 9c bc 78 b5 00 3c
       -0.080648914 -0.04754004 -0.019103013 0.0078557655
0002c0 47 bf d1 3d 4f f7 91 3d a8 f3 46 bc da 30 15 3d
       0.102415614 0.071272485 -0.012143053 0.03642354
0002d0 19 2e a1 3c b4 54 1b bd 84 5a 05 be fc e9 3d bd
       0.019675301 -0.037922576 -0.1302281 -0.046365723
0002e0 b6 9d 70 3d 46 64 13 3c de 15 62 bd 9b db 4d bd
       0.058744155 0.008996075 -0.055196635 -0.05025826
0002f0 bb 30 8b bd 6b 28 83 3d 58 e5 38 bc 47 71 97 bd
       -0.06796404 0.064041935 -0.011285149 -0.07394653
000300 e6 d7 88 bd b8 88 2e bc 86 ef 66 3d 50 3a c6 bc
       -0.06681804 -0.0106527135 0.05638077 -0.024197727
000310 5a bf 5e bd 08 24 8f bd 9a 41 94 bd 77 93 01 be
       -0.054381706 -0.06989294 -0.07239075 -0.1265391
000320 05 0b 86 3d c2 3c 93 bd 9f da e1 bd 85 70 6f bd
       0.065450706 -0.07189323 -0.11028027 -0.058456916
000330 8f 04 ea bc 7e f8 b0 3c ff c7 a3 3d 82 24 78 3d
       -0.028566627 0.021602865 0.079971306 0.06058169
000340 20 15 3b 3d 23 37 c3 3d ab 52 77 bd 57 d8 af bd
       0.045674443 0.09532001 -0.060381573 -0.085861854
000350 70 71 c9 bd f3 ba c5 bd 3d 8e 6a 3d 7e 26 d8 bd
       -0.098360896 -0.09654798 0.057264555 -0.10554217
000360 67 76 2e bd b1 be 94 3d 92 31 d0 bd 75 d2 4f bc
       -0.042593386 0.07262934 -0.10165705 -0.012684454
000370 0b b3 05 bd 04 c4 2d bd 0b 14 a3 3d 8d 95 9f bd
       -0.03264145 -0.042423263 0.07962807 -0.077921964
000380 05 d5 4d bd 33 a5 7e bd d9 c6 9c 3d 38 85 7d bc
       -0.05025198 -0.062169265 0.07655115 -0.015473656
000390 7c 67 db bc 20 cd 92 3c 59 0c 91 3d 93 30 86 bb
       -0.026782744 0.017920077 0.07082433 -0.004095146
0003a0 f2 30 47 3d d6 91 01 3d 5a 0f 22 3d b6 97 4e 3c
       0.048630662 0.03163322 0.03956542 0.012609413
0003b0 91 6c 81 3d 3d 80 6a 3d d5 27 4a 3d c2 31 99 3c
       0.063195355 0.057251204 0.049354393 0.018700484
0003c0 12 94 b0 bd 69 20 aa 3d f7 6a d8 bd 87 00 aa 3c
       -0.08621992 0.08306963 -0.10567277 0.020752205
0003d0 36 85 80 3d 23 20 ca bd db ea ae bd e5 1e 99 3d
       0.06275408 -0.09869411 -0.08540889 0.07476596
0003e0 1c 6e 28 bd ed 73 30 bc 2d 48 c0 bd e3 7a 9d 3b
       -0.041120633 -0.010769826 -0.093887664 0.004805909
0003f0 ba 37 bd bd 30 3e 0c 3c 6a fe f0 bc da 07 80 bd
       -0.092391446 0.0085597485 -0.02941819 -0.062514976

conv_block1.2.bias f4 [10]
000000 5c 1f b4 3d c6 6b d8 3d b6 f7 d0 bd 19 44 fb bd
       0.08795044 0.10567431 -0.10203497 -0.12268848
000010 b4 2e 01 be c1 8f 92 bd 46 19 9a 3c ec 33 05 be
       -0.12615472 -0.07156325 0.01881088 -0.13008088
000020 9b 0a a9 3d 57 93 3d 3d
       0.08253976 0.046283092

conv_block2.0.weight f4 [10, 10, 3, 3]
000000 3e 8b 51 be 92 69 ac bd ff a2 8d bc d4 79 b5 3d
       -0.20463273 -0.084185734 -0.017289637 0.088611275
000010 b1 61 07 3e a9 df 02 bd b5 d9 c1 bd d1 23 22 be
       0.1322086 -0.03195158 -0.094653524 -0.15833975
000020 3a 17 24 be c1 61 16 bd 66 2b 71 be 5a 2a 36 3c
       -0.16024485 -0.03671432 -0.23551711 0.011118496
000030 db e7 f1 3d 59 c8 9a 3d 59 05 98 bd 8b 01 fb bd
       0.11811801 0.075577445 -0.07422895 -0.12256154
000040 eb 73 45 bd e3 63 b0 3d f5 a3 a2 bd 2a aa 7b bd
       -0.04820625 0.08612802 -0.079414286 -0.061441578
000050 ea ff be bd c6 75 46 bd 15 14 cf 3d 00 47 cd bd
       -0.093261555 -0.04845216 0.10111252 -0.10023308
000060 71 da c7 3d ce f8 79 3d 1d 62 4a bd 37 f3 18 be
       0.09758461 0.061028294 -0.049409974 -0.14936529
000070 90 fd e5 bc 4f b6 34 3e e2 10 0d 3d 3c 19 02 3f
       -0.02807501 0.1764767 0.03443993 0.50819755
000080 93 9d 68 3e 41 33 8a bd 59 4d c5 3d ae 34 c0 bd
       0.2271636 -0.06748057 0.096338935 -0.09385048
000090 6a ea 26 3d 70 b9 b2 bc c4 35 b6 3d 80 95 d0 3a
       0.0407509 -0.02181694 0.08896974 0.0015913695
0000a0 c7 2f 9e bd c9 67 9d bd ba fc 88 bd a3 3a d2 3d
       -0.077239566 -0.07685811 -0.06688829 0.1026509
0000b0 20 cf 3a bc 2f 50 b1 bd 28 20 2d 3c 60 36 04 bd
       -0.0114019215 -0.08657872 0.010566749 -0.03227842
0000c0 9c 1e ae 3c e0 15 56 3b 7e f1 77 3d 5a cd be bd
       0.02125483 0.0032666847 0.06053304 -0.093165115
0000d0 33 4a 67 bd 5c ff 98 bd 99 97 0f be 89 d8 ce bd
       -0.056467246 -0.07470581 -0.14022674 -0.100998946
0000e0 04 13 3b bb d8 8b 9b bc 5c 32 3a 3e a5 6b f7 3d
       -0.002854527 -0.018987581 0.18183273 0.120810784
0000f0 0b 30 79 3d e4 0d c7 bd 17 3f 30 bd f4 70 f1 3c
       0.060836833 -0.09719446 -0.043028917 0.029472806
000100 d0 eb 39 bd 21 f0 84 bd 76 f7 7d 3d 05 e6 03 bd
       -0.045390904 -0.064911135 0.062003575 -0.032201786
000110 fc 7c 98 3d 61 44 83 3d 70 34 64 3c ee 69 41 bd
       0.07445714 0.064095266 0.013928518 -0.047220163
000120 40 a3 88 bc 6a 9f b1 bd e8 d5 22 3e 3d f1 d3 be
       -0.016679406 -0.08672984 0.15901911 -0.41394988
000130 2d 71 96 bc 5a 26 54 3b 26 56 c0 3d db 73 55 3e
       -0.018364513 0.0032371492 0.093914315 0.20844977
000140 86 66 43 3e d4 fb d4 bd 1e 0a c7 bd 69 2f b4 bc
       0.19082078 -0.10399595 -0.097187266 -0.021995263
000150 9f de 25 3e 59 19 b1 3d e5 c1 24 3e cc 54 3b bd
       0.16198204 0.08647413 0.1608959 -0.045735165
000160 09 e5 e0 3c 30 9a a4 3d 9a 7b b9 3d a5 a2 71 3d
       0.027452962 0.080372214 0.09056778 0.058993
000170 08 d3 94 3c bc 09 11 bc 84 a0 83 3d a6 1e a0 bd
       0.018167034 -0.0088524185 0.064271 -0.07818346
000180 63 f9 f5 bc 92 e5 ec 3d b9 f5 cd 3d ea d0 66 bd
       -0.030026143 0.115672246 0.100566335 -0.05635158
000190 26 33 93 3d 04 af ba bc 8a 25 19 3d 4c a7 04 3d
       0.0718749 -0.022788532 0.037389316 0.03238611
0001a0 1a 2f bc 3d 90 e7 11 3e 44 da 47 3d 75 0d 0f be
       0.091886714 0.1424849 0.04879214 -0.13969977
0001b0 2c a6 74 39 a8 70 72 bd aa 46 b4 3d b7 cf 7e 3d
       0.00023331557 -0.05918947 0.088025406 0.06220981
0001c0 f8 14 8d bd a4 91 99 3d ed 59 37 bd 22 9b d9 3d
       -0.06888765 0.07498482 -0.044763494 0.10625292
0001d0 fd 31 de 3d e7 b4 79 be 3f c3 62 be 53 03 c2 be
       0.10849378 -0.24385415 -0.22144793 -0.3789316
0001e0 d6 b3 c9 3d c3 29 e3 3d f8 b6 16 3e ae 4d 1c 3e
       0.09848754 0.1109195 0.14718235 0.15264007
0001f0 2d fd 46 3e 52 70 11 3e 28 fb 15 3c be 2f 1f bd
       0.19432516 0.14203003 0.009154119 -0.03886389
000200 3e 4b b6 3d db f1 cf bd 75 49 01 3d 92 49 07 bd
       0.0890107 -0.10153552 0.031564195 -0.033029146
000210 f2 9a 75 3d 9d 1a 99 bd f0 54 8b 3b 1e 4e 07 3d
       0.05996222 -0.07475779 0.0042520687 0.033033483
000220 5f df b1 bc 97 73 88 3d 7e 6f ab 3c 4e c9 3c 3c
       -0.021712957 0.06662672 0.020927187 0.011522604
000230 3c 42 f4 bc 0e 69 9d 3c fa c6 7b bc b4 c3 c1 3d
       -0.02981674 0.019215133 -0.015367264 0.094611555
000240 a6 73 e4 3b ab 81 5e 3e a9 6f 91 bd b2 20 6f 3e
       0.006971794 0.21729152 -0.071013756 0.23352316
000250 ef a0 75 3d ba 23 8c b9 b2 1a 35 be 5e 86 83 3d
       0.05996793 -0.000267295 -0.17685965 0.06422113
000260 8b 78 c2 3d 75 99 86 3d 3d fd a7 bc 1f 6e 7e bd
       0.09495648 0.06572238 -0.020506496 -0.06211674
000270 9c 5d 10 bd 89 fd 98 bc a2 bc ab bd e5 0a 94 3d
       -0.035245523 -0.018675582 -0.08385588 0.072286405
000280 8d a8 c6 3d 48 d5 9c bd 28 c3 82 3d a8 cb 71 3e
       0.09700117 -0.07657868 0.06384879 0.23612845
000290 ff ea 16 3e b7 1d 22 3e 4a bd 24 3e 4b 3c 25 3e
       0.14738081 0.15831648 0.16087833 0.16136281
0002a0 f7 d5 46 3d 28 4e b3 3c aa ae 11 be 8d c1 57 bc
       0.048543897 0.021887854 -0.14226785 -0.013168705
0002b0 e1 e3 f2 3b d5 b1 f9 3d aa d2 0c 3e 4c ce fd 3d
       0.007412419 0.12192122 0.13752237 0.12392864
0002c0 9b 53 c1 bd 90 ce 00 3d a0 5d f9 3d db 6c f6 3c
       -0.094397746 0.031446993 0.12176061 0.030081203
0002d0 55 ea 93 bd 46 6d 9d bd 2e 5a dc bd ae 99 3e bd
       -0.0722243 -0.07686858 -0.10759388 -0.04653328
0002e0 66 07 d6 bd 35 9f fe bd be f3 41 3d 80 d8 f6 bc
       -0.1045063 -0.1243271 0.04735159 -0.030132532
0002f0 6d 59 35 bd 0c 28 a7 bc ce 7d 00 be dc df 79 bc
       -0.044274736 -0.020404838 -0.1254799 -0.015251126
000300 8a fa 3e bd 2f e9 07 3c d5 dd e6 3c 5a b1 6a 3d
       -0.04662565 0.008295341 0.02818195 0.057298042
000310 62 b3 5b 3d e4 ba c7 bc 28 6a 1d 3c 0e ea 17 3d
       0.05363787 -0.024381109 0.009607829 0.037088446
000320 e4 a6 e7 3c a1 99 ae 3d 04 c9 88 bd b8 cc 41 bc
       0.028277822 0.08525396 -0.06678966 -0.011828594
000330 ff 2c 50 bd 40 c7 2c 3b c9 bc ab 3d 30 5a c1 bc
       -0.05082416 0.002636388 0.08385617 -0.023602575
000340 b8 76 0e be 1d 5a 20 be 90 fa 0c 3c 5e db cf 3c
       -0.13912475 -0.15659375 0.008604661 0.025373157
000350 11 fb e4 bd 68 68 8f 3c 4e b5 05 3d 72 da 57 3d
       -0.111806996 0.01750584 0.03264361 0.05269856
000360 c0 91 97 bc 2f 0d ae bd 06 c6 31 bd 4a 0e be bd
       -0.018502116 -0.08498608 -0.04340174 -0.09280069
000370 58 95 47 bc f0 9a 01 bc 8c ca d0 3c 06 88 62 bd
       -0.012181602 -0.007910475 0.025487207 -0.055305503
000380 ea 95 36 3d b7 2a 9e 3d 91 97 b4 3d 00 7d b4 bd
       0.044576563 0.07722991 0.088179715 -0.08812904
000390 49 46 8c bd bb 14 c3 3d 92 6e b7 bd 61 9e 6d bd
       -0.06849343 0.095254384 -0.089566365 -0.05801237
0003a0 ba 90 35 3d 75 6e 4f bd a0 92 ea bb ea 87 cc bb
       0.044327475 -0.05064245 -0.0071585923 -0.006241788
0003b0 09 3d 8d bd 02 d6 33 3d 41 2b f2 bd a8 a8 28 be
       -0.06896407 0.043905266 -0.11824656 -0.16470587
0003c0 23 cf 83 bd e2 9e 20 bd 38 81 14 bd 03 05 cd 3d
       -0.064359926 -0.039214022 -0.036256045 0.100107215
0003d0 94 7a e1 bc ec 65 be 3c a8 94 ab bd 1e 59 1b bd
       -0.02752427 0.02324196 -0.08377963 -0.037926786
0003e0 ca 1e 6f 3d 2c 1e d6 bd 64 79 b9 bc 30 75 9d bc
       0.058378972 -0.104549736 -0.022640891 -0.019220918
0003f0 ca 13 79 3d f0 0c 39 bd 86 57 33 bd ba 95 7a 3d
       0.060809888 -0.045178354 -0.04378464 0.061177947

conv_block2.0.bias f4 [10]
000000 ae 33 8f 3c c4 d5 00 3d 8c 2e c8 bd 3d 1e 08 3e
       0.017480697 0.031453863 -0.09774503 0.13292785
000010 35 f1 a3 3d b4 35 7a bd 30 33 5f 3d a9 0d 08 3d
       0.08004991 -0.06108637 0.054492176 0.033216152
000020 f7 ce 91 3d ac af aa 3d
       0.071195535 0.08334288

conv_block2.2.weight f4 [10, 10, 3, 3]
000000 ac 06 81 bd 1c e3 6d ba ab f4 67 bd 93 1a 88 be
       -0.06300101 -0.00090746745 -0.056629818 -0.26582775
000010 12 73 84 be 86 7f 78 3d 4d de e0 bd 1f 12 89 3d
       -0.25869042 0.06066849 -0.109799005 0.066929094
000020 6e 4f 0b 3d 89 0e 29 bd c1 ff 69 bd 0b 99 5f bd
       0.034011297 -0.041273627 -0.05712867 -0.054589313
000030 ec 78 af 3d c8 06 46 3d 37 d2 be bd e3 62 0c be
       0.08567986 0.04834631 -0.09317439 -0.13709597
000040 dd 89 3a be fa 47 1a bd fc 04 c8 3c 80 d2 84 bc
       -0.18216653 -0.0376663 0.02441644 -0.016213655
000050 89 e6 ae 3d 57 07 e6 3c 3d 1f d4 bd cc 30 f7 3c
       0.08540065 0.028079672 -0.10357521 0.030174635
000060 84 33 80 3c 60 e7 aa bd 64 bb 1f bd 71 95 fe bd
       0.015649565 -0.083449125 -0.03899707 -0.124308474
000070 9a 4f 53 3c 98 50 49 3d 0d 6a 19 3e 97 ed 27 3d
       0.012897396 0.049149126 0.14981861 0.040998068
000080 bd 71 f8 bd 51 78 54 be cb bf 89 be 81 31 a6 3d
       -0.12131069 -0.20749022 -0.2690414 0.08114911
000090 c7 54 93 3e e4 6b 12 be 75 e1 1c 3d f4 13 97 bc
       0.28775617 -0.1429897 0.03830095 -0.018442132
0000a0 8b 14 31 3e c2 37 e5 bd 6a 83 52 be 45 d0 ca bd
       0.17292993 -0.111922756 -0.20557943 -0.099030055
0000b0 d6 4e 76 3d 00 db 1c 3a 1e 8a 38 3d 72 04 d7 bd
       0.060133778 0.0005983561 0.045053594 -0.10498895
0000c0 2d 2f 77 bd c9 b4 84 bd 60 03 83 bc 92 f6 1f 3d
       -0.060347725 -0.064797945 -0.01599282 0.039053507
0000d0 67 15 94 3d 3f 52 8f 3d b5 fe 18 3d db bc be bc
       0.07230645 0.06998109 0.037352283 -0.023283413
0000e0 84 82 99 bc cb 61 79 3e ea 4c 37 3e 25 c7 d5 bd
       -0.018738993 0.24353711 0.17900434 -0.104383744
0000f0 bb 3c 7d be 99 4d 04 be 1a 97 65 3d 47 45 03 3e
       -0.24730198 -0.12920226 0.056052305 0.12819396
000100 5e 02 8f 3d b1 57 81 3d 96 43 65 3d 28 32 86 3d
       0.069828734 0.06315554 0.055972658 0.06552535
000110 90 44 fe bc 04 61 1d bd 06 55 60 3d 64 6e b6 bd
       -0.031038553 -0.0384226 0.054768585 -0.08907774
000120 5c b6 9b bd ae b5 08 3e e8 bc 9e bc 74 6e 61 be
       -0.07603142 0.13350555 -0.019377187 -0.22014791
000130 88 76 4f 3e 69 cf 6d bd c1 02 53 bc a8 8c 3d be
       0.2026006 -0.05805913 -0.012879075 -0.18510687
000140 00 56 78 3b 35 00 ec 3d e4 94 2c 3c ae c0 e2 bd
       0.0037893057 0.11523477 0.010533545 -0.11071907
000150 5a 3c 03 3e 5c f6 c6 bd 29 a5 fb bd 71 1d 45 be
       0.12815991 -0.09714958 -0.12287361 -0.19249512
000160 40 39 9e be 74 4f cf bd 0c e5 57 bc d5 85 f2 bd
       -0.30903053 -0.10122576 -0.013177168 -0.11841933
000170 40 52 01 bc 0c f1 dd 3d ea 14 1d 3c 9f 11 36 bd
       -0.007893145 0.10836992 0.009587506 -0.0444504
000180 8c 46 15 3e 3e cb c6 3d 84 a0 48 bd ae bf 6e 3d
       0.14577693 0.09706734 -0.048981205 0.05828827
000190 21 00 21 3d 60 b1 0b bb e0 40 a5 3d b5 a7 e8 3d
       0.039306764 -0.002131544 0.080690145 0.113601126
0001a0 51 ff a5 bd e4 bb de bb 00 75 18 3e 22 ba ca 3d
       -0.08105338 -0.0067973007 0.14888382 0.09898783
0001b0 8b 23 ac 3d 1e cc 2c bd e3 97 b1 3d 79 19 d5 bd
       0.08405217 -0.04218685 0.08671548 -0.10405249
0001c0 10 f7 81 bd be 71 26 bd e3 67 95 bd b2 94 b1 bd
       -0.063459516 -0.040635817 -0.072952054 -0.086709395
0001d0 c6 ce 02 3d 29 ba 9f bd a6 09 ed bd 79 8a bb bd
       0.031935476 -0.07799179 -0.11574106 -0.09157271
0001e0 82 58 8f 3d 8a 77 12 3e 24 6a aa 3d fd 26 dd bd
       0.069993034 0.14303413 0.08321026 -0.10798452
0001f0 08 96 a0 3d 7d 08 fa 3b 16 03 6f 3d 90 bf e3 bd
       0.07841116 0.0076304064 0.058352552 -0.11120522
000200 56 12 1c 3d 21 99 28 bd 72 cb 94 bd 28 61 e8 3d
       0.038103424 -0.04116166 -0.072653666 0.11346656
000210 09 54 e9 bc 91 74 ed 3d 8c 1b ce 3c 39 d1 86 3d
       -0.028482454 0.11594499 0.02515962 0.06582875
000220 52 39 56 3d 06 e8 16 3d 38 2d d5 bd 4e 92 b1 bc
       0.05230076 0.03684237 -0.104090154 -0.021676209
000230 d0 ff 23 3c d8 10 d4 bd 2c f4 26 bd d4 bb 19 bd
       0.010009721 -0.10354775 -0.040760204 -0.037532642
000240 79 f9 27 3d 8e a4 2d 3d 60 1c 3a bb a8 96 f3 3d
       0.0410094 0.04239326 -0.002839826 0.1189397
000250 f5 90 ce 3d 6b 13 49 be 65 0f cf bd c3 b3 e5 3c
       0.10086242 -0.19636314 -0.10110358 0.028039819
000260 ed 39 c3 3d 74 d8 d3 bc f8 5e b8 bc 87 09 d1 3d
       0.09532533 -0.025860049 -0.022506222 0.10206895
000270 6a 44 1f 3d 6c d5 b1 3c 18 27 32 3c 65 99 8d bd
       0.038883604 0.021708213 0.0108735785 -0.06914023
000280 00 de db 3a 3a 7a 13 3d 0a 99 17 3b ec f6 2c bd
       0.0016774535 0.036005236 0.002313199 -0.04222767
000290 12 3c 42 3d f6 e5 4a 3c 38 b7 19 3d b7 0f d2 3d
       0.04742057 0.0123839285 0.037528247 0.102569036
0002a0 36 ef 2c 3e 44 e2 fe 3d e8 d3 ed bd 61 9b 32 bc
       0.16888127 0.124455005 -0.116126835 -0.010901303
0002b0 60 b0 a5 3c 60 13 47 3c 6b cc a2 3d f7 7b fe 3d
       0.020225704 0.012150615 0.07949146 0.12425988
0002c0 c2 86 b0 bc 42 7d 3a bd 4d d9 00 bd fe 9a 84 bc
       -0.021548633 -0.04552961 -0.031457234 -0.016187187
0002d0 1c 03 4d be 00 b7 05 be 29 30 05 be f2 1a 7f bd
       -0.20020717 -0.1305809 -0.13006653 -0.062281556
0002e0 c7 e8 99 bc 12 73 e5 bb 63 8e 8e 3c 07 41 b8 bd
       -0.018787755 -0.007002243 0.01740188 -0.08996778
0002f0 ac b3 bc bd 69 27 4d bd a3 5c 7b 3d 77 cd 05 3e
       -0.09213957 -0.050086413 0.061367642 0.1306666
000300 98 f3 77 39 9e 45 30 3e 0f 65 2e 3d e3 ae 68 bb
       0.00023646501 0.17214057 0.042576846 -0.0035504631
000310 9d f5 e4 bc b3 85 8f bd cb ac 4c bd b7 35 ba bd
       -0.027949149 -0.07007923 -0.049969476 -0.090922765
000320 74 23 3a bd e0 fa 73 bc 91 c9 53 bd d4 47 67 bd
       -0.045443967 -0.014891356 -0.0517059 -0.056464985
000330 f8 b0 43 3c a6 1d ad bd 27 9f 80 3d 50 7c c5 bc
       0.011944048 -0.084529206 0.06280356 -0.024107128
000340 51 b7 b2 bd cb 35 22 3e 27 54 93 bd 00 0c 2d be
       -0.08726371 0.15840833 -0.07193785 -0.16899109
000350 9f d2 c8 3d 51 3e 3f bc 9f 2c 45 bc 41 63 20 be
       0.09805798 -0.011672572 -0.012034564 -0.15662862
000360 71 56 d4 bd b3 e2 db 3d b7 a7 c2 3c eb d4 cc bd
       -0.1036805 0.10736599 0.023761613 -0.100015484
000370 e7 8f 20 3e 04 4f 3b 3d ac 10 23 3d b2 cf 12 be
       0.15679894 0.045729652 0.03981082 -0.14337042
000380 fb 4f 92 bd 4c 74 eb 3c 16 03 60 3d eb ef 93 3d
       -0.07144161 0.028741978 0.054690443 0.07223495
000390 a4 1e ad bc 37 9b a9 3d 2a 5e 3d bd 30 43 68 3c
       -0.021132775 0.08281558 -0.04623238 0.014176175
0003a0 31 68 ca 3d b6 93 62 bd 12 84 12 be 22 62 69 3e
       0.09883154 -0.05531665 -0.14308193 0.22791341
0003b0 58 b2 b9 bd ac 27 2c be f8 09 04 bd 0c 95 b9 3d
       -0.090672195 -0.16812009 -0.03223607 0.090616316
0003c0 23 53 8e 3d b9 51 47 bd e1 17 8c 3d 4c af b1 3c
       0.06949451 -0.04866192 0.06840492 0.021690033
0003d0 b7 b9 08 3c bd eb fb bc 30 09 a7 3b 94 d1 98 3d
       0.008345059 -0.030752057 0.005097531 0.07461849
0003e0 b5 57 20 3d c0 d4 89 3c 7a 50 63 3d 10 4c c9 3b
       0.039146144 0.01682508 0.05549667 0.0061431006
0003f0 fe 0c 3a be ea b7 24 be 2f 5e 5d 3c 2d 36 65 bd
       -0.18169019 -0.16085783 0.013511225 -0.05595987

conv_block2.2.bias f4 [10]
000000 47 9b 2d 3e c4 69 51 ba ba f8 00 3e 17 87 0c 3d
       0.16953765 -0.00079884776 0.12594882 0.03430852
000010 d6 b1 b8 3d d0 a3 b6 bd fd f9 2f 3d 11 c5 d4 bd
       0.090182945 -0.089179635 0.042963017 -0.1038915
000020 59 dd 07 be e2 b6 95 3d
       -0.13268031 0.07310273

layer_stack.1.weight f4 [4, 10]
000000 16 eb 9e 3e 06 cb b1 bb 33 95 b6 3e 19 d0 1b 3d
       0.3103873 -0.0054258136 0.35660705 0.038040254
000010 6f f3 8e bd c5 05 1c be e3 30 a6 3e a8 78 01 3d
       -0.06980025 -0.15236576 0.32459173 0.031609207
000020 ae 67 2c bd 52 de cf be 02 2f f2 be ac 91 d9 3e
       -0.042091064 -0.40599304 -0.4730149 0.4249395
000030 e5 72 45 3e 3e 2b 3d 3e 33 0f 52 bd 78 e6 4c be
       0.1928211 0.18473527 -0.051284026 -0.20009792
000040 90 3b 7f be 16 c7 71 3e 85 f3 89 bc ec 2a 28 bd
       -0.24925065 0.23611102 -0.016839752 -0.04105656
000050 1a ba 90 3d 4c d3 c2 3d c5 fa da 3d 20 a8 29 be
       0.07066746 0.09512958 0.10692362 -0.16568041
000060 e1 5f 89 3e f0 6e 41 be 32 60 46 be 28 00 4e bd
       0.26830962 -0.18889976 -0.19372633 -0.050293118
000070 e0 c3 c1 3c 38 82 30 3e ba c5 2b 3d 9d 1c 84 3e
       0.02365297 0.17237175 0.041936614 0.2580308
000080 02 6f eb bc 2b 4a 6d 3e 85 0d 85 be 82 0b 1b 3e
       -0.028739456 0.23172824 -0.25986877 0.15141109
000090 d7 c2 7f be 72 53 87 3e 8a c9 2b 3e bc 0b 82 3e
       -0.24976669 0.2643085 0.167761 0.25399578

layer_stack.1.bias f4 [4]
000000 22 55 d0 3d 6d 02 40 3e 91 9f 85 be b4 1d 8d 3e
       0.10172488 0.18750925 -0.26098302 0.27561724
