trained_agents/policy_net_CNN_2000.pth (torch, 16224 bytes, 10 tensors)

conv_block1.0.weight f4 [10, 3, 3, 3]
0	0x3e1a2895	0.15054543
1	0x3e1b4885	0.15164383
2	0x3dcc3bde	0.09972356
3	0xbe33cf53	-0.17559557
4	0x3e3449da	0.17606297
5	0xbdc698e8	-0.09697133
6	0xbd8de2ec	-0.069280475
7	0x3cc6c1b9	0.024262296
8	0xbe16b9ed	-0.14719363
9	0x3dbfccde	0.09365247
10	0xbd0df81e	-0.03466045
11	0x3e344ca7	0.17607366
12	0x3d2d299c	0.04227601
13	0x3dd40bbc	0.10353801
14	0xbe049f35	-0.12951358
15	0xbc5d3bc0	-0.013503015
16	0xbe09170a	-0.13387695
17	0xbd48ce44	-0.049024835
18	0x3e36e2ef	0.17860006
19	0x3e0a04ca	0.1347839
20	0x3dcba9e5	0.09944514
21	0xbd926145	-0.07147459
22	0x3d890f55	0.066923775
23	0xbcaf477b	-0.02139639
24	0xbde995a3	-0.11405494
25	0x3d642b42	0.055705316
26	0xbda4d3f2	-0.08048238
27	0x3db2bffa	0.08728023
28	0xbc362694	-0.011117596
29	0x3ce21710	0.027598888
30	0x3da81959	0.0820796
31	0x3da0c6ab	0.07850393
32	0xbde01617	-0.10941713
33	0xbe067858	-0.13131845
34	0x3de76f6a	0.113005474
35	0x3d00d228	0.03145042
36	0xbd0571d0	-0.032579243
37	0x3d12b04a	0.035812654
38	0x3d8d7d70	0.06908691
39	0xbdc67aed	-0.09691415
40	0x3bd0756c	0.006361654
41	0xbe37ca05	-0.17948158
42	0xbddce49f	-0.107857935
43	0xbd4606d0	-0.04834634
44	0xbe1a8ef4	-0.15093595
45	0xbd23cae0	-0.0399884
46	0x3d9d3464	0.07676008
47	0xbc5f59e2	-0.01363227
48	0xbd697e95	-0.057005484
49	0x3d34321b	0.043993097
50	0x3e0bf6e1	0.13668396
51	0x3da03faa	0.07824643
52	0xbe0c44f5	-0.1369818
53	0xbe1348ac	-0.14383191
54	0x3e952475	0.29129377
55	0x3c3bbca2	0.011458548
56	0x3e9b8f53	0.30382785
57	0x3d96e355	0.07367579
58	0xbe641484	-0.22273451
59	0xbe00ea54	-0.12589389
60	0x3ec69e1e	0.3879251
61	0xbe2734b5	-0.163287
62	0x3e59525d	0.21222825
63	0xbcf53423	-0.029932087
64	0xbabadcec	-0.0014256514
65	0x3e17b3cb	0.1481468
66	0xbde3e08a	-0.11126812
67	0x3dc3e87f	0.095658295
68	0xbe2bda0e	-0.167824
69	0x3d20276a	0.03910009
70	0xba838dfe	-0.0010036824
71	0x3e16ebdd	0.14738412
72	0x3e7f63ab	0.24940364
73	0x3d944926	0.072405145
74	0x3e72b6e6	0.23702583
75	0xbdaba142	-0.08380367
76	0xbdeb1119	-0.114778705
77	0xbd78ad04	-0.060711876
78	0x3e1f3437	0.15547262
79	0xbe29a629	-0.16567291
80	0xbd9b7366	-0.0759037
81	0xbdff20e6	-0.12457447
82	0x3e5374f1	0.20650078
83	0x3da6c955	0.0814387
84	0x3d9df7a6	0.07713251
85	0xbe0065a5	-0.12538774
86	0x3d94eec4	0.072721034
87	0x3e8725c0	0.26395988
88	0xbdffacb4	-0.124841124
89	0xbe36879a	-0.17825165
90	0x3d29c7a3	0.041450154
91	0x3e281596	0.16414484
92	0xbe80be58	-0.2514522
93	0xbdeb8572	-0.11500062
94	0xbdbfbb47	-0.09361892
95	0xbe0d666d	-0.13808604
96	0xbcf77833	-0.030208683
97	0x3d6a9d5e	0.057278983
98	0x3db0a99d	0.08626101
99	0xbe3e7bc5	-0.18601902
100	0xbc1b6690	-0.009484902
101	0x3ddb5bce	0.1071087
102	0xbd0c3d84	-0.034238353
103	0xbd869e9b	-0.0657322
104	0xbdcaa528	-0.09894782
105	0x3d79e5bb	0.061010104
106	0xbe50f96a	-0.20407644
107	0xbe0dc076	-0.1384295
108	0xbdae76c9	-0.0851875
109	0x3e1725f1	0.14760567
110	0xbe6631c1	-0.22479917
111	0xbe4da999	-0.20084228
112	0xbdc00ccf	-0.09377443
113	0xbe7def1d	-0.24798246
114	0x3f015818	0.50525045
115	0x3ee1d5a2	0.441083
116	0xbe7e01dc	-0.24805397
117	0xbd922095	-0.07135121
118	0xbdacfece	-0.08447038
119	0xbdbb0031	-0.09130896
120	0x3d1a440f	0.037662562
121	0x3e0fc9bf	0.14041804
122	0x3d8ca7eb	0.06867965
123	0x3e8cfad1	0.27535108
124	0x3e7ab7f6	0.24484238
125	0xbd80ad50	-0.06283057
126	0xbe340590	-0.17580247
127	0xbe01fb2b	-0.12693469
128	0x3c4a9e20	0.0123668015
129	0xbe3358e5	-0.1751438
130	0x3d96b7bd	0.07359264
131	0xbd890fd7	-0.06692474
132	0x3eeecc97	0.46640465
133	0x3e44d309	0.19221129
134	0xbd435bae	-0.047694854
135	0x3da2c424	0.07947567
136	0xbe0fd994	-0.14047843
137	0x3ead7e5d	0.3388547
138	0x3e8348f7	0.25641605
139	0xbd572141	-0.052521948
140	0xbcd63e79	-0.026152836
141	0x3e95b48a	0.29239303
142	0xbda4a265	-0.08038787
143	0xbe4da30d	-0.2008173
144	0x3da92318	0.08258647
145	0xbd9f9505	-0.07792095
146	0x3ea7ed38	0.3279817
147	0x3d3a9cb9	0.04555962
148	0xbe324dd2	-0.17412499
149	0xbe172ca0	-0.14763117
150	0x3e8f81eb	0.28028807
151	0x3e0c09a9	0.1367556
152	0xbcb22cba	-0.021749843
153	0x3e68b6da	0.22726002
154	0x3e519005	0.20465095
155	0x3e05e338	0.13074958
156	0x3e27f71c	0.16402858
157	0xbe0a2c37	-0.13493429
158	0xbe7427b2	-0.23843268
159	0x3d6fb00c	0.0585175
160	0x3d8c68c3	0.06855919
161	0x3cce1db0	0.02516064
162	0xbd32a332	-0.043612666
163	0xbe243664	-0.16036373
164	0xbe1ecac0	-0.1550703
165	0xbdd0a3b1	-0.10187472
166	0xbe00bc66	-0.12571868
167	0xbe22016c	-0.15820855
168	0x3cab270b	0.02089264
169	0xbe1f5831	-0.15560986
170	0xbe36873d	-0.17825027
171	0x3c1cbddf	0.009566753
172	0xbe1b145b	-0.15144484
173	0x3c8def10	0.017325908
174	0xbe2b5518	-0.1673168
175	0x3dcea0bf	0.10089254
176	0x3df8a482	0.121407524
177	0x3d73bd79	0.059506867
178	0x3e33dabb	0.17563908
179	0x3dcfa10f	0.10138141
180	0x3e642266	0.22278747
181	0x3a583900	0.000824824
182	0xbd4e6514	-0.050389364
183	0xbdb7d5ab	-0.08976301
184	0xbde0da29	-0.10979111
185	0xbd74a999	-0.059732053
186	0x3e379bad	0.1793048
187	0xbda3d57e	-0.07999705
188	0xbd813c24	-0.06310299
189	0x3e386613	0.18007688
190	0xbe16764f	-0.14693569
191	0x3ee5e0f8	0.448982
192	0x3e967778	0.29388022
193	0xbdd0c4e7	-0.10193806
194	0x3deab15e	0.11459611
195	0xbe81edc7	-0.25376722
196	0xbe457cb8	-0.19285858
197	0xbc7fa5e7	-0.015603519
198	0x3e81a829	0.2532361
199	0xbdea06b4	-0.1142706
200	0x3eadb1ae	0.3392462
201	0x3e33ca1b	0.17557566
202	0xbdfbc14a	-0.12292726
203	0x3e23bba4	0.15989548
204	0x3cc98e49	0.02460398
205	0xbea17d90	-0.3154111
206	0xbc21937f	-0.009861826
207	0x3e2816a1	0.16414882
208	0xbe855ebd	-0.26048842
209	0x3ee6d9d9	0.4508808
210	0x3d9e22c0	0.07721472
211	0xbd6e41a1	-0.058168057
212	0x3e180714	0.1484645
213	0xbdc1efef	-0.09469592
214	0xbd049412	-0.032367773
215	0xbb8457b3	-0.004038775
216	0xbe19336a	-0.14961019
217	0xbe1e3d1a	-0.15452996
218	0x3d0ef27a	0.034899212
219	0x3e92e3c0	0.28689384
220	0xbe43c9d1	-0.19119956
221	0x3e872e05	0.26402298
222	0x3e0c181d	0.13681073
223	0x3eb84976	0.35993546
224	0xbd70240d	-0.05862813
225	0x3e02a2b1	0.12757374
226	0x3dcc3d82	0.09972669
227	0x3d84436d	0.06458173
228	0x3da61c0c	0.08110818
229	0x3d58c8e8	0.052925974
230	0x3e3c7cac	0.18406934
231	0x3d123617	0.035696115
232	0x3e811e0b	0.25218233
233	0xbd7f2f6e	-0.06230109
234	0x3e187d45	0.14891537
235	0xbd8c7f0f	-0.06860172
236	0x3d69002a	0.056884922
237	0x3e59e252	0.2127774
238	0xbd871a12	-0.065967694
239	0x3e45aaa1	0.19303371
240	0xbe6bff25	-0.23046549
241	0x3e613a89	0.21994986
242	0x3d07d739	0.033164237
243	0xbdbecfc2	-0.093169704
244	0x3e573a06	0.21018228
245	0xbe3ec472	-0.18629625
246	0x3dd47fb9	0.10375924
247	0xbd40c450	-0.04706222
248	0xbdfeb7df	-0.124374144
249	0x3ed5f423	0.41787824
250	0xbe383f20	-0.1799283
251	0x3cedf7f1	0.029048892
252	0x3db72b6a	0.089438275
253	0x3cca5b62	0.024701778
254	0xbdb00139	-0.08593983
255	0xbcb8169c	-0.022471718

conv_block1.0.bias f4 [10]
0	0x3ddde3a2	0.10834433
1	0xbdf6411e	-0.12024139
2	0x3e373255	0.17890294
3	0x3e2264fb	0.15858833
4	0x3e6248ed	0.22098131
5	0x3dff774b	0.12473925
6	0x3def61e7	0.11688595
7	0x3e740ded	0.23833437
8	0x3c5a7992	0.013334649
9	0x3dd426bb	0.1035895

conv_block1.2.weight f4 [10, 10, 3, 3]
0	0x3db4e576	0.08832829
1	0xbe0a1de1	-0.1348796
2	0x3e4c82f4	0.1997183
3	0x3ceaf548	0.028681412
4	0x3d9a337a	0.075293496
5	0x3ea0610a	0.31324035
6	0xbdca897d	-0.09889505
7	0xbc9b63bf	-0.018968461
8	0x3da695db	0.081340514
9	0xbd1400d8	-0.036133617
10	0xbd8fa14f	-0.07013189
11	0xbcb74ef8	-0.022376522
12	0xbda9426b	-0.08264621
13	0xbdae7943	-0.085192226
14	0x3cbe661b	0.023242047
15	0xbc471fc0	-0.012153566
16	0xbcf8fd30	-0.030394167
17	0xbb8815dd	-0.004152997
18	0xbdebc4d1	-0.11512149
19	0xbe01e4c3	-0.12684922
20	0x3d7d2aab	0.06180827
21	0x3e199e36	0.15001759
22	0x3dccef7f	0.10006618
23	0x3df17c1a	0.117912486
24	0xbdb577d1	-0.08860744
25	0xbca53321	-0.020165982
26	0xbbb029a9	-0.00537606
27	0xbe3726a0	-0.17885828
28	0xbc26889c	-0.010164406
29	0x3d1525f0	0.036413133
30	0x3e743467	0.23848115
31	0x3ceec94b	0.029148718
32	0x3e94cff6	0.29064912
33	0x3da56d46	0.08077483
34	0x3bc2649e	0.0059324047
35	0x3e22df79	0.1590556
36	0x3e1bd593	0.15218191
37	0xbe3a1b52	-0.18174484
38	0x3dfb7785	0.12278656
39	0x3e0a66fc	0.13515848
40	0xbdd5232d	-0.104071
41	0x3dced3c0	0.10098982
42	0xbdc51776	-0.096236154
43	0xbdeb8ad5	-0.115010895
44	0xbbe65aa4	-0.007029848
45	0xbdca0958	-0.098650634
46	0x3d57030f	0.05249315
47	0x3e904919	0.2818077
48	0xbd9a68cc	-0.0753952
49	0x3d8eb282	0.069676414
50	0xbc9b031d	-0.018922383
51	0x3df2b95f	0.11851763
52	0x3dc0a200	0.09405899
53	0x3d55939a	0.052142717
54	0x3e5a8cb6	0.2134274
55	0xbd66890a	-0.056283034
56	0xbcd42652	-0.025897179
57	0x3de0ec5f	0.10982584
58	0xbe0c8f5d	-0.13726564
59	0x3c206d34	0.009791661
60	0xbdc61ec6	-0.09673838
61	0xbcc95e7c	-0.024581186
62	0x3bfb518c	0.0076696333
63	0xbdf8afdf	-0.1214292
64	0x3dafb235	0.08578912
65	0x3e62702c	0.22113103
66	0xbe5e38a9	-0.21701302
67	0x3dcc5a00	0.09978104
68	0x3ced8a03	0.028996473
69	0x3e6fc621	0.23415424
70	0xbbcc425a	-0.0062334957
71	0x3e1f0387	0.1552869
72	0xbe0497f4	-0.1294859
73	0x3db3deb1	0.087827094
74	0x3df8bb3a	0.12145086
75	0xbb123bf1	-0.002231356
76	0x3cd630ef	0.02614638
77	0xbd8ae28c	-0.06781492
78	0x3e002d72	0.12517336
79	0xbe13e948	-0.14444458
80	0x3c060367	0.008179522
81	0xbe4b4dcf	-0.198539
82	0xbe08e650	-0.13369107
83	0xbe2825cc	-0.16420668
84	0x3e108ac1	0.1411543
85	0xbdf91d93	-0.12163844
86	0x3cb11e6e	0.021620955
87	0x3d80e314	0.06293312
88	0xbdc9ca15	-0.09852997
89	0x3da0e1ba	0.07855554
90	0xbd159354	-0.036517456
91	0x3dbdb3b4	0.09262791
92	0x3cd359fc	0.025799744
93	0x3ca539d0	0.020169169
94	0xbd4242b9	-0.047426913
95	0xbd7ffc3b	-0.062496405
96	0xbd96dbb2	-0.07366122
97	0x3df994c0	0.12186575
98	0xbdd64895	-0.10463063
99	0xbe08cf21	-0.13360263
100	0x3dc880a3	0.097901605
101	0x3ba9c621	0.0051810895
102	0x3d4f58c4	0.050621763
103	0xbd6ae3f5	-0.057346303
104	0xbd169bc6	-0.03676965
105	0xbcb85bf5	-0.022504786
106	0xbc54f26a	-0.012997249
107	0xbd885ba2	-0.066581026
108	0xbdc584ce	-0.09644471
109	0x3d0c5531	0.034260932
110	0xbd8668b5	-0.0656294
111	0x3dd8ae56	0.10580127
112	0xbd37d27e	-0.044878475
113	0x3e0a7235	0.13520129
114	0xbe2a24f2	-0.16615656
115	0xbda3fbf1	-0.080070384
116	0x3d4d5530	0.05013007
117	0xbc45e7ae	-0.0120791625
118	0xbcd054dd	-0.025431091
119	0x3c6a15d4	0.014287431
120	0xbb09d964	-0.0021034116
121	0xbd6c0ef1	-0.057631437
122	0x3acecaa5	0.0015776946
123	0xbc24608a	-0.010032782
124	0xbdc0a49f	-0.09406399
125	0xbcff5751	-0.031169565
126	0x3e141091	0.14459445
127	0x3dcaf3d6	0.09909789
128	0xbe046c91	-0.1293204
129	0x3d33c294	0.043886736
130	0x3e171f87	0.1475812
131	0x3e3aa9b2	0.18228796
132	0xbe11f4a7	-0.14253484
133	0xbd83c6a4	-0.06434372
134	0xbcd01266	-0.025399398
135	0x3c4107fb	0.011781688
136	0xbda5edc0	-0.08101988
137	0x3dd650a6	0.10464601
138	0x3cbcfbbc	0.023069255
139	0xbd81b4e0	-0.06333327
140	0x3e2ae8d2	0.16690376
141	0x3ccc4199	0.024933623
142	0xbd677f40	-0.05651784
143	0x3e006393	0.12537985
144	0x3b111a33	0.002214086
145	0x3c7c2fad	0.015392226
146	0x3ddb33ca	0.10703237
147	0x3d8addff	0.06780624
148	0xbdc12f20	-0.094328165
149	0x3e10209e	0.14074942
150	0xbddd6699	-0.108105846
151	0xbd98641a	-0.07440968
152	0xbde8784f	-0.11351072
153	0x3d7c3753	0.0615762
154	0xbdfaa9ae	-0.12239395
155	0x3df1b208	0.11801535
156	0x3c31fbeb	0.010863285
157	0xbdf39146	-0.11892943
158	0x3d774f3e	0.060378306
159	0xbd15a6e3	-0.03653611
160	0xbcacfbb6	-0.021116119
161	0x3db9eb6a	0.09078105
162	0x3d4f07ad	0.05054443
163	0xbe103c19	-0.14085425
164	0x3dd6c83f	0.10487413
165	0xbd4a5f05	-0.049407024
166	0x3e5c5ffd	0.21520992
167	0x3d8fcf13	0.07021918
168	0x3e7ad219	0.24494208
169	0xbe04d3cb	-0.12971418
170	0x3e4a1910	0.19736123
171	0xbd803060	-0.06259227
172	0x3e1cc286	0.1530858
173	0x3e45f3fb	0.19331352
174	0x3e22f7e4	0.15914875
175	0xbdfdde4d	-0.12395916
176	0x3e79a51e	0.24379393
177	0xbcb0bdd2	-0.021574888
178	0xbe00b6a3	-0.1256967
179	0xbcbfa94c	-0.023396157
180	0xbda6f7c4	-0.08152726
181	0x3d5ce549	0.0539296
182	0xbc5134f7	-0.012768975
183	0xbdbe7742	-0.093000904
184	0xbd0a977d	-0.033835877
185	0xba6009cd	-0.00085463823
186	0xbc243499	-0.010022306
187	0xbdb36d84	-0.08761123
188	0xbba66bd3	-0.0050787716
189	0xbc8e8e63	-0.01740188
190	0xbdef7090	-0.116913915
191	0x3db6cc80	0.08925724
192	0xbb1bbbd7	-0.0023763084
193	0xbd6a30b7	-0.057175364
194	0xbd93541d	-0.07193778
195	0xbd1ec9a0	-0.038766503
196	0x3daaa170	0.08331573
197	0xbd1da4cc	-0.03848724
198	0xbc8221f3	-0.015885329
199	0x3ce1aefd	0.027549261
200	0xbc5f248b	-0.013619552
201	0xbcbdc605	-0.023165712
202	0xbd47ec1f	-0.048809167
203	0x3cdc2a97	0.026875777
204	0x3e1e8578	0.15480602
205	0xbe6ba14e	-0.23010752
206	0x3d674bef	0.0564689
207	0x3ddf4592	0.10901941
208	0xbdb86121	-0.09002901
209	0x3e17e79a	0.14834443
210	0x3ce8ade4	0.02840323
211	0xbdb4c905	-0.08827404
212	0x3d854e02	0.065090194
213	0xbe09e229	-0.1346518
214	0xbc2a9c0a	-0.010413179
215	0x3e0c0cd6	0.13676772
216	0x3e0ec784	0.13943297
217	0xbe6c2718	-0.23061788
218	0xbd9bdb13	-0.076101445
219	0xbcadff4e	-0.021239903
220	0xbe43eafb	-0.19132607
221	0x3a74f3c4	0.0009344185
222	0xbdc3de6b	-0.09563907
223	0x3dbc0920	0.09181428
224	0x3e09654d	0.1341755
225	0xbd18286b	-0.03714792
226	0x3ddff23d	0.10934875
227	0xbd148f9a	-0.03626976
228	0x3d781bd8	0.06057343
229	0xbdc98a56	-0.098408386
230	0xbe2e0b95	-0.16996606
231	0xbcca1904	-0.024670132
232	0xbdcfebc7	-0.10152393
233	0x3e500001	0.20312501
234	0xbdbd1bdf	-0.092338316
235	0x3d954b68	0.07289773
236	0xbdd0bd02	-0.101923004
237	0xbe368c40	-0.17826939
238	0x3d94ed55	0.0727183
239	0x3c2861d8	0.010277234
240	0x3e35e046	0.17761335
241	0xbc1ea58c	-0.009683024
242	0x3dbfd805	0.09367374
243	0xbe515a24	-0.20444542
244	0x3d4a9154	0.049455002
245	0x3d26da9d	0.04073583
246	0xbbd93d60	-0.006629631
247	0xbca2c192	-0.019867692
248	0xbbb19f50	-0.005420603
249	0xbdb2bc2f	-0.087272994
250	0x3d0c0203	0.034181606
251	0x3e2c3080	0.16815376
252	0xbdacea88	-0.08443171
253	0xbd33a39e	-0.04385721
254	0xbd611413	-0.054950785
255	0x3c40be45	0.011764114

conv_block1.2.bias f4 [10]
0	0x3d20daef	0.03927129
1	0x3daef67e	0.085431084
2	0x3d00fce0	0.03149116
3	0xbdd3b74f	-0.10337698
4	0x3ddc9e90	0.10772431
5	0xbd13e54b	-0.036107343
6	0xbd372876	-0.04471632
7	0x3de8c5a2	0.113658205
8	0x3d359e36	0.044340335
9	0x3e269439	0.1626748

conv_block2.0.weight f4 [10, 10, 3, 3]
0	0xbd825553	-0.063639306
1	0x3e06c75c	0.13161987
2	0xbc2ca8ba	-0.010538274
3	0x3d703164	0.058640853
4	0xbc80a3cd	-0.015703106
5	0x3da393e6	0.07987194
6	0xbb9655dc	-0.004587872
7	0xbd09be07	-0.03362849
8	0xbd72e415	-0.059299547
9	0x3ddcc47f	0.10779666
10	0x3d9aea5b	0.07564231
11	0xbd654dc1	-0.055982355
12	0xbb34fbd4	-0.0027615922
13	0xbdafca36	-0.085834906
14	0x3e212d32	0.15739897
15	0x3c83823c	0.016053312
16	0x3ddf7b3b	0.10912176
17	0xbdc32b0b	-0.09529694
18	0x3db682f8	0.08911699
19	0x3dcc1dfd	0.09966657
20	0xbd8621b3	-0.06549396
21	0x3d160797	0.036628332
22	0xbdb8a606	-0.090160415
23	0xbd43a6c8	-0.047766477
24	0x3d71222d	0.058870483
25	0x3e551106	0.20807275
26	0xbdeb50c7	-0.114900164
27	0xbe4dd81f	-0.20101975
28	0xbe57ea1a	-0.21085396
29	0xbe4e1bbe	-0.2012777
30	0x3da2b3bb	0.07944437
31	0x3e364db7	0.17803083
32	0x3e9977d1	0.29974225
33	0x3e4dc8bd	0.20096107
34	0x3e1cc48c	0.15309352
35	0x3de12a00	0.10994339
36	0x3d44a8a8	0.048012406
37	0x3e457485	0.1928273
38	0xbe48348e	-0.19551298
39	0xbd1e5c44	-0.03866221
40	0xbd942222	-0.07233073
41	0x3d88c446	0.06678061
42	0x3cb1fa53	0.02172581
43	0x3daf8f19	0.085722156
44	0xbe441806	-0.19149789
45	0x3deae87a	0.11470123
46	0x3d4fa777	0.050696816
47	0x3d27d55b	0.040974956
48	0x3e0b5b6b	0.13609092
49	0x3e29c133	0.16577606
50	0x3da6a1f4	0.08136359
51	0xbc9f77f9	-0.019466387
52	0x3e3b76b6	0.18307003
53	0xbddecb51	-0.10878623
54	0x3d85d294	0.06534305
55	0x3dc2efdb	0.09518405
56	0xbc0d41b2	-0.00862162
57	0xbc818271	-0.01580927
58	0xbdcf7ea0	-0.10131574
59	0x3d079aa8	0.033106476
60	0x3e0b0155	0.13574727
61	0xbd21a7eb	-0.03946678
62	0x3c5770fa	0.013149494
63	0x3dcdd356	0.10050075
64	0x3d85bb61	0.0652988
65	0xbc90ad61	-0.017660799
66	0xbd953d48	-0.07287079
67	0xbe5b1011	-0.21392848
68	0x3e566404	0.2093659
69	0x3c8ff5d3	0.017573273
70	0x3e30d228	0.17267668
71	0xbde16034	-0.110046774
72	0xbd610ba0	-0.054942727
73	0x3dd035b9	0.10166497
74	0x3d815001	0.06314088
75	0x3d443176	0.047898732
76	0x3d86bced	0.065790035
77	0x3e2e107f	0.1699848
78	0x3cadb2e7	0.021203471
79	0x3db81df1	0.08990086
80	0xbdb377e4	-0.08763102
81	0x3e62fa41	0.22165777
82	0xbe0f36ef	-0.13985799
83	0xbe4dcb58	-0.200971
84	0xbe96d3e0	-0.29458523
85	0xbbef0f98	-0.00729556
86	0x3e62aed1	0.22137
87	0x3e482a10	0.19547296
88	0xbde58c5d	-0.11208413
89	0x3d212fa9	0.039352093
90	0xbdac5a17	-0.08415621
91	0x3c03081f	0.007997542
92	0xbdb6bfcb	-0.089233
93	0x3da04c35	0.07827035
94	0x3e2e6e2e	0.17034218
95	0xbdffbb97	-0.12486952
96	0x3d0b8023	0.034057748
97	0x3cbe32fa	0.023217667
98	0xbd03c191	-0.03216702
99	0xbd53f53c	-0.051747546
100	0x3e199699	0.14998855
101	0xbb1bd2c5	-0.0023776751
102	0x3dc464c4	0.09589532
103	0xbdb8bc17	-0.0902025
104	0xbe00197f	-0.12509726
105	0xbd9ebea8	-0.077512085
106	0xbd9c8be7	-0.07643872
107	0x3d481716	0.04885014
108	0xbbc99658	-0.0061519556
109	0xbd45e8af	-0.048317607
110	0xbd96972c	-0.073530525
111	0xbda14e99	-0.078763194
112	0xbcb0f98b	-0.021603366
113	0x3ca36f3f	0.019950507
114	0x3bc35384	0.0059608836
115	0x3d0e00cb	0.034668725
116	0xbde11d1f	-0.109918825
117	0x3e04f1cd	0.12982865
118	0x3d8b0cba	0.06789537
119	0xbb80b4a0	-0.003927782
120	0xbd768f7f	-0.060195442
121	0xbe377046	-0.17913923
122	0x3d7b1e3b	0.061308127
123	0x3e60630f	0.21912788
124	0x3ec13acf	0.3774018
125	0xbdf00d77	-0.11721318
126	0x3dc8eb20	0.098104715
127	0x3d2debce	0.04246121
128	0xbc999926	-0.018749785
129	0x3e02190a	0.12704864
130	0xbdce62dc	-0.1007745
131	0xbcfe041d	-0.03100782
132	0xbdbde878	-0.092728555
133	0xbd77f797	-0.060538854
134	0x3d250b78	0.04029414
135	0x3dbbbc0c	0.091667265
136	0xbdc4c64c	-0.096081346
137	0xbd8b3fc4	-0.06799272
138	0x3d36c4e4	0.044621363
139	0x3c714b6e	0.0147274565
140	0xbc95b1ab	-0.018273195
141	0xbd94f96e	-0.072741374
142	0x3e07154f	0.13191722
143	0x3cb8207e	0.022476431
144	0xbd735f14	-0.059416845
145	0xbd14bebf	-0.036314722
146	0xbd290802	-0.041267402
147	0x3dc2d1d5	0.095126785
148	0xbd860e9d	-0.06545756
149	0xbde6b548	-0.112650454
150	0x3e33cb53	0.17558031
151	0xbe71d939	-0.2361802
152	0xbde1f6ce	-0.110334024
153	0xbcef9905	-0.02924777
154	0x3d5a9bf7	0.053371396
155	0xbd5c5386	-0.05379059
156	0xbd7252c8	-0.059160978
157	0xbe777419	-0.24165381
158	0xbd960957	-0.07326
159	0x3d4061d0	0.04696828
160	0x3d546cee	0.051861696
161	0xbda42e76	-0.08016674
162	0xbddad66e	-0.106854305
163	0x3e0a7bd7	0.13523804
164	0xbdbf10ff	-0.093294136
165	0x3dfd60ec	0.12372002
166	0xbd0da55a	-0.03458152
167	0xbe08db24	-0.13364846
168	0xbd9fbef7	-0.078000955
169	0x3d2aadaa	0.041669525
170	0x3c704698	0.014665268
171	0x3e231acd	0.15928192
172	0x3df1442e	0.11780582
173	0xbcae8c2b	-0.021307072
174	0xbdf9e8f7	-0.12202638
175	0xbda2ede9	-0.07955534
176	0xbd52e70c	-0.051489875
177	0x3e2d9a00	0.16953278
178	0xbe41888a	-0.18899742
179	0xbde6d7fc	-0.112716645
180	0x3d9512ee	0.07279001
181	0x3ddd8b7b	0.108176194
182	0x3e45f052	0.19329956
183	0xbcfe370e	-0.031032111
184	0xbe323c74	-0.17405874
185	0x3c1cee69	0.009578326
186	0x3c40a4b9	0.011758023
187	0x3dd82612	0.10554136
188	0xbe058605	-0.13039406
189	0xbd7833d4	-0.060596302
190	0xbd911b4e	-0.07085286
191	0x3df170eb	0.117891155
192	0x3e24daa3	0.16099028
193	0xbd50fa1d	-0.051019777
194	0x3ce296be	0.02765977
195	0x3df3afa9	0.11898739
196	0xbd6c09a2	-0.057626374
197	0xbd83a8d5	-0.064286865
198	0x3d99927d	0.074986435
199	0x3cedf3b1	0.029046865
200	0xbda81a29	-0.08208115
201	0x3d02f50e	0.031971984
202	0xbdfa4d0b	-0.12221726
203	0x3dd7bfcc	0.10534629
204	0xbe0b1934	-0.13583833
205	0xbc91775d	-0.017757112
206	0xbe16ac3a	-0.14714137
207	0xbe788082	-0.24267772
208	0xbde3c5fa	-0.111217454
209	0x3e6445f4	0.2229231
210	0x3e232a9c	0.15934223
211	0x3e5c180a	0.21493545
212	0x3da63eb1	0.08117426
213	0xbec106a1	-0.3770037
214	0xbea7bc58	-0.32760882
215	0xbe22a348	-0.158826
216	0x3b348065	0.002754235
217	0x3c6deb6a	0.014521459
218	0x3e47a0cf	0.19494937
219	0x3dbbebe3	0.09175851
220	0x3c96e30f	0.018418817
221	0xbdce1f81	-0.10064603
222	0x3deba22a	0.1150554
223	0xbd482cde	-0.048870914
224	0xbdbaa99a	-0.0911438
225	0xbd45bf1b	-0.048277956
226	0x3cc44515	0.023958722
227	0x3e2abb1b	0.16672938
228	0xbd66e96a	-0.056374945
229	0x3d88039d	0.06641314
230	0xbda14561	-0.07874561
231	0xbdea18e3	-0.11430528
232	0xbe5a456a	-0.21315542
233	0xbddf6b58	-0.10909146
234	0x3d2b47ff	0.041816708
235	0x3dd796b6	0.10526793
236	0x3c03b3dd	0.008038488
237	0x3e2b5768	0.16732562
238	0xbc829835	-0.015941719
239	0xbdd9bb52	-0.10631432
240	0xbdac53ee	-0.08414446
241	0x3b544153	0.003238757
242	0xbdd492df	-0.10379576
243	0x3db8e48c	0.09027967
244	0xbe34d079	-0.17657651
245	0x3e57d4cb	0.21077268
246	0x3d977658	0.07395619
247	0x3e3571bb	0.17719166
248	0xbd15723b	-0.03648589
249	0x3e207707	0.15670405
250	0x3dc699e0	0.09697318
251	0xbcea60c8	-0.028610602
252	0x3df7ff92	0.12109293
253	0x3d966fe8	0.07345563
254	0xbdb9382e	-0.090439186
255	0x3bc8f403	0.006132604

conv_block2.0.bias f4 [10]
0	0x3e39c4d9	0.18141498
1	0xbc55d5a3	-0.013051423
2	0x3dd90d2d	0.10598216
3	0x3d8a9da6	0.0676835
4	0x3e2a468d	0.16628475
5	0xbc204112	-0.009781139
6	0xbdaf62a0	-0.08563733
7	0xbb1ecce5	-0.0024231013
8	0x3c9c700b	0.019096395
9	0xbdfb21b0	-0.12262285

conv_block2.2.weight f4 [10, 10, 3, 3]
0	0xbe2fd856	-0.1717237
1	0xbd7a28c4	-0.061074033
2	0xbc42cc58	-0.01188954
3	0x3e0d082e	0.13772652
4	0xbe18be51	-0.1491635
5	0xbdf1ffc3	-0.11816361
6	0x3dc5ec65	0.09664229
7	0x3e0519df	0.1299815
8	0x3d935d71	0.07195557
9	0xbd950e06	-0.072780654
10	0xbe0db451	-0.13838317
11	0xbcd07148	-0.025444642
12	0x3d42f703	0.04759885
13	0xbdd44bf3	-0.10366049
14	0x3d4f9a20	0.050684094
15	0x3ccd3138	0.025047883
16	0x3d94f030	0.07272375
17	0xbdd44b17	-0.10365885
18	0x3d9c01a3	0.076175
19	0xbe15ed35	-0.14641269
20	0xbd293dd8	-0.041318744
21	0x3d0fdd59	0.035123203
22	0x3d33d181	0.04390097
23	0xbd91c5d8	-0.07117814
24	0x3dce53ff	0.10074615
25	0xbc67df03	-0.014152291
26	0xbd00294d	-0.031289387
27	0xbdeb0264	-0.11475065
28	0xbdfcc2ba	-0.12341829
29	0x3db7bee1	0.08971954
30	0x3e0b06d8	0.1357683
31	0x3e1359d9	0.14389743
32	0xbdddc0e8	-0.108278096
33	0xbe3dcc8a	-0.18535057
34	0xbde2e387	-0.11078554
35	0xbdc0e287	-0.09418207
36	0x3dc4dccc	0.09612426
37	0x3d092273	0.03348012
38	0xbd8d234a	-0.068914965
39	0x3e5bd12e	0.21466514
40	0xbcba881d	-0.022769982
41	0xbdcc3b7e	-0.09972285
42	0x3e29813a	0.16553202
43	0xbda25918	-0.079271495
44	0x3d9ef099	0.07760734
45	0xbd88bd13	-0.06676688
46	0xbc54f21e	-0.012997178
47	0x3ce17bbc	0.027524821
48	0x3bc8cc3b	0.006127862
49	0x3de74e7a	0.11294265
50	0x3dc0117a	0.093783334
51	0xbca3c42d	-0.019991005
52	0x3e06df59	0.13171138
53	0xbd1f067e	-0.03882455
54	0xbcd1c9f0	-0.025608987
55	0xbd1493b8	-0.036273688
56	0x3d504762	0.050849326
57	0x3cb810d4	0.022468962
58	0xbd77c0a5	-0.060486455
59	0x3d664916	0.056222044
60	0x3ce65cdd	0.028120453
61	0x3d574926	0.052559994
62	0x3db4e729	0.08833153
63	0x3d52863a	0.05139754
64	0x3dc8dae6	0.098073766
65	0xbd2ce4d6	-0.042210422
66	0xbd643456	-0.055713974
67	0xbcce45db	-0.025179794
68	0xbd4f0ea8	-0.050551087
69	0x3dfade97	0.12249487
70	0x3db4f0cf	0.08834993
71	0xbda0824b	-0.078373514
72	0x3d29d74f	0.0414651
73	0x3b992d7c	0.0046746116
74	0xbdbb47b5	-0.091445364
75	0xbdaef93b	-0.08543631
76	0x3e0374c8	0.12837517
77	0x3d80e925	0.06294469
78	0xbd3271af	-0.04356545
79	0x3dcb660f	0.099315755
80	0xbd6f5519	-0.058430765
81	0x3db9cced	0.090722896
82	0x3daabdf5	0.08337013
83	0xbd7bd272	-0.061479993
84	0xbbb07170	-0.0053846166
85	0xbc3f8b10	-0.01169087
86	0xbd4df1dd	-0.050279487
87	0x3bdb1605	0.0066859745
88	0x3ce74314	0.028230228
89	0xbdb37bb1	-0.08763827
90	0xbd5c8cda	-0.053845264
91	0xbd2a260b	-0.041540187
92	0xbe08902c	-0.13336247
93	0xbd77819d	-0.060426343
94	0xbdbc440a	-0.09192665
95	0x3e04e439	0.12977685
96	0x3c887fac	0.016662441
97	0x3e42942f	0.1900184
98	0x3d4e87a0	0.05042231
99	0xbcdce4d8	-0.02696459
100	0x3d4b873a	0.04968951
101	0x3b820bc0	0.003968686
102	0xbd358271	-0.04431385
103	0xbd09eca8	-0.03367296
104	0x3d618525	0.055058617
105	0x3ccbf79c	0.024898343
106	0xbdf81a8d	-0.12114439
107	0xbd6658b7	-0.05623695
108	0xbd983d80	-0.07433605
109	0xbb86312a	-0.0040952163
110	0xbe07ed7e	-0.1327419
111	0xbd41cad2	-0.047312565
112	0xbe21f6b7	-0.1581677
113	0x3dde5193	0.10855403
114	0xbe5187cb	-0.20461957
115	0xbc006b66	-0.007838106
116	0x3d939cd8	0.0720765
117	0x3d28a4f2	0.04117293
118	0x3d2ad82d	0.041710068
119	0xbdd9860e	-0.10621272
120	0xbe01bf59	-0.1267065
121	0x3e54a3df	0.20765637
122	0xbd851c3c	-0.06499526
123	0xbdc35c65	-0.09539107
124	0xbe40f746	-0.18844327
125	0x3dc83a1e	0.0977671
126	0x3cd18ef4	0.02558086
127	0xbc4a45ea	-0.01234577
128	0x3d117224	0.035509244
129	0xbe1094bc	-0.14119238
130	0xbb8e0851	-0.0043344875
131	0x3e10fa75	0.14158042
132	0xbe022d6b	-0.12712638
133	0xbb0c2844	-0.0021386305
134	0xbc031596	-0.008000752
135	0xbdc95ccc	-0.09832153
136	0xbce48537	-0.027895553
137	0xbccd592e	-0.025066938
138	0xbe0466f2	-0.12929896
139	0x3c792b8a	0.015208134
140	0x3e1adfdc	0.15124458
141	0xbded71f7	-0.11594003
142	0x3d4aaf62	0.049483664
143	0x3c9fa768	0.019489005
144	0xbcbb4a6c	-0.022862636
145	0xbdd3ca01	-0.103412636
146	0x3d3e2b6e	0.046428137
147	0xbc9b69fc	-0.018971436
148	0x3da7c395	0.08191601
149	0x3d316efe	0.04331874
150	0x3c3b5190	0.01143302
151	0xbd2c6948	-0.04209259
152	0xbd37e60a	-0.044897117
153	0x3ceb4228	0.02871807
154	0xbda21aee	-0.07915293
155	0xbd1cfef8	-0.038329095
156	0xbe6f744a	-0.23384205
157	0x3d7c6ef4	0.06162925
158	0x3c67ab42	0.014139952
159	0x3c49bbec	0.0123128705
160	0x3e94f9f2	0.29096943
161	0xbe08e3ee	-0.13368198
162	0x3d352929	0.044228707
163	0xbd655e2d	-0.055998016
164	0xbe0eff8c	-0.13964671
165	0x3d848c63	0.06472089
166	0xbae4b170	-0.00174479
167	0xbe13f341	-0.14448263
168	0xbe5afb36	-0.21384892
169	0x3d8210f9	0.063508935
170	0x3d28cf56	0.041213356
171	0xbdd13ec0	-0.10217047
172	0xbdc701e2	-0.09717156
173	0x3dbc77db	0.09202548
174	0xbdb3519e	-0.087558016
175	0x3da4f495	0.08054463
176	0x3daeeac1	0.085408695
177	0xbdac93ff	-0.084266655
178	0x3d9c940c	0.07645425
179	0xbdd51cd0	-0.10405886
180	0xbd508fdd	-0.05091845
181	0xbdef7f53	-0.11694207
182	0xbdd4f312	-0.103979245
183	0x3db45438	0.08805126
184	0x3d98b472	0.07456292
185	0xbdd7265f	-0.105053656
186	0x3d3f8f1a	0.04676733
187	0x3e1b63c8	0.15174782
188	0xbdc9c3ce	-0.098518
189	0x3d2ebe6a	0.04266206
190	0xbdeec26d	-0.116581775
191	0xbdaa94c6	-0.083291575
192	0xbd99b5ce	-0.075053796
193	0x3d079d23	0.03310884
194	0xb9935b00	-0.00028105825
195	0xbdae14e1	-0.08500076
196	0x3e2a1054	0.16607791
197	0x3cdd29ca	0.026997466
198	0xbd87ea89	-0.06636531
199	0xbcb80a2e	-0.022465792
200	0x3dcd7387	0.10031801
201	0x3d835ac3	0.06413796
202	0xbd3c2094	-0.045929506
203	0xbdc8033d	-0.09766243
204	0x3e44d0e4	0.1922031
205	0x3db97005	0.09054569
206	0xbd1db88f	-0.038506087
207	0xbd5e106f	-0.05421489
208	0xbe384a18	-0.17997015
209	0x3c3fb130	0.01169996
210	0xbdb44fa9	-0.088042565
211	0x3dfece12	0.124416485
212	0xbdfb7c64	-0.12279585
213	0x3dda3bd4	0.106559426
214	0xbd1ff7ad	-0.03905456
215	0xbe2b7122	-0.16742375
216	0xbd670bb9	-0.056407664
217	0xbe526325	-0.20545633
218	0xbd917d8e	-0.07104026
219	0x3d11007c	0.035400853
220	0xbd90faf9	-0.07079119
221	0xbe30f739	-0.17281808
222	0x3bba0108	0.0056763925
223	0xbe0c2e1d	-0.13689466
224	0x3daa964f	0.0832945
225	0xbdf57610	-0.11985409
226	0xbdff3b9f	-0.12462544
227	0x3d182122	0.037140973
228	0x3e1a71ff	0.15082549
229	0xbe074561	-0.1321006
230	0xbc138a4e	-0.009005142
231	0xbcb3a669	-0.021929936
232	0xbdc37428	-0.095436394
233	0xbe0482ec	-0.12940568
234	0x3d8e6be9	0.06954176
235	0xbdbe6fde	-0.09298681
236	0xbd8a1b8a	-0.06743534
237	0xbc4fd318	-0.012684606
238	0xbda0d627	-0.07853346
239	0xbd557bdb	-0.05212007
240	0x3d4ef52c	0.050526783
241	0xbdc52ee4	-0.09628084
242	0xbd36b1f8	-0.044603318
243	0xbe2dd068	-0.16974032
244	0x3d90af53	0.070646904
245	0xbdb10ca6	-0.086449906
246	0x3d751b76	0.059840642
247	0xbe520663	-0.20510249
248	0x3db02e29	0.08602554
249	0xbe46beac	-0.19408673
250	0xbd703c9d	-0.058651555
251	0x3d951227	0.07278853
252	0xbd582449	-0.05276898
253	0x3d139848	0.0360339
254	0x3d121432	0.03566379
255	0xbd2eac5f	-0.042644855

conv_block2.2.bias f4 [10]
0	0x3de17f94	0.11010662
1	0xba485cb2	-0.0007643207
2	0x3dff70ec	0.1247271
3	0x3d1c27e1	0.03812397
4	0xbc9df071	-0.01927969
5	0xbd82998c	-0.06376943
6	0xbddbdd8f	-0.10735618
7	0x3e0b1a09	0.1358415
8	0x3da8bc2e	0.082390174
9	0x3d545fec	0.05184929

layer_stack.1.weight f4 [4, 10]
0	0x3e2c9c1b	0.16856425
1	0x3e774695	0.24148019
2	0x3d8b5e64	0.06805113
3	0x3d7c3e58	0.061582893
4	0xbe290182	-0.16504481
5	0xbdeab210	-0.11459744
6	0x3d2253c5	0.03963067
7	0xbe9e1b3c	-0.30880153
8	0xbe7511a3	-0.23932509
9	0x3e39cd0c	0.18144625
10	0x3ec02ae9	0.37532738
11	0xbe8179b9	-0.2528818
12	0x3cb2c8b6	0.021824222
13	0x3de456c8	0.11149365
14	0x3e7beffa	0.24603263
15	0xbe9a3020	-0.3011484
16	0x3e4394ce	0.19099733
17	0x3e76e561	0.24110939
18	0xbe737ef5	-0.23778899
19	0x3e881879	0.2658117
20	0x3c43dc60	0.011954397
21	0x3e8a81f3	0.27052268
22	0xbe361ff9	-0.17785634
23	0xbe962085	-0.29321685
24	0x3d6b91e8	0.057512194
25	0xbd3a2981	-0.045449737
26	0x3e7f9ffa	0.2496337
27	0x3c589ec5	0.013221447
28	0x3e952ce0	0.291358
29	0x3e5ce3d1	0.2157128
30	0x3c98da68	0.018658832
31	0xbe77341e	-0.24140975
32	0x3e6f60e7	0.23376809
33	0x3e864833	0.2622696
34	0xbd1fee56	-0.039045654
35	0xbd147946	-0.036248468
36	0xbe9ed2f8	-0.3102033
37	0xbcac559c	-0.021036915
38	0x3e152e99	0.14568557
39	0x3ea4116f	0.3204455

layer_stack.1.bias f4 [4]
0	0x3ea8d945	0.32978263
1	0x3de0ec9e	0.10982631
2	0x3e67ebf7	0.22648607
3	0x3d8b9e6f	0.06817328
