trained_agents/policy_net1600.pth (torch, 15822 bytes, 6 tensors)

fc1.weight f4 [64, 16]
000000 76 45 97 bc eb 6c 3c 3e 27 0c b8 bd 69 51 7a 3e
       -0.018465739 0.18400924 -0.08986693 0.24445118
000010 68 91 a8 bd b4 a2 38 3e af f4 e1 bd b2 6a 1b be
       -0.08230859 0.18030816 -0.11032998 -0.1517742
000020 75 e5 92 3e be 0c 83 be 16 08 1e be a2 44 67 be
       0.28690687 -0.2559566 -0.15432772 -0.22584775
000030 f8 14 e1 bd 7c 80 34 be 86 15 2f 3e 78 7d 05 bd
       -0.109903276 -0.17627138 0.17098054 -0.03259036
000040 d6 53 df 3d 23 4a 98 be 1b 23 84 3e ea 76 a5 be
       0.10904662 -0.29744062 0.25808033 -0.32317287
000050 47 8f 9c 3d 00 6e d6 bb 20 9d 87 3e ac ab ec 3d
       0.076445155 -0.0065438747 0.26487064 0.11556181
000060 b5 25 98 be 51 fc e4 3e 96 6b 75 3e 40 0f ca 3d
       -0.29716268 0.44723752 0.23966822 0.0986619
000070 ce 88 15 3e e2 66 96 3e 3e e4 c6 3d 64 0e 66 3e
       0.14602968 0.29375368 0.097115025 0.22466427
000080 dd 82 d1 3d 68 be 57 3d 9a f9 52 3e 4f a7 be bd
       0.10230038 0.05267182 0.20603028 -0.09309255
000090 ea 59 1b be 08 dc 3d 3d 64 4d 53 3c 2e 91 22 be
       -0.15171018 0.046352416 0.012896869 -0.15875694
0000a0 4a 9e 64 be 0b 0e 83 3e b4 7a c8 3d d8 0a 77 3e
       -0.22326007 0.2559665 0.09789029 0.2412523
0000b0 6e a2 40 be 28 86 69 be 01 ec 4f 3e 14 0c 1a 3e
       -0.18811962 -0.22805083 0.20304872 0.1504367
0000c0 2c 9b ef bd b9 f7 2d 3e 28 d2 40 3e f0 a7 a3 3d
       -0.116995186 0.1698903 0.18830168 0.07991016
0000d0 48 cb 10 3e dc 49 dc bd 96 98 02 3e 6c f6 ce 3d
       0.14140046 -0.10756275 0.1275352 0.10105595
0000e0 68 cf 1f 3d 6a 32 42 be 70 7c 8a bd c2 f3 3f 3e
       0.039016157 -0.18964544 -0.06762016 0.1874533
0000f0 b0 fa 09 be 2c 97 8f 3d 74 3c 62 be fa ea 3b be
       -0.13474536 0.070112556 -0.22093374 -0.18351355
000100 79 31 8b 3e 9b c1 be bd 25 c7 9a 3e 36 22 b0 bd
       0.27186182 -0.09314271 0.3023006 -0.08600275
000110 5d 95 20 3e 78 84 5e be f1 b9 3e be 18 c5 c3 bd
       0.15681978 -0.2173022 -0.18625619 -0.09559077
000120 c4 50 55 be aa 29 0a 3e a2 d2 c0 3d 28 07 50 3d
       -0.20831591 0.13492456 0.09415175 0.050788075
000130 6c 91 68 be f9 32 89 3e 81 98 ea 3e 1c 58 15 3e
       -0.22711724 0.26796702 0.45819476 0.14584392
000140 56 d9 00 3e 68 2d 6b bd c0 75 18 3e f8 8b 64 3d
       0.12582907 -0.05741635 0.14888668 0.055797547
000150 84 7b b5 bd 44 07 ca 3d 8c 09 ef bd 08 f0 4f 3e
       -0.08861449 0.09864667 -0.11671743 0.20306408
000160 25 6d 71 3d fc ea db bd 80 3f c2 bd da c5 37 3e
       0.05894198 -0.10738179 -0.09484768 0.17946568
000170 e4 3f 35 3e ea 4d 3d be 68 fb 0e 3d 88 a3 4b be
       0.17700154 -0.18486753 0.03490773 -0.19886601
000180 81 f4 b7 3d 3d d9 54 3e 7f ba 3b 3d f4 9c 5a be
       0.08982182 0.20785995 0.045832153 -0.21348935
000190 42 3e 3c be e0 96 03 bc 56 b9 3b be ea ef 7f 3e
       -0.18383124 -0.008031577 -0.18332419 0.24993864
0001a0 d9 1e 82 3c cd f3 04 3f 3c e4 8b bd a8 5b ee 3d
       0.01588385 0.5193451 -0.068306416 0.11638576
0001b0 76 43 49 3e ee 15 12 be fa f6 19 3e 80 a5 bd bc
       0.1965464 -0.14266178 0.1503562 -0.023150206
0001c0 c2 cb 3a 3d f0 21 21 3e fe 2b 8e 3d 02 92 d7 3e
       0.045604475 0.15735602 0.069419846 0.42103583
0001d0 e3 0b 06 be 4c 89 9b bd 8c a8 d9 bd 94 1e 82 3d
       -0.13090472 -0.07594547 -0.10627851 0.063534886
0001e0 6e 56 59 be 7b 19 dc bd 11 b9 f4 bd 76 13 0c be
       -0.21224377 -0.107470475 -0.11949361 -0.13679299
0001f0 86 bc 49 3e df 51 0f be e7 ce dd 3d 94 3f 97 3d
       0.19700822 -0.13996075 0.10830479 0.073851734
000200 be e1 da 3d 97 a0 24 bd 1c dc 16 3e 75 4a 22 3e
       0.10687588 -0.040192213 0.14732403 0.15848716
000210 80 1d 07 be ca 01 20 be ab 61 55 bd 20 04 9d bd
       -0.13194847 -0.15625682 -0.052095097 -0.076668024
000220 35 11 3d 3e 4e 27 e4 bd 99 46 14 3d 7c e9 a9 3d
       0.18463595 -0.11140309 0.03620014 0.08296487
000230 32 f5 63 3e ee 05 13 3e f4 8c 7d 3e 98 ea 26 3d
       0.22261503 0.14357731 0.247608 0.04075107
000240 0d 86 3b 3e 60 56 4b be 13 f6 42 3e 87 e0 48 be
       0.18312855 -0.19857168 0.19039182 -0.196169
000250 6d a9 fe 3d 1c c1 99 bd 12 1c a8 3e 2e 15 26 3e
       0.12434659 -0.07507536 0.32833916 0.16219017
000260 7e c8 19 be 5b 8a 49 be e3 92 58 3e 00 80 a1 b8
       -0.15017888 -0.19681685 0.21149783 -7.70092e-05
000270 48 c7 ac 3d 48 52 da 3e f8 cd 9f 3e 0a 26 5e 3e
       0.084364474 0.426409 0.3121183 0.21694198
000280 6b 87 23 be 80 05 fc bc ac db 88 bd 0b 84 ca bd
       -0.15969627 -0.030764341 -0.06682524 -0.098884664
000290 54 cd 9b 3e ac 94 22 be 72 bd a6 3e 68 d9 fb 3d
       0.3043009 -0.15877026 0.3256641 0.12297326
0002a0 d7 c7 35 be ab 7c 3d be 67 19 63 3e b0 30 88 3c
       -0.17752014 -0.18504588 0.22177659 0.016624779
0002b0 16 7c 4c be b9 6e ee bd 98 4b 4b be 40 a6 ae bb
       -0.1996921 -0.116422124 -0.19853055 -0.005329877
0002c0 68 a0 5c bd 47 09 80 be da 86 8e be d1 87 52 be
       -0.053863913 -0.25007078 -0.2783726 -0.20559622
0002d0 83 b5 cc bd 3c 58 79 3e fd 6c 00 3f ac bb 55 be
       -0.09995558 0.24350065 0.501663 -0.20872372
0002e0 0d e3 7f be de d0 82 be 5f 30 0c bd e0 98 c4 bd
       -0.24988957 -0.25549978 -0.034225818 -0.09599471
0002f0 40 2b 05 bd f0 d7 e0 3e d6 88 75 be 00 f4 5a be
       -0.03251195 0.43914747 -0.2397798 -0.21382141
000300 16 6d b7 3d 4c 05 39 be df 05 b3 3d 2e e7 63 be
       0.08956353 -0.18068427 0.08741354 -0.22256157
000310 c6 de 5b be a4 4a f1 3d 79 7a 13 3e 40 19 e5 bc
       -0.214717 0.11781815 0.14402188 -0.027966142
000320 50 84 75 3d 6c 8a 40 be d4 8c f8 bd 8a 3d 38 3e
       0.059940636 -0.18802804 -0.12136236 0.17992225
000330 dc 1f 7d 3e b0 26 11 3f 40 30 9d bd c0 ff e7 bd
       0.24719185 0.5669966 -0.076752186 -0.11328077
000340 eb e1 27 3e fd 00 49 be 44 12 c8 3d 7e 4a d9 3d
       0.16394775 -0.19629283 0.09769109 0.106099114
000350 78 17 36 be 84 83 fb bd 9b 1d a7 be f0 f7 a6 3c
       -0.1778239 -0.12280944 -0.32639775 0.020381898
000360 1f d6 d6 3d be 73 64 3e 1b 87 b2 be 8c 19 a0 3d
       0.10490059 0.22309777 -0.34868702 0.07817373
000370 ee 2e 35 be 1a 45 5a 3c c4 d6 e0 3e 38 0d 97 bd
       -0.17693684 0.013322139 0.43913853 -0.07375568
000380 9c 99 57 be 64 57 80 3d 31 ec 78 bc b8 ad 02 3e
       -0.21054691 0.062666684 -0.015193031 0.12761581
000390 1a e7 72 3d aa 6a 6a 3e 80 62 42 be e8 a9 45 bd
       0.059302427 0.22892252 -0.18982887 -0.04825774
0003a0 97 5c d2 3d e3 45 38 3d 54 8f 72 be 5c e7 95 bd
       0.10271566 0.044988524 -0.23687488 -0.07319519
0003b0 08 c9 ad bd 83 d7 ca bd 00 61 53 be 0e bc 4a be
       -0.08485609 -0.09904387 -0.20642471 -0.197983
0003c0 60 54 4e bc 34 a5 89 3d 24 14 4a be 18 2d 7e 3d
       -0.012593359 0.06720963 -0.19734246 0.062054724
0003d0 32 a3 77 be bc dd 29 be c0 14 fe bb 3c fb df bd
       -0.24183348 -0.16588491 -0.0077539384 -0.10936591
0003e0 e8 2f b2 3d a0 f0 0d bd 42 3f 1e 3e da b1 36 be
       0.08700544 -0.034653306 0.15453818 -0.17841282
0003f0 7c 8b fd 3d 1c da 11 be 20 47 18 be 54 42 e4 bd
       0.1238012 -0.14243358 -0.14870882 -0.111454636

fc1.bias f4 [64]
000000 87 ba 75 3e 0e ee 94 3e 61 36 5d 3e 64 58 60 be
       0.23996936 0.2908787 0.21602775 -0.21908718
000010 88 18 b6 3e ae 36 25 be 27 f1 0b 3e a5 07 39 3d
       0.3556559 -0.1613414 0.13666211 0.045173306
000020 d5 90 af 3e 4b 29 43 3e ca 92 91 3d d2 40 3e 3e
       0.34290186 0.19058721 0.07108076 0.18579414
000030 f4 c9 8e 3d 8f cd a2 3e ef 31 8e bd 02 cc 51 be
       0.06972113 0.31797454 -0.06943118 -0.20487979
000040 95 03 20 3e 8c 56 0c be c1 df 2c be b2 d0 73 be
       0.15626366 -0.1370489 -0.1688223 -0.2381008
000050 f9 50 99 bd 36 29 88 3d f7 b1 b7 3e be a9 71 be
       -0.074861474 0.06648485 0.35877964 -0.23599908
000060 23 0f 4a bd 01 8e 05 3d 5f 4e e0 3d 14 c2 79 bb
       -0.04933084 0.03260613 0.10952448 -0.0038110064
000070 61 63 9a 3e 0d 78 41 bd 9f 83 89 3e 8e ee 88 3d
       0.30153945 -0.04723363 0.2685823 0.06686126
000080 f7 ba 32 bb cd 1b ae 3b da b2 00 3e e5 9a 1a 3e
       -0.0027272084 0.0053133727 0.12568226 0.1509815
000090 7f 93 89 3e c2 2a ce 3d a9 58 a8 3e 6a 5a 4f 3d
       0.26870343 0.10066749 0.32880142 0.050623335
0000a0 a1 f6 44 3e 86 21 80 3e d0 0e 7b be 16 04 d6 3d
       0.19234706 0.25025576 -0.2451737 0.10449998
0000b0 7c a2 34 3e 46 47 95 3c 54 50 fa bd 85 3d 3d 3e
       0.17640108 0.018222462 -0.122223526 0.18480499
0000c0 a1 b3 82 3d 1f 65 5e be 24 9c 08 be 10 94 93 3d
       0.06381918 -0.21718262 -0.13340813 0.07205975
0000d0 a7 76 d4 bd 96 b9 96 3d 50 28 de 3d e2 93 35 be
       -0.10374194 0.073596165 0.10847533 -0.17732194
0000e0 2b c4 00 be e0 c2 6c be 0b 61 ce 3d 87 2c f2 3c
       -0.12574832 -0.23121214 0.10077103 0.029562248
0000f0 e7 ef 1b bc b1 d5 fd bd 57 07 f1 bc 72 b8 86 3d
       -0.009517646 -0.12394274 -0.029422445 0.06578149

fc2.weight f4 [32, 64]
000000 30 75 a6 39 98 89 43 3d 63 1f dd 3b bb 63 80 3d
       0.000317493 0.04773864 0.0067481264 0.06269022
000010 e9 fc a7 3b 79 60 0d 3e bf 6c 69 3c 20 25 48 bd
       0.005126585 0.13806333 0.0142471185 -0.04886353
000020 9b f4 7c bd 8c 04 4d 3d cc 3e d8 3d 33 7c 81 3d
       -0.06175671 0.050053164 0.105588526 0.06322517
000030 0e 1e 73 be f5 13 b8 bd 7a 99 1b 3c 88 cd 5d bd
       -0.23741934 -0.089881815 0.009497041 -0.054151088
000040 c4 cf 14 3e cd b6 01 3d 1c d4 b6 3d 5e cb 65 bd
       0.14532381 0.031668473 0.089271754 -0.05610215
000050 d2 72 f7 bd db 07 91 bd 28 bb 82 3e ab 65 6d 3e
       -0.12082447 -0.070815764 0.25533414 0.23183315
000060 b4 2d b2 3d 63 57 be 3b 15 1f 9b bd 65 d4 6f bd
       0.087001234 0.005808757 -0.07574288 -0.058552165
000070 cf da 02 3e 55 a0 92 3a 66 61 8b 3b af 16 80 3d
       0.12778781 0.0011186699 0.004253554 0.062543266
000080 e1 cc b3 3d 39 d9 1a 3e af db d6 bc d6 2c 8f bc
       0.08779312 0.15121926 -0.0262278 -0.017477434
000090 75 d5 c8 3d b6 3e ca 3d c0 9d af 3d 5b 8b 99 bd
       0.09806339 0.098752424 0.0857501 -0.07497283
0000a0 ab 75 06 3e 88 58 ed 3d 18 60 97 bc 59 8b d9 3e
       0.13130824 0.115891516 -0.018478438 0.42489126
0000b0 c6 30 d2 3d 83 27 3e 3e a3 e5 ca 3d 3a fd 1b 3e
       0.10263209 0.1856976 0.09907081 0.15233317
0000c0 14 e3 5b 3e d0 06 49 3d 5c fe 8e 3d 31 f6 2f bd
       0.21473342 0.049078763 0.06982109 -0.042959396
0000d0 29 c1 6e 3e 7e 7f 9f bc df ab 84 bd 88 0d 21 3d
       0.23315872 -0.019469973 -0.06478094 0.039319545
0000e0 8f 53 a3 3d 34 9e 61 3d 9d 4a 85 3e 89 ad 18 3b
       0.07974922 0.055082515 0.26033488 0.0023296794
0000f0 27 ce 73 3d 95 35 8d 3e b8 64 9b 3d 83 7f 04 3e
       0.059522774 0.27579942 0.0758757 0.12939267
000100 10 e4 78 bd 2f f9 f6 3c 4c 11 48 bd d0 b0 e2 3c
       -0.060764372 0.030148117 -0.04884462 0.027672201
000110 06 b2 8f 3d 58 3f fa bc 00 e6 05 bd 7e 90 ab bd
       0.07016377 -0.030547783 -0.03269005 -0.08377169
000120 ed 72 40 bd a2 fb dd bd 99 a9 11 be 99 ce 87 3d
       -0.0469846 -0.10839011 -0.14224853 0.06631202
000130 28 b6 53 bc eb ed b7 bd 4e 18 5b 3d 9a fc dd bd
       -0.012921847 -0.08980926 0.053489976 -0.108391955
000140 2d a3 b2 bb 44 8d c2 bd 92 92 df 3d 10 a3 6d 3c
       -0.005451581 -0.094996005 0.10916628 0.014504209
000150 5c ff 65 3d c8 40 2e 3d 32 23 90 bd fe be 88 3d
       0.056151733 0.04254225 -0.07037963 0.06677054
000160 b6 8f 7b bd b0 c8 84 bd 24 4a b4 3d dc 34 8c bd
       -0.06141635 -0.064835906 0.08803204 -0.068460196
000170 4d 16 5b bd c4 c4 17 3d 42 f1 46 bd 1b 03 19 be
       -0.053488065 0.037052885 -0.048569925 -0.14942591
000180 61 d4 a6 3c 10 91 87 bc d0 75 b1 bd e1 5f e1 bc
       0.020364942 -0.016548663 -0.08665049 -0.027511539
000190 b1 33 01 be 53 72 5b bd 33 0f 86 3b 1e 4c ad bd
       -0.12617375 -0.053575825 0.0040911674 -0.08461784
0001a0 ad 04 4d 3c b7 58 41 bc 4e f5 ae bd b6 b2 8d bc
       0.012513322 -0.011800936 -0.08542882 -0.01729713
0001b0 3c 14 d1 bd 66 d9 bf 3d 22 12 b1 bd c2 ab a0 bd
       -0.102089375 0.09367637 -0.08646037 -0.0784526
0001c0 0d 8d be bc 00 cd 13 3d 9a 85 d6 bd c9 73 93 3c
       -0.023260618 0.036084175 -0.10474701 0.017999547
0001d0 86 08 98 3d d6 40 bc 3d 50 7d 4d 3d 80 2a f0 bc
       0.07423501 0.09192054 0.050168335 -0.02931714
0001e0 a0 7f 0a bd 5e 09 be bd 28 70 56 bd 20 c3 b4 3b
       -0.03381312 -0.092791304 -0.052353054 0.005516425
0001f0 37 34 b6 bd 62 f5 e8 bd 0d d7 1f be a6 34 a0 bd
       -0.08896678 -0.11374928 -0.15609379 -0.07822542
000200 b1 3a b7 3d 58 d7 b9 3d 90 3d 24 3e 3c 26 08 3d
       0.08946741 0.09074277 0.16039109 0.03323959
000210 57 a9 82 3d 68 2d 30 bd 32 0a 45 bd 55 2e 49 bd
       0.06379955 -0.043012053 -0.048105426 -0.04911645
000220 0d d0 34 3e 31 ec 0a 3e 99 fc 32 3d 1a 08 90 bd
       0.1765749 0.13566662 0.043697927 -0.07032795
000230 a3 90 1c 3e 54 d7 bf 3d 1f 90 68 bd f6 6e a9 3d
       0.1528955 0.093672425 -0.05677807 0.08273117
000240 45 6c 04 3d 95 37 47 3d 65 bb 87 bd c7 99 c4 bc
       0.032329816 0.04863699 -0.066275395 -0.023999108
000250 80 d4 b7 3d 26 72 e1 3c d1 c8 f8 3d d1 35 a1 3a
       0.08976078 0.02752025 0.12147678 0.0012299364
000260 7d 07 06 3e 33 6d 3c 3e 07 75 fe 3d f9 ff 18 3e
       0.13088794 0.18401031 0.12424665 0.14941396
000270 43 2d bf 3d 3a a0 b7 bd b3 2d 1f 3e f4 14 60 3e
       0.09334805 -0.08966108 0.15544777 0.21882993
000280 fc fb cc 3d b9 15 94 bd 13 40 3c 3d af 8a 48 3d
       0.10009 -0.07230706 0.045959543 0.048960384
000290 1e c3 bd 3d b8 a2 9e 3d bb bb ce 3d c9 27 69 3e
       0.09265731 0.0774588 0.100944005 0.22769083
0002a0 cf b7 3c 3e fc 92 66 3d 24 85 35 3d 5f 72 2a 3c
       0.18429492 0.05629252 0.044316426 0.010403245
0002b0 9d 8c 14 3c 1a cd bf 3c 25 8f c4 bd d7 59 b2 3c
       0.009066728 0.02341323 -0.09597615 0.021771355
0002c0 87 5e f4 bc 22 c6 9b bd cb 5c 18 3e a9 1c 80 3d
       -0.02983023 -0.0760615 0.14879148 0.062554665
0002d0 cc 25 17 be 53 d8 a6 bd 66 57 6b bd 0f 28 9b 3d
       -0.14760512 -0.08146729 -0.057456397 0.07576
0002e0 1b 3d fc 3c 00 bb 0b bb 56 83 54 bc f1 55 17 bd
       0.030790856 -0.0021321177 -0.012970766 -0.036947194
0002f0 8b 35 00 3c b0 e6 62 bd 39 4a 86 3d 1c 98 b0 3d
       0.007825266 -0.055395782 0.065571256 0.086227626
000300 aa d5 09 3e 2b fe 25 be 1f af 40 3c 27 67 e8 3c
       0.13460413 -0.16210239 0.011760502 0.0283695
000310 86 e2 81 bc 97 72 18 3d e9 56 3c 3d f4 d5 4f 3e
       -0.015855085 0.037218656 0.04598132 0.2029646
000320 a6 c1 45 3e bf 95 bf bc d6 ab f9 3d 18 99 79 bd
       0.19312152 -0.023386834 0.12190978 -0.060937017
000330 f7 f7 16 be d1 fb 44 3e b4 54 16 3d 4c 0a da 3d
       -0.14743029 0.19236685 0.036701873 0.10646495
000340 14 53 35 3e 1e cc 4a bc 15 9b 8b 3c 04 52 ac 3d
       0.17707473 -0.012377767 0.017041722 0.08414081
000350 de 61 8e 3c 16 24 8c 3e a3 dc 92 bd 5b 62 2f 3e
       0.017380651 0.2737128 -0.07170989 0.17127363
000360 7f 0a b4 3d f1 d2 81 3e 55 31 0b 3e c5 33 2a 3e
       0.087910645 0.25356248 0.13593037 0.16621311
000370 e7 e4 e4 3d eb 5d 18 bd 20 ef a6 3e 6b 9c ff 3d
       0.11176472 -0.037198942 0.32604313 0.12481006
000380 7c 17 19 3c e4 66 55 3e b9 87 f9 3d f4 4d b0 3d
       0.009343978 0.20840031 0.1218409 0.086086184
000390 74 88 1c 3d 99 cc 44 3d 1d bb 9f bb 46 ed 3c bd
       0.03821607 0.048046682 -0.0048746006 -0.04612472
0003a0 6f 7b 2e 3e 53 9a 93 3d 18 72 f6 bd bc d2 6c bd
       0.17039274 0.072071694 -0.120334804 -0.05781816
0003b0 b7 3f cc 3c 78 3a f1 3d ff 4e f2 3d 4d 98 7c 3e
       0.024932725 0.1177873 0.118314736 0.24667473
0003c0 69 9c cd 3d 78 b8 dc bc a9 20 7a 3c f2 2e bf 3d
       0.100395985 -0.02694343 0.015266576 0.09335126
0003d0 69 e8 d7 3c 9d 63 19 3e 7f 1a 09 3d 4f dc 71 bc
       0.026355939 0.14979406 0.033472534 -0.014761998
0003e0 cb 61 26 bd c2 fb ca bd c7 19 b1 3d 7c 34 fe 3d
       -0.040620606 -0.099113 0.08647495 0.12412354
0003f0 e7 fd a7 3a ce 4a 40 3d 5c ca ed bb c0 b9 12 3e
       0.0012816758 0.04694634 -0.007256789 0.1432867

fc2.bias f4 [32]
000000 ce 10 73 bd f1 98 c6 bd 59 40 ee 3d de 7e 90 3c
       -0.059342198 -0.0969714 0.11633367 0.01763862
000010 c4 f9 44 bd 50 ae ef bd 25 22 42 3d 4a 6f 93 bd
       -0.048089758 -0.11703169 0.047395844 -0.07198961
000020 39 97 39 3d 43 a1 f8 bc 4b 1e 31 3d 0a 43 f6 3d
       0.045310233 -0.030350333 0.04324178 0.120245054
000030 3c 3c 7b bd 3c 54 fa bd fe f2 30 bd f2 46 8f 3d
       -0.06133674 -0.12223098 -0.043200485 0.069959536
000040 0c c2 8a 3d d8 65 bd bd 3f 79 1d be f5 55 c5 3c
       0.06775293 -0.09247941 -0.15378283 0.02408884
000050 ee ce 49 3e 30 37 22 bd fb a1 44 3d 45 e7 df 3c
       0.19707844 -0.039603412 0.04800604 0.027331958
000060 82 92 36 bd 2a 45 b2 bd dc 6f 1c bb 0f 3b 07 3e
       -0.044573314 -0.08704598 -0.0023870384 0.13206123
000070 be c7 df bd 85 7e 41 3e 20 57 0b bc 72 f4 82 3b
       -0.1092677 0.1889592 -0.008504659 0.0039964253

fc3.weight f4 [4, 32]
000000 90 e5 f4 3d 4f 08 01 3e 54 4f 1c 3d 20 1b 60 3e
       0.11957848 0.12600826 0.03816159 0.21885347
000010 a3 8d 19 3e a0 d0 94 bd 2a bd eb 3d 9c f9 23 be
       0.14995436 -0.072663546 0.115106896 -0.16013187
000020 ed f9 00 3d 03 bc 9e bd 1f ad 5b 3c 22 c2 11 3e
       0.031488348 -0.07750704 0.0134079745 0.14234212
000030 00 28 6f 3a cb b9 9c 3d 8b bb ec bb 14 51 cb 3d
       0.0009123087 0.07652625 -0.0072245053 0.09927574
000040 92 2a 24 3e 00 d4 c4 39 f4 1a 40 3d cb ef 63 3e
       0.16031864 0.00037541986 0.046900705 0.22259443
000050 e1 3d a1 bc 17 bb d7 bc f3 e4 98 bb 88 55 ef bc
       -0.019682826 -0.026334329 -0.0046659647 -0.02921559
000060 c7 f6 34 bd 54 48 7d 3d 33 95 b4 be 5e 6e a7 3d
       -0.044180658 0.061836556 -0.3527008 0.08175348
000070 9d 02 8a bd db 41 b5 3d b0 39 8a bd de 0d fb bd
       -0.0673878 0.088504516 -0.06749284 -0.12258504
000080 5f 05 15 3d 57 4a 63 3c 45 96 40 3e 02 59 28 be
       0.036382075 0.0138727045 0.18807323 -0.16440204
000090 d7 d7 21 3e 91 de 09 be c7 4c 2b bd 00 2f 18 3c
       0.15804993 -0.13463809 -0.041821267 0.009288549
0000a0 5d b6 3b bd 2e 02 29 3d 53 38 f5 3d d6 57 62 3d
       -0.045828212 0.041261844 0.119736336 0.055259548
0000b0 26 24 c7 3d 2a 27 20 3d 78 20 4d 3d 54 c8 89 3e
       0.09723692 0.03909985 0.050079793 0.2691065
0000c0 16 50 4e bd 38 9a f1 3c 99 5a 91 3d fa 86 f2 3d
       -0.050369345 0.029492483 0.07097358 0.11842151
0000d0 57 3d 03 3e 37 d0 4c be 9a 4c 8c 3c 3d 5b e4 bc
       0.12816368 -0.20001303 0.01712637 -0.027875537
0000e0 9f a6 58 be a0 5d 8b bd 4a 7c bb 3d 4a 16 c3 3d
       -0.21157311 -0.06804967 0.09154566 0.09525736
0000f0 6c 1a 12 be eb 41 6b 3e 8a 5d d5 3d 98 58 af 3d
       -0.14267892 0.22974364 0.10418232 0.0856182
000100 7e 71 1f be 99 60 da 3c 8a b6 45 3e f6 1e a6 3d
       -0.15570638 0.02665739 0.19307914 0.08111374
000110 e0 53 16 bc f3 9f 05 3e 7f 5b 57 3e 86 03 e8 3d
       -0.009175271 0.13049297 0.21030997 0.11328797
000120 f7 24 64 bd fb 4a 29 bd ac bc 4f 3e 63 8a 22 bd
       -0.055699315 -0.041331273 0.20286816 -0.039682757
000130 ad e7 18 3e 4e db cd bd ab 66 00 be 4c a4 14 be
       0.14932127 -0.10051595 -0.12539165 -0.145158
000140 50 27 24 bd 00 bd 98 3a 4e 41 29 be f9 64 f5 3d
       -0.040076554 0.0011653006 -0.16528818 0.1198215
000150 dc 8e df 3d f1 27 5b bb b6 2e 36 bc f9 01 83 3d
       0.1091592 -0.0033440555 -0.011119535 0.06396861
000160 f1 77 03 3e eb 37 24 be d7 a5 fb 3d e0 ca 48 3e
       0.12838723 -0.16036956 0.12287491 0.1960864
000170 9c f8 3f bd 22 ac 0c 3e e6 3a c5 3d f1 bb af 3d
       -0.04686795 0.13737538 0.096303746 0.08580769
000180 91 8d ad 3d cb dd 82 bd 9b bf 1e 3e 11 80 8d 3d
       0.08474267 -0.0638996 0.15502779 0.06909192
000190 02 e1 e8 3d 82 84 d5 3d 46 54 fc bc e1 33 30 3e
       0.11371042 0.104256645 -0.030801903 0.1720729
0001a0 4b f0 ac 3d 0b d0 0e be 7c 3a d6 be cc a7 49 3d
       0.0844427 -0.1394655 -0.41841495 0.04923229
0001b0 66 61 be 3d 70 f9 ee 3d 19 16 c3 3d 0f 2b f4 3d
       0.09295921 0.1166867 0.09525699 0.11922275
0001c0 35 27 99 bc 92 b5 11 be 31 76 e3 bd 10 e6 27 bc
       -0.018695453 -0.1422942 -0.111065276 -0.010247722
0001d0 46 76 01 bd c1 69 2c 3e 3d d9 03 be 87 92 d1 3d
       -0.031606935 0.16837217 -0.12875839 0.10233026
0001e0 2a bd e2 3d 80 dd db ba d1 fa 01 3e 04 22 5d bd
       0.110712364 -0.0016774386 0.12693335 -0.053987518
0001f0 da 8e b0 bd bd 92 1e 3e f4 32 4f bd 10 da f1 bd
       -0.08620997 0.15485664 -0.050585702 -0.1180917

fc3.bias f4 [4]
000000 92 ff 43 bd b5 e3 01 3d e6 82 d9 bc 2a 61 17 3e
       -0.047851153 0.0317113 -0.026551675 0.14783159
